experiments/diffeomorphism_effects/models/spiral/i_resnet_euclidean_product_100_blocks_10_int_features_20_epochs_False_subspace_reg_True_isometry_reg.pt (torch, 802510 bytes, 1000 tensors)

i_resnet_layers.0.bottleneck_block.0.bias f4 [10]
0	0xbeba35f5	-0.3636929
1	0xbe39be9b	-0.18139116
2	0x3f1cdfd6	0.61279047
3	0x3e46c033	0.19409256
4	0xbe4ef6f9	-0.202114
5	0xbe864797	-0.26226494
6	0x3edceb27	0.43148157
7	0x3d536325	0.051608223
8	0xbef7aee9	-0.48375633
9	0xbeb91706	-0.36150378

i_resnet_layers.0.bottleneck_block.0.weight_orig f4 [10, 2]
0	0xbed1d3d6	-0.4098193
1	0x3e975d14	0.295632
2	0x3f2e0f2d	0.67991906
3	0xbef12199	-0.47095945
4	0xbf2febbb	-0.6871907
5	0x3da1020a	0.07861717
6	0xbf1d7483	-0.6150591
7	0x3f02924b	0.51004475
8	0xbf26a604	-0.6509707
9	0x3f233258	0.63748693
10	0xbc8e7ab1	-0.017392488
11	0xbe6c68a2	-0.23086789
12	0x3f1cd497	0.61261886
13	0xbec7ff95	-0.3906218
14	0xbec22be7	-0.3792412
15	0x3ed89bf0	0.4230647
16	0x3e81930e	0.25307506
17	0x3f20494c	0.6261184
18	0x3eba0489	0.36331585
19	0x3e8dc899	0.27692106

i_resnet_layers.0.bottleneck_block.0.weight_u f4 [10]
0	0x3e877c9c	0.26462257
1	0xbedda61a	-0.43290788
2	0x3e9ffb0c	0.3124622
3	0x3ed614be	0.418127
4	0x3ef255e1	0.47331145
5	0xbd8606c0	-0.06544256
6	0xbec24d95	-0.37949815
7	0x3e957d61	0.2919722
8	0x3dbac14a	0.09118898
9	0xbd84f402	-0.06491853

i_resnet_layers.0.bottleneck_block.0.weight_v f4 [2]
0	0xbf4c94f9	-0.79914814
1	0x3f19e3ee	0.6011342

i_resnet_layers.0.bottleneck_block.2.weight_orig f4 [10, 10]
0	0x3cf370b4	0.029716827
1	0xbe8fc608	-0.28080773
2	0x3e703f6f	0.23461698
3	0x3e85ed63	0.26157674
4	0x3e871af3	0.26387748
5	0xbe3e2364	-0.18568188
6	0xbe8b853a	-0.2725008
7	0x3e61fce8	0.22069132
8	0x3d743810	0.059623778
9	0x3df01a05	0.11723713
10	0xbe0f5f95	-0.14001305
11	0xbe823bb6	-0.2543618
12	0x3d7cb7e0	0.061698794
13	0x3e21c1b6	0.15796551
14	0x3e567a39	0.20945062
15	0xbdcfd9ee	-0.10148989
16	0x3d0c5e27	0.03426948
17	0x3e2d143e	0.16902253
18	0x3e9afbdb	0.30270275
19	0x3dc969ab	0.09834608
20	0xbcc7b245	-0.024376998
21	0xbe32e032	-0.17468336
22	0x3e36254c	0.17787665
23	0x3e522561	0.20522071
24	0xbe5f0b37	-0.21781622
25	0xbe825f6a	-0.2546342
26	0xbe74244d	-0.23841973
27	0x3e1140eb	0.1418492
28	0xbe14d7ad	-0.14535399
29	0xbe7d6d1e	-0.24748656
30	0xbda85d24	-0.0822089
31	0xbc7f2617	-0.015573046
32	0x3e71d63f	0.23616885
33	0x3e2eb0b6	0.17059597
34	0x3e77e578	0.24208629
35	0x39ab8e61	0.00032721742
36	0x3de595f4	0.11210242
37	0xbd8ba95e	-0.068194136
38	0x3e2f679f	0.17129372
39	0xbdda77af	-0.10667359
40	0x3db22ca3	0.0869992
41	0xbe95776e	-0.2919268
42	0xbd50c6e4	-0.050970927
43	0xbe8f07ce	-0.27935642
44	0xbe65b8be	-0.22433755
45	0xbe180ede	-0.14849421
46	0x3e2656f8	0.16244113
47	0x3e935a22	0.28779703
48	0x3ead1b37	0.33809826
49	0x3e4f2149	0.20227541
50	0xbe48a554	-0.19594318
51	0x3e6c6687	0.23085986
52	0xbe6ddc17	-0.23228489
53	0xbe94db65	-0.29073635
54	0xbddbb4a9	-0.107278176
55	0xbea5fb88	-0.32418466
56	0xbe1a05e1	-0.15041305
57	0xbe3d9490	-0.18513703
58	0x3e536844	0.20645243
59	0x3dbf1b66	0.09331398
60	0x3bf27410	0.0073990896
61	0xbe6b7c65	-0.22996671
62	0xbc65686d	-0.014001948
63	0x3e317209	0.17328657
64	0x3e66d246	0.2254115
65	0xbe521dbd	-0.20519157
66	0x3c1ea518	0.009682916
67	0x3e58178d	0.21102734
68	0xbe66851a	-0.22511712
69	0x3e852ed3	0.26012287
70	0x3e5957a5	0.2122484
71	0x3e58b63d	0.21163268
72	0xbe7554e3	-0.23958163
73	0x3d5fe5b3	0.054662418
74	0xbdb90867	-0.09034806
75	0xbea131ae	-0.31483215
76	0xbda36fe7	-0.07980328
77	0xbe67ffe3	-0.22656207
78	0xbc175e6b	-0.00923882
79	0x3e9335cd	0.28751984
80	0xbe57e945	-0.21085079
81	0x3ebad39a	0.36489564
82	0x3e0d571a	0.13802758
83	0x3e15eaa6	0.14640293
84	0x3e217954	0.1576894
85	0xbe272637	-0.16323172
86	0xbcec7836	-0.028865915
87	0xbdc1e072	-0.09466638
88	0xbe2e8b10	-0.17045236
89	0xbc967635	-0.018366912
90	0xbcceff7d	-0.02526831
91	0xbe476c78	-0.19474971
92	0xbc9b130d	-0.018929983
93	0x3e617e28	0.22020781
94	0x3dd0f8e3	0.102037214
95	0xbe82f773	-0.25579414
96	0x3d8f4423	0.06995418
97	0xbe1eadaf	-0.15495943
98	0xbeab53b0	-0.33462286
99	0x3df336a2	0.11875655

i_resnet_layers.0.bottleneck_block.2.weight_u f4 [10]
0	0xbf10ffa0	-0.5664005
1	0xbeb013bc	-0.34390056
2	0xbe92bc5b	-0.2865933
3	0xbe4ce4f5	-0.20009215
4	0x3b36ba50	0.0027882047
5	0x3ec8178a	0.3908046
6	0xbed51010	-0.41613817
7	0x3e57f8ff	0.21091078
8	0xbb1a6a96	-0.0023562065
9	0xbe85dc57	-0.26144668

i_resnet_layers.0.bottleneck_block.2.weight_v f4 [10]
0	0x3cd27308	0.025689617
1	0x3f0c8fa1	0.5490666
2	0xbeb9f7b8	-0.36321807
3	0xbf002740	-0.5005989
4	0xbebd2abd	-0.3694667
5	0x3e26d9ee	0.16294071
6	0x3db0d201	0.08633805
7	0xbeb6aaec	-0.35677278
8	0x3dfdb911	0.12388814
9	0xbd3fe13c	-0.04684566

i_resnet_layers.0.bottleneck_block.4.weight_orig f4 [2, 10]
0	0x3e35cf44	0.17754847
1	0x3e84358f	0.25822112
2	0xbead1bb8	-0.3381021
3	0x3bc06bbd	0.0058722184
4	0x3c28a2de	0.010292737
5	0x3e805485	0.25064483
6	0x3d9f7c44	0.07787374
7	0x3e2141ff	0.15747832
8	0xbd11d7d5	-0.035606224
9	0xbdd35928	-0.103197396
10	0xbea8aaec	-0.32942903
11	0x3e369b45	0.17832668
12	0xbe2d815a	-0.16943875
13	0xbe6a6e8a	-0.2289373
14	0x3e3b9d60	0.18321753
15	0xbd3c6684	-0.045996204
16	0xbe87d76d	-0.26531544
17	0x3d0b9a6a	0.034082808
18	0xbe0fdf64	-0.1405006
19	0xbd8b9c84	-0.06816962

i_resnet_layers.0.bottleneck_block.4.weight_u f4 [2]
0	0xbf005b73	-0.5013954
1	0xbf5d7ef2	-0.8652183

i_resnet_layers.0.bottleneck_block.4.weight_v f4 [10]
0	0x3ea4d2f9	0.3219221
1	0xbeee7851	-0.4657617
2	0x3f04e500	0.51911926
3	0x3ea415a2	0.32047755
4	0xbe899e50	-0.26878595
5	0xbe107c67	-0.14109956
6	0x3ea034f5	0.31290403
7	0xbe3669df	-0.17813824
8	0x3e6a55e8	0.22884333
9	0x3e3a3af2	0.18186548

i_resnet_layers.1.bottleneck_block.0.bias f4 [10]
0	0x3e53c3f0	0.20680213
1	0xbe4a3f2f	-0.19750665
2	0xbdb4f99c	-0.08836672
3	0x3f25c2b1	0.647502
4	0xbe856a8c	-0.2605785
5	0x3e62175b	0.22079222
6	0x3e9a9e27	0.30198786
7	0x3e76bdad	0.24095793
8	0x3f114940	0.56752396
9	0xbe27696b	-0.16348808

i_resnet_layers.1.bottleneck_block.0.weight_orig f4 [10, 2]
0	0xbd87cc69	-0.06630785
1	0x3f0621c3	0.52395266
2	0xbe08b2b6	-0.13349423
3	0x3ec2c944	0.38044178
4	0x3f0b20d9	0.54346997
5	0xbc8aba51	-0.016934546
6	0xbf08eff7	-0.5349116
7	0x3f185549	0.59505135
8	0x3eb3f451	0.35147336
9	0xbf17c5ea	-0.5928637
10	0x3ed287da	0.41119272
11	0xbebb5423	-0.3658763
12	0x3f2630cf	0.64918226
13	0xbeb507a4	-0.35357392
14	0x3f2bb84d	0.67078096
15	0x3f23eb9b	0.6403138
16	0xbf2bb65b	-0.6707513
17	0x3f09829c	0.5371492
18	0x3efde34d	0.4958748
19	0xbf1a0aa9	-0.60172516

i_resnet_layers.1.bottleneck_block.0.weight_u f4 [10]
0	0x3e5dfb77	0.21677957
1	0x3e418066	0.18896636
2	0xbe542cb9	-0.20720185
3	0x3ed5108c	0.41614187
4	0xbeb1ed1e	-0.3475122
5	0xbe929c2d	-0.28634778
6	0xbebd5214	-0.36976683
7	0xbc552ed3	-0.013011652
8	0x3ee3eba6	0.44515723
9	0xbecef215	-0.4041907

i_resnet_layers.1.bottleneck_block.0.weight_v f4 [2]
0	0xbf35b40d	-0.7097786
1	0x3f34552f	0.7044248

i_resnet_layers.1.bottleneck_block.2.weight_orig f4 [10, 10]
0	0xbd3b4b37	-0.045726027
1	0x3dcc49c5	0.09975008
2	0xbdb32289	-0.087468214
3	0xbe8ec07b	-0.27881226
4	0xbd89f02e	-0.06735264
5	0xbd34b3e3	-0.044116866
6	0x3d9a4036	0.075317785
7	0x3dcc1d9a	0.099665835
8	0xbdcf56b8	-0.10123962
9	0x3e93b769	0.28850868
10	0x3d3270bd	0.043564547
11	0xbdfa6e16	-0.122280285
12	0xbd1c78cc	-0.03820114
13	0x3e330672	0.17482927
14	0xbeabd37d	-0.3355979
15	0x3e3ef1e6	0.18646964
16	0xbe21da21	-0.15805866
17	0x3db576b0	0.088605285
18	0x3e4a7563	0.19771342
19	0x3e8a2dbe	0.26988024
20	0xbe0cc357	-0.13746391
21	0x3d9a8bfd	0.07546232
22	0x3dd2530a	0.10269745
23	0xbe7fe555	-0.24989827
24	0x3d68f590	0.05687481
25	0xbdb36039	-0.087585874
26	0x3e4ae2d9	0.19813098
27	0x3e4b2345	0.19837673
28	0xbd8afedd	-0.067868926
29	0x3db0e460	0.08637309
30	0xbe200290	-0.15625978
31	0xbd981170	-0.07425201
32	0xbddbc3b0	-0.10730684
33	0xbd8425cf	-0.06452524
34	0x3e981d09	0.29709652
35	0xbe38d2d7	-0.18049179
36	0xbe29b952	-0.165746
37	0x3c8fd1d0	0.017556101
38	0xbdce0087	-0.10058694
39	0x3e579386	0.2105237
40	0xbc81319e	-0.01577073
41	0x3e6c0e87	0.23052417
42	0x3e789d55	0.24278767
43	0xbe6e9604	-0.23299414
44	0x3e457bf6	0.19285569
45	0x3e19bff3	0.15014629
46	0x3e0ab14d	0.13544197
47	0x3e845575	0.2584645
48	0xbe522012	-0.20520046
49	0x3e26579b	0.16244356
50	0xbe60189c	-0.21884388
51	0x3e3cf04c	0.18451041
52	0x3e58e8ef	0.21182607
53	0x3c8d55cb	0.017252823
54	0xbe8fbc54	-0.2807337
55	0x3e2103b8	0.15724075
56	0xbd7c178e	-0.0615459
57	0xbe00f071	-0.12591721
58	0xbe3170ff	-0.17328261
59	0x3e5ff8ad	0.21872206
60	0xbe170842	-0.14749244
61	0xbeb5e670	-0.35527372
62	0xbe4743fc	-0.19459528
63	0x3d877aa7	0.06615191
64	0xbe8cfb6c	-0.2753557
65	0xbe803b1c	-0.25045097
66	0x3ddbf610	0.10740292
67	0x3d798ba0	0.060924172
68	0x3b92ebd0	0.0044836774
69	0xbdde17b7	-0.10844367
70	0xbdb5d60a	-0.08878715
71	0xbe824192	-0.2544065
72	0xbea6e294	-0.3259474
73	0x3e5fa5a9	0.21840538
74	0x3e7e727b	0.24848358
75	0x3e258fc5	0.16168125
76	0x3d9cd367	0.07657509
77	0x3cb396b2	0.021922443
78	0x3e941e53	0.28929386
79	0xbe02e399	-0.12782134
80	0xbe178725	-0.14797647
81	0xbe1154ff	-0.1419258
82	0xbe67908e	-0.22613737
83	0xbda6b9c4	-0.08140901
84	0x3d5733c1	0.05253959
85	0xbd9a1e05	-0.07525257
86	0xbd718766	-0.058967017
87	0xbeb9cb58	-0.3628795
88	0x3e811234	0.252092
89	0x3e3c6da2	0.18401197
90	0x3e85fb47	0.26168272
91	0xbe08c9ff	-0.13358305
92	0x3eafa12e	0.34302658
93	0x3dab5ed9	0.083677
94	0x3d13211d	0.03592025
95	0x3e0f36ff	0.13985823
96	0x3dfaa25e	0.12238
97	0xbe3bbc8f	-0.18333648
98	0xbc31a111	-0.010841624
99	0xbdb7b1b6	-0.089694425

i_resnet_layers.1.bottleneck_block.2.weight_u f4 [10]
0	0x3e79da62	0.24399713
1	0xbe22b180	-0.15888023
2	0x3e93bf65	0.2885696
3	0x3b675a70	0.0035301708
4	0x3f0b1dc3	0.5434229
5	0x3e8f14f5	0.27945676
6	0xbeab0583	-0.33402643
7	0xbefb6b3b	-0.49105248
8	0xbea502be	-0.32228655
9	0x3d354234	0.04425259

i_resnet_layers.1.bottleneck_block.2.weight_v f4 [10]
0	0x3cc0a688	0.023516908
1	0x3f033e18	0.5126662
2	0x3f01681f	0.505495
3	0xbec27902	-0.37982947
4	0x3d0d5a82	0.034510143
5	0x3dbbb3eb	0.09165176
6	0x3dd69d95	0.10479275
7	0x3e7a442d	0.2444007
8	0xbee66163	-0.44996175
9	0x3e6e13b9	0.23249711

i_resnet_layers.1.bottleneck_block.4.weight_orig f4 [2, 10]
0	0xbe896fe4	-0.26843178
1	0x3df00f93	0.117217205
2	0x3e326d16	0.17424425
3	0xbe07e5e2	-0.13271287
4	0xbd134aa0	-0.03595984
5	0xbd933d84	-0.071894675
6	0xbd8587d8	-0.06520051
7	0xbe1d4504	-0.15358359
8	0x3c574bf6	0.013140669
9	0x3e9383fa	0.28811628
10	0xbe8ef993	-0.27924785
11	0x3e2bcbdf	0.1677699
12	0xbe8897d8	-0.26678348
13	0x3d9648fa	0.07338138
14	0x3dbaaba2	0.091147676
15	0x3e51f0af	0.2050197
16	0x3d5b141e	0.053485982
17	0xbe62fa4a	-0.2216579
18	0x3b7c0aea	0.0038458654
19	0x3ca8adad	0.020590628

i_resnet_layers.1.bottleneck_block.4.weight_u f4 [2]
0	0xbf18d414	-0.59698606
1	0xbf4d605c	-0.8022516

i_resnet_layers.1.bottleneck_block.4.weight_v f4 [10]
0	0x3f2bcc46	0.6710857
1	0xbeb6e70c	-0.3572315
2	0x3e44a171	0.1920221
3	0x3d11670a	0.035498656
4	0xbdb90b5d	-0.090353705
5	0xbe598d5f	-0.21245335
6	0xbbe08706	-0.0068520335
7	0x3ef10ba0	0.47079182
8	0xbc9befdb	-0.01903527
9	0xbea8aeaf	-0.32945773

i_resnet_layers.2.bottleneck_block.0.bias f4 [10]
0	0xbf0b48ad	-0.5440777
1	0x3f1ef22c	0.62088275
2	0x3d2343e2	0.03985966
3	0xbe0ae899	-0.13565291
4	0x3eae482a	0.34039432
5	0xbf1c3d8d	-0.6103142
6	0xbeab847c	-0.33499515
7	0x3e65b8b8	0.22433746
8	0x3e024a46	0.12723646
9	0xbdb739e7	-0.08946591

i_resnet_layers.2.bottleneck_block.0.weight_orig f4 [10, 2]
0	0xbe897f67	-0.26855013
1	0x3e77e8da	0.2420992
2	0x3e67f7a5	0.22653063
3	0xbdf67d16	-0.12035577
4	0x3f0d8b41	0.5529061
5	0xbe22b270	-0.15888381
6	0xbe0e72cf	-0.13910984
7	0x3ed03967	0.40668795
8	0xbeeec15c	-0.46631896
9	0xbe7b2c24	-0.24528557
10	0x3f1c978a	0.6116873
11	0x3f317534	0.6931946
12	0xbe0719ec	-0.13193482
13	0x3ee5870c	0.44829595
14	0xbf07bc8c	-0.53022075
15	0xbe8a83f3	-0.27053794
16	0xbe83c6a6	-0.25737494
17	0xbe93a934	-0.2884003
18	0x3e94d467	0.290683
19	0xbe7fdd8a	-0.24986854

i_resnet_layers.2.bottleneck_block.0.weight_u f4 [10]
0	0x3d6f22ca	0.058382787
1	0xbdb01ac7	-0.085988574
2	0xbe89a937	-0.26886913
3	0xbdbe2936	-0.09285204
4	0x3ec92025	0.39282337
5	0xbf2d7a94	-0.67765164
6	0xbdec4d49	-0.115381785
7	0x3ee2ceca	0.44298393
8	0x3e914548	0.2837317
9	0xbd8c957f	-0.068644516

i_resnet_layers.2.bottleneck_block.0.weight_v f4 [2]
0	0xbf504314	-0.81352353
1	0xbf14df49	-0.58153206

i_resnet_layers.2.bottleneck_block.2.weight_orig f4 [10, 10]
0	0x3e0041e6	0.12525138
1	0xbe5a3103	-0.21307759
2	0x3de240a0	0.110474825
3	0xbd8772ef	-0.06613719
4	0x3e895fb6	0.26830834
5	0x3eb9ad32	0.3626495
6	0xbd2bdcc8	-0.0419586
7	0x3e09c4df	0.13454007
8	0x3e845055	0.25842538
9	0xbcde8a94	-0.027165689
10	0xbe0c3132	-0.13690642
11	0xbeab7859	-0.33490255
12	0xbe877e67	-0.26463625
13	0x3d5f221d	0.054475892
14	0x3e9bac53	0.3040491
15	0xbea3921f	-0.3194742
16	0xba4b8916	-0.0007764263
17	0xbd8309b0	-0.06398332
18	0x3e9584ba	0.29202825
19	0x3d7f657e	0.06235265
20	0xbeab17e9	-0.3341668
21	0xbcbda975	-0.023152092
22	0x3e55c4d6	0.20875868
23	0xbe1d1c69	-0.15342869
24	0x3e6e5a79	0.232767
25	0x3e385550	0.18001294
26	0x3e6dc147	0.2321826
27	0x3e683696	0.22677073
28	0x3db2e38a	0.08734806
29	0xbe3344e8	-0.17506754
30	0x3b068143	0.0020523823
31	0x3bae5603	0.005320312
32	0xbe0d316c	-0.13788384
33	0xbd244f08	-0.040114433
34	0x3de48b58	0.1115939
35	0xbea6b211	-0.3255773
36	0x3e7c9175	0.24664862
37	0xbdbcff70	-0.09228408
38	0xbe258d04	-0.16167074
39	0xbe00a549	-0.12563051
40	0xbde664ef	-0.1124972
41	0x3e533f30	0.20629573
42	0x3df4aae0	0.11946654
43	0xbe340e90	-0.1758368
44	0xbd996c43	-0.074913524
45	0x3da63f9c	0.08117601
46	0x3e715dfb	0.23571007
47	0x3e6a08c3	0.22854905
48	0xbe876540	-0.26444435
49	0x3cce5a8a	0.025189657
50	0x3d248f4b	0.040175717
51	0xbda664ce	-0.08124696
52	0xbe78f15d	-0.24310823
53	0xbe5cd98b	-0.21567361
54	0xbc8e0944	-0.017338403
55	0xbd34e43f	-0.044162985
56	0x3a653952	0.0008744198
57	0xbe60359b	-0.21895449
58	0x3ddaba1c	0.10680029
59	0x3dd196df	0.102338545
60	0xbe6bacbd	-0.23015113
61	0xbe8d7b85	-0.276333
62	0xbc5273ec	-0.012845021
63	0xbded87a7	-0.11598139
64	0x3e506066	0.20349273
65	0x3ba8e80f	0.0051546167
66	0x3e2a4e90	0.16631532
67	0x3e339b7d	0.17539783
68	0xbdd1c1a5	-0.10242013
69	0x3e873109	0.26404598
70	0x3b15f62e	0.002288233
71	0xbe32cd96	-0.17461237
72	0x3e76a798	0.2408737
73	0xbe8ceda3	-0.27525052
74	0xbe768aef	-0.24076436
75	0x3e323ade	0.17405269
76	0xbeb63175	-0.35584608
77	0xbbad98f6	-0.0052977754
78	0x3db0f3bc	0.08640239
79	0xbe6f061a	-0.23342171
80	0xbe56f35e	-0.20991275
81	0x3e9e9686	0.30974215
82	0xbe3d6e06	-0.18499002
83	0x3c5b4c2b	0.013384859
84	0x3e3d561a	0.18489876
85	0xbdf15c47	-0.11785179
86	0xbebc281e	-0.36749357
87	0xbe388de1	-0.18022873
88	0xbd18258e	-0.03714519
89	0xbdeb5630	-0.11491048
90	0xbcca2773	-0.024677014
91	0x3e24cd38	0.1609391
92	0xbe4402b7	-0.1914166
93	0xbdcb871c	-0.099378794
94	0xbdeb0f3d	-0.11477516
95	0x3ea4a0ea	0.32154018
96	0x3cb171f8	0.02166079
97	0xbe60886b	-0.2192704
98	0xbe59289d	-0.21206899
99	0x3e6881b7	0.22705732

i_resnet_layers.2.bottleneck_block.2.weight_u f4 [10]
0	0xbe73d489	-0.23811544
1	0x3f1a1fa5	0.60204536
2	0xbe90cbfb	-0.28280625
3	0x3ea47397	0.32119438
4	0xbea732fb	-0.32656083
5	0x3e68d76f	0.22738431
6	0x3d2ad641	0.041708235
7	0xbec8d220	-0.39222813
8	0x3e87a12f	0.2649016
9	0xbdeecd7a	-0.11660285

i_resnet_layers.2.bottleneck_block.2.weight_v f4 [10]
0	0xbd1702d6	-0.03686794
1	0xbdecf181	-0.11569501
2	0xbf0a39d0	-0.53994465
3	0x3e6132cc	0.21992034
4	0x3e968efa	0.29405957
5	0xbf2650b0	-0.6496687
6	0xbbf7fb12	-0.0075677717
7	0xbea523de	-0.32253927
8	0x3e08e0ef	0.13367055
9	0x3df9988c	0.12187299

i_resnet_layers.2.bottleneck_block.4.weight_orig f4 [2, 10]
0	0x3e17fe91	0.14843203
1	0x3e918bf1	0.2842708
2	0x3de13d55	0.10998026
3	0xbcfc21a2	-0.030777756
4	0x3d959b60	0.07305026
5	0xbba3af27	-0.004995245
6	0xbdbcf4ba	-0.092263654
7	0xbdcf9be2	-0.10137154
8	0xbeb73e7c	-0.3578986
9	0x3e6c52e8	0.23078501
10	0xbd10a197	-0.035310354
11	0xbae6e753	-0.0017616547
12	0xbe9d0390	-0.3066678
13	0xbe65aca3	-0.22429137
14	0xbe116290	-0.14197755
15	0x3e51517d	0.20441242
16	0x3bab2ffb	0.0052242256
17	0xbe85973a	-0.2609194
18	0xbe868480	-0.26272964
19	0x3d9a8d30	0.07546461

i_resnet_layers.2.bottleneck_block.4.weight_u f4 [2]
0	0x3f2687f1	0.6505118
1	0x3f426e57	0.75949615

i_resnet_layers.2.bottleneck_block.4.weight_v f4 [10]
0	0x3dd9aa12	0.106281415
1	0x3e8f4161	0.27979568
2	0xbe7bd606	-0.24593362
3	0xbe949d9b	-0.29026493
4	0xbdbc0dbf	-0.09182309
5	0x3e6d1bb6	0.23155102
6	0xbdaf09da	-0.08546801
7	0xbece11d6	-0.40247983
8	0xbf28b6a6	-0.659037
9	0x3ea1eaa2	0.31624323

i_resnet_layers.3.bottleneck_block.0.bias f4 [10]
0	0xbf43af1e	-0.7643908
1	0xbe2552d5	-0.16144879
2	0x3f1a83b2	0.603572
3	0xbf27430e	-0.6533669
4	0xbdc3cc3b	-0.09560438
5	0xbf4a3028	-0.7897973
6	0xbec4199b	-0.38300785
7	0xbdea0842	-0.11427356
8	0xbeb880f0	-0.36035872
9	0x3f20fb13	0.6288311

i_resnet_layers.3.bottleneck_block.0.weight_orig f4 [10, 2]
0	0xbedf30ee	-0.43592018
1	0x3e795d50	0.24352002
2	0xbf158db4	-0.58419347
3	0xbf1db3e1	-0.616026
4	0xbf1fd4fe	-0.62434375
5	0x3ef94006	0.48681659
6	0xbe2c2440	-0.16810703
7	0x3dbe0e50	0.09280074
8	0x3bfbe1b2	0.007686817
9	0x3f10f19d	0.5661867
10	0x3f0b8324	0.5449698
11	0x3f426ec4	0.75950265
12	0xbed56ec6	-0.41686076
13	0xbe8a9165	-0.27064052
14	0xbf0b8738	-0.545032
15	0xbed6a5a5	-0.41923252
16	0xbd0401c3	-0.032228243
17	0xbe635cc2	-0.22203353
18	0x3f108397	0.5645079
19	0x3e8207c4	0.2539655

i_resnet_layers.3.bottleneck_block.0.weight_u f4 [10]
0	0xbdb52fa5	-0.08846978
1	0xbf00de09	-0.503388
2	0xbd901cda	-0.07036753
3	0xbd0d6a20	-0.034525037
4	0x3e7021cb	0.23450391
5	0x3f0b87c8	0.5450406
6	0xbe949773	-0.29021797
7	0xbecff2fc	-0.4061507
8	0xbdd61b5d	-0.10454438
9	0x3eb1b288	0.3470652

i_resnet_layers.3.bottleneck_block.0.weight_v f4 [2]
0	0x3f39e1ab	0.72609967
1	0x3f3005dc	0.6875894

i_resnet_layers.3.bottleneck_block.2.weight_orig f4 [10, 10]
0	0x3e387042	0.18011573
1	0x3e655df6	0.22399125
2	0xbc892420	-0.016740859
3	0x3d25c1e5	0.040468115
4	0x3db85d34	0.09002152
5	0x3cea33e1	0.02858919
6	0xbda4b0d4	-0.0804154
7	0xbb492ff8	-0.0030698758
8	0xbd502435	-0.05081578
9	0xbda7dc46	-0.08196311
10	0xbe5712ba	-0.21003237
11	0xbe97698b	-0.2957271
12	0x3e81c765	0.25347438
13	0x3dc1c4e8	0.09461385
14	0x3b804449	0.00391439
15	0xbe7d55ac	-0.24739712
16	0xbe560ce4	-0.20903355
17	0xbd8be1b9	-0.068301626
18	0x3e38fe5d	0.18065782
19	0xbe15d56b	-0.14632194
20	0x3d3a3e84	0.045469776
21	0xbe702b38	-0.23453987
22	0x3e8638fd	0.26215354
23	0xbe12e8ac	-0.1434657
24	0x3e69e153	0.2283986
25	0xbe6ab751	-0.22921492
26	0xbe5db867	-0.21652375
27	0xbca380fd	-0.019958967
28	0x3de044b3	0.10950603
29	0x3e6a2e67	0.22869264
30	0x3e7c78bd	0.24655433
31	0x3e28f00c	0.1649782
32	0xbe126aab	-0.14298503
33	0x3e958f37	0.29210827
34	0xbe4e5149	-0.20148195
35	0xbe1646ea	-0.14675489
36	0xbe99ddeb	-0.30052122
37	0x3c16ee4d	0.009212089
38	0xbe833a42	-0.25630385
39	0xbe1a6d2d	-0.1508071
40	0xbe7ab861	-0.24484397
41	0x3d986c19	0.07442493
42	0xbe7541a9	-0.23950829
43	0xbe9fcfc5	-0.31213203
44	0x3e2bbe73	0.1677187
45	0xbe8fb6ab	-0.28069052
46	0x3d559305	0.052142162
47	0x3e827671	0.2548099
48	0x3e4c8e52	0.19976166
49	0xbe25ddef	-0.16197942
50	0xbe0f826c	-0.14014596
51	0xbe5e8573	-0.21730594
52	0xbea6b540	-0.32560158
53	0xbe30016e	-0.17188045
54	0xbdbe4f44	-0.092924625
55	0x3e9918c7	0.29901716
56	0xbe281c22	-0.16416982
57	0x3b7ee979	0.0038896485
58	0x3dc37fe4	0.095458776
59	0xbe91b4b6	-0.28458184
60	0x3d3b62f0	0.04574865
61	0xbe9ab6c9	-0.3021758
62	0xbe167a8c	-0.14695185
63	0xbdf6b09d	-0.12045405
64	0x3e7fb529	0.24971451
65	0xbe568e61	-0.2095275
66	0xbe99f92d	-0.3007292
67	0xbe907041	-0.28210643
68	0x3bfc7f72	0.0077056224
69	0xbe917b63	-0.2841445
70	0xbdc40938	-0.09572071
71	0xbd2e4e6c	-0.042555258
72	0x3e76c0b6	0.24096951
73	0xbd92e0b3	-0.07171764
74	0xbd8107bb	-0.063003026
75	0x3d8e19f6	0.069385454
76	0xbe874acc	-0.26424253
77	0xbe8c8385	-0.2744409
78	0x3e2fe1e1	0.1717601
79	0x3e95e172	0.29273564
80	0xbd7a57ad	-0.06111877
81	0xbe0731d5	-0.13202603
82	0x3e932c37	0.2874467
83	0xbd6fde0b	-0.058561366
84	0xbe2921ba	-0.16516772
85	0x3e1aa8ff	0.1510353
86	0xbe33fd3a	-0.17577067
87	0xbe932f9b	-0.28747258
88	0x3e17fb15	0.14841874
89	0xbda4e2b9	-0.080510564
90	0x3e6bdb68	0.23032916
91	0x3b9f5316	0.0048621995
92	0xbaf63ab5	-0.0018785807
93	0xbdcf7de7	-0.10131436
94	0x3da4c65b	0.08045646
95	0x3eb2c5e0	0.34916592
96	0x3d837b4a	0.0642
97	0xbe24cd93	-0.16094045
98	0x3e66d733	0.2254303
99	0x3e4f39ef	0.20236944

i_resnet_layers.3.bottleneck_block.2.weight_u f4 [10]
0	0xbe113d02	-0.14183429
1	0x3ef11f94	0.47094405
2	0x3ee7c724	0.4526912
3	0xbe6c9482	-0.23103526
4	0xbd079aa1	-0.03310645
5	0x3d8c60dd	0.06854413
6	0x3ec5c95c	0.38630188
7	0x3edb11e1	0.42787078
8	0x3ecb12cf	0.39662787
9	0x3d87803c	0.06616256

i_resnet_layers.3.bottleneck_block.2.weight_v f4 [10]
0	0xbe448526	-0.19191417
1	0xbf033155	-0.5124715
2	0x3ed3b95e	0.4135236
3	0xbe4c311e	-0.19940612
4	0x3e09c9e9	0.13455929
5	0xbe0230fa	-0.12713996
6	0xbed5bad4	-0.417441
7	0xbecb0951	-0.39655545
8	0x3eb16180	0.346447
9	0x3d810141	0.06299067

i_resnet_layers.3.bottleneck_block.4.weight_orig f4 [2, 10]
0	0xbe6147c2	-0.2200003
1	0xbec4f5ad	-0.38468686
2	0x3e389eed	0.18029375
3	0xbd3a5006	-0.045486473
4	0x3d07f67a	0.033194043
5	0x3e52836a	0.20557943
6	0xbea95859	-0.33075216
7	0xbe689797	-0.22714077
8	0x3d577552	0.05260212
9	0x3d223dc0	0.03960967
10	0x3d1241e4	0.03570737
11	0x3e64adc1	0.22331907
12	0x3c5e8d9c	0.013583567
13	0xbd4124d0	-0.047154248
14	0xbe373137	-0.17889868
15	0xbd9a3b5f	-0.075308554
16	0xbe3a99ce	-0.18222734
17	0xbe801a0b	-0.2501987
18	0xbe75f543	-0.24019341
19	0x3e82bcd0	0.25534678

i_resnet_layers.3.bottleneck_block.4.weight_u f4 [2]
0	0x3f7fe0b3	0.9995224
1	0x3cfd2598	0.030901715

i_resnet_layers.3.bottleneck_block.4.weight_v f4 [10]
0	0xbea8ee62	-0.32994372
1	0xbf11c391	-0.56939036
2	0x3e8b7633	0.27238616
3	0xbd90f5b8	-0.07078117
4	0x3d2b0be7	0.041759398
5	0x3e9ccbef	0.3062434
6	0xbf01d1a7	-0.5071053
7	0xbeb53c37	-0.35397503
8	0x3d8b5dce	0.06805001
9	0x3d9274b5	0.07151166

i_resnet_layers.4.bottleneck_block.0.bias f4 [10]
0	0x3f15168b	0.5823752
1	0xbef0aacd	-0.4700531
2	0xbe4f8d9a	-0.2026886
3	0xbea3412c	-0.3188566
4	0xbe51df43	-0.20495324
5	0x3f1b49f9	0.6065975
6	0xbeb4dcbe	-0.35324663
7	0xbe897843	-0.26849565
8	0xbef96eaf	-0.48717257
9	0x3e7959b2	0.24350622

i_resnet_layers.4.bottleneck_block.0.weight_orig f4 [10, 2]
0	0x3e806f60	0.25084972
1	0xbbc7d24d	-0.006098068
2	0x3ea85475	0.32876936
3	0xbf0bcd4b	-0.5461013
4	0x3e29bef3	0.16576748
5	0xbecf4253	-0.4048029
6	0x3ea9748c	0.3309673
7	0xbea69d29	-0.3254178
8	0xbe1b97e5	-0.15194662
9	0x3ee00704	0.43755352
10	0x39e29f8c	0.0004322495
11	0x3efb79b7	0.491163
12	0xbe6ab809	-0.22921766
13	0xbe3caea8	-0.18426001
14	0x3f3878c7	0.7205929
15	0xbab77c3a	-0.0013998814
16	0xbe42f062	-0.19037011
17	0xbf14f36e	-0.58183944
18	0x3e947982	0.28998953
19	0xbf147db1	-0.5800429

i_resnet_layers.4.bottleneck_block.0.weight_u f4 [10]
0	0x3daa444b	0.08313807
1	0x3eea6483	0.4577981
2	0x3ea12574	0.31473887
3	0x3ea18977	0.3155019
4	0xbea9cdf6	-0.33164948
5	0xbea2f8b9	-0.31830385
6	0x3d40f9f9	0.047113393
7	0x3e69d516	0.22835192
8	0x3ea26327	0.31716272
9	0x3eef6822	0.46759135

i_resnet_layers.4.bottleneck_block.0.weight_v f4 [2]
0	0x3ee01f9d	0.4377412
1	0xbf662b7c	-0.899101

i_resnet_layers.4.bottleneck_block.2.weight_orig f4 [10, 10]
0	0x3e2d62e0	0.16932249
1	0xbe5b40a1	-0.21411373
2	0xbdc549c8	-0.09633213
3	0xbe1d1bea	-0.1534268
4	0xbc82cf10	-0.015967876
5	0x3e8af212	0.2713781
6	0xbe88ff8f	-0.26757476
7	0xbdf8b919	-0.121446796
8	0x3e613a2e	0.2199485
9	0xbeb34cc7	-0.35019514
10	0xbd76e6c4	-0.06027867
11	0x3eab3264	0.33436882
12	0x3e1e79f1	0.15476204
13	0xbe91c724	-0.28472245
14	0xbeb2c72c	-0.3491758
15	0x3c32831c	0.010895517
16	0xbde0f877	-0.10984891
17	0x3d71c969	0.05902997
18	0xbdc5fdbb	-0.09667536
19	0x3eaa843d	0.33304015
20	0xbda8ffc1	-0.08251906
21	0x3e99bedd	0.3002843
22	0x3e0db539	0.13838662
23	0xbe3ac098	-0.18237531
24	0xbd9c7b20	-0.07640672
25	0xbe0b7b40	-0.13621235
26	0x3e57b64e	0.21065637
27	0x3e83f713	0.2577444
28	0x3d4b7a96	0.049677454
29	0xbe1aa413	-0.15101652
30	0x3e82f2ef	0.2557597
31	0xbe471814	-0.19442779
32	0xbe8b93ca	-0.27261192
33	0xbe3b6f6e	-0.18304226
34	0x3c656b44	0.014002625
35	0xbd05df9f	-0.032683965
36	0x3c9abb69	0.018888192
37	0x3e5b4fc3	0.21417145
38	0xbdd7ff44	-0.10546735
39	0x3de4af4b	0.11166247
40	0xbd4b8fbd	-0.049697626
41	0xbe9225fa	-0.285446
42	0xbc401022	-0.011722596
43	0xbe78bda2	-0.24291089
44	0xbe5a5962	-0.2132316
45	0xbe359584	-0.17732817
46	0xbd8981ff	-0.06714248
47	0x3d56b113	0.052414965
48	0x3d940b3b	0.072287045
49	0xb761177a	-1.3416511e-05
50	0xbe3efc4b	-0.1865093
51	0xbe9a5060	-0.30139446
52	0xbe888355	-0.26662698
53	0xbc79bfb9	-0.015243464
54	0xbd827eef	-0.06371867
55	0x3ea1da5d	0.3161191
56	0xbd8d8951	-0.06910957
57	0x3d78066e	0.060553007
58	0x3e42b36d	0.19013758
59	0x3e3eee89	0.18645681
60	0xbe96a8b9	-0.294256
61	0xbdb22f72	-0.08700456
62	0x3e822ab2	0.254232
63	0x3db687ae	0.089125976
64	0xbe0db339	-0.138379
65	0xbe8325d7	-0.25614807
66	0xbe53b4c4	-0.20674425
67	0x3d7bc577	0.061467614
68	0x3e1a664f	0.1507809
69	0xbe64d049	-0.2234508
70	0xbd94900f	-0.072540395
71	0xbdfee41d	-0.12445853
72	0xbe4c1634	-0.19930345
73	0xbd9468ff	-0.07246589
74	0x3e8245b7	0.25443813
75	0xbe3dff21	-0.18554355
76	0x3e9b5d80	0.30344772
77	0x3dd88f9c	0.10574266
78	0xbd7b9a1a	-0.06142626
79	0xba172812	-0.0005766164
80	0x3c13f1d4	0.009029824
81	0xbdb29ac1	-0.08720923
82	0xbe1633ba	-0.1466817
83	0x3e94c213	0.29054317
84	0x3d15f279	0.036608193
85	0xbe45cee0	-0.19317198
86	0x3e587916	0.2113994
87	0x3e1eac4e	0.15495417
88	0xbc009f65	-0.007850503
89	0x3e8c08db	0.27350506
90	0x3e9ce9d8	0.3064716
91	0xbae58518	-0.0017510979
92	0x3cdc5ee0	0.026900709
93	0xbe176176	-0.14783272
94	0x3d8f30f3	0.06991758
95	0xbe0c57b9	-0.13705339
96	0x3e8dc77c	0.27691257
97	0xbe13bb63	-0.14426951
98	0x3de857e8	0.11344892
99	0xbe994e58	-0.29942584

i_resnet_layers.4.bottleneck_block.2.weight_u f4 [10]
0	0xbf0e05a3	-0.5547735
1	0x3f0656a2	0.5247594
2	0x3ecdaf72	0.40172917
3	0xbe625f93	-0.22106771
4	0xbdb3c8a8	-0.087785065
5	0xbec7cce1	-0.39023498
6	0x3e1588a6	0.14602908
7	0xbd95e6bf	-0.07319402
8	0x3d8a8a26	0.06764631
9	0xbdfdbb36	-0.12389223

i_resnet_layers.4.bottleneck_block.2.weight_v f4 [10]
0	0xbe6f65ac	-0.23378628
1	0x3f25e356	0.6480001
2	0x3edd1cf4	0.43186152
3	0xbc7524f6	-0.014962425
4	0xbe6b22a5	-0.22962435
5	0xbeb3ad6f	-0.35093257
6	0x3e13f796	0.14449915
7	0x3e2edb82	0.17075923
8	0xbe5e48a5	-0.21707399
9	0x3e8334e9	0.25626305

i_resnet_layers.4.bottleneck_block.4.weight_orig f4 [2, 10]
0	0x3e155bf3	0.14585857
1	0xbe919503	-0.28434
2	0xbdd2b27c	-0.102879494
3	0x3e52f67d	0.2060184
4	0x3e273c0e	0.16331503
5	0x3d9146cf	0.07093584
6	0xbe623aca	-0.22092739
7	0x3b65d29d	0.0035068162
8	0xbd4850d5	-0.048905212
9	0x3dc1702c	0.09445223
10	0x3e1bb016	0.1520389
11	0xbe10e09f	-0.14148186
12	0xbe78ac94	-0.24284583
13	0x3d9acfa8	0.075591385
14	0xbd605f11	-0.054778162
15	0x3e0d945f	0.1382613
16	0x3d8062fb	0.06268879
17	0x3dfd4eb0	0.12368524
18	0xbe85f6c8	-0.26164842
19	0xbe831f71	-0.25609925

i_resnet_layers.4.bottleneck_block.4.weight_u f4 [2]
0	0xbf1f9cda	-0.6234871
1	0xbf48263f	-0.7818336

i_resnet_layers.4.bottleneck_block.4.weight_v f4 [10]
0	0xbeb68baf	-0.35653445
1	0x3efa84e1	0.48929504
2	0x3edd05f8	0.43168616
3	0xbea34bab	-0.31893668
4	0xbdcd3dc8	-0.100215495
5	0xbe84874f	-0.25884482
6	0x3e1a8f02	0.15093616
7	0xbe2c02e5	-0.16797979
8	0x3ecc841c	0.3994454
9	0x3e763020	0.24041796

i_resnet_layers.5.bottleneck_block.0.bias f4 [10]
0	0xbf0e04de	-0.55476177
1	0xbf298de1	-0.66232115
2	0xbe043ad6	-0.12913069
3	0x3e0d4ea9	0.13799538
4	0x3ebde60f	0.37089583
5	0x3f148158	0.5800986
6	0xbe6e5c87	-0.23277484
7	0xbda7ec8a	-0.08199413
8	0xbea64ec0	-0.32481956
9	0xbcf23f79	-0.029571282

i_resnet_layers.5.bottleneck_block.0.weight_orig f4 [10, 2]
0	0xbecda0f4	-0.4016186
1	0xbf20a3d2	-0.6274997
2	0x3e8d49ce	0.2759537
3	0x3ed4ce12	0.4156347
4	0x3de8d7c9	0.11369283
5	0xbd94f317	-0.07272928
6	0x3e9ace9e	0.3023576
7	0xbedb4e4a	-0.42833167
8	0x3ea396c6	0.31950969
9	0x3f244455	0.64166766
10	0xbebdd1ce	-0.3707413
11	0xbe09cb03	-0.13456349
12	0xbf03fd89	-0.5155874
13	0xbf4b7cd2	-0.79487336
14	0x3eb385ba	0.35062963
15	0x3f04f0a5	0.51929694
16	0x3ccab776	0.024745684
17	0x3e4a1d40	0.1973772
18	0xbe3e204a	-0.18567005
19	0x3ed5cb4f	0.41756675

i_resnet_layers.5.bottleneck_block.0.weight_u f4 [10]
0	0x3ee19128	0.44056058
1	0xbe96d1a7	-0.29456827
2	0x3bb8d90f	0.00564111
3	0x3e0c78d3	0.13717966
4	0xbed96193	-0.42457256
5	0x3e3358f9	0.17514409
6	0x3f0f5980	0.5599594
7	0xbebd4516	-0.3696677
8	0xbde0bb7f	-0.10973262
9	0xbe28912d	-0.1646163

i_resnet_layers.5.bottleneck_block.0.weight_v f4 [2]
0	0xbef4f8af	-0.4784598
1	0xbf60cbc8	-0.87810946

i_resnet_layers.5.bottleneck_block.2.weight_orig f4 [10, 10]
0	0xbe2b697d	-0.1673946
1	0xbe4c4bd2	-0.19950798
2	0xbe812cef	-0.25229594
3	0x3de986d6	0.11402671
4	0xbe0cb27b	-0.1373996
5	0x3caa1d4f	0.020765929
6	0xbe965bf2	-0.29367024
7	0x3c9aed9f	0.018912135
8	0x3e786703	0.24258046
9	0x3e775d84	0.24156767
10	0xbe4b6c0a	-0.19865432
11	0xbe4eaa80	-0.20182228
12	0xbded01e8	-0.11572629
13	0xbe7912f6	-0.2432364
14	0x3ddbeea9	0.1073888
15	0x3d539f29	0.05166546
16	0xbd66ac84	-0.056316867
17	0x3d9247c1	0.07142592
18	0x3e487eee	0.1957967
19	0xbe297291	-0.1654761
20	0x3e174ab3	0.14774589
21	0x3e6f39be	0.2336187
22	0xbe52ed76	-0.20598397
23	0x3d0359c5	0.032068033
24	0xbe62c0b2	-0.2214382
25	0x3d969cca	0.07354124
26	0x3dcc6979	0.09981055
27	0xbe20f1bf	-0.15717219
28	0x3e298dff	0.16558073
29	0x3e408338	0.18800056
30	0xbdcb508d	-0.09927473
31	0x3d44cd2a	0.048047222
32	0xbe1947a0	-0.14968729
33	0xbdec870d	-0.115491964
34	0x3e299d8f	0.1656401
35	0x3daed1a1	0.08536077
36	0x3caf2262	0.0213787
37	0x3db662c5	0.089055575
38	0xbdf356de	-0.11881803
39	0xbe5c6da9	-0.21526207
40	0xbe220fbd	-0.15826316
41	0x3e585556	0.21126303
42	0x3caad66a	0.020854194
43	0x3e43a5a7	0.1910616
44	0xbe124e81	-0.1428776
45	0x3e8b8f38	0.27257705
46	0x3e891d83	0.26780328
47	0xbd202ea9	-0.039107
48	0x3e34fc3f	0.17674349
49	0xbe8faa7c	-0.28059757
50	0xbc1bef70	-0.009517536
51	0x3ddcf699	0.10789222
52	0xbe023328	-0.12714827
53	0x3e443e23	0.19164328
54	0xbe475871	-0.19467331
55	0x3c222d02	0.009898426
56	0x3e17b101	0.14813615
57	0x3dc53281	0.096287735
58	0xbe27525e	-0.16340014
59	0x3e8003a8	0.2500279
60	0xbdeb207f	-0.114808075
61	0x3dc93918	0.09825343
62	0x3e2bf40d	0.16792317
63	0xbd52e86e	-0.051491193
64	0xbdafb63b	-0.085796796
65	0x3e770dfa	0.24126425
66	0xbe8b68ad	-0.272283
67	0x3dafb5de	0.0857961
68	0xbe770c4e	-0.24125788
69	0xbe534751	-0.20632674
70	0xbbcf1cd6	-0.006320576
71	0x3e46459f	0.19362496
72	0x3dfc6207	0.12323385
73	0xbe522ea1	-0.205256
74	0x3e4ba39f	0.19886635
75	0xbbda5d66	-0.006663966
76	0xbd825a03	-0.063648246
77	0xbe70a162	-0.23499063
78	0x3eaefc19	0.3417671
79	0x3e4e6ad7	0.20157944
80	0xbdccce75	-0.10000316
81	0x3dbfa6d6	0.09357993
82	0x3d868c35	0.06569711
83	0xbd493aeb	-0.049128454
84	0xbda07538	-0.07834858
85	0x3d32afec	0.043624803
86	0xbe9a9734	-0.30193484
87	0xbe40f2e3	-0.18842654
88	0xbe4886c6	-0.19582662
89	0x3e50f29c	0.20405048
90	0xbdb8d641	-0.09025241
91	0x3e0056d9	0.1253313
92	0xbe8fdf03	-0.28099832
93	0xbe07e58d	-0.1327116
94	0xbdb3a44c	-0.087715715
95	0xbe2fa04e	-0.17150995
96	0xbeb01e1c	-0.34397972
97	0xbc3eaff2	-0.011638628
98	0xbdf3c879	-0.119034715
99	0xbdc365d4	-0.095409065

i_resnet_layers.5.bottleneck_block.2.weight_u f4 [10]
0	0xbec8d28d	-0.39223137
1	0xbe486c9e	-0.19572684
2	0x3e3b3d8b	0.18285196
3	0xbd254717	-0.040351
4	0x3f0ad8d5	0.5423711
5	0x3e1a3596	0.15059504
6	0xbe503fcd	-0.20336838
7	0xbd6ffc7c	-0.058590397
8	0xbec6aeff	-0.38805386
9	0xbf02ace7	-0.5104508

i_resnet_layers.5.bottleneck_block.2.weight_v f4 [10]
0	0x3e4801b8	0.19531906
1	0x3e4903e6	0.19630393
2	0x3e4a43c6	0.19752416
3	0x3ea2b576	0.3177907
4	0xbd4ca2f1	-0.04996008
5	0x3e500128	0.20312941
6	0x3f535720	0.8255482
7	0x3c981f35	0.018569568
8	0x3e30a3f1	0.17250039
9	0xbe2b1a3c	-0.16709226

i_resnet_layers.5.bottleneck_block.4.weight_orig f4 [2, 10]
0	0xbe8e7a08	-0.27827477
1	0xbd98b64d	-0.07456646
2	0x3ded3b9e	0.11583637
3	0x3e181080	0.14850044
4	0xbd862584	-0.06550124
5	0x3c274036	0.01020818
6	0xbe51e572	-0.20497683
7	0x3e810444	0.25198567
8	0xbeafa85e	-0.3430814
9	0xbe958ab4	-0.29207385
10	0x3d8ec14f	0.069704644
11	0x3de3dd5d	0.11126206
12	0xbe94d0df	-0.29065606
13	0x3e1d6834	0.15371782
14	0x3e3a447a	0.18190184
15	0x3de0fb7a	0.10985465
16	0xbe6f9b8b	-0.23399179
17	0x3e87f3aa	0.26553088
18	0xbdb07ca5	-0.08617524
19	0x3e1de174	0.15418035

i_resnet_layers.5.bottleneck_block.4.weight_u f4 [2]
0	0xbf6d911b	-0.9279954
1	0xbebec458	-0.37259173

i_resnet_layers.5.bottleneck_block.4.weight_v f4 [10]
0	0x3eb0fcd6	0.345679
1	0x3d2928de	0.04129874
2	0x3a9dda88	0.0012043277
3	0xbe94a9f0	-0.29035902
4	0xbc2b0f3e	-0.010440646
5	0xbd99ad17	-0.075037174
6	0x3ed357e4	0.41277993
7	0xbefd8775	-0.49517408
8	0x3f05891a	0.52162325
9	0x3ea2c6ea	0.31792384

i_resnet_layers.6.bottleneck_block.0.bias f4 [10]
0	0xbf3f926d	-0.74832803
1	0x3f3fd4ef	0.74934286
2	0x3f318d4d	0.6935623
3	0xbefeb08b	-0.49744067
4	0xbf125016	-0.5715345
5	0x3efb6bfb	0.4910582
6	0x3ee5a9bf	0.44856068
7	0x3f0a2e20	0.5397663
8	0x3d3bb09a	0.045822717
9	0x3f253c28	0.64544916

i_resnet_layers.6.bottleneck_block.0.weight_orig f4 [10, 2]
0	0x3e93fab1	0.289022
1	0x3f1e9204	0.6194155
2	0xbeeab3b2	-0.45840222
3	0xbe86df23	-0.26342115
4	0x3eb8c406	0.36087054
5	0x3e01aaa1	0.12662746
6	0xbe5553c5	-0.20832737
7	0xbf06a2c6	-0.5259212
8	0x3e8ba91c	0.27277458
9	0xbef6be36	-0.48191994
10	0xbded8dd1	-0.11599315
11	0xbe2c9a6b	-0.16855781
12	0xbea60dee	-0.32432503
13	0x3f028eaa	0.5099894
14	0xbd3d81b6	-0.04626628
15	0x3ef19d44	0.47190297
16	0xbf211265	-0.6291869
17	0xbecb7240	-0.39735603
18	0xbf3772d0	-0.71659565
19	0xbdb1ecc2	-0.08687736

i_resnet_layers.6.bottleneck_block.0.weight_u f4 [10]
0	0x3ee7470d	0.45171395
1	0xbeb2c0a0	-0.34912586
2	0x3e6f298f	0.23355697
3	0xbebb79e2	-0.36616427
4	0xbdf2dfd4	-0.11859098
5	0xbe0fbdae	-0.14037201
6	0x3ddee9c8	0.10884434
7	0x3e60acfd	0.2194099
8	0xbefeb7f0	-0.49749708
9	0xbec2699c	-0.379712

i_resnet_layers.6.bottleneck_block.0.weight_v f4 [2]
0	0x3f2ce460	0.6753597
1	0x3f3ccc0b	0.73748845

i_resnet_layers.6.bottleneck_block.2.weight_orig f4 [10, 10]
0	0x3c22da7f	0.009939789
1	0xbe8ec87a	-0.27887326
2	0xbd91ed39	-0.07125325
3	0xbd13b96f	-0.036065515
4	0xbe4f0508	-0.20216763
5	0x3d8cbb63	0.06871679
6	0x3e26e576	0.1629847
7	0xbcab94c3	-0.020944959
8	0x3e662cba	0.22478
9	0x3d339397	0.043841925
10	0xbd81911f	-0.06326508
11	0x3d560751	0.05225307
12	0xbe856bcb	-0.26058802
13	0x3d1cf423	0.038318764
14	0x3e83c67d	0.25737372
15	0x3e922e4c	0.28550947
16	0x3e292c0f	0.16520713
17	0xbdcadddb	-0.09905597
18	0xbe41abb0	-0.1891315
19	0x3e9ea391	0.30984166
20	0xbda3b95f	-0.07994341
21	0xbe8a10db	-0.26965985
22	0xbe1508bd	-0.14554115
23	0x3e40635b	0.18787901
24	0xbe327d9b	-0.17430727
25	0x3ea82af2	0.32845265
26	0x3da65bb4	0.0812296
27	0x3d0e6c27	0.03477111
28	0xbea6d0e1	-0.32581237
29	0x3e89324f	0.26796195
30	0x3da363a2	0.07977988
31	0x3e87349b	0.26407322
32	0x3e0a47e7	0.13503991
33	0x3e6c6ad1	0.23087622
34	0xbe44de35	-0.1922539
35	0x3e156ddb	0.14592688
36	0xbd59e281	-0.053194527
37	0xbe04b4e2	-0.12959626
38	0x3db752f8	0.08951372
39	0xbdb1347f	-0.08652591
40	0x3e405c29	0.18785156
41	0xbe835d4c	-0.25657117
42	0xbd373a25	-0.044733185
43	0xbe4a6b0c	-0.19767398
44	0xbe758e6c	-0.23980111
45	0xbda4a570	-0.08039367
46	0x3e94ff99	0.29101256
47	0x3e387173	0.18012027
48	0xbe18fb5e	-0.14939639
49	0x3e3429e6	0.17594108
50	0x3eb16254	0.3464533
51	0xbeab2e3d	-0.33433715
52	0xbd5412fa	-0.05177591
53	0x3e7a9840	0.24472141
54	0x3de4d583	0.11173537
55	0x3db1639d	0.08661578
56	0xbe07a946	-0.13248166
57	0x3e05fa42	0.13083747
58	0x3d2bc84d	0.04193907
59	0xbe5c7d4d	-0.21532173
60	0xbd9ca877	-0.076493196
61	0xbe633c4b	-0.22190969
62	0x3e6dc8a7	0.23221074
63	0xbe99b535	-0.30021062
64	0x3d7a41f0	0.06109804
65	0x3d1fe9a4	0.039041176
66	0xbd3f6ec6	-0.0467365
67	0x3e1869fe	0.14884183
68	0x3dcf3499	0.10117454
69	0x3e325b34	0.17417604
70	0xbcfe0df8	-0.03101252
71	0x3dfefa2d	0.12450061
72	0x3e68e403	0.2274323
73	0x3de88d56	0.11355083
74	0x3d1cd23b	0.03828643
75	0x3e210199	0.15723266
76	0xbe7a3a6d	-0.2443635
77	0x3e21c146	0.15796384
78	0x3dd6a9cf	0.10481607
79	0x3e3f2c87	0.1866933
80	0xbd3a43a4	-0.045474663
81	0xbd4d6a29	-0.05015007
82	0xbe75bdea	-0.23998228
83	0x3e6cfce9	0.23143353
84	0x3d085bac	0.03329055
85	0x3e21ae63	0.1578918
86	0xbe71658f	-0.23573898
87	0x3e0ce5e6	0.13759574
88	0xbd933480	-0.07187748
89	0xbd136fc2	-0.035995252
90	0xbe1642cf	-0.14673923
91	0xbe9903c5	-0.29885688
92	0xbe27bbaa	-0.16380182
93	0xbcdf9d79	-0.027296769
94	0xbd3d0d6a	-0.04615537
95	0x3e8cd9be	0.27509874
96	0x3e943666	0.28947753
97	0xbe3a60e6	-0.18201026
98	0xbd7952d8	-0.06087002
99	0xba4c81f7	-0.00078013487

i_resnet_layers.6.bottleneck_block.2.weight_u f4 [10]
0	0x3e769f10	0.24084115
1	0x3ec43225	0.38319507
2	0x3f129f36	0.57274187
3	0xbe546f23	-0.2074552
4	0x3ebf1b07	0.37325308
5	0x3d42601e	0.047454946
6	0x3d7336dc	0.05937849
7	0xbe37051b	-0.17873041
8	0x3d9d9418	0.07694262
9	0x3efb6a55	0.49104562

i_resnet_layers.6.bottleneck_block.2.weight_v f4 [10]
0	0xbd933270	-0.071873546
1	0xbf0d44b5	-0.55182964
2	0xbebe6251	-0.37184384
3	0xbcf636d6	-0.030055445
4	0xbdefd88a	-0.117112234
5	0x3ec16e34	0.3777939
6	0x3ed9f3a5	0.425687
7	0xbcaadd01	-0.020857336
8	0xbea5f5bf	-0.32414052
9	0x3ea84110	0.3286214

i_resnet_layers.6.bottleneck_block.4.weight_orig f4 [2, 10]
0	0xbaa44bea	-0.0012534831
1	0x3d975c43	0.073906444
2	0xbe8222d5	-0.254172
3	0xbd8cb42e	-0.06870304
4	0x3e802854	0.25030768
5	0x3e8ec27e	0.2788276
6	0x3c8f691a	0.017506171
7	0x3d9d7e0c	0.07690057
8	0xbe6d6e47	-0.23186599
9	0xbeb60ff4	-0.35559046
10	0xbe3fdf9c	-0.18737644
11	0xbdddf5c9	-0.108378954
12	0x3d83f18b	0.06442555
13	0xbc9d8dc6	-0.019232642
14	0xbe5225c7	-0.20522223
15	0xbdb78d69	-0.08962519
16	0x3da721e0	0.08160758
17	0xbd3992bd	-0.045305956
18	0xbdebfbbb	-0.11522623
19	0x3e1d2493	0.15345983

i_resnet_layers.6.bottleneck_block.4.weight_u f4 [2]
0	0x3f6c2bd7	0.92254394
1	0xbec593a6	-0.3858921

i_resnet_layers.6.bottleneck_block.4.weight_v f4 [10]
0	0x3dd7f190	0.10544121
1	0x3e2702b8	0.16309631
2	0xbec4b519	-0.38419417
3	0xbda97e0e	-0.08275996
4	0x3eeb347f	0.4593849
5	0x3edd4325	0.4321529
6	0xbcba008b	-0.022705337
7	0x3e065002	0.13116458
8	0xbe808a3d	-0.25105467
9	0xbf12e6f8	-0.5738368

i_resnet_layers.7.bottleneck_block.0.bias f4 [10]
0	0x3e84326c	0.2581972
1	0x3f21183b	0.629276
2	0x3f37b1c5	0.7175563
3	0xbe4f692f	-0.20254968
4	0xbd941819	-0.07231159
5	0x3f2bbaa0	0.6708164
6	0x3d80d9b5	0.06291524
7	0xbf2c9f61	-0.6743069
8	0x3ed3fe61	0.41405013
9	0x3f1db41c	0.6160295

i_resnet_layers.7.bottleneck_block.0.weight_orig f4 [10, 2]
0	0xbf4ad726	-0.7923454
1	0x3e96b71d	0.2943658
2	0xbe197ec6	-0.14989766
3	0x3e83f491	0.25772527
4	0x3e04489c	0.12918323
5	0xbdbf8c6c	-0.09352955
6	0x3f2c6016	0.67334116
7	0x3e8d43a4	0.27590668
8	0x3f0ac9bf	0.5421409
9	0xbe83db21	-0.2575312
10	0x3bef3156	0.0072995825
11	0x3eab2977	0.33430073
12	0x3ee89b0b	0.45430788
13	0x3e8625dd	0.26200762
14	0x3f222113	0.6333172
15	0x3e840deb	0.2579187
16	0x3ef2f661	0.47453597
17	0x3ed40f79	0.41418055
18	0x3e8538d4	0.2601992
19	0x3eb8f806	0.36126727

i_resnet_layers.7.bottleneck_block.0.weight_u f4 [10]
0	0xbeeb71f0	-0.45985365
1	0xbd70fefc	-0.058836922
2	0x3d8c844c	0.06861171
3	0x3eed752f	0.46378466
4	0x3e9d0ec5	0.3067533
5	0x3d50e255	0.050997097
6	0x3ea59cbd	0.32346144
7	0x3edf3b2c	0.43599832
8	0x3eb70430	0.35745382
9	0x3e5bcdde	0.21465251

i_resnet_layers.7.bottleneck_block.0.weight_v f4 [2]
0	0x3f7a0701	0.9766694
1	0x3e5be6fa	0.2147483

i_resnet_layers.7.bottleneck_block.2.weight_orig f4 [10, 10]
0	0x3e8fc3ca	0.28079063
1	0xbd815ea1	-0.06316877
2	0x3e8d4493	0.2759138
3	0x3e8600c2	0.26172453
4	0x3d7fc445	0.062443037
5	0xbdf7ab79	-0.12093253
6	0x3e1880e9	0.14892925
7	0x3e81a12b	0.25318274
8	0xbe4638fb	-0.19357674
9	0xbeb8c775	-0.36089674
10	0xbe4bed44	-0.19914728
11	0xbe9279c7	-0.28608534
12	0xbdacc88f	-0.08436691
13	0xbead1783	-0.33807
14	0x3dfff6de	0.12498258
15	0xbe360231	-0.17774273
16	0xbd7d026b	-0.061769884
17	0x3e246202	0.16053012
18	0x3dd3c033	0.103393935
19	0x3c1e0a90	0.009646073
20	0x3e32e335	0.17469485
21	0x3e1f708d	0.15570278
22	0x3da90e60	0.08254695
23	0x3cec4049	0.028839247
24	0x3e0050e4	0.12530857
25	0xbd2d139c	-0.04225503
26	0x3e8aa8b9	0.2708185
27	0x3c7524b9	0.014962369
28	0xbe83b555	-0.25724283
29	0x3e25e753	0.16201524
30	0x3e18f515	0.14937241
31	0x3e72f1c0	0.23725033
32	0xbe60e30e	-0.21961614
33	0xbe920465	-0.28518978
34	0x3e4ae5df	0.19814251
35	0xbeb08958	-0.34479785
36	0x3cfa400f	0.030548124
37	0x3e7092c0	0.2349348
38	0xbe85c9f9	-0.26130655
39	0x3d8e66be	0.0695319
40	0x3e8620ce	0.26196903
41	0xbe040321	-0.12891819
42	0xbdc1ea33	-0.09468498
43	0x3e9691c8	0.29408097
44	0xbce0b14c	-0.027428292
45	0x3dd57213	0.104221486
46	0xbe8348bd	-0.25641432
47	0x3e1cc0da	0.15307942
48	0xbe425b69	-0.18980183
49	0x3e748091	0.23877169
50	0x3dde6a6c	0.10860142
51	0xbd2bc034	-0.041931346
52	0xbe3cf545	-0.18452938
53	0xbda8ea8c	-0.08247861
54	0xbe2808fc	-0.16409677
55	0xbdbc4d68	-0.091944516
56	0xbe54caa8	-0.20780432
57	0x3e5e2478	0.21693599
58	0x3e92074e	0.28521198
59	0x3e3f0ca7	0.1865717
60	0xbdba2523	-0.090891145
61	0x3bea9288	0.007158581
62	0x3e7523a0	0.23939371
63	0xbd27bac0	-0.040949583
64	0x3e480690	0.19533753
65	0x3dac0e23	0.08401134
66	0x3e508381	0.20362665
67	0x3e43c7f0	0.19119239
68	0xbd913c72	-0.07091607
69	0x3dc40289	0.09570796
70	0xbe49a146	-0.19690427
71	0xbccaa1e3	-0.024735397
72	0x3e2e1494	0.17000037
73	0xbdf80a04	-0.12111285
74	0xbdbfa169	-0.093569584
75	0xbe9018d8	-0.28143954
76	0xbd0cb29d	-0.034350026
77	0xbdb0035c	-0.08594391
78	0x3d06ce24	0.032911435
79	0x3e26ff11	0.16308238
80	0x3dccba4a	0.09996469
81	0xbd968744	-0.073500186
82	0xbe51d515	-0.2049144
83	0x3e51fefc	0.20507425
84	0xbba2888b	-0.004960125
85	0x3e3e5b32	0.18589476
86	0x3e85c2ce	0.26125187
87	0xbe8257b9	-0.25457552
88	0xbe01cde5	-0.12676199
89	0x3e2c163d	0.16805358
90	0xbe62ce87	-0.22149096
91	0x3eaa31b5	0.33241048
92	0x3e5db588	0.2165128
93	0x3e10695a	0.14102688
94	0xbd3cee40	-0.04612565
95	0xbe97024f	-0.2949395
96	0x3e8cf13e	0.27527803
97	0xbe866cb6	-0.26254815
98	0xbd5ef7a2	-0.05443538
99	0xbe7d40c0	-0.24731731

i_resnet_layers.7.bottleneck_block.2.weight_u f4 [10]
0	0xbed16e66	-0.4090454
1	0x3e9e188a	0.30878097
2	0xbe9143ed	-0.28372136
3	0x3c165cad	0.009177369
4	0x3e5d8319	0.21632041
5	0x3ee7682c	0.45196664
6	0xbe1fe2c3	-0.15613846
7	0x3c5e3eac	0.013564747
8	0xbdd8e94a	-0.10591371
9	0xbf1bb2dd	-0.608198

i_resnet_layers.7.bottleneck_block.2.weight_v f4 [10]
0	0x3c8b406f	0.016998498
1	0xbeb34b56	-0.35018414
2	0xbed5621e	-0.4167642
3	0xbe9a3413	-0.30117854
4	0xbdd6bc00	-0.10485077
5	0x3e0355ba	0.12825671
6	0xbf09ae6e	-0.53781784
7	0x3e6e44e9	0.23268475
8	0x3ea92c2c	0.33041513
9	0x3eba7e1f	0.36424348

i_resnet_layers.7.bottleneck_block.4.weight_orig f4 [2, 10]
0	0xbdb046a4	-0.08607224
1	0xbe8ea5ee	-0.2786097
2	0xbe4c17a3	-0.19930892
3	0xbd69d4ce	-0.057087712
4	0x3da9a99c	0.082843035
5	0xbd02b2b1	-0.031908695
6	0x3ddd3936	0.10801928
7	0xbe8addf2	-0.27122456
8	0x3de0cbbe	0.10976361
9	0xbe539436	-0.20662007
10	0xbebfe496	-0.37479085
11	0x3e8c6c1a	0.27426225
12	0x3e20b5ae	0.15694305
13	0xbe283123	-0.16424994
14	0xbe6447d5	-0.22293027
15	0x3e7be18e	0.24597761
16	0xbe2a4ed6	-0.16631636
17	0xbbf97645	-0.007612976
18	0xbdb3fcbc	-0.0878844
19	0x3e3b8322	0.18311742

i_resnet_layers.7.bottleneck_block.4.weight_u f4 [2]
0	0x3f027c2f	0.5097074
1	0xbf5c3fc1	-0.8603478

i_resnet_layers.7.bottleneck_block.4.weight_v f4 [10]
0	0x3ec24b37	0.3794801
1	0xbf03da1f	-0.515047
2	0xbea4fc90	-0.3222394
3	0x3e1c9068	0.15289462
4	0x3ea34439	0.31887987
5	0xbe9ef775	-0.3104817
6	0x3e8a2e48	0.26988435
7	0xbe37c3b8	-0.17945755
8	0x3e377f8f	0.17919753
9	0xbeb75ef7	-0.3581464

i_resnet_layers.8.bottleneck_block.0.bias f4 [10]
0	0x3ece204b	0.40259013
1	0x3d07fd11	0.033200327
2	0x3f11f22a	0.5701014
3	0x3e3eb81d	0.18624921
4	0x3e247e79	0.1606387
5	0x3e8a1fc8	0.26977372
6	0x3e717edb	0.23583548
7	0xbec1891d	-0.37799922
8	0x3f012436	0.5044588
9	0x3f013975	0.504783

i_resnet_layers.8.bottleneck_block.0.weight_orig f4 [10, 2]
0	0x3f1efa7d	0.62100965
1	0xbd8a3e6e	-0.06750189
2	0xbe152932	-0.14566496
3	0xbf0f0bea	-0.55877554
4	0xbd7f26d1	-0.062292878
5	0xbe731d3e	-0.23741624
6	0x3f1c8aca	0.61149275
7	0x3e8c1c69	0.27365425
8	0xbf0466be	-0.5171927
9	0x3e85ccff	0.26132962
10	0xbe88a8fd	-0.26691428
11	0xbf3b7940	-0.7323189
12	0xbec86bad	-0.3914465
13	0xbe5e1e71	-0.216913
14	0xbe4302b6	-0.19044003
15	0x3ef0ee0a	0.4705661
16	0xbed1a013	-0.4094244
17	0xbeabf0b3	-0.33582076
18	0xbf0a4024	-0.5400412
19	0x3d8c81bd	0.06860683

i_resnet_layers.8.bottleneck_block.0.weight_u f4 [10]
0	0x3eae4267	0.34035036
1	0xbe99e049	-0.30053928
2	0xbe02f67b	-0.12789337
3	0x3eee780b	0.4657596
4	0xbe5195f5	-0.2046736
5	0xbee0ac8e	-0.4388165
6	0xbea0e296	-0.3142287
7	0x3d8c18d7	0.06840675
8	0xbebdb56f	-0.37052485
9	0xbe959d4b	-0.29221568

i_resnet_layers.8.bottleneck_block.0.weight_v f4 [2]
0	0x3f5681b4	0.8379166
1	0x3f0bb96f	0.54579824

i_resnet_layers.8.bottleneck_block.2.weight_orig f4 [10, 10]
0	0xbe67f469	-0.22651829
1	0x3d64d27b	0.055864792
2	0xbda1c5f0	-0.07899082
3	0x3e963318	0.29335856
4	0xbd1ddd2d	-0.038541008
5	0x3da8c1ad	0.08240066
6	0xbe0e0eb1	-0.13872792
7	0x3d93f0bd	0.072236516
8	0x3e06f8e7	0.13180886
9	0xbdbf2743	-0.093336605
10	0xbd9079a4	-0.07054451
11	0x3e03fdc8	0.12889779
12	0xbe2ee048	-0.17077744
13	0xbe7e9ca8	-0.24864447
14	0x3cb33fdd	0.021881038
15	0x3e4b63ed	0.19862337
16	0x3e1bd870	0.15219283
17	0xbceb9fa2	-0.028762642
18	0x3e825ba5	0.25460544
19	0x3e43f8c3	0.19137864
20	0xbe118928	-0.14212477
21	0xbe2a4edb	-0.16631643
22	0x3bc49851	0.005999603
23	0xbe29360d	-0.16524525
24	0x3e345ec9	0.17614283
25	0x3e7894f2	0.24275568
26	0xbe5199c8	-0.20468819
27	0x3de4637e	0.11151789
28	0xbe2166ef	-0.15761922
29	0x3e216c48	0.15763962
30	0x3e77b014	0.24188262
31	0x3d843933	0.064562224
32	0x3d6a2fd8	0.057174534
33	0xbe88755e	-0.26652044
34	0xbda46a17	-0.080280475
35	0xbd9f6d8b	-0.077845655
36	0xbe6ec64a	-0.23317829
37	0xbe6f559d	-0.23372503
38	0x3c41f223	0.011837515
39	0x3e58681e	0.21133468
40	0xbdf967d1	-0.121780045
41	0xbe031ee4	-0.12804753
42	0xbe666f41	-0.22503377
43	0xbdfbeac3	-0.123006366
44	0x3e896294	0.26833022
45	0xbec49106	-0.38391894
46	0x3c1ae3f7	0.009453765
47	0x3e1201bb	0.14258473
48	0xbe30fef2	-0.17284754
49	0x3d963b26	0.073355004
50	0x3d71e3e4	0.059055224
51	0xbe90ceaf	-0.28282687
52	0x3e9487fa	0.29009992
53	0x3e004d57	0.12529503
54	0x3ded1fc7	0.11578327
55	0xbd8a9c83	-0.067681335
56	0x3e3a5738	0.18197334
57	0xbd2cef49	-0.042220388
58	0xbe0ce76d	-0.13760157
59	0xbe1675be	-0.14693353
60	0x3e0a61ed	0.13513918
61	0x3c318295	0.010834356
62	0x3e125947	0.14291869
63	0xbe7252f9	-0.23664464
64	0xbe052677	-0.13002954
65	0xbe617f5c	-0.2202124
66	0x3e3de1a3	0.18543105
67	0xbe425e0b	-0.18981187
68	0xbe72cabf	-0.23710154
69	0xbde8b1cf	-0.11362039
70	0xbd2f9b08	-0.04287246
71	0x3e92b3af	0.28652713
72	0x3e805afb	0.25069413
73	0x3e548521	0.2075391
74	0xbc61f088	-0.013790257
75	0xbd23d21a	-0.03999529
76	0xbe4ac5e3	-0.1980205
77	0x3d57c939	0.052682135
78	0x3e04f88d	0.1298544
79	0xbe80f50f	-0.25186965
80	0x3db3b88a	0.087754324
81	0xbe7d424c	-0.24732322
82	0xbddda9d5	-0.108234085
83	0x3e0f68d5	0.14004834
84	0xbe624bcd	-0.22099228
85	0xbeb28b17	-0.34871742
86	0xbe07a03b	-0.13244717
87	0x3e11d0ba	0.14239779
88	0xbdb8cd7d	-0.09023569
89	0x3d1a5a02	0.037683494
90	0xbe978d62	-0.29600054
91	0xbe0a2a08	-0.13492596
92	0x3e5caa91	0.21549441
93	0xbe29422e	-0.16529152
94	0x3e28abc3	0.16471772
95	0x3dc88b5b	0.09792205
96	0x3e2f932f	0.1714599
97	0x3e4449c2	0.19168761
98	0x3ca07488	0.019586816
99	0x3e44d388	0.19221318

i_resnet_layers.8.bottleneck_block.2.weight_u f4 [10]
0	0xbe51702a	-0.20452943
1	0xbeeaa718	-0.45830607
2	0xbe8e3ab3	-0.2777916
3	0x3dfab4dc	0.122415274
4	0x3e6707e3	0.22561602
5	0x3e9aa749	0.30205753
6	0x3ee2fbbf	0.44332692
7	0xbc668a9f	-0.014071136
8	0x3eef231d	0.46706477
9	0xbea10cbe	-0.31455034

i_resnet_layers.8.bottleneck_block.2.weight_v f4 [10]
0	0x3ecad804	0.39617932
1	0xbe77bb72	-0.24192598
2	0x3dbdfeb0	0.092770934
3	0x3dd3f80b	0.10350045
4	0xbe59022c	-0.21192235
5	0xbf31b0a7	-0.69410175
6	0x3c7f3754	0.015577156
7	0xbe12ae62	-0.14324334
8	0xbecbe68a	-0.39824325
9	0xbe790a3a	-0.24320307

i_resnet_layers.8.bottleneck_block.4.weight_orig f4 [2, 10]
0	0x3e99f88f	0.30072448
1	0x3db74c0f	0.08950054
2	0x3e25f42d	0.16206427
3	0xbe8737da	-0.264098
4	0xbe81cb85	-0.25350586
5	0xbe6a69b6	-0.22891888
6	0xbe1dac17	-0.15397678
7	0xbe434330	-0.19068599
8	0xbe683afb	-0.2267875
9	0x3b8e6f3f	0.0043467577
10	0xbe64e9de	-0.22354838
11	0xbdb3b5ac	-0.087748855
12	0x3d1c1d0c	0.03811364
13	0xbd05f53b	-0.032704573
14	0xbe6bab1f	-0.23014496
15	0xbd36f079	-0.044662926
16	0xbcb028a2	-0.02150375
17	0x3e1a05ae	0.15041229
18	0xbda691c1	-0.08133269
19	0xbe5f0c56	-0.2178205

i_resnet_layers.8.bottleneck_block.4.weight_u f4 [2]
0	0x3f7fffe9	0.9999986
1	0x3ad6e81e	0.0016396081

i_resnet_layers.8.bottleneck_block.4.weight_v f4 [10]
0	0x3eec7c98	0.46188807
1	0x3e0cdca0	0.13756037
2	0x3e7f562d	0.24935217
3	0xbecffbad	-0.406217
4	0xbec7ff51	-0.39061978
5	0xbeb45b73	-0.3522602
6	0xbe72af7e	-0.23699757
7	0xbe95f39a	-0.29287416
8	0xbeb2c1c4	-0.34913456
9	0x3bcbd59b	0.006220532

i_resnet_layers.9.bottleneck_block.0.bias f4 [10]
0	0x3e093710	0.13399911
1	0x3e9a77ee	0.30169624
2	0xbe00c8c6	-0.12576589
3	0xbf24c259	-0.6435905
4	0x3e98db4e	0.29854816
5	0x3e9f7fd9	0.31152228
6	0x3ee26d03	0.44223794
7	0xbdbd442e	-0.0924152
8	0xbf0136c4	-0.5047419
9	0x3e16da9c	0.1473183

i_resnet_layers.9.bottleneck_block.0.weight_orig f4 [10, 2]
0	0xbe63508a	-0.22198692
1	0x3f2817ee	0.65661514
2	0xbe60b00c	-0.21942157
3	0x3e3963f0	0.1810453
4	0xbe3b2476	-0.18275627
5	0x3e530010	0.20605493
6	0x3e804df4	0.25059474
7	0xbe86e38a	-0.26345474
8	0xbf00eaa4	-0.50358033
9	0xbe83740b	-0.2567447
10	0x3f23265b	0.637304
11	0xbd3b1026	-0.045669697
12	0xbe084d1a	-0.13310662
13	0x3e8ad389	0.27114514
14	0x3e775c35	0.24156268
15	0xbf028146	-0.50978506
16	0xbf09a0ce	-0.53760993
17	0xbf2bdf75	-0.67137843
18	0xbe3c4d8a	-0.18388954
19	0x3e1087ef	0.14114355

i_resnet_layers.9.bottleneck_block.0.weight_u f4 [10]
0	0xbf0e8502	-0.55671704
1	0xbe263c60	-0.16233969
2	0xbe395d09	-0.18101896
3	0x3e6df388	0.23237431
4	0x3e3d2775	0.18472083
5	0x3d965344	0.073401004
6	0xbe6dc463	-0.23219447
7	0x3edf3b19	0.43599775
8	0x3f06ca56	0.5265249
9	0xbe025571	-0.12727906

i_resnet_layers.9.bottleneck_block.0.weight_v f4 [2]
0	0x3d8986a9	0.067151375
1	0xbf7f6c11	-0.9977427

i_resnet_layers.9.bottleneck_block.2.weight_orig f4 [10, 10]
0	0x3da4cbd1	0.080466874
1	0xbd43b6d1	-0.04778177
2	0xbe8d44fa	-0.27591687
3	0xbe953a7b	-0.2914618
4	0xbe685d35	-0.22691806
5	0xb908f39a	-0.0001306072
6	0xbe93ef7d	-0.28893653
7	0x3dbd7b7d	0.09252069
8	0xbe2c809c	-0.16845936
9	0x3e15110a	0.14557281
10	0x3dad1a8d	0.0845233
11	0xbe9f6bc6	-0.31136912
12	0xbe89006e	-0.2675814
13	0x3d4aeae1	0.049540404
14	0x3df0dc7a	0.117608026
15	0x3e5d0fb2	0.21588019
16	0x3e359639	0.17733087
17	0xbdb385b6	-0.08765738
18	0xbc9fca0f	-0.019505529
19	0xbe1ab322	-0.15107396
20	0xbe4e2fa1	-0.20135356
21	0x3e2d01b8	0.16895187
22	0x3e607326	0.21918926
23	0xbe8d50ed	-0.27600804
24	0xbd4f68f4	-0.0506372
25	0xbe861763	-0.26189718
26	0xbdf986cc	-0.121839136
27	0xbd801780	-0.06254482
28	0x3e3fd549	0.18733706
29	0xbe309cad	-0.17247267
30	0x3e1f15c5	0.15535648
31	0xbe299c6f	-0.16563581
32	0xbca053b9	-0.019571172
33	0x3d9e1c44	0.07720235
34	0x3e3eb772	0.18624666
35	0x3c8fb9cc	0.01754465
36	0xbe134df9	-0.14385213
37	0xbe88ab87	-0.26693365
38	0xbe6ebb4e	-0.23313639
39	0x3d552369	0.052035723
40	0x3e107665	0.14107664
41	0xbe1e887a	-0.15481749
42	0x3e938dc4	0.28819096
43	0x3e411699	0.18856277
44	0xbdd3ab05	-0.10335354
45	0xbd327f38	-0.043578357
46	0x3e218b47	0.15775786
47	0xbd962236	-0.07330744
48	0xbce00292	-0.027344976
49	0x3e2bc67e	0.16774938
50	0xbe1ba122	-0.15198186
51	0x3db6b331	0.08920897
52	0x3b89c086	0.004203859
53	0xbd9e19b3	-0.077197455
54	0xbc791372	-0.01520239
55	0x3e11be90	0.1423285
56	0xbd1c692d	-0.03818624
57	0xbddccb2b	-0.10780939
58	0x3e994400	0.29934692
59	0x3c944f3e	0.018104192
60	0x3d7f053b	0.062260848
61	0xbde8ffa9	-0.11376888
62	0x3e4b9de3	0.19884448
63	0xbdf99147	-0.121859126
64	0xbdd29d53	-0.102839135
65	0x3e95d2a3	0.29262266
66	0x3ea1bd13	0.31589565
67	0xbb155cc8	-0.0022790898
68	0xbe7495eb	-0.23885314
69	0xbe1cdb42	-0.15318015
70	0xbe28ce33	-0.16484909
71	0x3e02ed17	0.12785755
72	0x3d718a08	0.058969527
73	0xbdc7e011	-0.09759534
74	0xbdd1c591	-0.10242761
75	0x3e2d5d05	0.16930015
76	0xbe9b1e6d	-0.3029665
77	0xbe9f6956	-0.31135052
78	0xbeb7bc00	-0.3588562
79	0xbe81e3eb	-0.253692
80	0xbdb53733	-0.08848419
81	0x3e77cfdc	0.24200386
82	0xbe84bb31	-0.25924066
83	0xbe4c3de9	-0.19945492
84	0x3e29e98a	0.16592994
85	0xbd8d06ed	-0.068860866
86	0x3ea3fc5c	0.32028472
87	0x3dcca293	0.09991946
88	0x3e717450	0.23579526
89	0x3dbc65c5	0.091990985
90	0x3e9e5f04	0.30931866
91	0xbdb0ae5e	-0.08627008
92	0x3e667eb8	0.22509277
93	0xbe402129	-0.1876265
94	0x3e7f4030	0.2492683
95	0xbe773dfe	-0.24144742
96	0x3dc2dfd8	0.09515351
97	0x3de656b5	0.11247007
98	0xbe490fed	-0.19634981
99	0x3ea7428a	0.32667953

i_resnet_layers.9.bottleneck_block.2.weight_u f4 [10]
0	0x3d39ea00	0.045389175
1	0x3e7873b2	0.24262884
2	0xbec8d300	-0.3922348
3	0x3ed3d6eb	0.41374907
4	0x3e87e656	0.2654292
5	0xbe907d65	-0.28220668
6	0x3ead0d1b	0.3379906
7	0x3e771746	0.24129972
8	0xbef9c86f	-0.4878573
9	0x3e6ccb0d	0.23124333

i_resnet_layers.9.bottleneck_block.2.weight_v f4 [10]
0	0x3ec2c197	0.38038322
1	0xbef0650c	-0.46952093
2	0x3e399d2c	0.18126363
3	0x3e627d98	0.22118223
4	0x3c284ea6	0.0102726575
5	0x3e8134e2	0.2523566
6	0xbd06a046	-0.032867692
7	0xbe5813e3	-0.21101336
8	0xbf2a7542	-0.6658517
9	0x3c93db4b	0.018048903

i_resnet_layers.9.bottleneck_block.4.weight_orig f4 [2, 10]
0	0x3cd141a0	0.025543988
1	0x3eaa534b	0.33266672
2	0x3e92d5ba	0.28678685
3	0xbd1a33fc	-0.037647232
4	0xbe0c0507	-0.13673793
5	0xbe1ae673	-0.15126972
6	0xbe175b5b	-0.14780943
7	0xbdc41fea	-0.095763996
8	0xbe08c8d0	-0.13357854
9	0xbe740c05	-0.2383271
10	0x3e183d7f	0.14867209
11	0xbe5370cc	-0.20648497
12	0x3e81b5b7	0.2533395
13	0xbe8f3454	-0.2796961
14	0x3e6fa57a	0.23402968
15	0x3e0b16bb	0.1358289
16	0x3e813fc1	0.25243953
17	0xbe19cb2c	-0.1501891
18	0x3de616d3	0.11234822
19	0x3c7f1bfd	0.015570638

i_resnet_layers.9.bottleneck_block.4.weight_u f4 [2]
0	0x3f1e05ea	0.61727774
1	0xbf496824	-0.7867453

i_resnet_layers.9.bottleneck_block.4.weight_v f4 [10]
0	0xbe1c857c	-0.15285295
1	0x3f0e1b0a	0.5551001
2	0xbd09550e	-0.03352838
3	0x3e980ccf	0.29697272
4	0xbecf8cb7	-0.40537044
5	0xbe9aacea	-0.30210048
6	0xbee0056a	-0.4375413
7	0x3db64e19	0.08901615
8	0xbe83f0cc	-0.2576965
9	0xbe763a40	-0.24045658

i_resnet_layers.10.bottleneck_block.0.bias f4 [10]
0	0x3eff7dcc	0.49900663
1	0x3f354606	0.7080997
2	0xbf563773	-0.8367836
3	0xbf1c67fb	-0.6109616
4	0x3bf231dc	0.0073911976
5	0xbe0b6075	-0.13611014
6	0xbf1c197c	-0.60976386
7	0xbd8bdd3e	-0.06829308
8	0xbef023ce	-0.46902317
9	0xbd214884	-0.039375797

i_resnet_layers.10.bottleneck_block.0.weight_orig f4 [10, 2]
0	0x3ee62e34	0.44957125
1	0xbef01e4a	-0.4689811
2	0x3e3701d5	0.17871793
3	0xbea7eea4	-0.32799256
4	0x3ed06820	0.4070444
5	0x3eb202dc	0.34767807
6	0xbf2baa18	-0.6705642
7	0x3ea6973b	0.32537255
8	0xbeefe775	-0.46856275
9	0xbda33e73	-0.079708956
10	0x3f091959	0.535543
11	0x3ed38a2f	0.41316363
12	0x3e14a3d3	0.14515619
13	0xbdacdbdb	-0.084403716
14	0xbea8d7e8	-0.32977223
15	0x3f247b99	0.64251095
16	0x3f082fe8	0.531981
17	0xbefe91ba	-0.49720556
18	0x3d840b62	0.064474836
19	0xbebd1127	-0.3692715

i_resnet_layers.10.bottleneck_block.0.weight_u f4 [10]
0	0xbedb6a48	-0.42854524
1	0xbe6b9ef5	-0.23009856
2	0xbd7f609e	-0.062348
3	0x3ef68817	0.48150703
4	0x3e53f172	0.20697573
5	0xbdce4379	-0.10071463
6	0xbde1713a	-0.110079244
7	0x3ee16619	0.44023207
8	0xbef73350	-0.48281336
9	0xbe415b1e	-0.18882415

i_resnet_layers.10.bottleneck_block.0.weight_v f4 [2]
0	0xbf45d3a7	-0.7727608
1	0x3f227b86	0.6346973
