experiments/diffeomorphism_effects/models/spiral/i_resnet_euclidean_product_100_blocks_10_int_features_20_epochs_True_subspace_reg_False_isometry_reg.pt (torch, 802510 bytes, 1000 tensors)

i_resnet_layers.0.bottleneck_block.0.bias f4 [10]
00000000: 2d38 a1be 645f eebd 2da0 113f 369c 2b3e
00000010: 050f 55be dd43 76be 5ef9 d73e cdb8 893c
00000020: 536c f7be 3218 aebe
-0.3148817 -0.11639288 0.56885034 0.16758808 -0.20806511 -0.24049325 0.4218244 0.016811753
-0.48324832 -0.34002835

i_resnet_layers.0.bottleneck_block.0.weight_orig f4 [10, 2]
00000000: 3d38 dbbe cb1b 8d3e 88bf 273f 42d3 0abf
00000010: 0db2 31bf a40a bc3d c342 1bbf bb21 073f
00000020: a195 1ebf 6af5 303f fca0 0dbd 4a86 6ebe
00000030: 5cdb 0b3f e606 cbbe 2d11 b1be 9b27 0a3f
00000040: 4d25 803e 1180 233f 2fc5 ba3e 91ce 923e
-0.42816344 0.27560267 0.6552663 -0.54228604 -0.6941231 0.09181717 -0.60648745 0.52785844
-0.61947066 0.6912447 -0.034577355 -0.23293415 0.5463159 -0.396537 -0.34583417 0.53966683
0.25028458 0.6386729 0.36478564 0.28673223

i_resnet_layers.0.bottleneck_block.0.weight_u f4 [10]
00000000: e087 853e 94a0 e1be 73ea 993e 1171 d53e
00000010: b2d0 f43e 5bdb 88bd 714e b2be d6c3 a33e
00000020: 3fdf fb3d 1f94 2ebd
0.26080227 -0.44067824 0.30061683 0.41687825 0.47815472 -0.06682464 -0.3482547 0.31985348
0.1229844 -0.042621728

i_resnet_layers.0.bottleneck_block.0.weight_v f4 [2]
00000000: 9655 3fbf 7514 2a3f
-0.7473997 0.66437465

i_resnet_layers.0.bottleneck_block.2.weight_orig f4 [10, 10]
00000000: 73c2 dd3c 6a6a 7ebe 4947 603e cab4 863e
00000010: 0fc6 893e cd97 64be 2d14 74be 7421 683e
00000020: da63 ca3d 3159 143e d7aa 07be 8d0c 89be
00000030: 94ee 583d c8dc 2e3e 3fc8 683e 1679 e9bd
00000040: d28b 2c3c e452 4f3e a08f a93e cab1 e23d
00000050: 6f17 82bc 3ee7 33be 33f4 3a3e 7c3c 503e
00000060: 6275 5ebe 82a6 6abe 2056 78be 9828 083e
00000070: 3fa5 14be 8ed9 7dbe cef0 94bd 5ba7 993c
00000080: 2688 5f3e fdf1 303e eaa7 7f3e a9dc f03b
00000090: a6bc 063e 1aa5 8fbd 41a1 423e d111 aebd
000000a0: e4d3 d03d 42bd 9fbe 5cc3 cdbc 62f5 88be
000000b0: 8643 5bbe b496 02be c202 023e c2c6 983e
000000c0: 0fab a13e c8f2 213e 855e 58be 9f57 6c3e
000000d0: 0ffe 70be 7e75 97be 3875 f2bd fbde abbe
000000e0: d7df 11be 5168 37be 62af 543e f846 b73d
000000f0: c4c8 8d3b 6578 4bbe 9cc7 e1bc 0a1f 333e
00000100: fe7f 6c3e 3319 5cbe cb9d 1f3d c861 5f3e
00000110: f437 57be dc0a 923e f02d 563e efce 503e
00000120: 2588 6ebe 00a3 7f3d 1a06 afbd 6a66 a3be
00000130: d692 a3bd d77c 54be 3b75 39bc f17f 8f3e
00000140: 6f21 4cbe 00c0 c93e 3d05 ed3d ba09 f83d
00000150: bd17 0a3e 170a 24be 71ed 7dbc f163 f4bd
00000160: 3daa 16be add6 523b ed4e eabc 2722 3cbe
00000170: 1555 adbc 1e28 5c3e 9257 c03d 3205 83be
00000180: 2ea2 a63d c2c4 30be 9a67 aabe e994 f63d
0.02707026 -0.24845281 0.21902193 0.26309806 0.2690892 -0.22323532 -0.23835821 0.22669011
0.098823264 0.14487149 -0.13248764 -0.26767388 0.0529619 0.17076409 0.22732638 -0.114000484
0.010531383 0.20246464 0.3311739 0.11069067 -0.015880315 -0.1756868 0.18257217 0.20335573
-0.21724465 -0.2291508 -0.24251604 0.13296735 -0.14516161 -0.24790022 -0.07272492 0.01875656
0.2182928 0.17279811 0.24966398 0.0073505235 0.13157901 -0.070139125 0.19006826 -0.08499492
0.10196665 -0.3119908 -0.025117569 -0.26749712 -0.21412477 -0.12752801 0.12696365 0.2983914
0.3157582 0.1581527 -0.21129806 0.230803 -0.23534416 -0.29581827 -0.11838764 -0.33568558
-0.14245544 -0.17910887 0.20770028 0.08949083 0.0043269116 -0.19870146 -0.027561001 0.17492309
0.230957 -0.21493988 0.038968842 0.21814644 -0.21017438 0.2852391 0.20915961 0.20391439
-0.23294123 0.06241131 -0.08546086 -0.31914073 -0.07986991 -0.20750748 -0.011319454 0.280273
-0.19934629 0.39404297 0.11573265 0.1211123 0.13485618 -0.16019474 -0.015498505 -0.11933125
-0.14713378 0.0032171414 -0.028602088 -0.18372403 -0.021158734 0.21499678 0.09391703 -0.255899
0.08136402 -0.17262557 -0.33282167 0.12040121

i_resnet_layers.0.bottleneck_block.2.weight_u f4 [10]
00000000: 6efd 10bf 3c38 e5be 4ca6 69be dec9 25be
00000010: 84e4 3cbe 6ff0 b13e 78c5 cebe f5e5 343e
00000020: 1c8f 0e3e eb41 37be
-0.56636703 -0.44769466 -0.22817343 -0.16190287 -0.18446547 0.3475375 -0.40385032 0.17665847
0.1392178 -0.1789624

i_resnet_layers.0.bottleneck_block.2.weight_v f4 [10]
00000000: 91bd 9ebc 7605 1c3f 3154 98be 4a17 d4be
00000010: 4253 acbe eebc 383e 1905 2f3d 8c4f e3be
00000020: 5196 80bd 4a85 0ebe
-0.019377502 0.6094583 -0.29751733 -0.41424018 -0.3365727 0.18040821 0.04272947 -0.44396627
-0.062786706 -0.13918033

i_resnet_layers.0.bottleneck_block.4.weight_orig f4 [2, 10]
00000000: 5256 3b3e 7776 8e3e bf0f adbe 1531 2e3c
00000010: 5b8a 663c b553 7d3e 01b5 b73d e796 183e
00000020: f1ae 33bd 5377 cabd ea4e a3be 2927 403e
00000030: 959c 0cbe c612 69be e5fd 303e 6a8b a1bd
00000040: 3013 83be 2a47 503b 6957 35be 281f 6ebd
0.18294647 0.27824757 -0.33801076 0.010631819 0.014071072 0.24738963 0.08970071 0.14901315
-0.04386801 -0.098860405 -0.31896144 0.18764938 -0.13731606 -0.22761068 0.17284353 -0.07887919
-0.25600576 0.0031780698 -0.17709126 -0.05813518

i_resnet_layers.0.bottleneck_block.4.weight_u f4 [2]
00000000: 67ab f2be 596b 61bf
-0.47396395 -0.88054425

i_resnet_layers.0.bottleneck_block.4.weight_v f4 [10]
00000000: 0af3 a73e f36d 00bf 062e f33e 5507 a93e
00000010: f877 89be 35b6 a5bd 8437 9e3e b170 febd
00000020: e8d3 983e b9c1 293e
0.32802612 -0.5016777 0.4749605 0.33013406 -0.2684934 -0.08091394 0.3090173 -0.12423838
0.29849172 0.16577806

i_resnet_layers.1.bottleneck_block.0.bias f4 [10]
00000000: 427e 613e 1a50 72be 1c2f 6dbd da43 293f
00000010: a975 70be 6f78 493e 2319 8f3e 1268 683e
00000020: 66ff 233f b060 28be
0.2202082 -0.23663369 -0.057906255 0.6611916 -0.23482384 0.19674848 0.27948865 0.2269595
0.6406158 -0.16443133

i_resnet_layers.1.bottleneck_block.0.weight_orig f4 [10, 2]
00000000: 1a63 aabd e43e fe3e cf2d ffbd a6b3 a73e
00000010: 4d43 0a3f b6ec 213b f890 09bf 1d35 223f
00000020: af8d c03e 18de 13bf 8041 cf3e 648d afbe
00000030: af5d 2e3f 0480 afbe 24a4 2e3f 30d8 2f3f
00000040: 2b92 19bf f129 173f cc36 fd3e 54da 1cbf
-0.083196834 0.49657357 -0.12459909 0.32754248 0.5400894 0.002470774 -0.5373683 0.63362294
0.37608096 -0.57760763 0.4047966 -0.3428756 0.681117 -0.34277356 0.6821921 0.6868925
-0.5998866 0.5904837 0.4945587 -0.6127064

i_resnet_layers.1.bottleneck_block.0.weight_u f4 [10]
00000000: 1652 5d3e d4e1 2b3e f78c 47be 723a dd3e
00000010: 438e b4be ade1 8cbe 2825 c0be 62b9 233c
00000020: 9090 e03e 0644 d1be
0.21613345 0.16785365 -0.19487368 0.43208653 -0.35264787 -0.27515927 -0.37528348 0.009992929
0.43860292 -0.4087221

i_resnet_layers.1.bottleneck_block.0.weight_v f4 [2]
00000000: 8108 32bf fcf4 373f
-0.69544226 0.7185819

i_resnet_layers.1.bottleneck_block.2.weight_orig f4 [10, 10]
00000000: df51 8abd fb49 1c3d 46f4 a7bd 91ed a6be
00000010: 2ff8 9fbb 560f 02bd 917f ab3d b1ff d53d
00000020: 27c0 08be 4df0 a53e 2095 503d 990e 67bd
00000030: 248b 34bd f2b1 453e d589 c5be 183c 283e
00000040: 1355 31be a0a8 a23d 5851 563e 05f4 6f3e
00000050: ad1b 0bbe 2e10 913d 1848 ee3d 4a5e 81be
00000060: f059 873d e36e 8abd d99a 633e 1dd6 633e
00000070: 9cb6 aabd 6c46 c53d 3144 05be 2f4d a6bd
00000080: 35ac d2bd 0ec4 7abd 5576 903e bc9d 3cbe
00000090: 9bdc 2cbe 3670 f03c 5566 bebd 357d 4e3e
000000a0: f1af aebc 3246 393e c814 573e 6daf 57be
000000b0: 40e9 363e 3dc7 023e c037 d93d f2ff 593e
000000c0: 3baa 29be cbfb 0f3e 2145 64be 9d37 273e
000000d0: 90cb 3e3e be34 0f3d 47f7 96be d76b 0f3e
000000e0: 2d14 b1bd 103e 2ebe 827d 17be b085 4d3e
000000f0: ae8f 1bbe 04ee abbe 2aba 40be 47df 643d
00000100: 6527 8bbe c6db 86be b2b8 b53d 3587 633d
00000110: b4dd c53a c3d0 ddbd 7feb b8bd 927b 79be
00000120: c54d a4be 6b5e 4e3e 3a83 8f3e 4005 243e
00000130: 6f7f 933d 1426 c83c 5c3d 8e3e 15a6 d2bd
00000140: 477f 2fbe 08e3 d9bd 4303 36be 2635 fdbd
00000150: 1229 893d 50d1 57bd e68c d7bc 4ab7 b9be
00000160: 21af 563e d6d3 7c3e 327e 843e aa87 d4bd
00000170: 8538 ad3e 43be c33d 543c a53c 0ae5 083e
00000180: abed f53d 3c54 41be 407e b2bb c47d d2bd
-0.06753897 0.03815649 -0.08200888 -0.32603124 -0.0048818807 -0.031752907 0.08373941 0.1044916
-0.1335455 0.32409897 0.050923467 -0.056410406 -0.044078007 0.19306162 -0.3858172 0.16429174
-0.1731761 0.07942319 0.20929468 0.2343293 -0.13584776 0.07083164 0.116348445 -0.2526725
0.06608951 -0.06759431 0.22227038 0.22249646 -0.08335611 0.096325725 -0.13014294 -0.0812019
-0.10286752 -0.06122213 0.2821528 -0.18419546 -0.1688103 0.029350381 -0.09296862 0.2016495
-0.02132413 0.18093184 0.21004021 -0.21063013 0.17862415 0.12771316 0.106063366 0.21289042
-0.16568844 0.14060895 -0.22291996 0.16329809 0.1863234 0.03496241 -0.29485533 0.14005981
-0.08646426 -0.17015862 -0.14793971 0.20070529 -0.15191528 -0.3358003 -0.18821016 0.055876996
-0.27178493 -0.2633955 0.088731185 0.055548865 0.001509598 -0.10830834 -0.09029292 -0.24363545
-0.32090583 0.20153205 0.28029805 0.16017628 0.072020404 0.02443222 0.27781188 -0.10285584
-0.17138396 -0.10639006 -0.17774682 -0.12363653 0.06697287 -0.05268985 -0.026312303 -0.3627265
0.20965244 0.24690184 0.2587753 -0.10377438 0.33832183 0.09557774 0.020170368 0.13368621
0.12008222 -0.18879789 -0.005447179 -0.10277894

i_resnet_layers.1.bottleneck_block.2.weight_u f4 [10]
00000000: e009 b43e cc4c 64be 982e c63e 58ba 873d
00000010: 77e9 023f 7476 523e 8aea a3be 8c05 f8be
00000020: ffcb 35be b126 0cbb
0.35163784 -0.2229492 0.38707423 0.06627339 0.5113749 0.20552999 -0.32014877 -0.48441732
-0.177536 -0.0021385367

i_resnet_layers.1.bottleneck_block.2.weight_v f4 [10]
00000000: c43e 07bd a3e6 e53e 5dda e13e 901b f9be
00000010: 1c7c d83d 703e d03c f841 043e c44d 6d3e
00000020: b53a e6be c23b 923e
-0.033018842 0.44902524 0.4411191 -0.4865384 0.10570547 0.025420398 0.1291579 0.23174196
-0.44966665 0.28561217

i_resnet_layers.1.bottleneck_block.4.weight_orig f4 [2, 10]
00000000: 22cb 8bbe 5518 e53d 449e 2c3e 927c 0fbe
00000010: 6571 27bd af67 8abd df57 85bd c68d 1bbe
00000020: 1d14 813c 5672 923e 84bf a8be 66d2 433e
00000030: 864b 9fbe 802e 873d 9fb8 303d e299 4c3e
00000040: 35ee a63d 6d58 4cbe 6dbf 803d c920 ca3c
-0.27303416 0.111862816 0.16857249 -0.14012364 -0.040879626 -0.06758057 -0.06510901 -0.15190801
0.015756661 0.28602856 -0.32958615 0.1912323 -0.31112307 0.06600666 0.04314482 0.19980577
0.08150903 -0.19955607 0.062865116 0.024673836

i_resnet_layers.1.bottleneck_block.4.weight_u f4 [2]
00000000: fe84 f3be a730 61bf
-0.47562402 -0.8796486

i_resnet_layers.1.bottleneck_block.4.weight_v f4 [10]
00000000: 9653 2f3f 2def b8be 0895 a13e ebee 643c
00000010: 97ee f8bc e60a 70be ccbc 87bd 6824 cf3e
00000020: 1166 d1bd 16d4 83be
0.68486917 -0.36119977 0.31559014 0.013972978 -0.030387206 -0.23441657 -0.06627807 0.40457463
-0.10224546 -0.25747746

i_resnet_layers.2.bottleneck_block.0.bias f4 [10]
00000000: 6d96 0dbf 1ca9 233f 1afe 8aba 40ef febd
00000010: 7d7d a73e 4483 14bf e45e aebe a28f 2d3e
00000020: 2fb0 f53d 9328 b3bd
-0.55307657 0.63929915 -0.0010604293 -0.12447977 0.32712927 -0.58012795 -0.3405677 0.16949323
0.11996495 -0.08747973

i_resnet_layers.2.bottleneck_block.0.weight_orig f4 [10, 2]
00000000: 0023 83be 3436 753e 839d 6d3e a974 ebbd
00000010: 9365 113f ca02 30be ec1d 23be 0f02 cf3e
00000020: 1045 e8be 7c1d 63be 6e02 1c3f c1e6 303f
00000030: ae80 fbbd 762e 033f 2922 08bf f407 6fbe
00000040: c103 73be 7505 8fbe 6c2e 823e 8ed2 76be
-0.2561264 0.23946458 0.23204617 -0.114968605 0.56795615 -0.17188564 -0.15929383 0.40431258
-0.4536519 -0.22179216 0.6094121 0.691021 -0.12280403 0.5124277 -0.53177124 -0.23342878
-0.23731901 -0.2793385 0.25426042 -0.24103758

i_resnet_layers.2.bottleneck_block.0.weight_u f4 [10]
00000000: 122c 503d 773f bcbd 8f75 8cbe 1c51 aabd
00000010: eedb c23e 9313 30bf dae9 1dbe 394d de3e
00000020: 9c6f 8b3e 526c 49bd
0.05082328 -0.091917925 -0.2743344 -0.08316252 0.38058418 -0.6877987 -0.15421239 0.4341829
0.2723359 -0.049175568

i_resnet_layers.2.bottleneck_block.0.weight_v f4 [2]
00000000: 782c 4fbf 0f62 16bf
-0.8092723 -0.58743376

i_resnet_layers.2.bottleneck_block.2.weight_orig f4 [10, 10]
00000000: b6f0 153e 0186 74be 3d5a d73d cd48 2fbd
00000010: 3254 883e 59ca b33e e746 a53c 7268 063e
00000020: 0d6e 853e b7d7 21bd 74ee 19be 9f00 a2be
00000030: 5fc7 76be 63c7 f03c 9a58 963e 939f adbe
00000040: bbaa 93bc 011c 99bd a117 903e ac7f 9e3d
00000050: cdb7 a6be f5f2 c5bc 8daa 683e fbc0 00be
00000060: c952 5d3e e798 523e e6b6 883e 4723 5b3e
00000070: c476 953d a97b 2bbe 5d30 413d 457f 59bc
00000080: a9c5 01be 46d8 e1bc da22 ef3d 82c3 9cbe
00000090: e853 8d3e 8951 a0bd ba2d 2abe 1dc7 f8bd
000000a0: 6c45 e8bd 493e 5e3e f406 0e3e 6121 29be
000000b0: 38e6 afbd 1c01 b53d 2723 843e 7019 5c3e
000000c0: 8602 8ebe e530 1b3d ec00 ff3c f283 adbd
000000d0: 5be5 8dbe 303c 60be 0091 a1bc 2f2e bcbd
000000e0: a63d 2abc 7970 5cbe 89de dc3d 2deb 943d
000000f0: c66f 6fbe 5ffe 8abe e6fe a1bc 794e 0fbe
00000100: 4336 563e 9477 1f3c 75ae 073e 215c 373e
00000110: 98a8 c4bd 3a88 893e 6402 4a3a 0652 25be
00000120: 40c9 893e 7091 a7be abd4 77be 3fac 3e3e
00000130: d52b d5be 8a17 d1bb 1c48 b43d cb6e 34be
00000140: 3bf2 63be d9c3 a63e 9714 2dbe 9178 91bc
00000150: acfc 3e3e 7d15 b6bd 6186 d2be 782f 34be
00000160: bdcb 1bbd 672b c8bd d157 e5bc 1856 243e
00000170: aa65 44be 2dc9 9ebd 3e8a d3bd 8216 9d3e
00000180: cad2 713d d6ab 56be 953d 49be 3f10 5e3e
0.14642605 -0.23879243 0.105152585 -0.042794038 0.26626736 0.35115317 0.02017541 0.1312578
0.26060525 -0.039512362 -0.15032369 -0.316411 -0.24099492 0.02939195 0.29364473 -0.33910808
-0.018025747 -0.074760444 0.28143027 0.07739195 -0.32562104 -0.024163703 0.2272131 -0.12573616
0.21613611 0.2056614 0.2670204 0.21400176 0.07298043 -0.16746391 0.047165263 -0.013274972
-0.12673058 -0.027568948 0.11676569 -0.3061791 0.27603078 -0.078280516 -0.16619006 -0.12147353
-0.11341366 0.21703447 0.1386984 -0.1651664 -0.085888326 0.08838102 0.2580807 0.21494079
-0.277363 0.037888426 0.03112837 -0.08472432 -0.27714047 -0.2189796 -0.019722462 -0.09188496
-0.010390675 -0.2152728 0.10784633 0.07271419 -0.23382482 -0.27147195 -0.019774865 -0.13994779
0.20919137 0.0097330995 0.13250144 0.17906238 -0.09602469 0.26861745 0.00077060447 -0.1614457
0.26911354 -0.32728148 -0.2420222 0.18620394 -0.41635004 -0.00638098 0.08802816 -0.17620389
-0.22260372 0.32571295 -0.16902386 -0.017757686 0.18651074 -0.08890817 -0.41118148 -0.17596233
-0.038036097 -0.09773903 -0.027995976 0.16048467 -0.19179407 -0.07753215 -0.10329102 0.30681235
0.059038915 -0.20963988 -0.19652398 0.21685885

i_resnet_layers.2.bottleneck_block.2.weight_u f4 [10]
00000000: 845d 7dbe 3a34 0b3f 069b c7be 2c08 823e
00000010: dbde bfbe f42a 983e 4393 1abd 1ad6 a9be
00000020: 1c07 923e 8d78 91bd
-0.24742705 0.54376566 -0.3898546 0.2539686 -0.37474713 0.2972027 -0.037738096 -0.3317116
0.2852105 -0.07103071

i_resnet_layers.2.bottleneck_block.2.weight_v f4 [10]
00000000: 4688 ab3c 726d 93bd f99c 10bf 9a40 423e
00000010: 0f45 563e bcc9 21bf 95e3 13be 7b18 c3be
00000020: 01d1 0d3e 5c76 d53d
0.020939004 -0.071986094 -0.5648952 0.18969956 0.20924781 -0.6319845 -0.14442284 -0.38104615
0.1384926 0.10422966

i_resnet_layers.2.bottleneck_block.4.weight_orig f4 [2, 10]
00000000: 76c1 173e e0c4 913e 50e4 f43d 0629 0abc
00000010: b965 903d 7211 ed3a cf3c c3bd 0f56 e1bd
00000020: 68e6 bdbe 636c 623e 35d3 26bd e594 023d
00000030: 08af a8be 6b1f 46be 6a24 4fbe 2608 923e
00000040: 40b6 4b37 b186 a2be 03e6 71be ac31 443d
0.14819893 0.28470516 0.1195761 -0.008432632 0.07050652 0.0018086864 -0.09533083 -0.110027425
-0.3708985 0.22111659 -0.040728766 0.03188028 -0.32946038 -0.19347923 -0.20228735 0.28521842
1.2142176e-05 -0.31743386 -0.23622899 0.047898933

i_resnet_layers.2.bottleneck_block.4.weight_u f4 [2]
00000000: a7bf fd3e 3e59 5e3f
0.49560282 0.8685492

i_resnet_layers.2.bottleneck_block.4.weight_v f4 [10]
00000000: e279 603d 69b2 793e c01a a8be 841d 7fbe
00000010: b947 50be 8915 b83e f36c 8cbd eb6d f4be
00000020: 0107 10bf fa15 603e
0.054803737 0.24384464 -0.3283291 -0.24913603 -0.2033986 0.3595393 -0.06856718 -0.4774011
-0.5626069 0.21883383

i_resnet_layers.3.bottleneck_block.0.bias f4 [10]
00000000: 6ac5 41bf 0bce 1dbe ddd4 1a3f 4f8e 28bf
00000010: 836f 54bd 2e8e 4fbf eb6f c5be f76d c8bd
00000020: c860 b2be ef11 1d3f
-0.75691855 -0.1541063 0.60481054 -0.65842146 -0.05186416 -0.81076324 -0.3856195 -0.09786599
-0.34839463 0.6135549

i_resnet_layers.3.bottleneck_block.0.weight_orig f4 [10, 2]
00000000: e568 e0be aa0d 0d3e 08cd 0ebf 1517 34bf
00000010: 7713 2abf 0030 013f d936 36be 2e88 a33d
00000020: 8c85 4b3d 4e10 0c3f 3316 043f e16f 313f
00000030: 41a1 d5be 9893 95be 022f 0bbf c1c8 02bf
00000040: 2c77 3fbc ef51 31be 766c 0b3f 2c35 4e3e
-0.43830028 0.13774744 -0.557816 -0.7034772 -0.6643595 0.5046387 -0.1779436 0.079849586
0.049687907 0.5471238 0.51596373 0.6931134 -0.4172459 -0.29214168 -0.54368603 -0.51087576
-0.011686128 -0.17316411 0.54462373 0.20137471

i_resnet_layers.3.bottleneck_block.0.weight_u f4 [10]
00000000: 3628 03be ee95 06bf 72cc 93bd 7792 2cbd
00000010: e7b0 7c3e 13f6 003f aedb 97be 1166 e1be
00000020: 317e 9cbd 0a3d a03e
-0.12808308 -0.52572525 -0.07216729 -0.042131867 0.24676858 0.5037548 -0.2965979 -0.44023183
-0.076412566 0.3129657

i_resnet_layers.3.bottleneck_block.0.weight_v f4 [2]
00000000: 560f 373f 9df4 323f
0.71507776 0.699045

i_resnet_layers.3.bottleneck_block.2.weight_orig f4 [10, 10]
00000000: bdb6 333e a35b 6c3e a8cf 43bc 02f0 f53c
00000010: 9bb2 aa3d 5a6c c53c 3c7f 99bd 8577 3c3b
00000020: 1d72 febc 460c a5bd 66df 5abe c970 92be
00000030: 6cdf 853e be9e af3d ab5f e63b 847e 6ebe
00000040: 5fba 4cbe ebb5 78bd 2145 303e b384 14be
00000050: 9bfc 5d3d 9399 5cbe 3187 873e afef 0ebe
00000060: f008 603e 0fe0 6cbe 33e9 4cbe 63cf 2abb
00000070: 2250 bc3d 387d 613e 055c 743e efbd 2a3e
00000080: 7abd 10be 4c57 8b3e db3e 37be 4dc7 0bbe
00000090: 7b69 9abe 57e3 553c e5e0 41be 551f 0ebe
000000a0: 93e9 81be cb5e 033d f817 90be f7e5 a4be
000000b0: 3e80 263e 617f 89be 6a18 a03c 4054 5f3e
000000c0: 11ab 4f3e dd3b d6bd ded1 15be dc9b 5bbe
000000d0: aaff aabe bdff 36be 75c3 bfbd c922 983e
000000e0: 45af 26be 5ae7 ee3b b45e b13d fdf6 91be
000000f0: bf21 313d e763 acbe 9946 17be 041f f6bd
00000100: 688d 873e cae8 4ebe 7897 a3be 9435 9fbe
00000110: f819 95bc fcb2 89be 6533 c9bd eacf 7dbd
00000120: c1a2 673e b85a 8dbd dfd3 88bd ce89 8d3d
00000130: a612 8cbe 7b64 95be 303a 253e c53c 9b3e
00000140: 09f2 57bd dc91 2dbe b934 8f3e 9b36 6cbd
00000150: b279 11be bc02 263e 7e17 3abe 4121 9fbe
00000160: bb2b d93d ec15 42bd a672 583e bf45 143d
00000170: cb5c 8cbb 2f17 ccbd 72e6 1f3d df2b a93e
00000180: 51e4 ab3d 9842 10be 7563 7d3e 08fa 2e3e
0.17550178 0.23081832 -0.011951365 0.030021671 0.083348475 0.024099518 -0.07494971 0.0028757763
-0.031060273 -0.080589816 -0.21374282 -0.28601673 0.2614702 0.085751995 0.0070304475 -0.2329045
-0.1999297 -0.060720365 0.1721387 -0.14503746 0.05419598 -0.21542959 0.2647033 -0.1395862
0.2187841 -0.23132347 -0.20010833 -0.0026063554 0.091949716 0.22020423 0.23863228 0.16674016
-0.1413478 0.2721504 -0.17895071 -0.13650246 -0.301586 0.01305469 -0.18933447 -0.1387914
-0.25373515 0.032072823 -0.28143287 -0.322067 0.16259858 -0.26854995 0.019542892 0.21809483
0.202801 -0.10460637 -0.14630839 -0.21446174 -0.3339818 -0.17870994 -0.09363452 0.2971404
-0.16277798 0.007290763 0.08660641 -0.2850875 0.043245073 -0.3366997 -0.14773025 -0.120176345
0.26475072 -0.2020599 -0.319515 -0.31095564 -0.01820086 -0.26894367 -0.09824256 -0.06196586
0.2262068 -0.06902069 -0.06681036 0.0691105 -0.27357978 -0.29178223 0.16135478 0.303198
-0.052721057 -0.16950172 0.27969912 -0.057669263 -0.1420658 0.1621198 -0.18173024 -0.31080058
0.10604044 -0.047384188 0.21137485 0.036199328 -0.0042835227 -0.099653594 0.03903813 0.33041283
0.08393157 -0.14087903 0.24744971 0.17087567

i_resnet_layers.3.bottleneck_block.2.weight_u f4 [10]
00000000: 8def 09be f2d0 f03e ff73 d03e 9a1d 1abe
00000010: 673a bd3c 850a cd3d 6d4f fc3e 2933 ce3e
00000020: a27b ca3e ba44 75bc
-0.13470288 0.47034413 0.40713498 -0.15050355 0.023099137 0.10011772 0.49279347 0.40273407
0.3954745 -0.014969999

i_resnet_layers.3.bottleneck_block.2.weight_v f4 [10]
00000000: d2c6 4abe 74bd 0cbf 8205 ad3e 9718 45be
00000010: 02bd 163e f135 31be 73a0 f0be 68df d2be
00000020: 429f 823e 06de 19bc
-0.19802406 -0.5497658 0.33793265 -0.19247662 0.14720538 -0.17305733 -0.46997413 -0.4118607
0.2551213 -0.009391313

i_resnet_layers.3.bottleneck_block.4.weight_orig f4 [2, 10]
00000000: 40c2 65be f012 cabe 283d 353e 51f1 00bd
00000010: cec3 2f3d af04 523e d99c aabe f766 6fbe
00000020: 4417 443d 053e 013d 04a3 bc3c f2cc 683e
00000030: 900d d1bb 6e0d c0bc 91d4 30be 820c bbbd
00000040: bba5 77be 927c 8fbe 9309 7cbe cb94 653e
-0.22437382 -0.39467573 0.1769911 -0.031480137 0.042911343 0.20509599 -0.3332279 -0.23379122
0.04787375 0.031553287 0.02302695 0.2273443 -0.0063797906 -0.023443904 -0.17268588 -0.09133245
-0.24184315 -0.28024727 -0.24613027 0.22420041

i_resnet_layers.3.bottleneck_block.4.weight_u f4 [2]
00000000: c14e 7c3f 884a 2d3e
0.9855767 0.16922963

i_resnet_layers.3.bottleneck_block.4.weight_v f4 [10]
00000000: bb06 a5be d206 05bf 87b7 833e 0b0b 55bd
00000010: 7697 9e3c f2c3 8d3e 1133 0cbf c9e7 d2be
00000020: e58c 083c 5cb8 d13d
-0.32231697 -0.5196353 0.25725958 -0.052012485 0.019359332 0.27688557 -0.5476542 -0.41192463
0.008334373 0.10240242

i_resnet_layers.4.bottleneck_block.0.bias f4 [10]
00000000: d1c1 163f 2451 e1be 4639 44be 47c0 aebe
00000010: ad36 1fbe 0b9c 1d3f 23d4 b1be edd5 90be
00000020: 48e4 0bbf 2acb 803e
0.5888949 -0.44007218 -0.19162473 -0.3413107 -0.15548201 0.6156623 -0.3473216 -0.28288212
-0.54645205 0.25155002

i_resnet_layers.4.bottleneck_block.0.weight_orig f4 [10, 2]
00000000: 7478 803e 956b d63b 64ab a43e 1474 15bf
00000010: ab91 333e f6e0 d6be 4e86 9b3e 2a86 b5be
00000020: 401d 19be 0a34 dc3e eb4d 8fbc c35c e53e
00000030: 499d 56be fdfb 3dbe 1d8e 343f 59b5 c0bc
00000040: e6e3 6bbe 7157 08bf b5d1 923e 3490 1fbf
0.25091898 0.0065435865 0.3216201 -0.58380246 0.17536037 -0.41968507 0.30375904 -0.35453922
-0.14952564 0.43008453 -0.017493209 0.44797334 -0.20958437 -0.18553157 0.7052935 -0.023523973
-0.23036155 -0.53258425 0.2867562 -0.6232941

i_resnet_layers.4.bottleneck_block.0.weight_u f4 [10]
00000000: 124f 973d 1e1d f33e 43df a53e 60ec a43e
00000010: 332e a5be 1b0b 96be 17e9 5c3d 0f27 703e
00000020: 9e60 8a3e 7789 fa3e
0.07388128 0.47483152 0.32396898 0.3221159 -0.3226181 -0.29305348 0.05393323 0.234524
0.27026838 0.48933002

i_resnet_layers.4.bottleneck_block.0.weight_v f4 [2]
00000000: a645 df3e 6b60 66bf
0.43607825 -0.8999087

i_resnet_layers.4.bottleneck_block.2.weight_orig f4 [10, 10]
00000000: 4107 323e 7cad 53be e11a a5bd 74c2 2dbe
00000010: 0410 19bd 187c 8b3e e4e8 88be 3af5 d1bd
00000020: 259e 483e 5ad5 bdbe c8cf 71bd 03fd c13e
00000030: df2b 563e c3ac 86be 2d47 bfbe 0114 9939
00000040: e501 d3bd aa94 853d a16c 94bd d6ac b63e
00000050: 4c7c 85bd bbd2 a23e ab48 343e 4059 f6bd
00000060: a8ae aabd 65b5 1abe 964a 643e e79d 8a3e
00000070: a299 be3d 63f8 dabd 8c6e 803e b930 5ebe
00000080: be0d 8cbe 436c 4cbe 683b 683c 9321 29bd
00000090: dca2 c63c b9f3 533e ab3e d8bd 0e39 e53d
000000a0: f045 39bd 69d7 9abe e128 c6bc 8228 80be
000000b0: 0d35 46be 6c08 24be f30d a4bd d61e 723d
000000c0: f49e 523d b01e 7bbc 1491 66be b448 91be
000000d0: 72ae 86be 7070 7fbd 302e d0bd 8609 993e
000000e0: 2214 86bd d864 4b3d 7b1b 2b3e 6476 353e
000000f0: 0bb4 92be 53e2 8cbd 9867 8d3e de13 cb3d
00000100: b180 13be d604 81be 9ede 4fbe 2fbe 973d
00000110: f36b 2c3e c2c6 5dbe 63fa b4bd dba5 fbbd
00000120: 5390 4dbe 4382 9dbd 87bb 583e d7e0 54be
00000130: 7188 aa3e 1df4 a03d 7a93 52bd 67ec d83c
00000140: 0425 9f3c 880b 84bd f778 f5bd d814 a33e
00000150: f781 663d c5ac 39be 7a36 583e 2d3e 423e
00000160: b1ea 2b3c 7827 943e bfa8 a53e d46e da3b
00000170: 2bd9 093d 0ec2 0bbe 20c1 b73d 7ad6 eebd
00000180: c220 813e 339d debd 9619 b33d e8ed 9bbe
0.1738558 -0.20671648 -0.08061767 -0.16968709 -0.03736879 0.27243114 -0.2674018 -0.102518514
0.19591577 -0.37076837 -0.059036046 0.37888345 0.20915173 -0.26303682 -0.3735899 0.00029197338
-0.10303096 0.06522496 -0.07247282 0.35678738 -0.06517848 0.318014 0.17605846 -0.12028742
-0.08334094 -0.15108259 0.22294077 0.27073595 0.09306647 -0.10691907 0.2508434 -0.21698274
-0.27354234 -0.19963174 0.01417432 -0.041291784 0.02424758 0.20698442 -0.10558828 0.11192523
-0.045232713 -0.3024247 -0.024189414 -0.25030905 -0.19356175 -0.16018838 -0.08010473 0.05911144
0.05142112 -0.015327141 -0.2251628 -0.2837578 -0.26304966 -0.062363088 -0.101650596 0.29890078
-0.06546809 0.04965672 0.16709702 0.17720944 -0.28652987 -0.068791054 0.27618098 0.09915899
-0.1440456 -0.25199002 -0.20299765 0.074093215 0.16838054 -0.21657851 -0.0883682 -0.12287494
-0.20074587 -0.07690861 0.21165286 -0.20788895 0.33307222 0.07859061 -0.051410176 0.026479913
0.01942683 -0.06447512 -0.11985963 0.3185184 0.056276288 -0.18132313 0.21114531 0.1896903
0.0104929665 0.28936362 0.32355306 0.006666044 0.033654373 -0.13648245 0.089723825 -0.11662002
0.25220305 -0.10869827 0.087451145 -0.30454946

i_resnet_layers.4.bottleneck_block.2.weight_u f4 [10]
00000000: 843a 0bbf b367 0f3f 5d95 cb3e d5c6 6fbe
00000010: bf4a 12be 2e80 90be d1da 173e 6118 4bbd
00000020: 7772 203e 88a0 2cbe
-0.5438616 0.5601761 0.39762393 -0.23415692 -0.14286326 -0.28222793 0.14829566 -0.049583796
0.15668665 -0.16858113

i_resnet_layers.4.bottleneck_block.2.weight_v f4 [10]
00000000: b25d 78be ce32 233f d8a8 d53e fd79 bd3d
00000010: 80d8 5dbe f653 9ebe acf7 1a3e e9fe 443e
00000020: f20b 06be 1558 ba3e
-0.24254492 0.63749397 0.4173038 0.09251783 -0.2166462 -0.30923432 0.15133542 0.19237866
-0.13090494 0.36395326

i_resnet_layers.4.bottleneck_block.4.weight_orig f4 [2, 10]
00000000: 315a 2e3e a17e 99be 257b 03be 08ac 553e
00000010: 6a4a 2f3e e719 8d3d c96c 6dbe e646 bb3b
00000020: 6bee 5bbd df76 cb3d 3109 0a3e 619c 08be
00000030: e9e5 88be bd1f 963d cfa9 383b 43d2 103e
00000040: f1f5 783d 9753 e23d 2e23 87be f488 79be
0.17026593 -0.29979423 -0.12839945 0.20866406 0.1711823 0.06889706 -0.2318603 0.005715239
-0.05369417 0.09934782 0.13480069 -0.13340904 -0.26737908 0.07330272 0.0028177386 0.14142708
0.060781423 0.110511 -0.26394027 -0.2436865

i_resnet_layers.4.bottleneck_block.4.weight_u f4 [2]
00000000: 09cc 35bf 023d 34bf
-0.7101446 -0.7040559

i_resnet_layers.4.bottleneck_block.4.weight_v f4 [10]
00000000: 68bb b3be 0989 ff3e efb7 e83e e16e a6be
00000010: 3aaa 4dbe ba44 77be 9107 4b3e 0951 08be
00000020: 7782 ba3e 5560 283e
-0.35103917 0.49909237 0.4545283 -0.3250647 -0.20084468 -0.24147311 0.19827105 -0.13312162
0.36427662 0.16442998

i_resnet_layers.5.bottleneck_block.0.bias f4 [10]
00000000: ca11 11bf 2891 1ebf 227d d2bd c455 2c3e
00000010: aa1a c13e f8ea 0f3f 2a62 28be aaed e1bd
00000020: 8b47 a3be 05f4 01bd
-0.5666777 -0.6194024 -0.102777734 0.16829592 0.37715656 0.5621791 -0.16443697 -0.11031659
-0.3189052 -0.031726856

i_resnet_layers.5.bottleneck_block.0.weight_orig f4 [10, 2]
00000000: 6823 bbbe f959 25bf e901 a33e 9a67 da3e
00000010: 7a74 f73d de09 d2bd 0e4f 973e 8b92 ebbe
00000020: fbad a43e dba4 213f c2fc b8be c150 49be
00000030: 1d1a 02bf 0abc 56bf c670 af3e 4551 023f
00000040: c96b 173d 640d 633e bef9 72be 60f4 dc3e
-0.3655045 -0.6459041 0.31837395 0.42657167 0.12082763 -0.10255788 0.295525 -0.4601024
0.32163987 0.63142174 -0.3613034 -0.19659711 -0.50821096 -0.83880675 0.34265727 0.5090526
0.036968026 0.22173077 -0.23728082 0.43155193

i_resnet_layers.5.bottleneck_block.0.weight_u f4 [10]
00000000: 7f4d dc3e 9ce0 9bbe 184f ad3c b196 233e
00000010: 0483 d2be f1c5 493e e04d 113f ca05 b5be
00000020: b99a febd f42b 24be
0.43027875 -0.304448 0.021155879 0.15975453 -0.41115582 0.19704415 0.5675945 -0.3535598
-0.12431855 -0.16032392

i_resnet_layers.5.bottleneck_block.0.weight_v f4 [2]
00000000: dcf0 e8be 80f8 63bf
-0.4549626 -0.89051056

i_resnet_layers.5.bottleneck_block.2.weight_orig f4 [10, 10]
00000000: 94cc 2abe 8e19 4abe af7e 7abe 8c08 da3d
00000010: b2b3 12be 2ee2 423c 820f 95be 05b9 ab3c
00000020: 6c2b 6b3e 4712 7a3e cb4a 45be 28bf 50be
00000030: 1e8a e2bd 1a1b 7ebe da5d bc3d 75b4 3d3d
00000040: 85a7 07bd 0ea3 853d d4b3 323e 0252 37be
00000050: d6d7 0c3e 18f0 7a3e acf8 53be 3359 0a3d
00000060: 19c8 4cbe 348e 8c3d 845e 9b3d f79e 0dbe
00000070: 09d8 3e3e d7a7 493e a599 e1bd 4a73 4d3d
00000080: 9ee1 27be b9b2 06be 71cd 283e d841 b03d
00000090: 2a25 603c 0a9b ab3d 735d dcbd b28b 5abe
000000a0: 0d92 1fbe 6c6d 733e e64d 473c 74fb 423e
000000b0: 7cec 09be 06fb 843e ad7c 8b3e c9e5 b9bc
000000c0: 788d 2b3e 28ea 90be b63f 0e3a 20f4 c53d
000000d0: 5d17 12be 0e67 413e f7e1 66be c2cd 2aba
000000e0: 748b 223e c501 923d 4476 26be 09d0 833e
000000f0: 9d2a d6bd c44c cc3d 6dbf 3e3e 56b4 0dbd
00000100: 1063 aebd 3da7 6d3e ee9b 8abe 6dd7 bf3d
00000110: efd3 7ebe 2599 61be 7135 f5bb 697b 4a3e
00000120: 4685 f93d d0cf 59be 2410 4d3e 7682 dab8
00000130: 8205 7dbd cfe4 71be cdd4 b43e f6c8 4b3e
00000140: 8e09 d7bd 6249 cb3d 5480 9c3d 0135 4fbd
00000150: fb9c 9abd edaa 043d 7ba2 9dbe 9a10 37be
00000160: a57c 4fbe 2c8d 543e a4ad c3bd 5e41 0d3e
00000170: ff88 8bbe 197c 11be f68e b4bd c685 49be
00000180: a843 b9be 7f5b 8ab9 7226 ffbd 441d c8bd
-0.16679603 -0.19736311 -0.24462388 0.106461614 -0.14326361 0.011894746 -0.29113394 0.020962248
0.22965783 0.24421035 -0.19266813 -0.2038542 -0.110615 -0.24815026 0.09197588 0.046314675
-0.033118743 0.06525241 0.17451411 -0.17902377 0.1375421 0.24505651 -0.2070033 0.033776473
-0.19998206 0.068630606 0.07586387 -0.13830172 0.18637098 0.19692932 -0.110156335 0.050158776
-0.1639466 -0.13154115 0.1648462 0.08606309 0.013680736 0.08379181 -0.107600115 -0.21342352
-0.15583058 0.2377221 0.0121645685 0.19041234 -0.13469118 0.25972766 0.27243558 -0.022692578
0.16753185 -0.28303647 0.0005426364 0.09665704 -0.14266725 0.18886968 -0.22547136 -0.00065156457
0.1587351 0.07129244 -0.16256052 0.25744656 -0.104573466 0.099755794 0.1862771 -0.03459581
-0.085149884 0.23208328 -0.2707209 0.09367261 -0.24885534 -0.22031076 -0.0074831774 0.1977364
0.12183623 -0.2127068 0.20025688 -0.0001041935 -0.06177283 -0.2362244 0.35318604 0.1990088
-0.10499869 0.09926106 0.07641664 -0.050587658 -0.07549473 0.03238957 -0.30788025 -0.17877427
-0.20262392 0.20756978 -0.09554604 0.13794467 -0.27252957 -0.14207496 -0.0881633 -0.19679937
-0.3618443 -0.0002638958 -0.12458505 -0.09771207

i_resnet_layers.5.bottleneck_block.2.weight_u f4 [10]
00000000: 7d9e 823e 0a1b 3c3e 137a 8dbe 5b05 073e
00000010: 9d85 f9be 1e26 43be 632c a43e 2d24 88bd
00000020: bad9 bd3e b497 093f
0.25511542 0.1836969 -0.27632198 0.13185637 -0.4873475 -0.1905751 0.32065114 -0.06647525
0.37080175 0.53747106

i_resnet_layers.5.bottleneck_block.2.weight_v f4 [10]
00000000: ab10 60be b033 41be 01d5 e8bd f398 a7be
00000010: efcd 7b3d 0dbb 32be cef4 4dbf e0f8 5a3d
00000020: 3ec4 aabe fccf efbc
-0.21881358 -0.18867373 -0.11368752 -0.32733878 0.06147569 -0.17454167 -0.8045167 0.053460002
-0.33352846 -0.02927398

i_resnet_layers.5.bottleneck_block.4.weight_orig f4 [2, 10]
00000000: 6f37 84be 41db 81bd 6276 db3d c79e 183e
00000010: 6c1c 9ebd a361 30bc 20cd 46be 377c 8a3e
00000020: 16db a5be a445 99be 6766 413d 1a37 d83d
00000030: 9622 8cbe 00a3 143e 2617 3a3e fca8 e43d
00000040: 8787 79be aa98 7e3e 497a bfbd 77a7 0a3e
-0.25823542 -0.063406475 0.10715939 0.14904319 -0.07720265 -0.010765466 -0.19414186 0.27047893
-0.32393712 -0.29935944 0.0472168 0.10557385 -0.27370137 0.14515305 0.18172893 0.11165044
-0.24368106 0.24862924 -0.09349496 0.13540445

i_resnet_layers.5.bottleneck_block.4.weight_u f4 [2]
00000000: bfe8 69bf 0110 d0be
-0.9137077 -0.4063721

i_resnet_layers.5.bottleneck_block.4.weight_v f4 [10]
00000000: 528f a63e a703 b83c e044 a53c 271b 96be
00000010: f81b 9fbb e2d9 59bd b26e d43e 67da 05bf
00000020: ab57 003f 3bef a73e
0.3253122 0.02246268 0.020174444 -0.2931759 -0.004855629 -0.053186305 0.41490704 -0.5228638
0.5013377 0.32799706

i_resnet_layers.6.bottleneck_block.0.bias f4 [10]
00000000: 4578 55bf 7f53 473f 0b28 343f da00 05bf
00000010: b79c febe 1485 ff3e d647 fd3e b097 0b3f
00000020: 55e2 ea3c 96b0 1c3f
-0.8338664 0.7786178 0.703736 -0.51954424 -0.4972894 0.49906218 0.4946887 0.5452833
0.028672377 0.6120695

i_resnet_layers.6.bottleneck_block.0.weight_orig f4 [10, 2]
00000000: 580a 553e 6855 2a3f 5084 c2be bea3 81be
00000010: c756 b43e 9f51 ee3d 2047 50be 0e98 05bf
00000020: a73d c63e 5db7 f7be 4e83 c3bd 267c 27be
00000030: fb2a babe 7f61 1d3f 28a9 9fbd f79c e83e
00000040: 3474 1abf bbef c9be 402b 47bf 15cc 08be
0.20804727 0.6653657 -0.3799157 -0.25320238 0.35222456 0.11636662 -0.20339632 -0.5218514
0.38718912 -0.48382083 -0.09546529 -0.16355953 -0.36360916 0.6147689 -0.07795936 0.45432255
-0.6033356 -0.39440712 -0.7780037 -0.13359101

i_resnet_layers.6.bottleneck_block.0.weight_u f4 [10]
00000000: dfbd ed3e a710 9abe 28cd 583e b50c c3be
00000010: c8e1 ebbd 52ac 07be c823 4c3e 659d 673e
00000020: 0374 f2be da77 cbbe
0.46433923 -0.3009083 0.21172011 -0.38095632 -0.11517674 -0.13249329 0.19935524 0.22618635
-0.47354135 -0.39739877

i_resnet_layers.6.bottleneck_block.0.weight_v f4 [2]
00000000: 756b 163f a425 4f3f
0.58757716 0.8091681

i_resnet_layers.6.bottleneck_block.2.weight_orig f4 [10, 10]
00000000: 081c 803d 51ff 81be 1c75 a5bd 71d1 0a3d
00000010: 3d15 5dbe 0e95 8c3d 94c1 423e 677f c6b9
00000020: c08e 883e 4c3c 9c3d ff23 c7bd cb04 893d
00000030: c43c 81be d2e0 1c3d 4247 8d3e b3ed 943e
00000040: 230e 233e 269d d3bd 5a7d 45be c3f4 9f3e
00000050: 3c42 9fbd 3755 89be 8f35 0ebe 458b 403e
00000060: 1a77 2cbe 4ea4 a53e a909 9c3d 60cb 053d
00000070: 99d3 a3be 171e 873e e523 8f3d 6732 853e
00000080: 269f 023e 68b7 7e3e 37c1 2fbe 50e8 213e
00000090: 1bf4 68bd a9f8 0fbe 29f1 bc3d 1c71 afbd
000000a0: f750 523e 0b75 53be 210b 89bd 2192 1cbe
000000b0: 5af2 95be 5e0a 82bd d8ba a73e 7ee2 403e
000000c0: 1e71 d2bd 1fe7 613e fea6 c53e eb51 a6be
000000d0: c034 83bd 057d 853e d6a7 ad3d 23e3 853d
000000e0: ce99 e5bd 4fa0 073e f4c4 5e3d dcb6 4cbe
000000f0: 38df cabd 69a9 6bbe 6e55 6a3e 04fd a9be
00000100: bcd0 5a3d b3cf f53c 0805 98bd ad6f 0b3e
00000110: 9b87 ca3d 7123 263e f36d 82bc 6543 fa3d
00000120: 58bc 683e 251f ea3d d207 ff3c d23e 1f3e
00000130: b1a4 71be 692f 273e b699 c93d 9f4f 433e
00000140: 69c0 18bd b15b 51bd ac3a 78be bca5 823e
00000150: 05f3 473d 29ce 243e e52a 82be f317 fb3d
00000160: 7be4 80bd 947e 13bd 55d7 0cbe d24d 9bbe
00000170: 9b24 17be c3fe 1cbd 72f5 35bd a6db 873e
00000180: a13b 913e 9d3e 36be 29a3 78bd 2b93 14bc
0.062553465 -0.25390103 -0.080789775 0.033891145 -0.21590133 0.068643674 0.19019157 -0.00037860425
0.2667141 0.07628688 -0.097236626 0.06690367 -0.25241673 0.038300343 0.27593428 0.290876
0.15923361 -0.10332708 -0.19286099 0.31241426 -0.07776305 -0.26822826 -0.13887618 0.18803127
-0.16842309 0.32351917 0.0761903 0.032664657 -0.31997374 0.26390144 0.06989268 0.26015016
0.12756023 0.24874651 -0.1716355 0.15811276 -0.056873422 -0.140597 0.09225685 -0.08566496
0.20538698 -0.20650117 -0.06691576 -0.15290119 -0.29286462 -0.06349634 0.32759738 0.188364
-0.10275482 0.22060822 0.38603967 -0.32484373 -0.06406546 0.26071945 0.08479278 0.065374635
-0.112109765 0.13244747 0.054387048 -0.1999163 -0.09905857 -0.23013844 0.22884151 -0.33200848
0.05342172 0.030006265 -0.07422835 0.1361682 0.09889146 0.16224457 -0.015921568 0.12219886
0.22728097 0.114317216 0.031131659 0.15551308 -0.23597981 0.1632668 0.09843771 0.19073342
-0.03729287 -0.051112834 -0.24241132 0.2551707 0.048815746 0.16094269 -0.2542335 0.12260427
-0.06293579 -0.036009386 -0.13754018 -0.3033281 -0.14760058 -0.038328897 -0.044423528 0.26534766
0.28365806 -0.17797323 -0.060702477 -0.009068291

i_resnet_layers.6.bottleneck_block.2.weight_u f4 [10]
00000000: 7aaa 843e 2c1a c03e 640f 133f c761 3cbe
00000010: cf86 cf3e 8813 533d 7af5 1a3d 083a 28be
00000020: ab65 7f3d 1202 f53e
0.25911313 0.37519968 0.5744536 -0.18396674 0.40532538 0.0515323 0.03783176 -0.16428387
0.062352818 0.47853142

i_resnet_layers.6.bottleneck_block.2.weight_v f4 [10]
00000000: 1972 36bd 49eb 06bf 7bb6 bcbe 0f1e 533b
00000010: e400 1fbe 8aff c13e 0d6f e73e 3e89 2abc
00000020: 4b82 95be b379 b63e
-0.044542406 -0.52702767 -0.36857972 0.0032213961 -0.15527683 0.37890273 0.45201913 -0.010408698
-0.29200968 0.35639724

i_resnet_layers.6.bottleneck_block.4.weight_orig f4 [2, 10]
00000000: a708 92bc 11cf 9f3d c565 70be 43b8 89bd
00000010: 8ea9 873e 95e5 8e3e d2e0 303c 77f5 8f3d
00000020: 9219 71be e056 b5be 3764 66be a528 0fbe
00000030: a552 503d 6a85 69bd aa6c 53be 740f b1bd
00000040: 03fe c93d 7086 78bd dcbc f5bd ac2e 203e
-0.017826391 0.07803167 -0.23476322 -0.06724598 0.26496547 0.27909532 0.010795789 0.070292406
-0.2354491 -0.35417843 -0.22499166 -0.13980348 0.050860066 -0.057012 -0.20646921 -0.086455256
0.09862902 -0.060675085 -0.11998913 0.15642804

i_resnet_layers.6.bottleneck_block.4.weight_u f4 [2]
00000000: 57a1 693f f24f d1be
0.9126181 -0.40881306

i_resnet_layers.6.bottleneck_block.4.weight_v f4 [10]
00000000: 1aa8 e53d 53d7 423e ae42 b2be 9eac 66bd
00000010: cf67 f73e 62e7 db3e c713 38bd a018 073e
00000020: e1a5 7bbe 23d9 12bf
0.112137035 0.19027452 -0.34816498 -0.056316964 0.48321387 0.4294997 -0.044940736 0.13192987
-0.24574997 -0.57362574

i_resnet_layers.7.bottleneck_block.0.bias f4 [10]
00000000: 73c1 763e 9aa5 253f 0a1e 3d3f a7a6 3ebe
00000010: a34b e0bd a8b7 283f 398e 9f3d 944a 2ebf
00000020: 6bf2 da3e 9574 193f
0.24097233 0.6470581 0.7387396 -0.1861826 -0.109519266 0.6590524 0.07790799 -0.6808255
0.42763075 0.59943515

i_resnet_layers.7.bottleneck_block.0.weight_orig f4 [10, 2]
00000000: 9c35 4cbf 2077 7e3e 3b27 1cbe 92a7 4e3e
00000010: ba7c f63d dbd1 d8bd fd72 2a3f cdf1 9c3e
00000020: 53d5 0b3f c689 8ebe 5de9 8cba a2f8 a73e
00000030: b34c ed3e 4916 883e 5ae0 263f f448 723e
00000040: 33f1 003f c306 c93e e21c 8e3e b31c bb3e
-0.797693 0.2485013 -0.1524934 0.2018111 0.120355085 -0.10586902 0.6658171 0.3065323
0.5462238 -0.27839488 -0.00107507 0.3280688 0.4634758 0.26579502 0.65186083 0.23660642
0.5036804 0.3926297 0.2775641 0.36545333

i_resnet_layers.7.bottleneck_block.0.weight_u f4 [10]
00000000: 0aab eabe f915 86bd eae6 723d 6394 e93e
00000010: 66aa 983e 0010 3e3d c86f a63e 92fc df3e
00000020: bf84 bc3e 00ae 653e
-0.45833617 -0.0654716 0.059302248 0.45621023 0.29817504 0.046401978 0.32507157 0.43747383
0.36820027 0.22429657

i_resnet_layers.7.bottleneck_block.0.weight_v f4 [2]
00000000: a465 793f 3b12 673e
0.97420716 0.22565548

i_resnet_layers.7.bottleneck_block.2.weight_orig f4 [10, 10]
00000000: 4ba0 8d3e fc16 6bbd ac70 8e3e 07e0 873e
00000010: 1ed3 bd3d 0b7c 0cbe a75f 233e bb3e 7d3e
00000020: 58b5 46be 82bd bebe 4bb5 3ebe b2d9 99be
00000030: 82b3 bebd ac56 a8be e070 003e 011d 35be
00000040: af7e 65bd 17d4 303e 0db7 e53d 89fc 893c
00000050: 40b0 363e b6eb 193e a6bd bc3d 84d5 013d
00000060: cdca 003e 4600 52bd 92ef 8b3e c764 863c
00000070: a2ce 82be 9714 253e a801 213e 78ac 693e
00000080: 8906 5fbe 4009 94be c1ef 523e 4c71 c1be
00000090: 625f ee3c 55ba 683e f06e 89be f4c6 313d
000000a0: 8ffb 863e e9de ffbd f605 06be c452 933e
000000b0: 3543 19bd 0ba1 e03d c386 83be 03c2 1a3e
000000c0: 28dc 47be 5790 6f3e d250 e43d aa96 5fbd
000000d0: 92c5 30be d1da a5bd babf 27be 31fc b8bd
000000e0: eea9 59be aaa4 5f3e d400 953e acaf 443e
000000f0: 73ba ccbd 2d76 dc3c 9e14 753e 48cb 34bd
00000100: 5e4e 483e 5bb7 c13d 0d07 513e 5c52 3e3e
00000110: cdf2 98bd a52d c13d 5a94 42be 61e3 92bc
00000120: ab3f 3d3e 529b ddbd b3e1 babd 05d3 8bbe
00000130: d80f bfbc d808 99bd e411 363d bd5c 323e
00000140: 0114 cd3d 24cc 77bd 6113 54be 3ad6 4d3e
00000150: 0beb 9bbb d513 433e 0e7f 843e 4e89 84be
00000160: 06d1 06be dd80 283e e104 5abe 85d6 ab3e
00000170: 12c4 783e ed7e 173e df75 32bd f2c6 9abe
00000180: 1959 903e 1b3a 84be 47be 54bd 4008 7cbe
0.27661356 -0.057394966 0.27820337 0.26538107 0.09268783 -0.13719194 0.15954457 0.24730961
-0.19405115 -0.37253958 -0.18623845 -0.300489 -0.09311582 -0.32878625 0.12543058 -0.17686845
-0.056029018 0.17268406 0.11216555 0.016844051 0.17840672 0.15031323 0.0921586 0.031697765
0.12577362 -0.051269792 0.27331215 0.016405476 -0.25548273 0.16121136 0.15723288 0.22819698
-0.21779837 -0.28913307 0.20599271 -0.3778175 0.029098216 0.2272733 -0.2684245 0.043402627
0.263638 -0.124936886 -0.13088211 0.28774083 -0.03741761 0.109682165 -0.25688753 0.15113072
-0.19517577 0.23394905 0.11148228 -0.054587044 -0.17262867 -0.080983765 -0.16381732 -0.09032477
-0.2125623 0.21840158 0.29102194 0.19207639 -0.099965 0.02691182 0.23933646 -0.044139177
0.19561145 0.094588004 0.20412846 0.18586105 -0.074681856 0.09432534 -0.19001904 -0.017930688
0.18481319 -0.108206406 -0.0912508 -0.27309433 -0.023322985 -0.0747239 0.044450656 0.1741819
0.10013581 -0.060497418 -0.20710517 0.20101252 -0.004758244 0.19050534 0.25878185 -0.25886005
-0.13165674 0.16455407 -0.21290924 0.33562103 0.24293545 0.14794512 -0.043569442 -0.30229908
0.28192976 -0.2582558 -0.051939275 -0.24612522

i_resnet_layers.7.bottleneck_block.2.weight_u f4 [10]
00000000: 0f56 d6be 0ebe 8e3e e676 8fbe 3f00 38bd
00000010: 42c8 7e3e 7f96 de3e 286f 2dbe ce03 7ebc
00000020: d15e 8ebd 2d30 1ebf
-0.41862532 0.27879375 -0.280204 -0.04492211 0.2488108 0.43474194 -0.16936934 -0.015503837
-0.069516785 -0.6179226

i_resnet_layers.7.bottleneck_block.2.weight_v f4 [10]
00000000: 73d2 063d fb41 bbbe f2a5 debe c83d 81be
00000010: cf4a 05be 514a 3d3e 61c3 07bf 7eb8 513e
00000020: 81b7 a33e fda9 bc3e
0.032915544 -0.36573777 -0.4348598 -0.25242448 -0.13016818 0.1848538 -0.530325 0.20480534
0.3197594 0.3684844

i_resnet_layers.7.bottleneck_block.4.weight_orig f4 [2, 10]
00000000: d5b6 c8bd bba1 8bbe 4cb1 52be 4fe7 51bd
00000010: 98e2 9c3d 128c 1fbd 0b0b de3d 685e 84be
00000020: 56b1 d83d a4c0 42be 8791 bfbe 292f 8a3e
00000030: 3081 153e 1459 33be 55e4 67be 3c94 733e
00000040: 6f39 2cbe 2fec 10bc 974f b2bd a67b 393e
-0.098004974 -0.27271828 -0.20575446 -0.051245984 0.07660407 -0.03895194 0.1084195 -0.25853276
0.10580699 -0.19018799 -0.37415716 0.26989105 0.14600062 -0.1751445 -0.22645696 0.23787016
-0.16818784 -0.008845373 -0.08706587 0.18113574

i_resnet_layers.7.bottleneck_block.4.weight_u f4 [2]
00000000: dbc3 f83e 87c0 5fbf
0.48586926 -0.8740315

i_resnet_layers.7.bottleneck_block.4.weight_v f4 [10]
00000000: ec0b c63e 5d9c 02bf 5039 a1be 69b7 353e
00000010: 38b2 a63e a0de a0be c18d 8d3e da1f 27be
00000020: 0bc6 343e 20b5 b1be
0.3868097 -0.5101984 -0.31489038 0.17745747 0.32557845 -0.3141985 0.27647212 -0.16320744
0.17653672 -0.347085

i_resnet_layers.8.bottleneck_block.0.bias f4 [10]
00000000: fcde cd3e a05b be3d 5868 163f 60fe 463e
00000010: 79f0 2e3e 843b a53e 3308 573e 1a7e c5be
00000020: 0035 093f c27a fd3e
0.40209186 0.0929482 0.58752966 0.19432974 0.1708392 0.3227197 0.20999222 -0.3857277
0.53596497 0.4950772

i_resnet_layers.8.bottleneck_block.0.weight_orig f4 [10, 2]
00000000: fb67 1f3f ea62 97bd 58a7 fdbd 6719 14bf
00000010: 9c48 4fbd 2bc1 79be 2759 173f 0af4 8a3e
00000020: 38f7 fbbe 40b8 833e 91af 7cbe faeb 46bf
00000030: 8669 b0be 3a3d 55be 048e 25be a00e 053f
00000040: 0513 c5be f2b8 bebe ae5b 09bf 94ad 5e3d
0.62268037 -0.07391913 -0.12385434 -0.5785126 -0.050606355 -0.24390094 0.5912041 0.27139312
-0.4921205 0.2572651 -0.24676348 -0.7770382 -0.34455508 -0.20824137 -0.16167456 0.5197544
-0.38491073 -0.37250477 -0.5365552 0.054364756

i_resnet_layers.8.bottleneck_block.0.weight_u f4 [10]
00000000: f602 923e cf1b b1be 2e7e 14be ebdf df3e
00000010: 9f8d 03be 2490 01bf d205 8fbe a60a 2e3e
00000020: 4fa7 c2be b731 80be
0.28517884 -0.3459153 -0.14501259 0.43725523 -0.12846993 -0.50610566 -0.27934128 0.1699625
-0.3801827 -0.2503793

i_resnet_layers.8.bottleneck_block.0.weight_v f4 [2]
00000000: aa0b 3a3f 79d9 2f3f
0.7267405 0.6869121

i_resnet_layers.8.bottleneck_block.2.weight_orig f4 [10, 10]
00000000: 2edb 6dbe 0ac6 803d 28d0 c8bd c47c 923e
00000010: 4e4a 28bd 4057 c03d b3d1 09be ae23 e63d
00000020: 9a09 0b3e 2f57 b6bd c049 13bd 3d71 c63d
00000030: a3f8 2bbe 3435 6fbe f136 963b c098 303e
00000040: 8e39 153e 1ab1 13bd ba7d 563e 496f 373e
00000050: 1ef0 05be 8f7a 25be d489 993b 58d7 35be
00000060: 7fc3 1c3e 8828 763e bc5e 52be 4934 cb3d
00000070: d0b8 21be f769 113e 9f72 773e d709 773d
00000080: afef 893d 7cde 85be d95c 9dbd 345b aebd
00000090: 74dd 70be ca72 7fbe 7760 003c 3559 553e
000000a0: 12fd 03be 714a e2bd 3090 50be 5144 e1bd
000000b0: 66c5 913e 43f9 bebe fd0f 2c3a 6cac e93d
000000c0: 1f20 1ebe 97e9 a93d cb05 543d 3a4d 99be
000000d0: 1951 933e 64d1 053e 86a7 f33d d9f0 c6bd
000000e0: e36b 283e 14e4 4ebd 24a4 1ebe 2c3b 22be
000000f0: cd4c dd3d 502b beb9 62d3 113e 9a08 75be
00000100: 0b35 edbd c1d7 72be 0a50 2b3e d7f8 40be
00000110: 2c4a 76be c037 debd d69b 2dbd f474 843e
00000120: c96f 853e acc9 573e 86a3 ae3a 5053 91bd
00000130: ac29 4ebe 7b90 0b3d b55a ec3d e83c 7fbe
00000140: 6bc3 6f3d 825f 99be 07e8 16be d8e1 133e
00000150: 5d8e 29be e6fa c4be e0fb 32be 6f76 3f3e
00000160: 2ca8 00be 2193 8a3d ef7d aabe aaf3 01be
00000170: 2469 473e 30fe 60be 3a4a 333e 0a7c d53d
00000180: 0834 4b3e 7624 5e3e a10c 133d 0087 503e
-0.23228142 0.06287773 -0.09805328 0.28610814 -0.041086487 0.093916416 -0.134589 0.11237274
0.13577881 -0.08903348 -0.035959005 0.09689567 -0.16794066 -0.23360139 0.0045841862 0.1724577
0.14572737 -0.03605757 0.20946398 0.17913546 -0.13079879 -0.16160034 0.00468562 -0.17757928
0.15308951 0.24038899 -0.20543951 0.09922082 -0.15793157 0.14200579 0.24164818 0.06031212
0.06735169 -0.26146305 -0.07683725 -0.08513489 -0.23521978 -0.24946132 0.007835499 0.20834811
-0.12889507 -0.11049355 -0.20367503 -0.109993584 0.28470916 -0.37299547 0.0006563662 0.1140984
-0.1544194 0.08296507 0.051763337 -0.29941732 0.2877281 0.13068157 0.11897187 -0.09713907
0.16447406 -0.05051048 -0.15492302 -0.15842885 0.10805664 -0.00036271894 0.14240792 -0.23929062
-0.11582383 -0.23715116 0.16729751 -0.18844925 -0.24051732 -0.10850477 -0.042384945 0.25870478
0.26061848 0.21073025 0.001332388 -0.07095969 -0.20133084 0.034073334 0.115407385 -0.24925578
0.058535974 -0.2995568 -0.14736949 0.14441621 -0.16558214 -0.3847267 -0.17478895 0.18697523
-0.12564152 0.06766344 -0.33299205 -0.12690607 0.19473702 -0.21971965 0.17508784 0.10424049
0.19844067 0.21693596 0.035900716 0.20363998

i_resnet_layers.8.bottleneck_block.2.weight_u f4 [10]
00000000: f14e 1f3e 4284 d83e 0c96 703e f57e c7bd
00000010: 181a 75be 8bf3 abbe d2cd b8be 956e 97bd
00000020: a2e6 08bf 80e4 bf3e
0.15557458 0.42288405 0.23494738 -0.09741012 -0.23935735 -0.33584246 -0.36094528 -0.07394139
-0.5347692 0.3747902

i_resnet_layers.8.bottleneck_block.2.weight_v f4 [10]
00000000: 0d0d acbe 5edf 893e 2e06 8dbd 895e 56be
00000010: 86b3 193e 24bb 383f cac5 c73d 2ca3 d03d
00000020: 31d7 c13e 99d6 793e
-0.33603707 0.26928228 -0.06885944 -0.209345 0.15009889 0.72160554 0.09754522 0.101873726
0.3785949 0.24398269

i_resnet_layers.8.bottleneck_block.4.weight_orig f4 [2, 10]
00000000: 0837 a13e 0318 ba3d 1456 253e c5b8 85be
00000010: c9b3 8cbe 1b0e 7abe 0197 34be 5350 41be
00000020: d046 82be e3b6 d43b 481b 93be c6b4 ccbd
00000030: a171 7a3c 9747 433c 8d66 6fbe 50da a5bc
00000040: 7032 043d fd40 233e 6954 a9bd f8d3 80be
0.31487298 0.09086611 0.16146117 -0.2611753 -0.27480915 -0.24419443 -0.17635728 -0.18878298
-0.2544465 0.0064915284 -0.2873175 -0.09995417 0.01528588 0.011918924 -0.23378964 -0.020245701
0.032274663 0.1594276 -0.08268053 -0.2516172

i_resnet_layers.8.bottleneck_block.4.weight_u f4 [2]
00000000: 7ede 7a3f e8fc 4bbe
0.97995746 -0.19920695

i_resnet_layers.8.bottleneck_block.4.weight_v f4 [10]
00000000: 9e67 073f 6c72 213e 00dd 653e cc3a bfbe
00000010: fc00 a5be ad41 aebe 90c5 84be 2689 a0be
00000020: 0f89 acbe 766a a73d
0.5289248 0.15766305 0.22447586 -0.37349546 -0.32227314 -0.34034482 -0.25931978 -0.31354636
-0.33698317 0.08174603

i_resnet_layers.9.bottleneck_block.0.bias f4 [10]
00000000: a7c5 fd3d 8bcf 903e ff8c 03be 1d67 24bf
00000010: 580b 943e 1235 cd3e 0dc8 e53e 82fe 2cbd
00000020: cb67 f6be a21b 153e
0.12391215 0.28283343 -0.12846754 -0.6421984 0.28914905 0.40079552 0.4487919 -0.042234905
-0.48126063 0.14561322

i_resnet_layers.9.bottleneck_block.0.weight_orig f4 [10, 2]
00000000: ffd1 6dbe a5e8 2b3f 0ed0 6dbe c40d 343e
00000010: 0a25 49be 8375 373e 7710 493e 24de 89be
00000020: 843d 0dbf bbcf 7ebe 89f1 233f 2ba7 15bd
00000030: 1a71 edbd df65 793e 1d92 943e 3b85 01bf
00000040: bf37 11bf 13fe 1ebf 619d 4abe 241a 053e
-0.23224638 0.6715186 -0.23223898 0.17583376 -0.19643036 0.17915921 0.19635187 -0.26927292
-0.5517199 -0.2488393 0.6404043 -0.036536377 -0.11593838 0.24355267 0.29017726 -0.5059392
-0.56725687 -0.62106436 -0.19786598 0.12998253

i_resnet_layers.9.bottleneck_block.0.weight_u f4 [10]
00000000: 4b32 12bf ae5d 75be 7760 64be a911 913e
00000010: 7f45 fcbd f5ab b83e 562e 65be ec44 fb3e
00000020: c7ba f03d 9565 43be
-0.5710799 -0.23961517 -0.22302423 0.28333786 -0.12317943 0.36068693 -0.22380957 0.4907602
0.11754375 -0.19081719

i_resnet_layers.9.bottleneck_block.0.weight_v f4 [2]
00000000: bb10 1e3f a85f 49bf
0.6174428 -0.78661585

i_resnet_layers.9.bottleneck_block.2.weight_orig f4 [10, 10]
00000000: ac4c 9b3c 5987 7ebd b323 9bbe dbac 89be
00000010: 0842 87be 6486 373d d1b6 9cbe 2d9c 0e3e
00000020: edae 5dbe 2761 133e a23f c43d e59f 9dbe
00000030: 2fc4 86be 8871 343d 5f99 f53d 52f4 5e3e
00000040: 97fe 3f3e f886 bcbd aad8 cdbc be87 1bbe
00000050: 9b60 71be e6c9 273e 5534 733e f090 8cbe
00000060: 710f 70bd 57cd 84be 886c eebd 1c8f 9fbd
00000070: 982d 233e 295e 2ebe a5dc 5f3e 0467 17be
00000080: d59a 1d3c 5870 873d fea1 453e bb2f 6abc
00000090: 400f e7bd 31b1 a3be 159d 40be 4c8d 763d
000000a0: 87a2 d63d 74ee 12be 32cc 8a3e 8071 3d3e
000000b0: e28a e1bd fb2c 49bd 69b0 163e 004b 74bd
000000c0: af0e 07bd 0e3b 2c3e 3f3d 28be ab0e 913d
000000d0: 8faf d0ba 31ce 4dbd 6c13 acbc 53c0 0f3e
000000e0: 4352 72bd c385 c2bd 2bc3 9c3e 774d 493c
000000f0: aced d43c 9a18 dbbd 024a 3d3e e961 f5bd
00000100: bf9b f8bd 176c 9a3e 5546 9d3e 12d9 703c
00000110: 00d5 81be 564b 22be 8402 b2bd 02ad 2f3e
00000120: 2a7b d13d 6ab3 04be 93e9 f5bd 50f1 fc3d
00000130: bd16 80be 5162 cdbe 166a aebe 992a 56be
00000140: 0e5f 9abd 426a 703e e6fd 81be e773 3cbe
00000150: 5e6c 243e 1ab0 85bd 0ffe 9e3e 1447 cf3d
00000160: d82e 723e bde8 b53d 3810 a63e faf1 9fbd
00000170: 256e 6b3e 8a23 40be 55c6 813e 4c54 84be
00000180: 3d52 a83d 1525 d93d 969e 36be 6fb4 a93e
0.018957458 -0.062140796 -0.30300674 -0.2688969 -0.26417565 0.0448059 -0.30608228 0.13926764
-0.2164876 0.1439253 0.095824495 -0.30786052 -0.2632155 0.044053584 0.11992144 0.21772888
0.18749462 -0.09205431 -0.025127728 -0.151885 -0.23572008 0.16385612 0.23750432 -0.2745433
-0.058608476 -0.25937912 -0.116417944 -0.07790968 0.15935361 -0.17028107 0.21861513 -0.14785391
0.009619434 0.06613225 0.19300076 -0.014293606 -0.112822056 -0.31971124 -0.18809922 0.060193345
0.104802184 -0.14348775 0.27108914 0.18500328 -0.11012818 -0.049115162 0.14715733 -0.059641838
-0.032972988 0.16819403 -0.16429614 0.07082876 -0.0015921461 -0.050245468 -0.021005355 0.1403821
-0.059160482 -0.09498169 0.3061765 0.012286535 0.025992237 -0.10698052 0.18485263 -0.119815655
-0.12139081 0.3016059 0.30717722 0.014700191 -0.2535782 -0.15849051 -0.08691886 0.17155841
0.1022857 -0.12959066 -0.12007441 0.12350714 -0.25017348 -0.40114072 -0.34065312 -0.20914687
-0.075376615 0.23478034 -0.25389022 -0.18403588 0.16056964 -0.06527729 0.31053206 0.10120979
0.23650682 0.08882282 0.3243425 -0.07809825 0.22991236 -0.18763557 0.25346628 -0.25845563
0.08218811 0.10602776 -0.17833933 0.33145472

i_resnet_layers.9.bottleneck_block.2.weight_u f4 [10]
00000000: 6487 b2bd 3ad6 783e ac7e e6be 7b5e bc3e
00000010: cb9c a43e 4ce9 a2be bd21 613e 95ca 1dbe
00000020: 1754 63be 8cdc 043f
-0.0871723 0.24300471 -0.45018518 0.36790833 0.32150874 -0.31818616 0.21985526 -0.1540931
-0.22200046 0.5189903

i_resnet_layers.9.bottleneck_block.2.weight_v f4 [10]
00000000: 6c45 103f 71bf ecbe f196 2a3e 516f 613e
00000010: d4a0 713e 3d07 003d 6baa 843e a10d 1abc
00000020: 8498 debe 1256 903e
0.5635593 -0.46239808 0.16659142 0.2201512 0.23596507 0.031256903 0.2591127 -0.009402663
-0.43475735 0.28190666

i_resnet_layers.9.bottleneck_block.4.weight_orig f4 [2, 10]
00000000: 3763 ae3c 90a3 ad3e 5f77 8f3e a62f 18bd
00000010: e9c6 05be a9e1 2cbe e9a1 15be 06f9 ccbd
00000020: c1a3 0dbe ad09 75be 7fd2 3b3e 1775 46be
00000030: 24a4 6c3e ce3f 9cbe f330 503e 4736 d63d
00000040: 71d2 883e 7ee3 fcbd 7e5b a53d b578 98bb
0.021287544 0.3391385 0.2802076 -0.037154816 -0.1306416 -0.16882958 -0.14612545 -0.10008435
-0.13831998 -0.23929472 0.18342017 -0.19380604 0.2310949 -0.3051743 0.20331173 0.10459571
0.26723054 -0.12348078 0.080740914 -0.0046530613

i_resnet_layers.9.bottleneck_block.4.weight_u f4 [2]
00000000: 8704 2b3f 217f 3ebf
0.66803783 -0.74412733

i_resnet_layers.9.bottleneck_block.4.weight_v f4 [10]
00000000: 8990 40be a7f0 113f 4a8c c03c 512a 9f3e
00000010: 36e4 bbbe d2fd 95be c766 e9be 91d8 1c3d
00000020: 71e3 6fbe dc32 76be
-0.18805136 0.5700783 0.023504395 0.31086972 -0.3669755 -0.29295212 -0.45586225 0.03829247
-0.23426606 -0.24042839

i_resnet_layers.10.bottleneck_block.0.bias f4 [10]
00000000: 6c8c ea3e 0be4 373f 653d 5ebf fb6d 28bf
00000010: abb4 dcbb 1678 fdbd f41f 22bf c5a3 64bd
00000020: 9206 f2be 5982 a73c
0.45810258 0.7183234 -0.8681243 -0.65792817 -0.0067354045 -0.1237642 -0.63330007 -0.055820245
-0.47270638 0.020447897

i_resnet_layers.10.bottleneck_block.0.weight_orig f4 [10, 2]
00000000: 3840 e63e 27db f2be 09b6 413e 7ce3 b1be
00000010: 2e2b c63e 2646 a83e 467d 2dbf 795d a23e
00000020: 75c8 00bf de23 cabd d49f 053f 256c d73e
00000030: 81b9 083e efcc a0bd 8206 b0be 5d5d 263f
00000040: a8ed 103f d5bd febe b17c cf3d be73 b5be
0.4497087 -0.47432825 0.18917097 -0.3474387 0.38704818 0.3286602 -0.6776928 0.3171194
-0.50305873 -0.098701224 0.52197003 0.42074695 0.13352014 -0.07851588 -0.34379965 0.6498621
0.56612635 -0.49754205 0.10131205 -0.35439867

i_resnet_layers.10.bottleneck_block.0.weight_u f4 [10]
00000000: bee7 d7be 8017 73be 2ea6 82bd ecac f23e
00000010: 9060 5d3e 4fda c2bd 10a9 ccbd 90ba e03e
00000020: 4212 fbbe 8225 48be
-0.42168993 -0.23739433 -0.063793525 0.47397554 0.21618867 -0.09514295 -0.099931836 0.43892336
-0.49037367 -0.19545558

i_resnet_layers.10.bottleneck_block.0.weight_v f4 [2]
00000000: dd32 48bf 078d 1f3f
-0.7820261 0.62324566
