experiments/diffeomorphism_effects/models/spiral/i_resnet_euclidean_product_100_blocks_10_int_features_20_epochs_False_subspace_reg_False_isometry_reg_2024_02_13_22_02_33.pt (torch, 803814 bytes, 1000 tensors)

i_resnet_layers.0.bottleneck_block.0.bias f4 [10]
-0.35124645 -0.16652384 0.58509326 0.1853928 -0.21202932 -0.26758745 0.440241 0.02630798
-0.4611273 -0.36008844
00000000: 93d6 b3be 3a85 2abe acc8 153f 9cd7 3d3e
00000010: 371e 59be 3901 89be 4567 e13e d583 d73c
00000020: e118 ecbe 835d b8be

i_resnet_layers.0.bottleneck_block.0.weight_orig f4 [10, 2]
-0.42697412 0.3226415 0.6859733 -0.5016711 -0.6819329 0.076094404 -0.6039301 0.49635658
-0.65016013 0.64060265 -0.013772198 -0.19999199 0.60963726 -0.38449508 -0.39915848 0.43656343
0.24755134 0.651983 0.35105196 0.28298357
00000000: 5a9c dabe 4431 a53e f29b 2f3f 846d 00bf
00000010: 2893 2ebf 62d7 9b3d 2a9b 1abf 7322 fe3e
00000020: e570 26bf 89fe 233f c9a4 61bc b3ca 4cbe
00000030: 3011 1c3f 8adc c4be 805e ccbe 3e85 df3e
00000040: 197e 7d3e 5ce8 263f 15bd b33e 39e3 903e

i_resnet_layers.0.bottleneck_block.0.weight_u f4 [10]
0.27797207 -0.44141495 0.30452925 0.4062238 0.4710605 -0.05807783 -0.37288812 0.30283558
0.10565711 -0.054212403
00000000: 5b52 8e3e 2401 e2be 42eb 9b3e 91fc cf3e
00000010: d82e f13e 05e3 6dbd 31eb bebe 440d 9b3e
00000020: c162 d83d d30d 5ebd

i_resnet_layers.0.bottleneck_block.0.weight_v f4 [2]
-0.79059005 0.6123458
00000000: 1c64 4abf b2c2 1c3f

i_resnet_layers.0.bottleneck_block.2.weight_orig f4 [10, 10]
0.021578567 -0.27830034 0.23996906 0.26394945 0.2647357 -0.20637037 -0.2545888 0.2248313
0.054191273 0.1226297 -0.1256919 -0.26665723 0.07169736 0.17410065 0.23085986 -0.11902481
0.018569821 0.1850484 0.2984761 0.09443361 -0.03397969 -0.16917849 0.16963989 0.19746466
-0.2269962 -0.2510161 -0.22775441 0.13434458 -0.13691375 -0.23304175 -0.10927663 0.010069602
0.22646269 0.15912375 0.22123161 -0.022558844 0.15145688 -0.07981978 0.17902255 -0.077073954
0.11573328 -0.3053161 -0.03194666 -0.2608426 -0.19945468 -0.14389463 0.13025685 0.302072
0.32990852 0.18254174 -0.19328861 0.23885162 -0.22252396 -0.3009871 -0.11746892 -0.31254643
-0.14882708 -0.19646078 0.1998394 0.07901456 -0.006039161 -0.23104553 -0.0074094166 0.17686625
0.2229816 -0.22680743 0.029982654 0.21848914 -0.23431207 0.27004993 0.22340985 0.21488024
-0.2255707 0.05498501 -0.086356096 -0.30277675 -0.08398301 -0.22847718 -0.014070672 0.271612
-0.23689264 0.36812213 0.12684697 0.13328746 0.13521634 -0.16884468 -0.0011076874 -0.103869066
-0.1586433 0.00078126695 -0.03952823 -0.19960356 -0.025431968 0.22267562 0.09901767 -0.27124888
0.08000474 -0.150682 -0.33069572 0.13425504
00000000: 89c5 b03c 627d 8ebe 73ba 753e 6224 873e
00000010: 708b 873e c152 53be 7759 82be 2d3a 663e
00000020: abf7 5d3d 4825 fb3d 61b5 00be 4c87 88be
00000030: 11d6 923d 7147 323e 8766 6c3e 48c3 f3bd
00000040: bd1f 983c 547d 3d3e dcd1 983e 6966 c13d
00000050: 4a2e 0bbd 203d 2dbe 14b6 2d3e 2d34 4a3e
00000060: b171 68be 2f85 80be 7438 69be a091 093e
00000070: 1e33 0cbe 7fa2 6ebe 6dcc dfbd f9fa 243c
00000080: d6e5 673e 56f1 223e 8a8a 623e 53cd b8bc
00000090: 8317 1b3e 8e78 a3bd b051 373e f3d8 9dbd
000000a0: 9205 ed3d 6452 9cbe 80da 02bd 298d 85be
000000b0: d93d 4cbe 1d59 13be 0d62 053e 2ea9 9a3e
000000c0: c5e9 a83e 39ec 3a3e 73ed 45be 8595 743e
000000d0: 52dd 63be fb1a 9abe 8c93 f0bd 1606 a0be
000000e0: 2066 18be 042d 49be b3a2 4c3e 63d2 a13d
000000f0: 27e4 c5bb 3397 6cbe b1ca f2bb 6d1c 353e
00000100: 4a55 643e 3540 68be 2f9e f53c 9ebb 5f3e
00000110: 81ef 6fbe fc43 8a3e 8dc5 643e 9109 5c3e
00000120: 01fc 66be f637 613d 77db b0bd 8e05 9bbe
00000130: 49ff abbd ecf5 69be ad88 66bc ba10 8b3e
00000140: fc93 72be 817a bc3e 2ce4 013e 827c 083e
00000150: 2776 0a3e 9fe5 2cbe d22f 91ba 4eb9 d4bd
00000160: 6473 22be f0cd 4c3a 5ae8 21bd e064 4cbe
00000170: b456 d0bc 1405 643e c7c9 ca3d 22e1 8abe
00000180: 86d9 a33d 624c 1abe f350 a9be 277a 093e

i_resnet_layers.0.bottleneck_block.2.weight_u f4 [10]
-0.5644725 -0.4014365 -0.24507639 -0.14710552 -0.12590441 0.35776463 -0.44055128 0.17688763
0.058859836 -0.25657466
00000000: 4581 10bf 1689 cdbe 4ef5 7abe d4a2 16be
00000010: 16ed 00be ed2c b73e f08f e1be 0822 353e
00000020: 0317 713d c15d 83be

i_resnet_layers.0.bottleneck_block.2.weight_v f4 [10]
0.015838372 0.59334946 -0.31263208 -0.4474601 -0.33988976 0.22333905 0.047862735 -0.402706
0.058399335 -0.1282479
00000000: 79bf 813c c0e5 173f 5011 a0be 7d19 e5be
00000010: 0806 aebe feb2 643e b70b 443d 7b2f cebe
00000020: 2434 6f3d 6b53 03be

i_resnet_layers.0.bottleneck_block.4.weight_orig f4 [2, 10]
0.18373527 0.26242018 -0.3300905 0.013903775 0.0054412615 0.24201567 0.0829739 0.14721492
-0.029726671 -0.09745855 -0.30788687 0.19432345 -0.1465427 -0.21750581 0.16199933 -0.07426902
-0.24505739 0.0119477855 -0.1433787 -0.050005537
00000000: 1925 3c3e f05b 863e 9f01 a9be a9cc 633c
00000010: 9c4c b23b f5d2 773e 38ee a93d 82bf 163e
00000020: 5985 f3bc 5998 c7bd 59a3 9dbe bafc 463e
00000030: 4a0f 16be d8b9 5ebe 27e3 253e 5b1a 98bd
00000040: 53f0 7abe a5c0 433c ded1 12be 9bd2 4cbd

i_resnet_layers.0.bottleneck_block.4.weight_u f4 [2]
-0.604849 -0.79634017
00000000: 62d7 1abf f3dc 4bbf

i_resnet_layers.0.bottleneck_block.4.weight_v f4 [10]
0.2349222 -0.5477482 0.5537519 0.28867334 -0.23157537 -0.1530221 0.25401163 -0.1728064
0.23107517 0.17316853
00000000: 728f 703e 3a39 0cbf afc2 0d3f fecc 933e
00000010: 1822 6dbe d3b1 1cbe d00d 823e 29f4 30be
00000020: f89e 6c3e 1753 313e

i_resnet_layers.1.bottleneck_block.0.bias f4 [10]
0.21648091 -0.19120245 -0.08173442 0.6425673 -0.22562763 0.200307 0.31389162 0.25174376
0.6160104 -0.17739616
00000000: 2cad 5d3e 93ca 43be 6064 a7bd 4a7f 243f
00000010: ee0a 67be 471d 4d3e 67b6 a03e 8fe4 803e
00000020: dcb2 1d3f 57a7 35be

i_resnet_layers.1.bottleneck_block.0.weight_orig f4 [10, 2]
-0.07757442 0.515155 -0.14431699 0.37079296 0.5315333 -0.018650811 -0.5475551 0.59916687
0.34479493 -0.61357665 0.40354675 -0.376001 0.6850507 -0.35070348 0.684156 0.63096213
-0.65134174 0.5553512 0.506026 -0.5774638
00000000: 56df 9ebd 33e1 033f d5c7 13be 93d8 bd3e
00000010: 9112 083f 96c9 98bc 922c 0cbf 0063 193f
00000020: f688 b03e 5c13 1dbf ae9d ce3e 3483 c0be
00000030: 7c5f 2f3f 688f b3be d924 2f3f bc86 213f
00000040: 55be 26bf 7f2b 0e3f ec8a 013f abd4 13bf

i_resnet_layers.1.bottleneck_block.0.weight_u f4 [10]
0.21481219 0.18741605 -0.2038268 0.41930056 -0.34935468 -0.2854651 -0.38048872 -0.025469719
0.44211 -0.39617157
00000000: baf7 5b3e fee9 3f3e f9b7 50be 90ae d63e
00000010: 9ede b2be 7b28 92be 6bcf c2be dfa5 d0bc
00000020: 3e5c e23e 00d7 cabe

i_resnet_layers.1.bottleneck_block.0.weight_v f4 [2]
-0.71610963 0.69798785
00000000: f652 37bf 55af 323f

i_resnet_layers.1.bottleneck_block.2.weight_orig f4 [10, 10]
-0.04012496 0.08398068 -0.07267993 -0.28856596 -0.07103925 -0.03556684 0.086101174 0.11329319
-0.116361395 0.28750244 0.050862517 -0.09692854 -0.049457084 0.18246262 -0.33844537 0.17313132
-0.17110507 0.07985769 0.20828798 0.26613587 -0.13864958 0.06307978 0.11205135 -0.23838209
0.053506065 -0.077432364 0.21020728 0.21332273 -0.06261598 0.08991488 -0.14870216 -0.070884064
-0.102204174 -0.07518826 0.29606542 -0.17966594 -0.16385993 0.017397117 -0.109638155 0.20951523
-0.02192354 0.22888307 0.22898991 -0.24888591 0.19952603 0.13855535 0.12074641 0.24014562
-0.20789787 0.15859212 -0.21577065 0.19559234 0.19572116 0.010607855 -0.27876154 0.14382029
-0.07869736 -0.14942291 -0.17368479 0.21384864 -0.14639308 -0.3422041 -0.19186112 0.056670237
-0.27217248 -0.25569153 0.10381204 0.05933021 -0.002828556 -0.10955079 -0.10152857 -0.27457327
-0.3099822 0.20411715 0.2620514 0.17708544 0.092074506 0.030834042 0.27294037 -0.11592639
-0.15779075 -0.1290382 -0.20867556 -0.094129585 0.068852365 -0.06461748 -0.044102404 -0.3537639
0.23814051 0.22403558 0.2634329 -0.12657006 0.33461946 0.09220298 0.03604924 0.13521558
0.11669972 -0.1886077 -0.0016443055 -0.089819476
00000000: 125a 24bd 10fe ab3d 37d9 94bd ebbe 93be
00000010: 077d 91bd 89ae 11bd d055 b03d 4306 e83d
00000020: e24e eebd 8533 933e 3755 503d 7882 c6bd
00000030: 8393 4abd 7bd7 3a3e b648 adbe 5649 313e
00000040: 2b36 2fbe 6e8c a33d 7249 553e f642 883e
00000050: 28fa 0dbe f92f 813d 2e7b e53d 6f1a 74be
00000060: 2d29 5b3d dc94 9ebd 9440 573e 4671 5a3e
00000070: cf3c 80bd 4b25 b83d 6145 18be aa2b 91bd
00000080: 6c50 d1bd 4dfc 99bd e395 973e 59fa 37be
00000090: e6ca 27be 6684 8e3c f889 e0bd 298b 563e
000000a0: ff98 b3bc 5360 6a3e 557c 6a3e f3db 7ebe
000000b0: 8d50 4c3e 74e1 0d3e e549 f73d bce8 753e
000000c0: 2ee3 54be f965 223e fbf2 5cbe 5c49 483e
000000d0: 216b 483e 92cc 2d3c d5b9 8ebe a045 133e
000000e0: 152c a1bd 5202 19be 6dda 31be 23fb 5a3e
000000f0: 11e8 15be 6035 afbe 3e77 44be 0d1f 683d
00000100: 315a 8bbe 00ea 82be 689b d43d 3c04 733d
00000110: 4c5f 39bb 2a5c e0bd 36ee cfbd de94 8cbe
00000120: fdb5 9ebe 1604 513e 9a2b 863e e355 353e
00000130: 8f91 bc3d ac97 fc3c d7be 8b3e d16a edbd
00000140: e693 21be 9722 04be 0caf 55be 03c7 c0bd
00000150: 7802 8d3d 2b56 84bd b9a4 34bd 8b20 b5be
00000160: 1bdb 733e 9569 653e ade0 863e 959b 01be
00000170: 3e53 ab3e ead4 bc3d 5ea8 133d f475 0a3e
00000180: 4300 ef3d 6022 41be bd85 d7ba 46f3 b7bd

i_resnet_layers.1.bottleneck_block.2.weight_u f4 [10]
0.28308466 -0.1793505 0.30262217 0.03893839 0.54937774 0.27686 -0.32118204 -0.4915529
-0.2669508 0.0093782395
00000000: 79f0 903e a8a7 37be 4bf1 9a3e dc7d 1f3d
00000010: 05a4 0c3f 98c0 8d3e f971 a4be d2ac fbbe
00000020: c6ad 88be 30a7 193c

i_resnet_layers.1.bottleneck_block.2.weight_v f4 [10]
0.0015501397 0.5173812 0.47253376 -0.417083 0.04144502 0.05816271 0.09136876 0.2327336
-0.45401475 0.24763843
00000000: 0f2e cb3a 1873 043f f2ef f13e e78b d5be
00000010: 41c2 293d 063c 6e3d 8b1f bb3d b851 6e3e
00000020: 9f74 e8be ee94 7d3e

i_resnet_layers.1.bottleneck_block.4.weight_orig f4 [2, 10]
-0.27593902 0.1302081 0.16531388 -0.13443892 -0.044675995 -0.076227725 -0.057029583 -0.14369018
0.017170576 0.27555174 -0.2962526 0.17060281 -0.29409376 0.07628512 0.063747875 0.19717309
0.066120155 -0.21306232 0.028269758 -0.0043217093
00000000: e147 8dbe 4655 053e 0b48 293e 5baa 09be
00000010: 2dfe 36bd 481d 9cbd da97 69bd 8523 13be
00000020: 4fa9 8c3c 1e15 8d3e 6cae 97be 81b2 2e3e
00000030: 7593 96be 5f3b 9c3d 3f8e 823d bee7 493e
00000040: 016a 873d 022d 5abe fb95 e73c 209d 8dbb

i_resnet_layers.1.bottleneck_block.4.weight_u f4 [2]
-0.5166864 -0.85617477
00000000: 8f45 04bf 452e 5bbf

i_resnet_layers.1.bottleneck_block.4.weight_v f4 [10]
0.6843973 -0.36830392 0.28715533 0.0067378427 -0.054912854 -0.2242351 -0.046389133 0.4440669
-0.05691487 -0.2399284
00000000: a934 2f3f 5592 bcbe 0606 933e 1fc9 dc3b
00000010: 4dec 60bd e39d 65be 8802 3ebd bd5c e33e
00000020: 911f 69bd caaf 75be

i_resnet_layers.2.bottleneck_block.0.bias f4 [10]
-0.5413991 0.60653055 0.03860392 -0.14844236 0.33760577 -0.61641484 -0.34846747 0.21773852
0.12285653 -0.0980507
00000000: 2299 0abf 9645 1b3f 251f 1e3d 4601 18be
00000010: aada ac3e 5dcd 1dbf 546a b2be d9f6 5e3e
00000020: 349c fb3d cece c8bd

i_resnet_layers.2.bottleneck_block.0.weight_orig f4 [10, 2]
-0.27257392 0.26270124 0.23272775 -0.12980315 0.57191604 -0.13850012 -0.149659 0.40608233
-0.45190912 -0.265264 0.5914174 0.71391016 -0.12645137 0.4573256 -0.5332092 -0.28451195
-0.25298032 -0.29123682 0.2740524 -0.25670633
00000000: cf8e 8bbe c780 863e 2f50 6e3e 1eeb 04be
00000010: 1769 123f fad2 0dbe 3540 19be 06ea cf3e
00000020: a260 e7be afd0 87be 2167 173f d1c2 363f
00000030: 787c 01be 9526 ea3e 6680 08bf 8dab 91be
00000040: a386 81be fe1c 95be 9950 8c3e 036f 83be

i_resnet_layers.2.bottleneck_block.0.weight_u f4 [10]
0.036515485 -0.075301744 -0.26949695 -0.102150425 0.38791567 -0.67858815 -0.1395052 0.44437626
0.28357026 -0.04035455
00000000: 4391 153d cd37 9abd 81fb 89be 3e34 d1bd
00000010: e29c c63e f4b7 2dbf 73da 0ebe 4985 e33e
00000020: 1f30 913e d04a 25bd

i_resnet_layers.2.bottleneck_block.0.weight_v f4 [2]
-0.7813874 -0.6240462
00000000: 0109 48bf 7ec1 1fbf

i_resnet_layers.2.bottleneck_block.2.weight_orig f4 [10, 10]
0.14497067 -0.22820495 0.10815354 -0.06868753 0.26899803 0.36036417 -0.03266766 0.13773614
0.26096347 -0.032381028 -0.15026698 -0.31290576 -0.24902792 0.053384658 0.29820785 -0.31718847
-0.007361935 -0.076206535 0.2876169 0.07335713 -0.34354514 -0.005531345 0.22400683 -0.15865107
0.23545566 0.19298919 0.22791268 0.2278354 0.09260082 -0.16884936 -0.018592678 0.027444659
-0.1031085 -0.06578313 0.11447564 -0.3098127 0.22091538 -0.09136196 -0.15309131 -0.09789142
-0.119848 0.223394 0.13531369 -0.18666393 -0.07434847 0.090819895 0.23321906 0.22748579
-0.26211149 0.03110485 0.058632344 -0.100314595 -0.27381206 -0.20117994 -0.016122358 -0.059657637
0.011170142 -0.22175848 0.10053034 0.087141216 -0.23778866 -0.2752745 -0.0129277315 -0.1175602
0.20295519 0.0056282827 0.1680679 0.17661384 -0.103643484 0.26288515 -0.020420074 -0.15708035
0.26737142 -0.29744145 -0.24689367 0.1935957 -0.37289715 -0.0055225194 0.084160216 -0.22092022
-0.22436586 0.32061595 -0.17714545 -0.0052146134 0.18518765 -0.11050514 -0.38425148 -0.17941472
-0.03532855 -0.10658335 -0.017630195 0.16052645 -0.1966547 -0.08659245 -0.10673542 0.31524917
0.028491504 -0.21453486 -0.20528443 0.2217392
00000000: 3173 143e 8fae 69be 9a7f dd3d 0cac 8cbd
00000010: 1cba 893e a781 b83e 86ce 05bd b40a 0d3e
00000020: 019d 853e f8a1 04bd 96df 19be 2f35 a0be
00000030: 2d01 7fbe dfa9 5a3d b3ae 983e 8766 a2be
00000040: 633c f1bb 2c12 9cbd 8642 933e 433c 963d
00000050: 26e5 afbe 4940 b5bb 0c62 653e 6d75 22be
00000060: 4a1b 713e f59e 453e f161 693e af4d 693e
00000070: 80a5 bd3d d9e6 2cbe ac4f 98bc 9fd3 e03c
00000080: 8d2a d3bd 4eb9 86bd 3472 ea3d c59f 9ebe
00000090: a437 623e fb1b bbbd f8c3 1cbe 4c7b c8bd
000000a0: de72 f5bd 66c1 643e ac8f 0a3e d424 3fbe
000000b0: 0344 98bd c8ff b93d fad0 6e3e 09f2 683e
000000c0: 7a33 86be 99cf fe3c 7828 703d bd71 cdbd
000000d0: 1831 8cbe 1d02 4ebe 0913 84bc 915b 74bd
000000e0: f902 373c a814 63be dae2 cd3d 1877 b23d
000000f0: df7e 73be c7f0 8cbe d6ce 53bc 67c3 f0bd
00000100: 7cd3 4f3e 756d b83b fe19 2c3e 42da 343e
00000110: 0943 d4bd e298 863e 0048 a7bc acd9 20be
00000120: e8e4 883e 3f4a 98be b2d1 7cbe f43d 463e
00000130: 60ec bebe 40f6 b4bb 315c ac3d e938 62be
00000140: 2ac0 65be c627 a43e 9e65 35be 59df aabb
00000150: d5a1 3d3e 8550 e2bd 9cbc c4be 7eb8 37be
00000160: abb4 10bd 5f48 dabd 336d 90bc 0c61 243e
00000170: da5f 49be 6257 b1bd 1a98 dabd 5768 a13e
00000180: 0467 e93c 07af 5bbe 1536 52be 9a0f 633e

i_resnet_layers.2.bottleneck_block.2.weight_u f4 [10]
-0.30345723 0.49027258 -0.40394732 0.26258036 -0.33798382 0.26812422 -0.046713687 -0.4036417
0.28941667 -0.020740269
00000000: bf5e 9bbe 0205 fb3e 2fd2 cebe ef70 863e
00000010: 370c adbe 9447 893e da56 3fbd 20aa cebe
00000020: 6c2e 943e 7fe7 a9bc

i_resnet_layers.2.bottleneck_block.2.weight_v f4 [10]
0.028592039 -0.0119273085 -0.57462865 0.24069965 0.17482257 -0.61865336 -0.076623835 -0.40560275
0.0678491 0.15040821
00000000: da39 ea3c c26a 43bc dd1a 13bf f879 763e
00000010: b004 333e 1160 1ebf f5ec 9cbd 2aab cfbe
00000020: 78f4 8a3d 9c04 1a3e

i_resnet_layers.2.bottleneck_block.4.weight_orig f4 [2, 10]
0.14628029 0.28295016 0.103397615 -0.0212652 0.06265538 0.00079879526 -0.09276447 -0.10938885
-0.3593655 0.22454718 -0.05591041 0.014008354 -0.33451083 -0.17267105 -0.18557948 0.23829596
0.004727275 -0.29401806 -0.26115268 0.050568603
00000000: 80ca 153e d8de 903e 21c2 d33d 5b34 aebc
00000010: 7751 803d 3e66 513a 4cfb bdbd 4307 e0bd
00000020: c1fe b7be b2ef 653e 5002 65bd 4c83 653c
00000030: 0145 abbe aed0 30be 8c08 3ebe db03 743e
00000040: 42e7 9a3b 8989 96be ceb5 85be 0621 4f3d

i_resnet_layers.2.bottleneck_block.4.weight_u f4 [2]
0.5513179 0.8342952
00000000: 2b23 0d3f 5f94 553f

i_resnet_layers.2.bottleneck_block.4.weight_v f4 [10]
0.05007332 0.24871193 -0.330177 -0.23164284 -0.17845541 0.29602054 -0.07041147 -0.45356873
-0.61797875 0.24678952
00000000: ae19 4d3d 57ae 7e3e f60c a9be c833 6dbe
00000010: 04bd 36be 0190 973e e433 90bd 293a e8be
00000020: db33 1ebf 64b6 7c3e

i_resnet_layers.3.bottleneck_block.0.bias f4 [10]
-0.74705845 -0.15216804 0.5630719 -0.6551264 -0.10640792 -0.7827305 -0.396355 -0.1269931
-0.3315986 0.619269
00000000: 393f 3fbf f0d1 1bbe 7b25 103f 5db6 27bf
00000010: 65ec d9bd 0761 48bf 0bef cabe 7b0a 02be
00000020: 4bc7 a9be 6a88 1e3f

i_resnet_layers.3.bottleneck_block.0.weight_orig f4 [10, 2]
-0.4278928 0.27367818 -0.57516223 -0.6420609 -0.63037616 0.48721346 -0.1734136 0.09828672
0.03789895 0.5615205 0.5311255 0.76954305 -0.41848588 -0.26240933 -0.53574485 -0.43659976
-0.021822533 -0.22596623 0.56035143 0.28069463
00000000: c414 dbbe 8c1f 8c3e d53d 13bf 1a5e 24bf
00000010: 5560 21bf 0b74 f93e 5693 31be 8c4a c93d
00000020: ee3b 1b3d cfbf 0f3f d7f7 073f c600 453f
00000030: c843 d6be 845a 86be 9326 09bf 018a dfbe
00000040: 2bc5 b2bc b163 67be 3173 0f3f 35b7 8f3e

i_resnet_layers.3.bottleneck_block.0.weight_u f4 [10]
-0.06156728 -0.50742537 -0.055542156 -0.030232295 0.25179955 0.54272723 -0.28303406 -0.40469393
-0.10407288 0.34936732
00000000: f92d 7cbd a1e6 01bf 2c80 63bd b8a9 f7bc
00000010: dfeb 803e 2cf0 0a3f d7e9 90be 0b34 cfbe
00000020: 2a24 d5bd 46e0 b23e

i_resnet_layers.3.bottleneck_block.0.weight_v f4 [2]
0.7008419 0.7133166
00000000: 606a 333f eb9b 363f

i_resnet_layers.3.bottleneck_block.2.weight_orig f4 [10, 10]
0.1694375 0.22269331 -0.02349364 0.033900358 0.08313601 0.028338285 -0.08340174 -0.003667935
-0.051098604 -0.0787358 -0.21061088 -0.29139188 0.25073838 0.09958524 -0.0038210596 -0.25003743
-0.2039246 -0.061487403 0.1759578 -0.15099451 0.055911288 -0.23918125 0.2623412 -0.12495575
0.24194415 -0.22081852 -0.21640383 -0.025558047 0.11859072 0.22571331 0.23817511 0.17264052
-0.14960837 0.27958542 -0.21813071 -0.14993353 -0.29626217 0.016763257 -0.24969767 -0.13927287
-0.26399446 0.078818366 -0.25500128 -0.33138216 0.14939182 -0.27823085 0.044879906 0.25459275
0.2081407 -0.12640841 -0.13446644 -0.21381827 -0.31394878 -0.16910346 -0.09087469 0.29795128
-0.15989868 0.006158686 0.09837344 -0.28805852 0.030879734 -0.3115959 -0.16598982 -0.1328713
0.24140799 -0.2009021 -0.31235775 -0.29039633 -0.00547198 -0.2708768 -0.117970526 -0.044737414
0.22862925 -0.09059086 -0.08051674 0.06840218 -0.27423057 -0.2773348 0.16393895 0.30460852
-0.07713907 -0.14007814 0.28801313 -0.08229042 -0.16441685 0.15374497 -0.18954884 -0.29672006
0.14399233 -0.056313995 0.2522638 0.00031688882 0.016165765 -0.086614944 0.08250305 0.33615202
0.07796354 -0.15654549 0.22876486 0.17412077
00000000: 0681 2d3e b709 643e bc75 c0bc 1adb 0a3d
00000010: 3643 aa3d b125 e83c 88ce aabd bd61 70bb
00000020: c54c 51bd 3c40 a1bd 61aa 57be 5131 95be
00000030: c860 803e 59f3 cb3d be6a 7abb e804 80be
00000040: 9cd1 50be 37da 7bbd 482e 343e 4e9e 1abe
00000050: 3c03 653d eeeb 74be 9651 863e cde8 ffbd
00000060: 35c0 773e 401e 62be f798 5dbe 1c5f d1bc
00000070: b1df f23d 6421 673e 2de4 733e adc8 303e
00000080: f032 19be d225 8f3e a85d 5fbe 2d88 19be
00000090: adaf 97be 1953 893c bfb0 7fbe 8c9d 0ebe
000000a0: 482a 87be 866b a13d 878f 82be ecaa a9be
000000b0: 2bfa 183e 4674 8ebe fed3 373d fb59 823e
000000c0: d622 553e 3571 01be 92b1 09be 2df3 5abe
000000d0: e5bd a0be 7529 2dbe 821c babd 128d 983e
000000e0: 7bbc 23be cdce c93b 0478 c93d 687c 93be
000000f0: 7ff7 fc3c 7f89 9fbe 3cf9 29be 6a0f 08be
00000100: a833 773e 48b9 4dbe 5bed 9fbe d4ae 94be
00000110: 4c4e b3bb 5db0 8abe 889a f1bd 943e 37bd
00000120: c91d 6a3e b387 b9bd f6e5 a4bd 7116 8c3d
00000130: f367 8cbe d4fe 8dbe 9ddf 273e a6f5 9b3e
00000140: 17fb 9dbd a570 0fbe 7576 933e e187 a8bd
00000150: e45c 28be 526f 1d3e 1719 42be b1eb 97be
00000160: ba72 133e 81a9 66bd b928 813e 1924 a639
00000170: 116e 843c 2d63 b1bd 5cf7 a83d 1e1c ac3e
00000180: 59ab 9f3d 764d 20be 5641 6a3e b74c 323e

i_resnet_layers.3.bottleneck_block.2.weight_u f4 [10]
-0.14046958 0.44549465 0.443481 -0.23715727 -0.033103578 0.08217189 0.38812414 0.43588606
0.419162 0.0685714
00000000: 42d7 0fbe e017 e43e f10f e33e 5bd9 72be
00000010: 9e97 07bd bc49 a83d 35b8 c63e 752c df3e
00000020: 679c d63e 2a6f 8c3d

i_resnet_layers.3.bottleneck_block.2.weight_v f4 [10]
-0.2013174 -0.5151264 0.39722586 -0.21155098 0.12570907 -0.10231688 -0.42423797 -0.40902588
0.33597726 0.07170467
00000000: 2626 4ebe 53df 03bf 3061 cb3e d2a0 58be
00000010: e1b9 003e 838b d1bd b835 d9be d76b d1be
00000020: 3605 ac3e e6d9 923d

i_resnet_layers.3.bottleneck_block.4.weight_orig f4 [2, 10]
-0.21459278 -0.37939048 0.1804792 -0.04039923 0.032900617 0.19501945 -0.32630596 -0.22837868
0.058867663 0.038242146 0.045024548 0.24272843 0.0073959962 -0.028800543 -0.18271357 -0.08110226
-0.18475619 -0.27536255 -0.23798162 0.2387515
00000000: 36be 5bbe 783f c2be 8acf 383e aa79 25bd
00000010: ccc2 063d 2eb3 473e 9311 a7be 1adc 69be
00000020: 381f 713d cca3 1c3d a96b 383d cd8d 783e
00000030: 1d5a f23b 1eef ebbc 4419 3bbe f118 a6bd
00000040: ba30 3dbe 52fc 8cbe 74b1 73be 467b 743e

i_resnet_layers.3.bottleneck_block.4.weight_u f4 [2]
0.99962705 -0.027309442
00000000: 8fe7 7f3f 0db8 dfbc

i_resnet_layers.3.bottleneck_block.4.weight_v f4 [10]
-0.33033448 -0.5905003 0.27583912 -0.060559914 0.05796705 0.30188367 -0.49136192 -0.33784217
0.10005323 0.04853244
00000000: 9a21 a9be 072b 17bf c93a 8d3e ac0d 78bd
00000010: db6e 6d3d 7f90 9a3e ca93 fbbe a6f9 acbe
00000020: b5e8 cc3d f4c9 463d

i_resnet_layers.4.bottleneck_block.0.bias f4 [10]
0.5868636 -0.45932633 -0.19427279 -0.3196794 -0.1836313 0.59269375 -0.33731008 -0.28194964
-0.54123807 0.257113
00000000: b13c 163f d22c ebbe 72ef 46be 05ad a3be
00000010: d809 3cbe c7ba 173f e8b3 acbe b45b 90be
00000020: 948e 0abf 51a4 833e

i_resnet_layers.4.bottleneck_block.0.weight_orig f4 [10, 2]
0.24437879 -0.0061616213 0.31148437 -0.57523906 0.16573153 -0.42629585 0.33004913 -0.2962576
-0.1675926 0.41052908 -0.022223398 0.49125442 -0.24650809 -0.19842549 0.7204215 0.0011404487
-0.16274899 -0.5560038 0.28867418 -0.5796419
00000000: 6f3e 7a3e 6de7 c9bb e17a 9f3e de42 13bf
00000010: 87b5 293e 7343 dabe 33fc a83e 13af 97be
00000020: 659d 2bbe de30 d23e d80d b6bc b385 fb3e
00000030: 9e6c 7cbe 0d30 4bbe 8b6d 383f 1c7b 953a
00000040: aca7 26be 4456 0ebf 1acd 933e 6963 14bf

i_resnet_layers.4.bottleneck_block.0.weight_u f4 [10]
0.082771294 0.47140718 0.32836816 0.29762608 -0.3188881 -0.32407713 0.048541043 0.23138893
0.3063301 0.46697578
00000000: ff83 a93d 485c f13e df1f a83e 7262 983e
00000010: 4d45 a3be 70ed a5be f9d2 463d 38f1 6c3e
00000020: 4dd7 9c3e 7317 ef3e

i_resnet_layers.4.bottleneck_block.0.weight_v f4 [2]
0.44691736 -0.8945753
00000000: 5ad2 e43e e302 65bf

i_resnet_layers.4.bottleneck_block.2.weight_orig f4 [10, 10]
0.16241601 -0.21057725 -0.11902177 -0.15296496 -0.018184518 0.28507593 -0.27282697 -0.119032495
0.1998291 -0.37920627 -0.055682648 0.32438782 0.17911553 -0.2858377 -0.3560831 0.0052645146
-0.11047945 0.06312054 -0.092735775 0.34329787 -0.07310411 0.27949563 0.14626381 -0.18955776
-0.07764422 -0.13409641 0.21090846 0.2669465 0.054874625 -0.1306376 0.24083827 -0.20529714
-0.29544744 -0.18879738 0.020024076 -0.032629333 0.02961284 0.20249997 -0.10027035 0.10001026
-0.05297396 -0.29182518 -0.01665858 -0.24815342 -0.21312468 -0.17553456 -0.067356676 0.04428633
0.07569941 0.00051055884 -0.2049718 -0.2902527 -0.27247605 -0.012066183 -0.060750198 0.3072296
-0.06406454 0.04882772 0.18274099 0.1583479 -0.28566805 -0.08306057 0.2547173 0.0922356
-0.13586979 -0.24791132 -0.21438585 0.071435824 0.14162178 -0.22594912 -0.09117286 -0.11944818
-0.20487686 -0.07738704 0.2584772 -0.18393344 0.29678574 0.09216135 -0.0831389 -0.022785578
0.03449441 -0.094202 -0.13112156 0.2904978 0.020448513 -0.1887227 0.20334329 0.18518154
0.005011681 0.2997997 0.31533608 -0.0027056783 0.031982217 -0.14704314 0.067066126 -0.13603413
0.27819252 -0.13504162 0.121084526 -0.28743422
00000000: 6250 263e 90a1 57be b0c1 f3bd d9a2 1cbe
00000010: b3f7 94bc 79f5 913e faaf 8bbe 4fc7 f3bd
00000020: 00a0 4c3e 5327 c2be 7d13 64bd 2916 a63e
00000030: 106a 373e 5259 92be 8650 b6be f381 ac3b
00000040: 0d43 e2bd 5745 813d 41ec bdbd bdc4 af3e
00000050: 9cb7 95bd 0d1a 8f3e 2ec6 153e 6e1b 42be
00000060: ef03 9fbd 9250 09be 63f8 573e 36ad 883e
00000070: 37c4 603d ddc5 05be 4f9e 763e 6a39 52be
00000080: e344 97be 1a54 41be 8809 a43c 56a6 05bd
00000090: a096 f23c 275c 4f3e 8b5a cdbd 2ed2 cc3d
000000a0: 39fb 58bd 1c6a 95be 9377 88bc ee1b 7ebe
000000b0: 5b3d 5abe 55bf 33be 4cf2 89bd 9565 353d
000000c0: 4b08 9b3d 06d7 053a 21e4 51be 009c 94be
000000d0: fb81 8bbe 3db1 45bc 33d5 78bd 334d 9d3e
000000e0: 4534 83bd 93ff 473d 7420 3b3e f425 223e
000000f0: 1543 92be a91b aabd 4e6a 823e 05e6 bc3d
00000100: 7321 0bbe 77dc 7dbe f787 5bbe f24c 923d
00000110: 4d05 113e 355f 67be d6b8 babd 3fa1 f4bd
00000120: 3dcb 51be 197d 9ebd 2057 843e 0c59 3cbe
00000130: 4df4 973e 17bf bc3d ba44 aabd d2a8 babc
00000140: 034a 0d3d faec c0bd bb44 06be 21bc 943e
00000150: a483 a73c 8640 41be 3939 503e 3ba0 3d3e
00000160: 0739 a43b 597f 993e bb73 a13e c051 31bb
00000170: c9ff 023d 7a92 16be f759 893d 884c 0bbe
00000180: 406f 8e3e 5a48 0abe 2afb f73d 942a 93be

i_resnet_layers.4.bottleneck_block.2.weight_u f4 [10]
-0.59706616 0.5463053 0.35108462 -0.20555563 -0.084791906 -0.3321456 0.11163316 -0.07320535
0.13210903 -0.16359971
00000000: 54d9 18bf aada 0b3f 5dc1 b33e 2d7d 52be
00000010: 61a7 adbd fd0e aabe ed9f e43d b0ec 95bd
00000020: 9747 073e af86 27be

i_resnet_layers.4.bottleneck_block.2.weight_v f4 [10]
-0.21783431 0.5935297 0.42363447 0.011167744 -0.23605525 -0.3353386 0.14367613 0.19922203
-0.2093687 0.38514698
00000000: f50f 5fbe 90f1 173f 9ee6 d83e eaf8 363c
00000010: 78b8 71be 80b1 abbe d61f 133e dc00 4c3e
00000020: c064 56be fc31 c53e

i_resnet_layers.4.bottleneck_block.4.weight_orig f4 [2, 10]
0.15547612 -0.288764 -0.10926725 0.19729905 0.1657566 0.07594354 -0.21560553 0.009252105
-0.04352743 0.09742977 0.15220872 -0.15636338 -0.24662523 0.06654841 -0.04502085 0.12778324
0.060311023 0.13703503 -0.27553976 -0.23426402
00000000: 2235 1f3e e0d8 93be 82c7 dfbd c308 4a3e
00000010: 19bc 293e 4988 9b3d b2c7 5cbe 2496 173c
00000020: d249 32bd 4289 c73d 9adc 1b3e b91d 20be
00000030: 538b 7cbe 884a 883d c867 38bd 9cd9 023e
00000040: b108 773d e952 0c3e 8c13 8dbe e8e2 6fbe

i_resnet_layers.4.bottleneck_block.4.weight_u f4 [2]
-0.63516253 -0.77237844
00000000: 039a 22bf 98ba 45bf

i_resnet_layers.4.bottleneck_block.4.weight_v f4 [10]
-0.3617701 0.5089883 0.43479693 -0.29570904 -0.11756708 -0.24555129 0.15108337 -0.18679617
0.40223253 0.19983396
00000000: ee39 b9be 0f4d 023f b49d de3e 2d67 97be
00000010: 02c7 f0bd cc71 7bbe 99b5 1a3e 7f47 3fbe
00000020: 6cf1 cd3e 46a1 4c3e

i_resnet_layers.5.bottleneck_block.0.bias f4 [10]
-0.5890451 -0.6371724 -0.13699676 0.15618458 0.34116837 0.59755695 -0.2364412 -0.12831108
-0.3218474 0.077834845
00000000: a9cb 16bf bb1d 23bf e148 0cbe daee 1f3e
00000010: 9fad ae3e 7ef9 183f a41d 72be fb63 03be
00000020: 2fc9 a4be e067 9f3d

i_resnet_layers.5.bottleneck_block.0.weight_orig f4 [10, 2]
-0.3661252 -0.6429489 0.2940647 0.42746893 0.11996048 -0.074538685 0.30842504 -0.43680882
0.32458517 0.6786743 -0.3541316 -0.14082032 -0.5232647 -0.7683354 0.35026395 0.5308361
0.022892619 0.21422018 -0.2671533 0.40340105
00000000: c374 bbbe 4d98 24bf a68f 963e 35dd da3e
00000010: d7ad f53d bda7 98bd e3e9 9d3e 68a5 dfbe
00000020: 0730 a63e 99bd 2d3f bd50 b5be 3433 10be
00000030: adf4 05bf a1b1 44bf cc55 b33e e0e4 073f
00000040: 4d89 bb3c 895c 5b3e 51c8 88be 958a ce3e

i_resnet_layers.5.bottleneck_block.0.weight_u f4 [10]
0.4367149 -0.30431223 0.005820028 0.14285807 -0.44377983 0.17128381 0.5454762 -0.37386224
-0.1180814 -0.13672169
00000000: 1899 df3e d0ce 9bbe efb5 be3b 6349 123e
00000010: 1c37 e3be 0665 2f3e 54a4 0b3f df6a bfbe
00000020: a9d4 f1bd c500 0cbe

i_resnet_layers.5.bottleneck_block.0.weight_v f4 [2]
-0.4675854 -0.88394785
00000000: 5b67 efbe 684a 62bf

i_resnet_layers.5.bottleneck_block.2.weight_orig f4 [10, 10]
-0.16707362 -0.20957904 -0.25613013 0.11553433 -0.14795174 0.02502953 -0.285826 0.011072372
0.22434993 0.24432412 -0.19193709 -0.20878258 -0.11944067 -0.25472555 0.09469781 0.05415436
-0.046615496 0.063581124 0.1903094 -0.16737676 0.14042892 0.22456905 -0.21559536 0.038194697
-0.20989561 0.086489126 0.10357713 -0.1603977 0.14933653 0.19119367 -0.09764015 0.05229961
-0.14709242 -0.12764902 0.17463516 0.08402022 0.012295582 0.09556419 -0.11242992 -0.20731391
-0.15845992 0.22928828 0.036452718 0.18896101 -0.14398357 0.26006502 0.263406 -0.028307347
0.19206141 -0.28269342 -0.008112296 0.12078422 -0.119491465 0.1831164 -0.19552267 -0.0043657413
0.13469991 0.10543394 -0.14322388 0.25799823 -0.122550905 0.095380366 0.16815141 -0.044227134
-0.09423384 0.24054977 -0.26638073 0.08097658 -0.25149316 -0.22231005 -0.009967725 0.1956226
0.12008245 -0.21693453 0.21238454 -0.008614154 -0.08114585 -0.22645263 0.34513718 0.20874101
-0.104381844 0.08674462 0.06519311 -0.042631004 -0.08746543 0.045331307 -0.29484758 -0.19479698
-0.210594 0.2009543 -0.086656325 0.122255005 -0.2776059 -0.13295923 -0.09771387 -0.1789424
-0.3455353 -0.015154051 -0.122205675 -0.10065518
00000000: 5915 2bbe e39b 56be 7d23 83be 439d ec3d
00000010: a980 17be bb0a cd3c c957 92be e568 353c
00000020: fdbb 653e 1a30 7a3e 288b 44be 1acb 55be
00000030: 4f9d f4bd 636b 82be edf0 c13d f6d0 5d3d
00000040: e4ef 3ebd d236 823d 78e0 423e d064 2bbe
00000050: 99cc 0f3e 6ef5 653e 08c5 5cbe 0b72 1c3d
00000060: e0ee 56be 3621 b13d 3f20 d43d 4b3f 24be
00000070: adeb 183e 46c8 433e 8ff7 c7bd 1e38 563d
00000080: 659f 16be 6db6 02be 8fd3 323e cb12 ac3d
00000090: 6973 493c 28b7 c33d a841 e6bd 194a 54be
000000a0: 5143 22be 8cca 6a3e 724f 153d ff7e 413e
000000b0: 6e70 13be 3e27 853e 27dd 863e cfe4 e7bc
000000c0: bfab 443e 31bd 90be 70e9 04bc b85d f73d
000000d0: f1b7 f4bd de82 3b3e 1837 48be 7e0e 8fbb
000000e0: c6ee 093e c0ed d73d 48a9 12be 5818 843e
000000f0: f8fb fabd c856 c33d e22f 2c3e 8327 35bd
00000100: acfd c0bd ae52 763e 0e63 88be 0dd7 a53d
00000110: b6c3 80be 3fa5 63be ab4f 23bc 4a51 483e
00000120: caed f53d 1624 5ebe 557b 593e 6122 0dbc
00000130: cc2f a6bd 33e3 67be d2b5 b03e 34c0 553e
00000140: 26c6 d5bd 2aa7 b13d f783 853d d99d 2ebd
00000150: 1321 b3bd 52ad 393d 43f6 96be dc78 47be
00000160: f4a5 57be f7c6 4d3e df78 b1bd d560 fa3d
00000170: 5c22 8ebe 7726 08be 361e c8bd ad3c 37be
00000180: 01ea b0be b248 78bc f846 fabd 4e24 cebd

i_resnet_layers.5.bottleneck_block.2.weight_u f4 [10]
-0.5213708 -0.03987322 -0.067074195 0.1161023 0.5609918 -0.040845316 0.028519139 -0.17458476
-0.41197246 -0.4372748
00000000: 8f78 05bf 1a52 23bd 325e 89bd 0bc7 ed3d
00000010: 299d 0f3f 6b4d 27bd f8a0 e93c 59c6 32be
00000020: 0eee d2be 7ce2 dfbe

i_resnet_layers.5.bottleneck_block.2.weight_v f4 [10]
0.080292106 0.13899581 0.29818162 0.17862909 0.09196488 0.25224003 0.7053051 0.15195373
0.048182283 -0.508393
00000000: 3070 a43d eb54 0e3e 43ab 983e 8bea 363e
00000010: 1558 bc3d 9b25 813e e08e 343f c299 1b3e
00000020: c95a 453d 0b26 02bf

i_resnet_layers.5.bottleneck_block.4.weight_orig f4 [2, 10]
-0.27070147 -0.07094052 0.11552991 0.15177687 -0.06957069 0.006477295 -0.20766065 0.26148233
-0.33564937 -0.2921617 0.07706885 0.11817334 -0.28748992 0.14786926 0.15931319 0.09272307
-0.23089536 0.2758117 -0.07050194 0.16397128
00000000: 6299 8abe 4349 91bd f29a ec3d 656b 1b3e
00000010: 147b 8ebd 7d3f d43b fea4 54be 03e1 853e
00000020: 3cda abbe 3896 95be 46d6 9d3d dd04 f23d
00000030: e131 93be 0a6b 173e ff22 233e 98e5 bd3d
00000040: d56f 6cbe 3137 8d3e 5263 90bd 16e8 273e

i_resnet_layers.5.bottleneck_block.4.weight_u f4 [2]
-0.9408361 -0.33886197
00000000: a2da 70bf 517f adbe

i_resnet_layers.5.bottleneck_block.4.weight_v f4 [10]
0.34251627 0.040148582 -0.016732924 -0.28896338 0.017176954 -0.056118503 0.40990403 -0.5086858
0.5090352 0.3285531
00000000: 4b5e af3e d772 243d 7c13 89bc 02f3 93be
00000010: afb6 8c3c 84dc 65bd f1de d13e 3c39 02bf
00000020: 2250 023f 1d38 a83e

i_resnet_layers.6.bottleneck_block.0.bias f4 [10]
-0.79671633 0.7616755 0.67954385 -0.4515563 -0.5719293 0.48639452 0.4164642 0.5319998
0.04979983 0.57404464
00000000: 9af5 4bbf 2afd 423f 96f6 2d3f 6332 e7be
00000010: f569 12bf b408 f93e cc3a d53e 2431 083f
00000020: e8fa 4b3d 97f4 123f

i_resnet_layers.6.bottleneck_block.0.weight_orig f4 [10, 2]
0.24101916 0.6551751 -0.4591721 -0.26153967 0.3509569 0.14036682 -0.22666013 -0.5374655
0.28770015 -0.47148198 -0.108209684 -0.1780635 -0.27664948 0.51110435 -0.054778498 0.4713486
-0.62677556 -0.40981582 -0.69032264 -0.12153538
00000000: bacd 763e 8eb9 273f 9b18 ebbe 87e8 85be
00000010: 9fb0 b33e 52bc 0f3e 9819 68be 5797 09bf
00000020: 6f4d 933e 1666 f1be 0a9d ddbd 4756 36be
00000030: 00a5 8dbe bcd7 023f 6b5f 60bd 9b54 f13e
00000040: 5d74 20bf 61d3 d1be fcb8 30bf 8be7 f8bd

i_resnet_layers.6.bottleneck_block.0.weight_u f4 [10]
0.45481992 -0.3359531 0.2248209 -0.3855478 -0.13109045 -0.14182249 0.15712881 0.23013489
-0.48703718 -0.35906512
00000000: 28de e83e 0b02 acbe 7337 663e 8566 c5be
00000010: 933c 06be ea39 11be 60e6 203e 7ba8 6b3e
00000020: f05c f9be 62d7 b7be

i_resnet_layers.6.bottleneck_block.0.weight_v f4 [2]
0.6204986 0.7842075
00000000: ffd8 1e3f d3c1 483f

i_resnet_layers.6.bottleneck_block.2.weight_orig f4 [10, 10]
0.021516696 -0.2795541 -0.062166054 -0.021429792 -0.20871183 0.08205681 0.16556725 -0.017959662
0.23278643 0.04217189 -0.06206619 0.044461925 -0.25792176 0.04034319 0.25582072 0.29194263
0.16971394 -0.10127067 -0.19558701 0.30859563 -0.08308755 -0.27229092 -0.1424455 0.18834955
-0.16804743 0.32960042 0.07311749 0.030454146 -0.32342112 0.2682916 0.07407662 0.26265424
0.14022984 0.22840476 -0.18430401 0.14452107 -0.06865982 -0.13450131 0.090388544 -0.09136438
0.20691064 -0.2697006 -0.046030167 -0.1920546 -0.2390655 -0.09037983 0.29495728 0.17328312
-0.1657343 0.16570364 0.36078882 -0.32585448 -0.056827504 0.24935663 0.09996823 0.08891094
-0.10284882 0.13910595 0.04495198 -0.20318374 -0.08797859 -0.2172237 0.1991252 -0.29549852
0.06040586 0.03880712 -0.043763537 0.1437874 0.10688704 0.1905727 -0.026169116 0.12766056
0.22647904 0.117477395 0.03889251 0.15637079 -0.24064465 0.15594533 0.1054697 0.18789192
-0.046980638 -0.055294663 -0.22677042 0.2219918 0.03567233 0.15658982 -0.2490845 0.13799587
-0.076908454 -0.042124063 -0.14972526 -0.30258235 -0.1588851 -0.032275513 -0.04216966 0.27272344
0.2804586 -0.18298036 -0.061369285 -0.0021527824
00000000: c843 b03c b721 8fbe d5a1 7ebd 888d afbc
00000010: 8eb8 55be 670d a83d 768a 293e 2420 93bc
00000020: 915f 6e3e 6fbc 2c3d 1e39 7ebd b51d 363d
00000030: 520e 84be e73e 253d effa 823e 8179 953e
00000040: 7ec9 2d3e ff66 cfbd f647 48be 3f00 9e3e
00000050: ce29 aabd b769 8bbe 3cdd 11be b4de 403e
00000060: a014 2cbe 63c1 a83e 9fbe 953d f97a f93c
00000070: 7497 a5be 845d 893e 7cb5 973d 9e7a 863e
00000080: 6998 0f3e f0e2 693e 31ba 3cbe 55fd 133e
00000090: 859d 8cbd b6ba 09be a11d b93d 401d bbbd
000000a0: 62e0 533e 3216 8abe 218a 3cbd f6a9 44be
000000b0: 96cd 74be 0f19 b9bd a404 973e 2171 313e
000000c0: 41b6 29be 37ae 293e 50b9 b83e 66d6 a6be
000000d0: f5c3 68bd 5857 7f3e 25bc cc3d f016 b63d
000000e0: 67a2 d2bd ca71 0e3e 911f 383d 660f 50be
000000f0: 1e2e b4bd e46f 5ebe 7ae7 4b3e 954b 97be
00000100: 236c 773d 37f4 1e3d 6541 33bd 013d 133e
00000110: 98e7 da3d 7d25 433e 9d60 d6bc 73b9 023e
00000120: 1fea 673e fd97 f03d c14d 1f3d aa1f 203e
00000130: 8d6b 76be 22b0 1f3e 8000 d83d bd66 403e
00000140: c56e 40bd a87c 62bd 8136 68be d251 633e
00000150: 261d 123d 1559 203e 0210 7fbe ca4e 0d3e
00000160: 2e82 9dbd 488a 2cbd 9451 19be 13ec 9abe
00000170: c7b2 22be 5433 04bd 18ba 2cbd 68a2 8b3e
00000180: 4598 8f3e 345f 3bbe 5c5e 7bbd b215 0dbb

i_resnet_layers.6.bottleneck_block.2.weight_u f4 [10]
0.24337083 0.379804 0.5615817 -0.22420102 0.38750145 0.076534465 0.082869835 -0.1799158
0.06492195 0.48105347
00000000: 3436 793e ab75 c23e d1c3 0f3f f494 65be
00000010: 9766 c63e 1abe 9c3d a9b7 a93d d93b 38be
00000020: cdf5 843d a44c f63e

i_resnet_layers.6.bottleneck_block.2.weight_v f4 [10]
-0.051035896 -0.57713735 -0.35883036 -0.037045397 -0.11072096 0.3684408 0.42224512 -0.012829403
-0.32189053 0.32264408
00000000: 040b 51bd 46bf 13bf 9db8 b7be eabc 17bd
00000010: acc1 e2bd 46a4 bc3e 8330 d83e 6b32 52bc
00000020: d6ce a4be 9b31 a53e

i_resnet_layers.6.bottleneck_block.4.weight_orig f4 [2, 10]
0.0037973025 0.07788783 -0.23470321 -0.06765993 0.25501564 0.2715965 0.006460966 0.075048365
-0.23017356 -0.34302336 -0.18292502 -0.10343355 0.082358584 -0.04174497 -0.1996236 -0.097549446
0.082421266 -0.05499434 -0.1174315 0.16625175
00000000: 2adc 783b a883 9f3d 0a56 70be 4a91 8abd
00000010: 6991 823e b20e 8b3e 83b6 d33b f5b2 993d
00000020: 9eb2 6bbe c2a0 afbe b250 3bbe f8d4 d3bd
00000030: 9eab a83d c6fc 2abd 216a 4cbe 01c8 c7bd
00000040: 7bcc a83d bf41 61bd ed7f f0bd e63d 2a3e

i_resnet_layers.6.bottleneck_block.4.weight_u f4 [2]
0.9057579 -0.42379546
00000000: c0df 673f b8fb d8be

i_resnet_layers.6.bottleneck_block.4.weight_v f4 [10]
0.12144588 0.17161603 -0.37112007 -0.065362334 0.47333068 0.43091723 -0.04362181 0.1369309
-0.23803711 -0.5716208
00000000: 9eb8 f83d 1dbc 2f3e 7303 bebe b0dc 85bd
00000010: 6658 f23e 2fa1 dc3e c8ac 32bd 9d37 0c3e
00000020: 00c0 73be be55 12bf

i_resnet_layers.7.bottleneck_block.0.bias f4 [10]
0.27140078 0.6258965 0.71931833 -0.18712172 -0.06694875 0.6663375 0.068234004 -0.66758233
0.37869588 0.58658624
00000000: 0bf5 8a3e c13a 203f 3f25 383f d69c 3fbe
00000010: 6d1c 89bd 1895 2a3f 45be 8b3d ade6 2abf
00000020: 6de4 c13e 842a 163f

i_resnet_layers.7.bottleneck_block.0.weight_orig f4 [10, 2]
-0.7833243 0.29249632 -0.14671375 0.25140423 0.13283566 -0.09048524 0.6735011 0.27502733
0.5490835 -0.23547862 -0.001369347 0.33282116 0.45617837 0.25559917 0.6525285 0.2271234
0.46495694 0.4375817 0.26479763 0.35523883
00000000: f187 48bf 14c2 953e 213c 16be 0eb8 803e
00000010: 1206 083e 5350 b9bd 916a 2c3f 62d0 8c3e
00000020: bc90 0c3f 4f21 71be a97b b3ba 8967 aa3e
00000030: 3690 e93e e5dd 823e 1c0c 273f 0993 683e
00000040: d60e ee3e b50a e03e 8e93 873e dde1 b53e

i_resnet_layers.7.bottleneck_block.0.weight_u f4 [10]
-0.45410305 -0.05813811 0.0713142 0.46225822 0.31397483 0.04467727 0.32259923 0.4424948
0.3531292 0.21562378
00000000: 3280 e8be 3a22 6ebd 2e0d 923d 1cad ec3e
00000010: 4fc1 a03e 83ff 363d ba2b a53e ae8e e23e
00000020: 5acd b43e 7bcc 5c3e

i_resnet_layers.7.bottleneck_block.0.weight_v f4 [2]
0.9772881 0.21191491
00000000: 8e2f 7a3f 3900 593e

i_resnet_layers.7.bottleneck_block.2.weight_orig f4 [10, 10]
0.27181834 -0.054061905 0.28549796 0.2763903 0.07741085 -0.11100006 0.16438475 0.26578438
-0.18136013 -0.344046 -0.19923957 -0.28841725 -0.08905075 -0.33519873 0.12865801 -0.17215306
-0.060185954 0.16397654 0.105122365 0.012731873 0.17382729 0.15345699 0.083411135 0.028602961
0.12939224 -0.042899657 0.26980558 0.016002547 -0.26006135 0.15940443 0.14301364 0.23456807
-0.21022233 -0.2782683 0.21276 -0.34560436 0.037517797 0.24197772 -0.25103408 0.085573345
0.2580842 -0.1319049 -0.099751495 0.29738465 -0.02646044 0.09894504 -0.2537592 0.15819463
-0.18658434 0.24069946 0.110189356 -0.046132762 -0.18615654 -0.08041402 -0.16240923 -0.08500148
-0.20808809 0.21756978 0.2883408 0.18982938 -0.09642072 0.008813659 0.24184436 -0.036261827
0.19550423 0.08380909 0.21015932 0.1959224 -0.065136686 0.10048344 -0.19608067 -0.02543186
0.17953578 -0.114054315 -0.08797011 -0.27604538 -0.029175231 -0.07711558 0.03737457 0.17095414
0.10188973 -0.06753691 -0.2006543 0.20487085 -0.0085132 0.18479368 0.26181456 -0.25612488
-0.12564163 0.16820973 -0.2185095 0.33277482 0.22278245 0.14285904 -0.041132502 -0.29323807
0.27697667 -0.2599466 -0.055744343 -0.24723938
00000000: c62b 8b3e 0470 5dbd ca2c 923e 0883 8d3e
00000010: 9489 9e3d 0054 e3bd 7a54 283e e414 883e
00000020: 78b6 39be cc26 b0be 7505 4cbe 6dab 93be
00000030: 3d60 b6bd 2b9f abbe edbe 033e e448 30be
00000040: 8c85 76bd 77e9 273e 654a d73d 5999 503c
00000050: c8ff 313e d423 1d3e 75d3 aa3d c250 ea3c
00000060: 667f 043e 8db7 2fbd f523 8a3e c617 833c
00000070: c326 85be ea3a 233e 2b72 123e 9d32 703e
00000080: 8644 57be 2f79 8ebe c2dd 593e 0ef3 b0be
00000090: 43ac 193d 02c9 773e 8a87 80be 1441 af3d
000000a0: 9d23 843e 1412 07be 834a ccbd cd42 983e
000000b0: 91c3 d8bc b2a3 ca3d baec 81be c6fd 213e
000000c0: f70f 3fbe eb79 763e f5aa e13d b5f5 3cbd
000000d0: d29f 3ebe 1bb0 a4bd 9b4e 26be 4215 aebd
000000e0: 0b15 55be 9dca 5e3e 68a1 933e a262 423e
000000f0: 3a78 c5bd 2a67 103c 0ca6 773e 4887 14bd
00000100: 4332 483e 1aa4 ab3d 0134 573e e29f 483e
00000110: 6266 85bd 43ca cd3d 5fc9 48be 7a56 d0bc
00000120: 3ad8 373e 4f95 e9bd ac29 b4bd d255 8dbe
00000130: e500 efbc c6ee 9dbd 1416 193d 9a0e 2f3e
00000140: 90ab d03d cb50 8abd 5278 4dbe aac9 513e
00000150: f37a 0bbc 8e3a 3d3e 8f0c 863e cd22 83be
00000160: 33a8 00be 2c3f 2c3e f4c0 5fbe 7661 aa3e
00000170: 1521 643e a449 123e 8e7a 28bd 4d23 96be
00000180: e3cf 8d3e b917 85be 2e54 64bd 522c 7dbe

i_resnet_layers.7.bottleneck_block.2.weight_u f4 [10]
-0.4161094 0.30848855 -0.28584135 0.0069968007 0.21387202 0.45049554 -0.16437979 0.010866305
-0.10568747 -0.6024429
00000000: 4b0c d5be 36f2 9d3e cc59 92be 6b45 e53b
00000010: 4401 5b3e 5aa7 e63e 2d53 28be 9608 323c
00000020: ac72 d8bd b339 1abf

i_resnet_layers.7.bottleneck_block.2.weight_v f4 [10]
0.015967963 -0.35211912 -0.42667145 -0.3033685 -0.113840535 0.1257821 -0.5399327 0.21921077
0.3277274 0.35483718
00000000: 3fcf 823c f548 b4be ae74 dabe 1e53 9bbe
00000010: 3a25 e9bd 06cd 003e 0839 0abf ca78 603e
00000020: e3cb a73e 38ad b53e

i_resnet_layers.7.bottleneck_block.4.weight_orig f4 [2, 10]
-0.08560174 -0.27883643 -0.20116064 -0.054904547 0.0747469 -0.028179111 0.10333381 -0.2651613
0.11167139 -0.18878157 -0.37257144 0.27223697 0.15480064 -0.15998538 -0.21828067 0.24286011
-0.17830427 -0.020482851 -0.085205816 0.17537402
00000000: f74f afbd a6c3 8ebe 0efd 4dbe 97e3 60bd
00000010: e714 993d e1d7 e6bc ada0 d33d 39c3 87be
00000020: f8b3 e43d f54f 41be afc1 bebe a562 8b3e
00000030: 0f84 1e3e 35d3 23be f884 5fbe 52b0 783e
00000040: 6595 36be a7cb a7bc 6380 aebd 3f95 333e

i_resnet_layers.7.bottleneck_block.4.weight_u f4 [2]
0.4914192 -0.8709232
00000000: 4c9b fb3e d3f4 5ebf

i_resnet_layers.7.bottleneck_block.4.weight_v f4 [10]
0.3909169 -0.51831144 -0.3235366 0.15561953 0.31437775 -0.31200254 0.28525263 -0.15600051
0.17887802 -0.3402386
00000000: 4326 c83e 0fb0 04bf 97a6 a5be ba5a 1f3e
00000010: 1ff6 a03e ccbe 9fbe a20c 923e 99be 1fbe
00000020: cd2b 373e c133 aebe

i_resnet_layers.8.bottleneck_block.0.bias f4 [10]
0.4136819 0.06061415 0.5709727 0.1938929 0.18081975 0.27931753 0.22550113 -0.42211837
0.52525234 0.5010491
00000000: 1dce d33e 8b46 783d 442b 123f dc8b 463e
00000010: d028 393e b502 8f3e c5e9 663e e61f d8be
00000020: f076 063f c144 003f

i_resnet_layers.8.bottleneck_block.0.weight_orig f4 [10, 2]
0.6219541 -0.06665829 -0.1472094 -0.5386948 -0.05829135 -0.24105303 0.616099 0.28974864
-0.5373315 0.23530583 -0.26770073 -0.7325866 -0.40075395 -0.23893656 -0.17586231 0.4671526
-0.4063953 -0.33808756 -0.54673684 0.058857486
00000000: 6238 1f3f 2484 88bd 10be 16be e7e7 09bf
00000010: e9c2 6ebd 9bd6 76be aab8 1d3f ef59 943e
00000020: 8f8e 09bf 03f4 703e 1210 89be cc8a 3bbf
00000030: 9f2f cdbe c9ab 74be 4015 34be a02e ef3e
00000040: 0b13 d0be d019 adbe f2f6 0bbf 8c14 713d

i_resnet_layers.8.bottleneck_block.0.weight_u f4 [10]
0.3386203 -0.28761968 -0.12430181 0.46850675 -0.22605987 -0.43061477 -0.32373425 0.07204272
-0.36405995 -0.29765052
00000000: a45f ad3e e342 93be f391 febd 1ee0 ef3e
00000010: 3d7c 67be 8a79 dcbe 7fc0 a5be 228b 933d
00000020: 1166 babe a665 98be

i_resnet_layers.8.bottleneck_block.0.weight_v f4 [2]
0.8421609 0.53922635
00000000: db97 573f bd0a 0a3f

i_resnet_layers.8.bottleneck_block.2.weight_orig f4 [10, 10]
-0.22854118 0.06466493 -0.07600877 0.29725683 -0.03624969 0.09328763 -0.1375792 0.0765512
0.13456395 -0.08968038 -0.056474045 0.13719754 -0.17621715 -0.24550216 -0.0070423395 0.21978943
0.15001519 -0.03565029 0.2526388 0.17909536 -0.1447345 -0.172012 0.0012120084 -0.16109213
0.18330798 0.24007821 -0.20912448 0.12059235 -0.16266134 0.16092314 0.24165867 0.06613782
0.05819858 -0.26897427 -0.08028427 -0.07624888 -0.23171894 -0.23798035 0.012777226 0.20991229
-0.12253949 -0.09006309 -0.22615959 -0.13163733 0.27206686 -0.3526438 0.0280139 0.11815387
-0.15946345 0.07827529 0.06273582 -0.27970806 0.29234827 0.12673435 0.10792453 -0.06784804
0.18072784 -0.05218753 -0.14045312 -0.15608664 0.13683033 0.0005590952 0.14258823 -0.23734142
-0.14254092 -0.236116 0.18310729 -0.19233906 -0.24961098 -0.14184912 -0.044556737 0.28311214
0.25425375 0.20598552 -0.012811509 -0.047583994 -0.19731954 0.048160236 0.13273762 -0.25419554
0.08217522 -0.245422 -0.11393625 0.13429256 -0.23434013 -0.34450158 -0.133429 0.1434559
-0.0922932 0.0149528645 -0.29089716 -0.11116682 0.21709865 -0.16927116 0.16023588 0.11722181
0.18410413 0.17826484 0.027761081 0.19395535
00000000: b306 6abe 0c6f 843d 7caa 9bbd 0c32 983e
00000010: 8e7a 14bd 960d bf3d 90e1 0cbe e0c6 9c3d
00000020: 22cb 093e 59aa b7bd 5451 67bd 837d 0c3e
00000030: 4572 34be eb64 7bbe 6dc3 e6bb 7b10 613e
00000040: 959d 193e 0a06 12bd df59 813e c664 373e
00000050: 4835 14be ea23 30be 41dc 9e3a 56f5 24be
00000060: 16b5 3b3e 10d7 753e ba24 56be 1ff9 f63d
00000070: b290 26be 09c9 243e 5f75 773e 4473 873d
00000080: a261 6e3d ffb6 89be 146c a4bd 5f28 9cbd
00000090: bb47 6dbe 1fb1 73be 9257 513c 3ff3 563e
000000a0: fcf5 fabd ff72 b8bd 6196 67be f0cb 06be
000000b0: 594c 8b3e ba8d b4be 687d e53c a8fa f13d
000000c0: 634a 23be cc4e a03d a37b 803d e535 8fbe
000000d0: acae 953e a6c6 013e 8907 dd3d eaf3 8abd
000000e0: b810 393e 97c2 55bd f1d2 0fbe 2dd5 1fbe
000000f0: 401d 0c3e 3e90 123a a602 123e a109 73be
00000100: 3ff6 11be 65c8 71be 7a80 3b3e 88f4 44be
00000110: 059a 7fbe e540 11be 2081 36bd 13f4 903e
00000120: 8c2d 823e deed 523e 5de7 51bc 6fe7 42bd
00000130: 220e 4abe ab43 453d 5fec 073e eb25 82be
00000140: 7b4b a83d e84f 7bbe 6957 e9bd fd83 093e
00000150: dcf6 6fbe 8362 b0be 9da1 08be 1ae6 123e
00000160: 3804 bdbd dcfc 743c 79f0 94be 6eab e3bd
00000170: 1c4f 5e3e 6b55 2dbe e014 243e fd11 f03d
00000180: cb85 3c3e 0f8b 363e 356b e33c 3b9c 463e

i_resnet_layers.8.bottleneck_block.2.weight_u f4 [10]
0.16154382 0.45988962 0.33350754 -0.102730945 -0.07527984 -0.30085027 -0.45607075 -0.095948935
-0.425022 0.38287815
00000000: be6b 253e a776 eb3e 80c1 aa3e 9a64 d2bd
00000010: 512c 9abd 0c09 9abe 1b82 e9be e080 c4bd
00000020: 7c9c d9be 9b08 c43e

i_resnet_layers.8.bottleneck_block.2.weight_v f4 [10]
-0.4070008 0.15672944 -0.14838146 -0.17756338 0.272701 0.64508903 0.008139629 0.18343633
0.33451834 0.34657913
00000000: 6962 d0be af7d 203e 4ff1 17be 2dd3 35be
00000010: 779f 8b3e 8e24 253f 145c 053c bcd6 3b3e
00000020: fd45 ab3e d272 b13e

i_resnet_layers.8.bottleneck_block.4.weight_orig f4 [2, 10]
0.3008104 0.08764011 0.16295348 -0.26768538 -0.24064878 -0.23032355 -0.15846303 -0.19095302
-0.22627579 0.0010561878 -0.2564945 -0.09585443 0.04410263 -0.025520938 -0.21241945 -0.03921973
-0.01625506 0.13233294 -0.075365804 -0.2145118
00000000: d203 9a3e a87c b33d 47dd 263e 0f0e 89be
00000010: a26c 76be f0d9 6bbe 2244 22be 3089 43be
00000020: d7b4 67be c86f 8a3a 3f53 83be 544f c4bd
00000030: f6a4 343d 4911 d1bc 7c84 59be dea4 20bd
00000040: 5529 85bc 4982 073e 6359 9abd fba8 5bbe

i_resnet_layers.8.bottleneck_block.4.weight_u f4 [2]
0.9971035 -0.07605574
00000000: 2d42 7f3f 1dc3 9bbd

i_resnet_layers.8.bottleneck_block.4.weight_v f4 [10]
0.4921091 0.1458037 0.24507858 -0.40811387 -0.34479934 -0.34921414 -0.24142732 -0.3087481
-0.33880568 0.026658753
00000000: b9f5 fb3e 914d 153e e1f5 7a3e 4df4 d0be
00000010: 8a89 b0be 32cc b2be b938 77be 3b14 9ebe
00000020: f077 adbe 7563 da3c

i_resnet_layers.9.bottleneck_block.0.bias f4 [10]
0.12388862 0.2885851 -0.12702815 -0.63701344 0.29486984 0.32104716 0.42951995 -0.13639791
-0.53981245 0.14209571
00000000: 51b9 fd3d 6dc1 933e ab13 02be 5013 23bf
00000010: 2ef9 963e 4b60 a43e 0aea db3e e5ab 0bbe
00000020: 2631 0abf 8a81 113e

i_resnet_layers.9.bottleneck_block.0.weight_orig f4 [10, 2]
-0.23769908 0.6690566 -0.21005297 0.19947961 -0.18256153 0.20388581 0.22997248 -0.27495807
-0.4991612 -0.28230783 0.6808926 -0.021776507 -0.12576382 0.26677412 0.27519557 -0.48883054
-0.539351 -0.6516666 -0.18846886 0.13621521
00000000: 6367 73be 4b47 2b3f 2018 57be 6244 4c3e
00000010: 69f1 3abe 71c7 503e e87d 6b3e 4ec7 8cbe
00000020: 0f92 ffbe a78a 90be fa4e 2e3f a564 b2bc
00000030: 3bc8 00be 9e96 883e 6fe6 8c3e ff47 fabe
00000040: e812 0abf 9fd3 26bf fbfd 40be 007c 0b3e

i_resnet_layers.9.bottleneck_block.0.weight_u f4 [10]
-0.57971764 -0.18913706 -0.18950577 0.25369483 0.17455517 0.09729264 -0.23468217 0.43547738
0.474535 -0.13433605
00000000: 6068 14bf 25ad 41be cd0d 42be 4ae4 813e
00000010: 97be 323e 5d41 c73d 8650 70be e4f6 de3e
00000020: 40f6 f23e 648f 09be

i_resnet_layers.9.bottleneck_block.0.weight_v f4 [2]
0.1402348 -0.9901183
00000000: b699 0f3e 6578 7dbf

i_resnet_layers.9.bottleneck_block.2.weight_orig f4 [10, 10]
0.0888298 -0.042906724 -0.24776097 -0.2784131 -0.22834487 -0.018876052 -0.2914187 0.06513552
-0.16899559 0.1585343 0.08866645 -0.30715433 -0.25957343 0.054376908 0.11625568 0.21561103
0.17888935 -0.0834926 -0.020716446 -0.14578678 -0.19710231 0.17981502 0.24095368 -0.27334955
-0.05596652 -0.26784682 -0.11778034 -0.08274058 0.18675104 -0.16839758 0.1649118 -0.18634509
-0.023576517 0.07597743 0.1893266 0.03442802 -0.14278896 -0.25232002 -0.23323417 0.047476888
0.14404368 -0.16068007 0.29473016 0.1902569 -0.09533129 -0.04565486 0.16155514 -0.08401898
-0.028395768 0.17479779 -0.1540922 0.07982624 -0.006610045 -0.074202865 -0.02083984 0.14538111
-0.043502707 -0.10993418 0.2999661 0.0057367347 0.05286325 -0.13005686 0.20001297 -0.106687926
-0.10823553 0.29114822 0.30336288 -0.008998478 -0.2337689 -0.162234 -0.18858136 0.10025062
0.02994782 -0.0963339 -0.09655566 0.17612882 -0.323153 -0.28381985 -0.3516393 -0.2777626
-0.09634506 0.25439575 -0.26774216 -0.19473328 0.16561042 -0.07011576 0.3110368 0.10247448
0.23965828 0.08547382 0.31133977 -0.09984137 0.22118933 -0.17671993 0.2546035 -0.24260867
0.08177987 0.118971854 -0.1930493 0.32224745
00000000: 66ec b53d f6be 2fbd 0db5 7dbe 298c 8ebe
00000010: 3dd3 69be f3a1 9abc d534 95be c665 853d
00000020: 2e0d 2dbe d156 223e c196 b53d 5543 9dbe
00000030: cfe6 84be 52ba 5e3d 7517 ee3d 23c9 5c3e
00000040: c52e 373e 2bfe aabd 89b5 a9bc 2149 15be
00000050: 30d5 49be 6e21 383e 90bc 763e 79f4 8bbe
00000060: 263d 65bd 3823 89be d236 f1bd e573 a9bd
00000070: aa3b 3f3e 6a70 2cbe a4de 283e 3fd1 3ebe
00000080: 8a23 c1bc 0e9a 9b3d d5de 413e 6504 0d3d
00000090: 4537 12be 1730 81be f0d4 6ebe 2077 423d
000000a0: 3080 133e 5189 24be dfe6 963e b4d2 423e
000000b0: 0d3d c3bd 9700 3bbd b66e 253e 2512 acbd
000000c0: 3e9e e8bc 31fe 323e 58ca 1dbe f17b a33d
000000d0: 1499 d8bb acf7 97bd 50b8 aabc c9de 143e
000000e0: e52f 32bd 2c25 e1bd 2895 993e 38fb bb3b
000000f0: 2387 583d a02d 05be 33d0 4c3e 337f dabd
00000100: 97aa ddbd 6111 953e 6152 9b3e 5a6e 13bc
00000110: 1d61 6fbe ab20 26be 791b 41be 3250 cd3d
00000120: 2155 f53c b54a c5bd f9be c5bd 1d5b 343e
00000130: 4f74 a5be d650 91be 110a b4be e636 8ebe
00000140: 8f50 c5bd 2940 823e 8015 89be 2968 47be
00000150: c795 293e da98 8fbd 3740 9f3e 24de d13d
00000160: fb68 753e e60c af3d ed67 9f3e a279 ccbd
00000170: 757f 623e 12f6 34be 645b 823e 686e 78be
00000180: 347c a73d 84a7 f33d b7ae 45be 9efd a43e

i_resnet_layers.9.bottleneck_block.2.weight_u f4 [10]
-0.010182613 0.2475367 -0.43951863 0.3755025 0.34779927 -0.30397055 0.29250494 -0.068875946
-0.35911337 0.41450605
00000000: f9d4 26bc 437a 7d3e 9608 e1be dd41 c03e
00000010: bf12 b23e 07a2 9bbe 35c3 953e d50e 8dbd
00000020: b5dd b7be 233a d43e

i_resnet_layers.9.bottleneck_block.2.weight_v f4 [10]
0.4983703 -0.5241006 0.18730581 0.24522187 0.13159676 0.13224539 0.16093227 -0.050163217
-0.52616006 0.20411225
00000000: 642a ff3e 752b 06bf 18cd 3f3e 711b 7b3e
00000010: 4dc1 063e 566b 073e 6ecb 243e f277 4dbd
00000020: 6db2 06bf cd02 513e

i_resnet_layers.9.bottleneck_block.4.weight_orig f4 [2, 10]
0.023084382 0.32587573 0.2880054 -0.039589986 -0.12853329 -0.1526002 -0.14506088 -0.095789015
-0.1315258 -0.23430781 0.14107674 -0.21607758 0.25407544 -0.26477545 0.24206433 0.12075638
0.2479501 -0.15083945 0.10351381 0.027048951
00000000: 751b bd3c 2fd9 a63e 7275 933e 1c29 22bd
00000010: 3b9e 03be 3a43 1cbe d78a 14be 082d c4bd
00000020: b3ae 06be 63ee 6fbe 6c76 103e 7143 5dbe
00000030: 2d16 823e a690 87be b6df 773e 1f4f f73d
00000040: a2e6 7d3e a875 1abe 0cff d33d c395 dd3c

i_resnet_layers.9.bottleneck_block.4.weight_u f4 [2]
0.6175471 -0.7865339
00000000: 9117 1e3f 495a 49bf

i_resnet_layers.9.bottleneck_block.4.weight_v f4 [10]
-0.1479211 0.56702 -0.033457633 0.2809125 -0.4121047 -0.28901592 -0.4349144 0.090694144
-0.24830961 -0.25334218
00000000: a178 17be 3928 113f df0a 09bd c3d3 8f3e
00000010: 63ff d2be e5f9 93be 1aad debe dabd b93d
00000020: e044 7ebe 11b6 81be

i_resnet_layers.10.bottleneck_block.0.bias f4 [10]
0.51096416 0.702712 -0.8551461 -0.6262092 0.0042911796 -0.14304833 -0.61060256 -0.082251675
-0.46473995 -0.0021543663
00000000: 8cce 023f efe4 333f dbea 5abf 3f4f 20bf
00000010: 069d 8c3b 437b 12be 7350 1cbf 9173 a8bd
00000020: 65f2 edbe 4530 0dbb

i_resnet_layers.10.bottleneck_block.0.weight_orig f4 [10, 2]
0.42690754 -0.48797548 0.18103798 -0.3397053 0.39529473 0.35791197 -0.6624624 0.3499228
-0.45733157 -0.07660187 0.5358597 0.41503406 0.14713556 -0.08386302 -0.32918435 0.6540027
0.5541789 -0.5035435 0.057436146 -0.38503826
00000000: a093 da3e ecd7 f9be 0562 393e daed adbe
00000010: 1264 ca3e 3d40 b73e 2397 29bf 1529 b33e
00000020: 5d27 eabe 71e1 9cbd 1a2e 093f 587f d43e
00000030: b4aa 163e 60c0 abbd da8a a8be b96c 273f
00000040: abde 0d3f 3ae8 00bf 2a42 6b3d bc23 c5be

i_resnet_layers.10.bottleneck_block.0.weight_u f4 [10]
-0.4229072 -0.23785971 -0.034971118 0.47696307 0.18927328 -0.07833323 -0.108626395 0.44842267
-0.49191314 -0.19757009
00000000: 4b87 d8be 7f91 73be e03d 0fbd 8134 f43e
00000010: dbd0 413e 2c6d a0bd 8477 debd a897 e53e
00000020: 0adc fbbe d04f 4abe

i_resnet_layers.10.bottleneck_block.0.weight_v f4 [2]
-0.7419263 0.67048144
00000000: e2ee 3dbf aca4 2b3f
