experiments/diffeomorphism_effects/models/spiral/i_resnet_euclidean_product_100_blocks_10_int_features_20_epochs_True_subspace_reg_True_isometry_reg.pt (torch, 803814 bytes, 1000 tensors)

i_resnet_layers.0.bottleneck_block.0.bias f4 [10]
00000000: 07c5 06be f186 483d c592 093e e8fc bb3d
00000010: 845d b8be a3d1 27bf 5c47 1bbf 90a0 463d
00000020: 6ac0 84be 56cd 193f
-0.13161097 0.048956815 0.13434894 0.091790974 -0.36008847 -0.65554255 -0.6065576 0.048492968
-0.2592805 0.6007894

i_resnet_layers.0.bottleneck_block.0.weight_orig f4 [10, 2]
00000000: be15 d43e 4804 d43e 2234 1f3e 4d64 01bf
00000010: 3d28 1c3f 307c c4be e719 30bf d95f b9be
00000020: ec0d acbc 1d81 cabd 5c31 5f3d 27f5 ea3e
00000030: 8a32 a0be 4bb8 993e 256d 90bd 40d4 0cbf
00000040: 2cdd 163e d5a3 ffbe d433 0fbf cc6b e0be
0.41422838 0.41409516 0.15547231 -0.5054367 0.609989 -0.38375998 -0.68789524 -0.36205938
-0.021002732 -0.09887908 0.054490432 0.4589016 -0.31288558 0.30023417 -0.07052068 -0.5501137
0.14732808 -0.4992968 -0.5593846 -0.43832242

i_resnet_layers.0.bottleneck_block.0.weight_u f4 [10]
00000000: 1134 d2be f411 843e 1417 743c c521 f53e
00000010: 1415 8e3d d7c1 9cbe a7ab 93bd cee4 bc3e
00000020: d6a4 833e 5a46 f53e
-0.4105535 0.25794947 0.01489808 0.47877327 0.06937614 -0.30616638 -0.072104745 0.36893314
0.25711697 0.47905236

i_resnet_layers.0.bottleneck_block.0.weight_v f4 [2]
00000000: 2014 02bf 477d 5cbf
-0.5081196 -0.8612866

i_resnet_layers.0.bottleneck_block.2.weight_orig f4 [10, 10]
00000000: 3ccd 71bd 31a4 46be c096 80be e844 563e
00000010: 5199 aa3d 5e65 32be c449 423e 8fe1 873d
00000020: 5e1e 32bc 3a40 7b3e b9e1 783e 98c1 203d
00000030: 47f9 6b3d 7511 41be d138 583d a61f 7bbe
00000040: c073 723e 2cd8 46be bedb f63d 11ab 8fbe
00000050: 4807 8c3e dec3 94be 9d39 28be dbab fbbd
00000060: 012c 46bd b140 28bd 0378 333e 32b5 54be
00000070: a6c8 91be 9e8e 97bd 57e9 023e e2c0 1dbe
00000080: b6af 8fbe 421f b33c 05c1 7e3e f243 4f3d
00000090: d93b 2e3e f32e 3b3e 450b bf3d fe96 89be
000000a0: a4fa 51bd ffc5 323e 2613 2d3e 5563 73be
000000b0: 5725 99bd 1b51 85be ae86 8e3d 2382 b6bc
000000c0: e07a 953e fcf9 8cbe b6a9 2bbe f178 b93d
000000d0: 526e 183e b566 083e f128 94bc 433f 523d
000000e0: ee9e 0e3e b432 b63c 39bc 4abe b256 503e
000000f0: 3c2b 9a3d b59c fcbd 9288 3bbe 8668 4d3e
00000100: 6a2a 673e 0e5d d83b e254 7fbe 77b0 ab3c
00000110: ce6d c73d a7af 033e 8e1a 763d b65c a1bc
00000120: d5c0 66be ce9b 8d3d 1b24 d9bd 8a34 3fbb
00000130: a32e 7a3d ee1b fe3d ccca 05be 6ac7 89be
00000140: 2700 1ebe 153a 5a3e 28be 83be a051 0b3d
00000150: 52bb 123e fbb8 86be 98f1 1f3d bad1 da3c
00000160: 20ce 2b3d 02b4 073e ca62 793e 4c5c 2ebd
00000170: 0d65 e83c 4769 b93d 5045 5cbd 0ee9 423e
00000180: 7fb8 1abe 14de 40be c103 a93e f038 093e
-0.059033617 -0.19398572 -0.25115013 0.20924723 0.08330024 -0.17421481 0.18973452 0.06634819
-0.010871498 0.24536219 0.24304856 0.039247125 0.057610776 -0.18854316 0.05278856 -0.24523792
0.23676968 -0.194184 0.12053631 -0.280602 0.27349305 -0.29055685 -0.16428228 -0.12288638
-0.04838181 -0.04107732 0.1752625 -0.20772246 -0.28473395 -0.07400249 0.12784325 -0.1540561
-0.28063744 0.02186549 0.24878319 0.050601907 0.17015018 0.18279628 0.09328321 -0.2687301
-0.05126442 0.17458342 0.16901836 -0.23768361 -0.07477825 -0.2603844 0.06959282 -0.02227885
0.2919531 -0.27534473 -0.16763958 0.09056271 0.14885834 0.1332043 -0.018085929 0.051329862
0.13927814 0.022240974 -0.19798364 0.20345572 0.075277776 -0.12334577 -0.18313816 0.20059404
0.22574773 0.00660289 -0.24934724 0.020958168 0.097377405 0.12859975 0.06008392 -0.019697528
-0.22534497 0.06914483 -0.1060259 -0.0029175603 0.061079632 0.12407671 -0.13065642 -0.26909953
-0.15429746 0.21311219 -0.25731015 0.03401339 0.1432927 -0.26313004 0.03904876 0.026711334
0.041944623 0.13252261 0.24354091 -0.04256849 0.028368497 0.09053283 -0.05377704 0.19034216
-0.15109442 -0.18834716 0.33010677 0.13400626

i_resnet_layers.0.bottleneck_block.2.weight_u f4 [10]
00000000: 2ebb 9cbe 73bf 183f 0879 323e d1f2 0d3e
00000010: 7082 0d3f 0b2b 80be d7ca a4be 157e e63d
00000020: e7dc e1bd fe2b 82bd
-0.30611557 0.5966713 0.17428982 0.13862158 0.55277157 -0.2503284 -0.32186005 0.11254517
-0.11028462 -0.06356047

i_resnet_layers.0.bottleneck_block.2.weight_v f4 [10]
00000000: 782e 823e 6047 e93d 393c 383e 342b f5be
00000010: 3338 eabd b985 87be 2250 863e 4026 2bbe
00000020: 80b9 4c3e a2f9 29bf
0.25426078 0.11390567 0.17991723 -0.47884524 -0.114365004 -0.2646921 0.2623301 -0.1671381
0.19992638 -0.66396534

i_resnet_layers.0.bottleneck_block.4.weight_orig f4 [2, 10]
00000000: 4247 413d 116d 04be 0767 933d 414b 42bd
00000010: 9104 77be 4461 5dbe 82a6 1dbe fe60 2bbe
00000020: 09ea 2b3e 5fee 85bd 1c66 60be 89da 4ebe
00000030: 5698 72be c610 1f3e 9e6f b7bc 92da 883e
00000040: fea3 9dbe 84f5 bbbd 2af2 19be 6377 32be
0.047187097 -0.1293223 0.07197385 -0.04743505 -0.24122836 -0.21619135 -0.15395549 -0.16736218
0.16788496 -0.06539606 -0.21913952 -0.20200552 -0.23690924 0.15533742 -0.02239209 0.26729256
-0.3078918 -0.09177688 -0.15033785 -0.17428355

i_resnet_layers.0.bottleneck_block.4.weight_u f4 [2]
00000000: 0079 873d 7670 7fbf
0.06614876 -0.99780977

i_resnet_layers.0.bottleneck_block.4.weight_v f4 [10]
00000000: 2dfc b33e 91a2 9c3e 7cb4 c33e 6355 80be
00000010: d2d7 253c e70c e4be 4c0e f13e b8aa 023e
00000020: 4ac0 823e 519e 893e
0.35153332 0.30592778 0.38223636 -0.25065145 0.010122256 -0.44541094 0.4708122 0.12760437
0.2553733 0.26878598

i_resnet_layers.1.bottleneck_block.0.bias f4 [10]
00000000: 4c97 183f 86eb bf3b 2c5c f03e f197 24bf
00000010: 67d4 133d 7c27 cd3e 6a65 cbbd 6085 f23e
00000020: 1e2b e3be 9706 c83c
0.5960586 0.005856934 0.46945322 -0.64294344 0.036091235 0.40069187 -0.099314526 0.47367382
-0.44368833 0.024417205

i_resnet_layers.1.bottleneck_block.0.weight_orig f4 [10, 2]
00000000: 7668 a53e b362 26be d1d4 dc3e 64da f53e
00000010: 37e4 55be 9f97 6fbd cefb 8fbe 987a 55be
00000020: de41 c93e 0f93 833e a64c b93c de09 3f3e
00000030: 8bdb b2be 82c0 22bf c2ab b3be 8a3c 233f
00000040: d4e1 8a3e 59a6 f53e a380 a5be a449 1b3f
0.3230626 -0.16248588 0.43131116 0.4801818 -0.20887838 -0.058494207 -0.281218 -0.20847547
0.39308065 0.25698134 0.022619557 0.18656108 -0.34933123 -0.63574994 -0.35091978 0.6376425
0.27125418 0.47978476 -0.32324705 0.6065924

i_resnet_layers.1.bottleneck_block.0.weight_u f4 [10]
00000000: 4052 42bd 59b5 d83e 7bfb aabd 3bd2 4fbe
00000010: 42f1 843e 2014 0a3e fadd 03bf fa30 bf3e
00000020: a9d4 c73e edfc b63e
-0.04744172 0.42325857 -0.08348747 -0.2029504 0.25965315 0.1348424 -0.51510584 0.37342054
0.39029434 0.35739842

i_resnet_layers.1.bottleneck_block.0.weight_v f4 [2]
00000000: 48c5 8f3e 35b3 753f
0.280802 0.95976573

i_resnet_layers.1.bottleneck_block.2.weight_orig f4 [10, 10]
00000000: bfa3 cabd 1a66 d63d 1d57 b83d 1be5 ecbc
00000010: 509a edbd 7961 603d 9d43 90be f281 35be
00000020: d24c 45be aad0 6f3e 9b10 25bd 27ab 3c3e
00000030: 88f1 6dbe d774 2abe 2c13 96bd c4cc 3bbe
00000040: 487d bfbe 1217 173d 6a90 b1bd 617d 82bd
00000050: 5bf7 3bbe b763 47bd 11d5 d93d 38a9 6d3e
00000060: 2745 223e 9275 a5be e278 f4bc 2d61 9fbe
00000070: c2f3 183e 72dc b9be e8a0 bfbe 4556 383e
00000080: 15fa 9ebd ed25 6ebd 884b 1ebe 79d1 32bc
00000090: f79f 9a3d 5f63 993e 9219 fa3c a540 153e
000000a0: 4b67 7f3e 251c 533e 32fb babc b7e9 04be
000000b0: 4821 133e 3e51 50bd acc5 293c 5741 653d
000000c0: 16c7 eabc 3537 803d d898 49be 3784 fb3d
000000d0: ecfd a9bd 9ec6 39be badc e4bd 1edc c63c
000000e0: 61fa 663d 113f 9b3e e089 de3d cdf8 83bc
000000f0: f8a3 3bbe 2122 dbbd 4db8 a83d 03ae e93d
00000100: b7cd c4bd fb32 1cbd e2e2 3ebe 4ee2 6e3e
00000110: d9c0 a0be 3305 96be a056 923d acd6 d03d
00000120: 7507 99be 5263 2a3e 40f6 383e 61ed 9e3d
00000130: 262b 23be 97e0 613e 8aac 45bd 65e6 093e
00000140: ab72 de3d d9fe 8ebe f694 88bd 450f e93d
00000150: cb06 8cbd 40e6 fa3d c80c 2dbe 5bbf ecbd
00000160: 7ca0 58bd ea1e a03c 7a67 48be ca2f a2bc
00000170: 8da9 5b3e 67f1 1b3e 8c25 a6be ff7c f23c
00000180: f1f1 4f3d 6573 b6bd ed15 febc 586c 05bd
-0.09894513 0.10468693 0.090009905 -0.02891784 -0.116016984 0.054780457 -0.28176585 -0.17725351
-0.19267586 0.23419443 -0.04029904 0.18424664 -0.23236668 -0.16646133 -0.073278755 -0.1833983
-0.3740027 0.036887236 -0.08670123 -0.063715704 -0.18356077 -0.04867908 0.10636342 0.23209083
0.15846692 -0.32316262 -0.029842798 -0.31128827 0.14936736 -0.36301 -0.3742745 0.18001659
-0.07762543 -0.058141638 -0.154585 -0.0109142 0.07550042 0.29958627 0.030529771 0.14575441
0.24941747 0.20616205 -0.022824857 -0.1297978 0.14368165 -0.05085873 0.01036207 0.055970516
-0.028659385 0.0626053 -0.19687212 0.12281077 -0.08300385 -0.18142173 -0.11174913 0.024274882
0.056391124 0.30321553 0.10866141 -0.016109848 -0.18324268 -0.10699869 0.082382776 0.11410143
-0.096095495 -0.038134556 -0.18641236 0.23328516 -0.3139713 -0.29300842 0.07145429 0.101971954
-0.29888502 0.1663945 0.18062687 0.0776012 -0.15934429 0.2205833 -0.04826025 0.13466795
0.10861715 -0.27928808 -0.06669037 0.113798656 -0.06837233 0.12250948 -0.16899407 -0.11559936
-0.052887425 0.019545991 -0.19570723 -0.019798178 0.21451397 0.15228806 -0.3245052 0.029600618
0.050767843 -0.089087285 -0.031016314 -0.032574028

i_resnet_layers.1.bottleneck_block.2.weight_u f4 [10]
00000000: ded8 8f3d d4ca 7f3e 9d84 1fbf b56b e03e
00000010: 5026 393e fd33 c23e c8d8 1cbd f368 aa3e
00000020: a894 2bbe 299f 40be
0.07023786 0.24979717 -0.62311727 0.43832174 0.18081021 0.3793029 -0.038292676 0.33283195
-0.16755927 -0.18810715

i_resnet_layers.1.bottleneck_block.2.weight_v f4 [10]
00000000: f855 5abd c628 c33e 6214 babe a653 b0be
00000010: 373f aabd b489 353e 785e 98bd ed8b 1f3f
00000020: f0e3 9ebd f1a0 ce3e
-0.053304642 0.38117045 -0.36343676 -0.3443882 -0.083128385 0.17728311 -0.074398935 0.62322885
-0.077583194 0.40357164

i_resnet_layers.1.bottleneck_block.4.weight_orig f4 [2, 10]
00000000: 0549 f2bd 607b 71be 2064 c6be 9d77 45bd
00000010: ad42 82be c2e6 a13c 0228 a83d 7e01 e73d
00000020: 4bd9 8f3e 02cd 643e 0c98 933e 2e96 18be
00000030: f4e8 1e3e e159 8f3e f85f 7e3e d38d 343e
00000040: 81b4 6cbe d4d9 f1bd df73 8a3d 05c5 9abe
-0.118303336 -0.2358222 -0.38748264 -0.048209775 -0.25441495 0.019763354 0.08210756 0.112795815
0.2809547 0.2234383 0.2882694 -0.14901039 0.15518552 0.2799826 0.24841297 0.17632227
-0.23115732 -0.118091255 0.06760382 -0.3022844

i_resnet_layers.1.bottleneck_block.4.weight_u f4 [2]
00000000: 44e7 2ebf 70ef 3a3f
-0.68321633 0.730216

i_resnet_layers.1.bottleneck_block.4.weight_v f4 [10]
00000000: ae23 b73e 0988 833d f5a8 ed3e f53a 953e
00000010: 9c4d df3e 17e7 103e 5b60 8dbe 2e4f 4dbe
00000020: d045 33be 65ba eabe
0.3576941 0.06422431 0.46417966 0.29146543 0.436139 0.14150654 -0.27612576 -0.20049736
-0.175071 -0.45845333

i_resnet_layers.2.bottleneck_block.0.bias f4 [10]
00000000: fa83 2c3f 13c6 df3e 4d4e 18bf 1ba3 873e
00000010: ce1e 173f 8e06 39bf 0eec 1cbe 1aca 063f
00000020: 4724 2f3e bff2 9e3e
0.6738888 0.43705806 -0.5949448 0.26491627 0.5903138 -0.72275627 -0.15324423 0.5265213
0.17103682 0.31044576

i_resnet_layers.2.bottleneck_block.0.weight_orig f4 [10, 2]
00000000: d2c1 583e f75f ab3d 8113 27bf 6058 293f
00000010: 3e27 8d3e dac6 fb3e 1b3b d53e 6ab3 043f
00000020: 7fc0 eebe 11b4 973e 89f8 03be 3189 8cbe
00000030: b56a 7f3e b303 2abe d78e a83e a51a 12bf
00000040: 8df4 02be 9327 1fbf 0fa4 28bf daf7 40be
0.21167687 0.08367913 -0.65264136 0.66150475 0.27569002 0.4917515 0.41646656 0.51836264
-0.46631238 0.29629567 -0.12887777 -0.2744842 0.24943049 -0.16602974 0.32921478 -0.57071906
-0.12788601 -0.6216976 -0.65875334 -0.18844548

i_resnet_layers.2.bottleneck_block.0.weight_u f4 [10]
00000000: 42dd 223c e839 1fbf 68ce 6ebe b9e9 54be
00000010: f477 a9be 1f02 0d3e 7943 3a3e 65af ee3e
00000020: 77fb b83e f124 9ebd
0.009940447 -0.6219773 -0.23320925 -0.20792283 -0.3309933 0.1377034 0.18189801 0.4661819
0.36129352 -0.0772189

i_resnet_layers.2.bottleneck_block.0.weight_v f4 [2]
00000000: 4c27 d93e 8dd5 67bf
0.42412794 -0.9056023

i_resnet_layers.2.bottleneck_block.2.weight_orig f4 [10, 10]
00000000: 5bc2 3abc 3b1d 72bd df8c 42be 085a 653e
00000010: 6f5f 13bd 48a9 c23d 4c4d 54be baaa e43d
00000020: 5e2e b1bd 35b4 48bd 4f14 2cbe 5517 96be
00000030: 8ce7 4fbe 5156 15bc 9a5d c6bb b4ab aa3e
00000040: a1be 863e 55ba 6dbe 0664 73bc 79d3 f33c
00000050: 5b78 20be 5f0d 93be ecc7 b1bd 26af bfba
00000060: e2c1 693e 3756 833d e174 51be f743 3fbd
00000070: b1f5 35bd b230 61be a12e b4be 3d45 38be
00000080: 2341 713d 09f8 6e3e 0a1b b13d 1fc7 623e
00000090: 8b38 8fbe 85f0 46be 860e a93e 41b1 9a3e
000000a0: e670 88be ca11 86be 6101 21be 56f1 363e
000000b0: 1ee7 46be 85db 5b3e 2b49 81bc 59dd ab3e
000000c0: 0acf bf3d 44e6 c13d d281 63be e4af 43be
000000d0: d3a9 99bd 3f12 94be 3ff1 78be cd8f 13be
000000e0: 37c3 d8bc be0d 44be 9023 4cbe 7189 873e
000000f0: 0e10 bfbd 2e19 d13d b9d8 31be 3b5d e9bc
00000100: 96ba 8b3e 47c1 683e 8a3e 2d3b f93a 913d
00000110: d055 74be 0544 99be 183e 7ebe 9843 80bd
00000120: 55fc e0bc ccce b83b 409c 5cbe 2ad1 a93c
00000130: e60c b43d 4e75 ec3c 0f97 6abd 9e40 163e
00000140: ed3f c33b 1b39 12bd 764b 70bd 377f cbbd
00000150: 93c2 1f3e 6661 c43d 1c4f 6d3e 9e1e 03be
00000160: a6ed 503e b758 9ebe 291e c1bc 4e70 d83d
00000170: 683f 83bd 5e65 ddbd 25fc dd3d 7995 9b3e
00000180: 9dba debd 9707 7239 fb28 a5bc 5585 94be
-0.011398877 -0.059109908 -0.1899905 0.22397625 -0.035979684 0.09504944 -0.20732611 0.11165376
-0.08651422 -0.048999984 -0.16804622 -0.29314676 -0.20303172 -0.009114818 -0.0060536386 0.33334124
0.26317313 -0.23215611 -0.01485539 0.029763924 -0.15670912 -0.2872114 -0.0868071 -0.0014624342
0.22827867 0.064129286 -0.20454742 -0.046695676 -0.044423763 -0.21991232 -0.35191825 -0.17995162
0.05890001 0.23336805 0.086477354 0.22146271 -0.27972826 -0.19427688 0.33018893 0.3021336
-0.26648635 -0.26185447 -0.15723182 0.178655 -0.19424102 0.21470459 -0.01578196 0.33567312
0.093656614 0.09467748 -0.22217491 -0.19110066 -0.075030945 -0.2892017 -0.24310778 -0.14410324
-0.026460273 -0.19145867 -0.19935441 0.26472047 -0.09329234 0.10209881 -0.1736783 -0.028486839
0.2729079 0.2272998 0.0026434981 0.07091326 -0.2386086 -0.29934707 -0.24828374 -0.062628925
-0.027464071 0.0056398865 -0.2154398 0.02072962 0.08791523 0.028864529 -0.057272967 0.14673087
0.0059585483 -0.03569899 -0.058665715 -0.09936374 0.15601568 0.0958889 0.23174709 -0.12804648
0.20403156 -0.3092706 -0.023573952 0.105682954 -0.06408578 -0.1081035 0.108391084 0.30387476
-0.108754374 0.00023081746 -0.020161143 -0.29007974

i_resnet_layers.2.bottleneck_block.2.weight_u f4 [10]
00000000: a9e2 ee3d e184 a53e baa5 d83d cde3 1d3f
00000010: 11f1 ef3e 647f a13e 5ed7 51be ce33 903e
00000020: 646e 2abe 397b 18be
0.11664326 0.3232794 0.10578485 0.6167572 0.46863607 0.31542504 -0.20492312 0.28164524
-0.16643673 -0.14890756

i_resnet_layers.2.bottleneck_block.2.weight_v f4 [10]
00000000: 6273 0abf 8fa9 f6be 5e89 e6bd 9f7c 4f3e
00000010: 41a3 84be 920a 603e 380b 19be 63fb 9bbd
00000020: 3389 2d3e 4cec ff3e
-0.5408231 -0.48176238 -0.112566695 0.20262383 -0.25905803 0.21879032 -0.14945686 -0.076163076
0.16946869 0.49984968

i_resnet_layers.2.bottleneck_block.4.weight_orig f4 [2, 10]
00000000: 2dd9 4c3e 1864 17be bf1e 33be a0a0 53be
00000010: 0e0f a0bd 1815 9a3d d403 66be 521f 86be
00000020: dccf 8c3e f2d6 16be c2b9 49bd 48f4 993e
00000030: c07c 1c3e 548f 2ebe a892 87be dd25 9a3d
00000040: f5e2 4a3e a3f7 993d 317f 8a3e 3096 5a3b
0.20004721 -0.14784276 -0.17492197 -0.20666742 -0.078153715 0.075235546 -0.22462398 -0.2619577
0.27502334 -0.14730433 -0.049249418 0.30069184 0.15281963 -0.17046863 -0.26479077 0.07526753
0.1981314 0.07517936 0.27050164 0.003335368

i_resnet_layers.2.bottleneck_block.4.weight_u f4 [2]
00000000: ff72 713f fd27 aabe
0.94316095 -0.33233634

i_resnet_layers.2.bottleneck_block.4.weight_v f4 [10]
00000000: 4e57 ad3e f95c cabe 4e68 b6be f1c5 69be
00000010: 9e51 c13c 425c 9b3d 71c4 eabe 52fd e5be
00000020: 7c48 8f3e 4fc6 6cbe
0.3385567 -0.39524058 -0.35626453 -0.22829415 0.023598488 0.07585956 -0.45852998 -0.4491983
0.2798499 -0.23122524

i_resnet_layers.3.bottleneck_block.0.bias f4 [10]
00000000: 00af 1cbf 9e41 503e fb64 0abf a42b cc3e
00000010: b9b4 233e cd7b 96bd a785 c9be 5fbe aebd
00000020: 6f1f a6be c28e 74be
-0.6120453 0.20337531 -0.54060334 0.39877045 0.15986909 -0.07347832 -0.3935978 -0.08532404
-0.32445857 -0.23882583

i_resnet_layers.3.bottleneck_block.0.weight_orig f4 [10, 2]
00000000: 4c28 2c3f 212d 183e 4abc 03bf 1ab8 cf3e
00000010: ade1 9b3e 673b 013f 6151 f0be 3b6b 20bf
00000020: ac46 e93e 1f43 4ebf 5946 af3d 642e 0d3f
00000030: 088a 20bf 860e 323e a929 103f e94d 7ebe
00000040: 7688 93be 1ebe 123f 61f5 d2bd fa6a 893e
0.6724899 0.14860965 -0.5145918 0.40570146 0.30445614 0.50481266 -0.46937087 -0.6266362
0.4556173 -0.8057117 0.085583396 0.5514891 -0.6271062 0.17388353 0.5631357 -0.24834408
-0.2881505 0.57321346 -0.103007086 0.2683943

i_resnet_layers.3.bottleneck_block.0.weight_u f4 [10]
00000000: 0506 38be d370 c93e 5270 093e 5963 07be
00000010: 3f7f 11bf 1149 753e 8fa0 a43e ac17 abbe
00000020: ce17 c83e 4f16 2f3e
-0.17971046 0.3934389 0.13421753 -0.13221492 -0.5683479 0.23953654 0.32153746 -0.33416498
0.39080662 0.17098354

i_resnet_layers.3.bottleneck_block.0.weight_v f4 [2]
00000000: 5755 1bbf 0b7d 4b3f
-0.60677093 0.79487675

i_resnet_layers.3.bottleneck_block.2.weight_orig f4 [10, 10]
00000000: 2825 ba3d f374 29bd db78 60be 934d 3e3e
00000010: c956 dc3b 9336 513e cf96 853e 11c3 a9be
00000020: 5a04 ddbd 0a89 273e ea14 53be 654c 983e
00000030: 60a5 303e e3af 1e3e f27e 1bbd 9235 9dbe
00000040: 269f 793e 956b 6fbe 8928 93bd d46d 7dbe
00000050: eafc cebd 5501 01bc b664 1c3e 74bc 5f3e
00000060: 739e 8fbe c363 7dbe bc32 48be 88c8 c7bd
00000070: 1fc3 7b3d 4d30 fbbc e47b 8b3e 9daf d7bb
00000080: d04e c33d 8a88 40be 4e16 8f3e 5419 bb3d
00000090: b859 6e3e 10e2 083e 0412 173e 67e0 d43c
000000a0: d102 553e 12b5 343e a1b2 08bd 71a9 453e
000000b0: bd77 b7be d49e 61be 2724 f03d b65b 76be
000000c0: aac2 013e c53f 3e3e b4d3 e73b 91d3 39be
000000d0: 17f4 85be 74e7 3bbe 5ba5 9a3d 146d 18be
000000e0: e8d9 453d 2ee9 84bd d73b 45be fa1a 8d3e
000000f0: cefb 3fbe f500 93be e01e 6dbe 5e31 a5bd
00000100: 8a5e 4e3d 25ea 3fbd a003 c63d 1ee6 6fbe
00000110: 6a57 323e 55be e1bd 076f 3dbe b769 973e
00000120: c6b7 4c3e b2b7 b5bd db1b 2ebe 569e 863e
00000130: f1bd 4bbe dda2 4fbd 888f 3bbe 17bb 9d3d
00000140: 84b8 69bd 5a47 49be 9b5e 713e 624c 11bd
00000150: f721 873e 44d0 fe3d 67be f93d e17d be3d
00000160: aaeb b13c ee5b 10be d57e 673e 12fe d4bd
00000170: 3ed8 c43e fa0a 653d 51c4 203e 89d2 883d
00000180: c4c3 79be 5034 913e e3f6 2dbe 4a1f a93e
0.09089118 -0.041371297 -0.21921103 0.1858428 0.006724213 0.20430975 0.2609162 -0.33156636
-0.107918456 0.1636087 -0.20613447 0.29745784 0.17250586 0.15496783 -0.03796286 -0.30704933
0.24377117 -0.23380883 -0.07185466 -0.24748927 -0.10106833 -0.007873853 0.15272793 0.21849233
-0.28050575 -0.24745087 -0.19550604 -0.09755045 0.06146538 -0.03066268 0.2724296 -0.006582214
0.09536517 -0.18802086 0.27946705 0.0913569 0.23276412 0.13367486 0.14752966 0.02598591
0.20801856 0.17647198 -0.03337348 0.19302918 -0.3583354 -0.22033244 0.117256455 -0.24058422
0.12671915 0.18579014 0.0070747975 -0.18147112 -0.26162788 -0.18350011 0.0755107 -0.1488536
0.048303515 -0.06489788 -0.19261108 0.27559644 -0.187484 -0.28711668 -0.23156309 -0.08066057
0.05038313 -0.046854157 0.0966866 -0.23427626 0.17416158 -0.11022631 -0.18499385 0.29572842
0.19991979 -0.08872928 -0.17002814 0.26292676 -0.19896676 -0.050692428 -0.18316472 0.077017
-0.057060733 -0.19656125 0.23571245 -0.035473235 0.263931 0.12442067 0.121945195 0.09301353
0.021718819 -0.14097568 0.22606976 -0.104000226 0.3844623 0.05591867 0.15699889 0.066807814
-0.24391085 0.28360224 -0.16988711 0.33031684

i_resnet_layers.3.bottleneck_block.2.weight_u f4 [10]
00000000: bccf 3bbe 03d3 e8be fa25 94be 270d a53e
00000010: 2f8c ddbe 82d0 183d 3f5d 35be e12e 3d3c
00000020: 7149 8c3e ffaa 063f
-0.18340963 -0.4547349 -0.28935224 0.32236597 -0.43271014 0.037308224 -0.17711352 0.011546821
0.2739978 0.5260467

i_resnet_layers.3.bottleneck_block.2.weight_v f4 [10]
00000000: 0a16 6f3e 6daa 84be 98c2 833e 181b 8fbe
00000010: 75f0 f43e 630c bb3e 93a0 3ebe dd20 0b3f
00000020: 9496 c0bd 427c 393e
0.23348251 -0.25911275 0.257344 -0.27950358 0.47839704 0.36532888 -0.18615942 0.5434702
-0.094037205 0.18113807

i_resnet_layers.3.bottleneck_block.4.weight_orig f4 [2, 10]
00000000: f736 50be 1a78 2fbb 6136 803d 8546 07be
00000010: 377d 0b3e c3d1 2e3e 1455 44be 4b7a 9d3d
00000020: 5f35 59be 04b6 863e dfdf eebd 35b2 87be
00000030: ac21 13be 9bdd 52be 3b07 233e 5b45 403c
00000040: af4c 9f3e 2675 8dbe cc99 8cbe 0ab6 f23c
-0.20333467 -0.0026774467 0.06260372 -0.13210495 0.13621984 0.17072205 -0.1917308 0.07689341
-0.21211766 0.26310742 -0.11663794 -0.2650315 -0.14368314 -0.20592348 0.15920727 0.011735286
0.31113192 -0.2762844 -0.27461088 0.029627819

i_resnet_layers.3.bottleneck_block.4.weight_u f4 [2]
00000000: 5c51 94be fb05 75bf
-0.28968322 -0.9571225

i_resnet_layers.3.bottleneck_block.4.weight_v f4 [10]
00000000: f806 843e bcfb c43e 52da 383e 2d36 b63e
00000010: c984 94be 36ee bbbd 378b bbbe ff79 bb3e
00000020: 380d fb3e 3eeb 21be
0.25786567 0.38473308 0.18052033 0.35588208 -0.29007557 -0.091762945 -0.3662965 0.36616513
0.49033523 -0.15812394

i_resnet_layers.4.bottleneck_block.0.bias f4 [10]
00000000: 36d8 e03d 3fb4 f83e 2a29 9ebe 1d5d dd3d
00000010: ac60 6c3e 7f6c 23bf 730c 073f 7bf7 863e
00000020: a81f 143e 0be6 fcbd
0.10978739 0.48575017 -0.3089078 0.108087756 0.23083752 -0.63837427 0.5275337 0.26360688
0.14465201 -0.12348565

i_resnet_layers.4.bottleneck_block.0.weight_orig f4 [10, 2]
00000000: 5733 02bf 8dc5 ab3e a0d4 c7be 29f3 c53e
00000010: 9f4a f73e db13 813e 5d61 623d e4cb 22bf
00000020: fb62 2dbe b019 d9bd c879 00bf 93f9 04bf
00000030: bb42 863d 8019 fc3e ee3e b4be 2cae 51be
00000040: c016 2bbf 6fd5 99be c9ed 093f 84d6 30bf
-0.5085959 0.33549157 -0.39029408 0.3866208 0.4829912 0.2521046 0.055268634 -0.6359236
-0.1693229 -0.106006026 -0.50185823 -0.5194332 0.065556966 0.49238205 -0.35204262 -0.20476598
-0.6683159 -0.3004565 0.53878456 -0.69077325

i_resnet_layers.4.bottleneck_block.0.weight_u f4 [10]
00000000: a649 af3e 61d0 b43e 9d6a 983d a1ec e9be
00000010: 5668 1dbd a8e2 83be 0d66 a93e 4b38 8dbd
00000020: e787 8dbd a2f3 18bf
0.34235877 0.3531523 0.0744221 -0.45688346 -0.03842958 -0.25758862 0.3308567 -0.06895503
-0.06910687 -0.59746754

i_resnet_layers.4.bottleneck_block.0.weight_v f4 [2]
00000000: 8df6 93be b613 753f
-0.2889904 0.957332

i_resnet_layers.4.bottleneck_block.2.weight_orig f4 [10, 10]
00000000: 60a0 b53d 97a0 1bbe f09f 65be b9a5 333e
00000010: a950 97be c3af 6bbe 39d5 05be 7d4a 673e
00000020: 0cc4 adbd 5c1b cabd 4b37 85be 54fa 49be
00000030: 2788 1a3e 2eec 46bd 4190 2e3e 5c34 233e
00000040: f3a2 643d 2504 763e aaed 5cbc 3d01 7d3e
00000050: 022d 6b3e 73ed 853e e03f 803e 65d7 82be
00000060: fb15 03be ea8e 933e d020 333e a3c1 9d3e
00000070: ad21 7c3c 0461 17be c029 09be 1e8f 903e
00000080: 22e3 32be 96bf 28be 521a 18be 9f79 60be
00000090: 0511 3fbe 22ad 073d 5ca0 2e3d a3a9 d5bd
000000a0: f19e e93d 2f9a 9e3e 5f14 9bbb 2b81 1b3e
000000b0: 0b23 debd 6d88 4a3e fd23 d0bc 4539 513e
000000c0: dd80 f33d ca84 e43d 0b7d 47bc 4328 25bd
000000d0: 1ac2 42bd 8afb 143e 7324 6d3d c211 a93e
000000e0: c68e 32bc cd27 3b3e 57fe 753e 5e81 f33d
000000f0: 674b 9f3e 7145 de3d 19fe 033e 2f99 8fbe
00000100: d2df 32be 7b22 69be cfd3 96bd 4c92 4bbe
00000110: e231 6fbe a053 fabb 6d59 8abe b934 5ebd
00000120: 1cb1 833d b7b4 b0bc 49c2 7bbe 1123 b2bc
00000130: d18b 2abd 25f5 183e cd7d 96bd 4bcb 43be
00000140: fde8 2b3e 9f15 b73c 0574 92be 3793 b33d
00000150: 259f 283e 9681 553e 880d 453e 2160 94be
00000160: 5862 b53d 1dd6 07bd 913a 79be 5edf a8bd
00000170: 21b5 7e3e 366e 823d 7e79 96be 67e9 413d
00000180: ce81 a9bc 41c8 1fbe c7e3 573d 0a76 da3c
0.0886848 -0.15197979 -0.22424293 0.17543687 -0.29553726 -0.23016267 -0.13069619 0.22587009
-0.084846586 -0.098685 -0.26018748 -0.19724399 0.15091 -0.048565082 0.17047216 0.15937942
0.055819463 0.24025019 -0.013484398 0.24707504 0.22966388 0.26157722 0.25048733 -0.25554958
-0.12801354 0.28819972 0.17492986 0.30811796 0.015388888 -0.14783102 -0.13394833 0.2823419
-0.17469457 -0.16479334 -0.1485379 -0.21921395 -0.18658836 0.033124097 0.0426334 -0.10432746
0.11407269 0.30977008 -0.004732653 0.15185992 -0.10846528 0.19778605 -0.025407786 0.20432003
0.11889813 0.1115814 -0.012175809 -0.0403216 -0.04754839 0.1454908 0.05789609 0.3302136
-0.010898298 0.18276902 0.24022804 0.11889909 0.31112215 0.10853089 0.128899 -0.28046557
-0.17468193 -0.2276706 -0.07364618 -0.19880027 -0.23358873 -0.0076393634 -0.2702135 -0.0542495
0.06430265 -0.021570547 -0.24585833 -0.021745237 -0.041637246 0.14937265 -0.07348213 -0.19120519
0.16788097 0.022349177 -0.2860414 0.087683134 0.16466959 0.20850214 0.19243443 -0.2897959
0.08856648 -0.03316318 -0.24338748 -0.08245729 0.24873783 0.06368677 -0.29389566 0.04734173
-0.020691779 -0.15603735 0.05270746 0.026667614

i_resnet_layers.4.bottleneck_block.2.weight_u f4 [10]
00000000: 6290 993e bb6a cbbe 5b89 05be e446 b53e
00000010: 3360 55be c477 f4be 97b6 063f 2404 0d3e
00000020: e096 4fbe 7562 1c3d
0.29992968 -0.39729866 -0.13040678 0.35405648 -0.20837478 -0.47747624 0.5262236 0.13771111
-0.20272398 0.038179833

i_resnet_layers.4.bottleneck_block.2.weight_v f4 [10]
00000000: 20a2 043e ca8f d63d 8793 72bd a4ca 77be
00000010: a0f4 cebe 8b95 2bbf c434 7cbe 5e90 74be
00000020: 4a4d a6be fe9d 8bbe
0.12952471 0.10476644 -0.059222724 -0.24198395 -0.4042101 -0.6702506 -0.24629503 -0.23883197
-0.32480842 -0.27268976

i_resnet_layers.4.bottleneck_block.4.weight_orig f4 [2, 10]
00000000: 153a a23e 01d0 77be f05a 6dbe e503 223c
00000010: 4789 143e 9d6f 6fbe e834 1abe 80ad 9f3e
00000020: e191 ec3b 6e44 2a3e 269a a63d 764c 4bbd
00000030: 0244 883e 2cba 4b3e b0aa 633e 1ff3 81bd
00000040: a562 c43d 4b6d 5a3d 2beb 1c3e 62a2 b9bd
0.31684938 -0.24200441 -0.23179221 0.009888624 0.14505492 -0.23382421 -0.15059245 0.31187057
0.0072195386 0.16627666 0.0813487 -0.049633466 0.26614386 0.19895238 0.22233081 -0.063452
0.095891275 0.053326886 0.15324084 -0.09064175

i_resnet_layers.4.bottleneck_block.4.weight_u f4 [2]
00000000: 7d87 7f3f 1e49 783d
0.99816114 0.060616605

i_resnet_layers.4.bottleneck_block.4.weight_v f4 [10]
00000000: 13c9 f83e 726e bdbe c4b5 a6be bae3 073d
00000010: 8f2b 753e 7fc1 b7be d9d9 5fbe db9e f33e
00000020: 526c cc3c 8798 783e
0.48590907 -0.36998326 -0.3256055 0.03317616 0.23942398 -0.35889813 -0.21860446 0.47582135
0.024953995 0.24276935

i_resnet_layers.5.bottleneck_block.0.bias f4 [10]
00000000: b231 8d3e b391 1cbe 8cf8 17bd 7864 9c3e
00000010: 7794 a3be 469b 563e 1ca2 19bd 1568 5ebe
00000020: bb24 5e3d 4422 cc3e
0.27576977 -0.15289955 -0.037102267 0.30545402 -0.31949207 0.2095767 -0.037508115 -0.21719392
0.054234248 0.39869893

i_resnet_layers.5.bottleneck_block.0.weight_orig f4 [10, 2]
00000000: e0e9 adbe 4ba7 a9be d0f7 da3e 59b8 ffbe
00000010: 6085 c53e 899b bfbe 42ce 72bc d1b4 0a3e
00000020: 9421 cd3e 1d2e d13b aaf2 7dbe 88c0 12bf
00000030: d76f 0dbf 855b 613e b7b3 b23e f089 febe
00000040: c1a0 1c3f 6294 fe3e ad0d 0ebe 7f06 7cbd
-0.33967495 -0.33135447 0.4276719 -0.49945334 0.3857832 -0.3742335 -0.0148196835 0.13545538
0.4006468 0.006383671 -0.247996 -0.5732503 -0.5524878 0.22007568 0.34902737 -0.49714613
0.6118279 0.49722582 -0.13872404 -0.061529633

i_resnet_layers.5.bottleneck_block.0.weight_u f4 [10]
00000000: 9c2f d2bd 660f 003f e938 d73e 1170 85bd
00000010: 4ba6 8d3e 8263 723d c9c3 f2be d893 e33e
00000020: 1d95 663e 4d03 93bd
-0.10262987 0.50023496 0.42035607 -0.065155156 0.27665934 0.05917693 -0.47414997 0.44448733
0.2251782 -0.07178364

i_resnet_layers.5.bottleneck_block.0.weight_v f4 [2]
00000000: d960 5d3f 548f 00bf
0.864759 -0.502187

i_resnet_layers.5.bottleneck_block.2.weight_orig f4 [10, 10]
00000000: f97e 0cbe 01d8 983e e32e 84be cd17 2bbe
00000010: 7977 353e 0487 d5bd 784e 9b3e 6788 083e
00000020: 04df 7e3e f81c f73d 0eeb 813e fce4 19be
00000030: 3e96 293e a898 28be bf98 843e b767 7bbe
00000040: e1d5 773d 3852 933d ea21 74be b518 943e
00000050: f304 c3bd 412e 043e 6c51 5fbe bc62 f93d
00000060: 065f 283e 560b 47be 9db0 103d 44de 4cbe
00000070: 8f83 1bbd 6fe4 76bd 9758 66be 6927 8d3e
00000080: ab6b 2d3e b4af c3bd c04d 06be 44aa 0f3c
00000090: 8658 f1bd 5734 71bd ba31 553e 6341 54be
000000a0: 6602 953e 2719 803e f570 513e abdc 93be
000000b0: 5d45 3cbe 001b 283e af22 b1bd 6bf4 52bb
000000c0: 9894 64bd 5812 dfbb c67e 84be e623 c0bd
000000d0: cece 82be 8846 ea3c bbf1 5a3e 8c8f 8fbe
000000e0: 9e78 503d 7588 b63d 1285 89be 5d25 6ebe
000000f0: cd3a 753d 7a7f 913e 99c9 8d3e c126 a9bd
00000100: 75f2 e6bd 72a4 04be 152c 16be e295 cebd
00000110: 6da0 1abe 0f28 80be 0298 143e 6f98 32be
00000120: 1f76 813e 928f 91be cc90 4b3e f9e0 313e
00000130: 045e 8d3e 17ad 1cbe 38d3 c23d 7aa4 933d
00000140: a230 a63e e431 81be d989 bb3d 8080 9a3e
00000150: 94d1 09be 46f0 88be 47c9 24be 84cb 53be
00000160: ebb5 bebd e349 0cbe 1164 0f3e 6408 993d
00000170: 3675 8ebd 537e 14be 51d8 20be 0598 473d
00000180: 31df 573d 7730 a93a ce99 66be c2d6 9a3d
-0.13720311 0.29852298 -0.25817022 -0.16708298 0.17721356 -0.10426143 0.30333304 0.13333283
0.24889761 0.12066072 0.25374645 -0.15028757 0.16561219 -0.16464484 0.25897786 -0.24551283
0.060506705 0.07193416 -0.23841062 0.289251 -0.09522428 0.1290827 -0.21808404 0.12177035
0.16442499 -0.19437918 0.03532468 -0.20006663 -0.03796726 -0.060276445 -0.22494732 0.2756913
0.16935603 -0.09554997 -0.13115597 0.008768622 -0.11784463 -0.058887806 0.2081975 -0.20728068
0.29103392 0.2501919 0.20453246 -0.28879294 -0.18385835 0.1641655 -0.086491935 -0.0032189141
-0.055805773 -0.0068076067 -0.2587797 -0.09381847 -0.25548404 0.028598085 0.21381275 -0.28039205
0.05089628 0.08912746 -0.26859337 -0.2325644 0.05987053 0.2841757 0.2769287 -0.08259345
-0.11276714 -0.12953356 -0.14665253 -0.10087182 -0.1510026 -0.25030562 0.14511111 -0.17440961
0.25285432 -0.28429848 0.19879454 0.17370977 0.2761079 -0.15300404 0.09512943 0.07209106
0.3245898 -0.25233376 0.09157152 0.30176163 -0.13458854 -0.26745814 -0.16092406 -0.20683104
-0.09312042 -0.1370006 0.14003016 0.074723035 -0.0695595 -0.14501314 -0.15707518 0.04872896
0.052703086 0.001290812 -0.2251961 0.07560493

i_resnet_layers.5.bottleneck_block.2.weight_u f4 [10]
00000000: 3716 debe 348b 133e 209e 9bbe d4ed 503d
00000010: 29e8 fb3e ef01 f1be 7f6c 993e 5646 683e
00000020: 7880 863e 7097 183e
-0.43376324 0.1440857 -0.30394077 0.05100806 0.49200562 -0.47071788 0.29965588 0.22683081
0.2626989 0.14901519

i_resnet_layers.5.bottleneck_block.2.weight_v f4 [10]
00000000: 4700 103f 9526 a0bc b77c 1d3f 63e1 41be
00000010: b10a b4be 6b53 6c3e ab9d 6ebe b1c8 23be
00000020: 6748 ddbd 2ca7 aa3c
0.56250423 -0.019549647 0.61518425 -0.18933634 -0.35164407 0.23078696 -0.23302333 -0.15994526
-0.10804825 0.020831667

i_resnet_layers.5.bottleneck_block.4.weight_orig f4 [2, 10]
00000000: 2831 eabd c675 9d3d d30c 5abe 213c 973d
00000010: 2ae6 7dbe 1ec8 c8bc 9fcd 863e 49c0 fabd
00000020: 5163 653e 8af4 e43c 3951 0ebe a171 3b3e
00000030: e787 9d3e 3d8c 193e 03ff 8b3a 6e9c 923e
00000040: d867 c3bd b509 0b3e 2ac6 693e a9a9 b5bd
-0.11435157 0.07688479 -0.21293955 0.073845156 -0.24794832 -0.024509486 0.2632875 -0.12243707
0.22401167 0.027948637 -0.13898171 0.18305065 0.30767748 0.14994903 0.0010680858 0.2863497
-0.09541291 0.13577922 0.228295 -0.08870251

i_resnet_layers.5.bottleneck_block.4.weight_u f4 [2]
00000000: 12ba 973e 4180 74bf
0.29634148 -0.955082

i_resnet_layers.5.bottleneck_block.4.weight_v f4 [10]
00000000: 9cc9 2b3e 041d 84be 6815 1bbf e0d9 52be
00000010: a076 01be b0f2 f3be 07fa 923e 3335 90be
00000020: cbc6 83be 679e 213e
0.16776127 -0.25803387 -0.6057954 -0.20590925 -0.12642908 -0.47646093 0.2870638 -0.28165588
-0.25737604 0.15783082

i_resnet_layers.6.bottleneck_block.0.bias f4 [10]
00000000: accd 7cbe e705 a8be 342a 8fbe 20ca ecbd
00000010: 0561 82be c980 e8be f122 a03e d9d5 013f
00000020: f8e2 03bf 6854 c6bd
-0.24687833 -0.32817003 -0.27961886 -0.1156199 -0.25464645 -0.45410755 0.31276658 0.5071693
-0.515182 -0.09684068

i_resnet_layers.6.bottleneck_block.0.weight_orig f4 [10, 2]
00000000: 01bd 29bf 583a 353f bb83 0b3f e2de 1ebe
00000010: 3227 c43e 02bd 093f 9cb5 273f 4f8e d7bd
00000020: 215f 28bf da8b e2be 5618 8bbe c78a df3b
00000030: bc7c 05bf 0f71 c13e b3dc 01bf 1e19 ef3e
00000040: 1031 e5be 9d55 e93d 6a72 0ebf 337d 24bf
-0.6630402 0.7079215 0.5449788 -0.1551471 0.38311154 0.5380403 0.6551149 -0.1052519
-0.65770155 -0.44247323 -0.27167004 0.0068219635 -0.52143455 0.3778157 -0.50727385 0.4669885
-0.44763994 0.113932826 -0.5564333 -0.6425354

i_resnet_layers.6.bottleneck_block.0.weight_u f4 [10]
00000000: d948 f13e 9ea5 a9be 278d 17be bc78 c6be
00000010: 086c a23e dea8 1f3e 19bb b13e f695 b33e
00000020: 5a70 8a3e 9dc8 6e3e
0.4712589 -0.33134168 -0.14799939 -0.38763988 0.31723046 0.15591761 0.34713057 0.3507535
0.27038842 0.23318715

i_resnet_layers.6.bottleneck_block.0.weight_v f4 [2]
00000000: 767c 79bf c386 653e
-0.9745554 0.22414689

i_resnet_layers.6.bottleneck_block.2.weight_orig f4 [10, 10]
00000000: 8a58 0fbe 38ec 653e f7e2 523d 1cf0 363e
00000010: 45e8 8abe 67a7 ff3d efc0 563d 7a06 973e
00000020: 7a7a 373e c797 06bd 2b37 b3bd 07cb 25be
00000030: 7581 b13d bab8 e03d 0cd0 44be 1b22 193e
00000040: 87da 80bb 98bd 813e 23ff 86be 7373 803e
00000050: d39e 21be 2bd0 39be 515a 19be 30c3 2cbe
00000060: 8305 493e ead6 96be 1ea1 00be 5214 5dbe
00000070: dedb 43be 42a0 333d d6c5 0cbe 6a7b b33a
00000080: 7aad 44bd 627b 63bd 1226 3cbe b12c 573e
00000090: d338 1d3e 1d16 073e 3658 ddbd 420b 073e
000000a0: 8a15 27be 64f9 2d3e 8ddf 11be 0927 66be
000000b0: bd5b 61be e278 483e b477 c23c 2d41 c2bd
000000c0: 1f92 9e3e c040 593d b472 8e3c 737a 433e
000000d0: 917e 90be 6449 583e d1fd e43a a606 853e
000000e0: 89d7 42be c052 3bbe d6d8 793e cf83 5dba
000000f0: 39a3 ae3e 1c96 aabc c081 87be 1c54 fe3d
00000100: 5c32 b2be e006 7f3e 621a 9a3e de5c 30be
00000110: fa3d 3f3d 7601 a2be 11a1 97be 5984 bb3d
00000120: d951 713e ea2a 2bbe e7ea 753e 82d6 83bc
00000130: 5c51 4fbe dddd 9c3d 9aca 143e 2d22 1a3e
00000140: f094 8cbe 5f43 edbd 74d8 e13d c3b7 573e
00000150: ae4c ddbd ddb1 a63d c70d 0bbe 580a 3b3e
00000160: 1042 ac3e 3416 5d3d 056a 30be 1fca a5be
00000170: e21b 37be bf79 5a3e f84d 01bb b765 823e
00000180: bed2 d4bd 0d44 313e ddcc 54bd 6bea 313e
-0.13998619 0.22453392 0.05148598 0.17865032 -0.27130333 0.12483101 0.05243009 0.2949713
0.17917815 -0.03285959 -0.08750757 -0.1619073 0.0866727 0.10972734 -0.19219989 0.14954416
-0.0039323005 0.2533996 -0.2636653 0.2508808 -0.15783243 -0.18145816 -0.14975859 -0.16871333
0.19631009 -0.2946084 -0.12561461 -0.21589783 -0.19126841 0.043854006 -0.13747343 0.0013693396
-0.048017003 -0.05553759 -0.18373898 0.21013142 0.15353708 0.1319203 -0.108078405 0.13187888
-0.1631681 0.16989666 -0.14245434 -0.22475828 -0.22007652 0.19577363 0.02373872 -0.094850875
0.30970857 0.053040266 0.01738868 0.1908968 -0.28221563 0.21121746 0.0017470663 0.25981635
-0.19027533 -0.18293285 0.24399123 -0.0008450122 0.34108904 -0.02082353 -0.2646618 0.12418386
-0.34804046 0.24904966 0.30098253 -0.17222926 0.046689965 -0.3164174 -0.2961507 0.09156103
0.23566379 -0.16715589 0.2401539 -0.016093496 -0.2024588 0.076595046 0.14530411 0.150521
-0.2745738 -0.11585116 0.11027613 0.21066193 -0.10805641 0.081393935 -0.13579474 0.18265665
0.33644152 0.053976253 -0.17227943 -0.3238077 -0.1788173 0.21335505 -0.001973031 0.25468227
-0.103917584 0.17311116 -0.051953185 0.1737458

i_resnet_layers.6.bottleneck_block.2.weight_u f4 [10]
00000000: 1b29 973e 8242 783b 4ecb ccbe 0151 133e
00000010: 4be5 763e 8b55 9a3e 9c1f 2a3f b53a bcbe
00000020: c3c9 723d 109f 5a3d
0.29523548 0.0037881439 -0.3999886 0.1438637 0.24110906 0.3014339 0.6645448 -0.3676354
0.059274446 0.05337435

i_resnet_layers.6.bottleneck_block.2.weight_v f4 [10]
00000000: 003a 893e bc66 233e 5261 9cbe 0551 8f3e
00000010: 8578 0bbf 4b88 f73e 80ca 923e 82db e2bb
00000020: c9e6 7c3e dd0d 75be
0.26802063 0.15957159 -0.30543 0.279915 -0.54480773 0.4834617 0.2867012 -0.00692314
0.24697413 -0.2393107

i_resnet_layers.6.bottleneck_block.4.weight_orig f4 [2, 10]
00000000: 0221 67bd 73c1 623e 5900 ac3d d433 f9bd
00000010: 18db 1abe f49e debd bd0b a6be 0e74 b93d
00000020: fd98 17be 4814 013d bccd 413e 3e5d 33be
00000030: 9a21 99be a89f 9abe 1925 583e 16f7 653e
00000040: af7c 7dbd 1c23 9d3e e1cb bf3d 7534 913e
-0.056427963 0.22144108 0.08398504 -0.121680886 -0.1512264 -0.10870162 -0.3243083 0.09055339
-0.14804454 0.031513482 0.18926138 -0.17516038 -0.29908448 -0.30199933 0.21107902 0.22457537
-0.061886486 0.3069085 0.09365059 0.28360334

i_resnet_layers.6.bottleneck_block.4.weight_u f4 [2]
00000000: 113b 30be 2a2e 7c3f
-0.17210032 0.9850794

i_resnet_layers.6.bottleneck_block.4.weight_v f4 [10]
00000000: e6e0 883e b600 93be b4ae d7be 7ffc c0be
00000010: e842 a33e 906e a73e fbfb e5bb 6a19 c83e
00000020: 4650 243e 5f2b bf3e
0.26734084 -0.2871148 -0.42125475 -0.3769264 0.31886983 0.3270154 -0.007018564 0.3908189
0.16046247 0.37337777

i_resnet_layers.7.bottleneck_block.0.bias f4 [10]
00000000: fb7b c83e f88d 9e3e 4d54 1c3d 4155 7c3e
00000010: 5110 c9be cace 7abe 441f 85bd 41d8 a1be
00000020: f88f c3bd 8bc5 a5be
0.3915709 0.3096769 0.038166333 0.24641897 -0.3927026 -0.24492946 -0.06500104 -0.316103
-0.09548944 -0.32377276

i_resnet_layers.7.bottleneck_block.0.weight_orig f4 [10, 2]
00000000: 61dd 34bf b685 6f3e 9ccc 2fbe 2f04 2abe
00000010: e06d 713e d2a7 09bf 2c84 f13e bcd9 4bbe
00000020: ae06 993e 8b8a adbe 1939 73be aa94 493e
00000030: 3339 4bbe 6b8d 84be 92ce 38be 5437 003f
00000040: 7dea ffbe fe2b de3e 06b4 3c3f e49c bfbe
-0.706503 0.2339085 -0.17167896 -0.16603158 0.2357707 -0.537717 0.47171152 -0.19907278
0.2988791 -0.33894762 -0.2375225 0.19685617 -0.19846039 -0.25889143 -0.1804755 0.50084424
-0.49983588 0.43392938 0.73712194 -0.37424386

i_resnet_layers.7.bottleneck_block.0.weight_u f4 [10]
00000000: 9e46 e0be 7f46 c0bc ad75 a23e 60eb 9d3e
00000010: 849f 8c3e 14de 43be 357a 10bb 215e 8dbe
00000020: aad6 d1be 0868 013f
-0.43803877 -0.023471115 0.31730404 0.3084364 0.2746545 -0.19127685 -0.0022045497 -0.27610877
-0.40984088 0.50549364

i_resnet_layers.7.bottleneck_block.0.weight_v f4 [2]
00000000: 01db 4c3f a886 19bf
0.80021673 -0.59971094

i_resnet_layers.7.bottleneck_block.2.weight_orig f4 [10, 10]
00000000: d625 823e 71d6 88be 1d48 463e 03b0 6dbd
00000010: 4a3a be3c 7ba8 91be a473 18be 6ae6 40be
00000020: 2a4c 82bd 2c86 783e 8130 603e ff03 2ebe
00000030: c99b 02be 09c2 acbe 3f2a e7bc 630b 4dbc
00000040: 030e 463e 9818 133d 1dfc ac3d ba72 8cbd
00000050: c975 d33d 4a1a 813d 633b ea3d 54f9 91be
00000060: dd89 933e 20b3 233e a8e4 61bd ff37 02be
00000070: 9428 ab3d 240c 61bd 1b76 2e3e 173e 69be
00000080: 7c19 81be 92ef 2a3d ab64 f5bd 14ae 883e
00000090: a8b6 7f3e 23ef 273d 72c8 243e 0388 893e
000000a0: 0300 833e 8e88 6fbe b00e ffbc f75a 513e
000000b0: 2480 3fbe 78d3 58be 1f4a aa3e 3225 39be
000000c0: 0423 833e 8684 47be 693d aebd f576 dabd
000000d0: 0301 29be 8852 653e 752f 383e 1d17 e1bc
000000e0: a138 80be b76f aebe f3da 823e 2c78 363e
000000f0: c984 5fbd e4f4 99be 9e06 dfbd 67e3 cd3c
00000100: 314b 3abe 75e7 c03d ec78 ce3d e708 abbc
00000110: 733a 283d e24f 62be 0552 31bd 5cf3 26be
00000120: 5a45 a2bd 1380 88bd 99a4 31be a67e 993b
00000130: 1afd c3bd 1836 8cbe 3ebb 6b3e 10a6 87be
00000140: 9a9f c23d 6ad0 59be 4cff 6d3d a314 85bd
00000150: 4e95 5c3e a304 2c3d 6e36 7b3e a753 3b3e
00000160: 1cc7 e13d b09b 543d ecc6 6d3e edcd 1e3e
00000170: 464e 383e 4959 03be e588 bb3d c522 953e
00000180: 7bfc 763b 272b a1bd 7219 61be 3672 983e
0.25419492 -0.26726106 0.19363447 -0.058029186 0.023221154 -0.28448853 -0.14887863 -0.18837896
-0.063621834 0.24269933 0.21893503 -0.16993712 -0.1275474 -0.33741787 -0.028218387 -0.012514922
0.19341283 0.035912126 0.08446524 -0.0685782 0.103252 0.06303842 0.11437108 -0.28510535
0.2881612 0.159863 -0.055149704 -0.12716673 0.08357349 -0.05494322 0.17037241 -0.22777592
-0.25214756 0.04173238 -0.119820915 0.2669531 0.24972022 0.040999543 0.16092089 0.2686158
0.25585946 -0.23391935 -0.031134933 0.20444857 -0.18701226 -0.21174419 0.33259675 -0.18080595
0.25612652 -0.19484147 -0.08507807 -0.106672205 -0.16504292 0.22394764 0.17986853 -0.027476842
-0.25043204 -0.34069607 0.2555767 0.1781928 -0.054569993 -0.3006965 -0.10889934 0.025132848
-0.18192746 0.09419147 0.10081658 -0.020878268 0.041071367 -0.22100785 -0.04329111 -0.16303772
-0.07923384 -0.06665053 -0.17347945 0.004684287 -0.0956976 -0.2738502 0.23020646 -0.26493883
0.09503098 -0.2127091 0.0581048 -0.06498077 0.2154133 0.04199661 0.24532482 0.1829363
0.11024305 0.051906288 0.23220414 0.15508242 0.17998609 -0.12827028 0.0915697 0.2912809
0.0037687111 -0.07869559 -0.21982363 0.29774636

i_resnet_layers.7.bottleneck_block.2.weight_u f4 [10]
00000000: f552 04bd 8316 70be f8d6 2d3e 49b1 91be
00000010: 2bd3 20bf 7144 dfbd ee07 bcbe 938b b7be
00000020: 7757 d6bd 8178 c83e
-0.032305676 -0.23446088 0.16976535 -0.2845557 -0.62822217 -0.10901726 -0.367248 -0.35848674
-0.10465901 0.39154437

i_resnet_layers.7.bottleneck_block.2.weight_v f4 [10]
00000000: 5666 02be b7e8 0a3f d63b 943e 0049 27be
00000010: 9a0f ab3e 698d 333e c94b abbe 78cd 313e
00000020: 2b43 e1be e892 a23e
-0.1273435 0.54261345 0.289519 -0.16336441 0.3341034 0.17534412 -0.33456257 0.17363536
-0.43996558 0.31752706

i_resnet_layers.7.bottleneck_block.4.weight_orig f4 [2, 10]
00000000: d0a2 d3bd e145 02be 52b4 22bd 2e8e 983e
00000010: 9e57 82be ce22 983e 4ff4 babc 1881 083d
00000020: 954b 983c aa29 02be 0cc0 9bbd 74b3 12bd
00000030: 5ff1 893e 72b0 843e 132c 74bc b2bc 61be
00000040: 8411 553e 6703 16be 63e3 12be 97e0 863d
-0.103337884 -0.12721969 -0.039722748 0.29795974 -0.25457472 0.29714054 -0.022821574 0.03332624
0.018590728 -0.12711206 -0.076049894 -0.03581567 0.26941964 0.25915867 -0.014903086 -0.22044638
0.20807463 -0.14649735 -0.14344554 0.06585806

i_resnet_layers.7.bottleneck_block.4.weight_u f4 [2]
00000000: d306 58bf d35c 093f
-0.8438541 0.53657264

i_resnet_layers.7.bottleneck_block.4.weight_v f4 [10]
00000000: 3e4c b03d a26c 273e 4d18 a93e a587 55be
00000010: 0d6f c43e 9239 2fbf db97 783e 2ab0 4abe
00000020: 95f5 2fbe cc6c 873e
0.08608292 0.16350034 0.33026353 -0.20852526 0.38365975 -0.6844722 0.24276678 -0.19793764
-0.17183526 0.26450193

i_resnet_layers.8.bottleneck_block.0.bias f4 [10]
00000000: 8c51 9b3e 8945 f5bd 27e4 d9bd 4afd 503d
00000010: 53ac 29bf d746 203e 7524 2fbc 3db3 f03d
00000020: 22cb 5f3e e9f4 7f3e
0.30335653 -0.119761534 -0.1063922 0.051022805 -0.6627857 0.15652023 -0.010689844 0.11752937
0.21854833 0.2499577

i_resnet_layers.8.bottleneck_block.0.weight_orig f4 [10, 2]
00000000: 00c0 66be fb50 1c3f 9b48 7f3e e737 fe3e
00000010: aa13 01bf f798 a33e be4e febe fc8b fc3e
00000020: 9ff8 0e3d c608 b2be 86bf 9a3e c523 0dbf
00000030: 8646 0b3f 6549 84be 48aa c33e ad1e cf3c
00000040: a562 babe 9dbf 833e 7117 0e3e 77d6 2d3f
-0.2253418 0.61061066 0.2493004 0.49652025 -0.5042063 0.3195264 -0.4966945 0.4932555
0.034905072 -0.3477232 0.30224246 -0.55132705 0.54404485 -0.25837246 0.38215852 0.025283182
-0.36403385 0.25732127 0.1387613 0.6790537

i_resnet_layers.8.bottleneck_block.0.weight_u f4 [10]
00000000: ab36 d03e f2c9 3a3e f3c0 b03e 476c df3e
00000010: 7559 4cbe c755 cdbe 92da a6be 6a5b f0bd
00000020: 32f8 863e 0137 a33e
0.40666708 0.18241099 0.3452221 0.43637297 -0.19956 -0.40104505 -0.3258863 -0.11736186
0.26361233 0.31877902

i_resnet_layers.8.bottleneck_block.0.weight_v f4 [2]
00000000: bd4a 09bf 5212 583f
-0.53629667 0.84402955

i_resnet_layers.8.bottleneck_block.2.weight_orig f4 [10, 10]
00000000: 5c82 04be 3b48 afbe 8dc6 cbbd bceb 5b3e
00000010: ff42 9cbe da24 e03d 9091 40bd 0fdf 25be
00000020: 9331 6abe 75b0 50be 2fe3 883e 5dfd 0fbe
00000030: e909 8b3c 0851 25be fbe6 95be 1ba9 643e
00000040: 94eb 3abe dfac d33b 7f2d 8cbe 71cd 753e
00000050: f98e cf3c 71b9 45be 6f62 8bbe eac3 83be
00000060: b7ea 613e 1ccf 95be a05d e1bd 8159 373e
00000070: 09db ae3c 490e 8b3e b7b9 a7bb a615 823e
00000080: de33 993e 8584 68be 30c9 b53d f841 8a3e
00000090: 4381 ef3d 6585 503c 9536 0b3c 357a 843e
000000a0: 4392 81bd 3259 41be 47e1 09be bf47 573e
000000b0: 704d 15be d81c 0f3d b59d d4bd b994 bc3d
000000c0: b7e4 8c3e ca98 17bb 861a bbbe ed12 9a3c
000000d0: cb6a 29be bc06 00be 12f3 ae3e fb8b 113e
000000e0: 2502 73be a78c 063e fb2c 12be 6bb4 293e
000000f0: 50c3 78be 0828 853e 7404 92be 2329 843e
00000100: b404 253e 5ffb 88be 4171 8abe ebd6 b13d
00000110: 864e 4ebe 4414 9a3e 3541 6e3e a40a 8d3e
00000120: 2829 95be c8d3 623e be14 9dbe cd1a 8d3d
00000130: bbcf 29be 9fd7 9e3e 30f1 753e 3796 53be
00000140: a3fe 173b d65b 2abe 947e a73e 51c9 65be
00000150: c38d 7c3e 5f31 5b3e 2bdf ccbd faca 193e
00000160: d867 37be b672 213e 2f6a 123d 7d4f 123e
00000170: e3dd 503e 1c9f 0b3e 7ae8 9abe 3e35 97be
00000180: e916 3cbe 9e7e eb3c ccee 9fbd 3c4d 8abe
-0.12940353 -0.34234795 -0.0994998 0.21476644 -0.30519864 0.10944529 -0.04701382 -0.16198371
-0.22870474 -0.20379813 0.26735827 -0.14061494 0.016972499 -0.16144192 -0.29277787 0.22330134
-0.18253928 0.006459817 -0.2737846 0.24004151 0.02533673 -0.19309022 -0.27223536 -0.25735408
0.22062193 -0.29259574 -0.11004186 0.17905237 0.021344678 0.27159336 -0.0051185745 0.2540714
0.29922384 -0.22706802 0.08876264 0.27003455 0.116945766 0.012727116 0.0084969 0.25874487
-0.06326725 -0.18881682 -0.13464843 0.21023463 -0.14580321 0.034939617 -0.10381643 0.09208054
0.27518246 -0.002313184 -0.36543673 0.018807853 -0.16544645 -0.12502569 0.34169823 0.14213555
-0.23731287 0.13139592 -0.14274971 0.1657273 -0.24293256 0.26007104 -0.28519022 0.25812635
0.16115075 -0.2675428 -0.2703953 0.086835705 -0.20147142 0.30093586 0.23267062 0.2754718
-0.29132962 0.221511 -0.30679888 0.068898775 -0.16583149 0.3102388 0.24017787 -0.20662771
0.0023192547 -0.16636595 0.3271376 -0.22440077 0.24663453 0.21405552 -0.100035034 0.15018836
-0.17910707 0.15766415 0.035745796 0.14288135 0.20397143 0.13634914 -0.3025549 -0.29532808
-0.18368115 0.0287469 -0.07809219 -0.2701205

i_resnet_layers.8.bottleneck_block.2.weight_u f4 [10]
00000000: f101 8a3e 58cc 77bd cdc2 8ebe cc8b a6be
00000010: 5776 563e b215 cebe 0a58 eebd c272 f13e
00000020: 5320 d6be 82de b33e
0.26954606 -0.06049761 -0.27882996 -0.32528532 0.2094358 -0.40250927 -0.11637886 0.47157866
-0.41821536 0.35130697

i_resnet_layers.8.bottleneck_block.2.weight_v f4 [10]
00000000: 9ffc 4c3e 07bd 573d 6cc6 22be 9d88 ec3e
00000010: 2c1f 1dbf d05a 19be 58fa 85bb b442 2ebd
00000020: d7b2 5d3e 6d2d 05bf
0.20018242 0.052670505 -0.15896004 0.46197978 -0.6137569 -0.14976048 -0.004088681 -0.04254408
0.21650253 -0.5202244

i_resnet_layers.8.bottleneck_block.4.weight_orig f4 [2, 10]
00000000: cc3b 633e 84b8 bb3d f65e 893e 83c5 68be
00000010: 5dc9 89bd 822b 86be d328 033e 3604 233e
00000020: 2ab4 89be eafc 963d 925f b9bd 37a2 163e
00000030: f1f2 113e b78d 8c3e e1a7 73be 4e4b 1bbd
00000040: 3aaa 623e afe2 91be 91d2 ebbd fb64 94be
0.2219078 0.09166053 0.26830262 -0.22731595 -0.0672786 -0.2620507 0.12808542 0.15919575
-0.26895267 0.07372458 -0.09051432 0.14710318 0.14252831 0.2745187 -0.2379451 -0.037913613
0.22135249 -0.28493258 -0.11514772 -0.28983292

i_resnet_layers.8.bottleneck_block.4.weight_u f4 [2]
00000000: 5c4e 933e 092d 75bf
0.2877072 -0.95771843

i_resnet_layers.8.bottleneck_block.4.weight_v f4 [10]
00000000: 655c 6f3e 4619 36be aca6 bcbd 0284 02bf
00000010: b3cc a53e b58b 78bd b141 8bbe 5461 fd3e
00000020: 0c51 513d df8f ed3e
0.2337509 -0.17783079 -0.09211478 -0.5098268 0.32382736 -0.06068011 -0.27198556 0.49488318
0.051102683 0.46398827

i_resnet_layers.9.bottleneck_block.0.bias f4 [10]
00000000: b9fa c93e c8b7 0f3f 80ae 103f 7a76 d43e
00000010: 159d 223f ac02 dd3c d2b1 1f3f 8fe8 9dbe
00000020: dac2 7f3e 3fdf ca3d
0.394491 0.561398 0.56516266 0.4149664 0.6352094 0.026978813 0.6238071 -0.3084149
0.24976674 0.09905862

i_resnet_layers.9.bottleneck_block.0.weight_orig f4 [10, 2]
00000000: b61c d23e 9b10 153f e0a9 cb3e 25ae aa3e
00000010: 86ad e63e ca67 493f 692a e83e 4557 68be
00000020: 60e9 25bf 1eea a13e 8c48 913e c22a e0be
00000030: 9a8b c2be 45ce 453e 99bd 6b3e 178a b73e
00000040: 01d0 6f3e 09e1 3d3f 19d4 153f 632b ad3e
0.4103753 0.5822846 0.39778042 0.33335987 0.45054263 0.78673995 0.45344856 -0.2268954
-0.64809227 0.3162393 0.2837566 -0.43782622 -0.37997133 0.19316967 0.23021545 0.35847542
0.23419191 0.741715 0.5852676 0.33822164

i_resnet_layers.9.bottleneck_block.0.weight_u f4 [10]
00000000: 9932 dcbe b104 9cbe e032 0bbf 3f32 58bd
00000010: d380 a23d 6871 e23d 531e 2f3d af6f 83be
00000020: f568 e3be 0bb7 bfbe
-0.43007353 -0.3047233 -0.54374504 -0.052782293 0.079347275 0.11056787 0.04275353 -0.25671145
-0.44416013 -0.37444338

i_resnet_layers.9.bottleneck_block.0.weight_v f4 [2]
00000000: 144e 18bf d0c3 4dbf
-0.5949414 -0.8037691

i_resnet_layers.9.bottleneck_block.2.weight_orig f4 [10, 10]
00000000: b2fd 29be acbf 9a3e 7330 4e3d 02b8 973d
00000010: ef04 17bd f4f0 a2bc e4d4 9abe 5afb e8bd
00000020: f227 c9bd 7cca 58be a190 7ebe 8ffe 033e
00000030: 7e95 2ebe 6d3a 7e3e 9baa 9bbe 166a 5dbe
00000040: 0e63 0e3e d6c9 72be 34ce aebe 0421 0b3e
00000050: 2bb5 293e 6a09 3c3e 18e6 e13d a19e 7a3e
00000060: 4309 7f3e 6c4e 563e c477 503d 9977 a3bd
00000070: 5ec6 823e 51bb 45be 2651 78be 0293 5f3e
00000080: fe05 553e 72cf 013e 0521 81be 001b 393e
00000090: 634d a3be e868 8dba f172 c9bd e1e9 853e
000000a0: 4e2f 93bd 05e9 3b3d fdcd 83be 97ca 493e
000000b0: cddf cbbc 5691 f13d a947 14be 67d3 06bd
000000c0: 047e 143e b19c fdbd 0cab dfbd 8f4b 5e3d
000000d0: b9dd 06be b4ec 1ebc c1ef 97be 0161 b53d
000000e0: 722a 933d 4c0f b33c f43c 42bd eafa 183e
000000f0: a0b2 9ebe 1eba 2fbe 8c23 39be 0ba9 1bbe
00000100: cabd 4c3e 0c85 b73d 1890 633d 90c1 9abe
00000110: 736a cf3d 962e 3ebe 9908 0c3e 9e20 873d
00000120: f903 973e 89a2 b93d d674 7b3e 4cc5 9ebd
00000130: f579 403d ad45 a4bd db32 6dbe b47f db3d
00000140: 2e90 5d3e dced a0bd e2a9 d3bd 39a4 a03d
00000150: d07f ad3d 7134 563e 9344 933d 356c 2bbe
00000160: b8aa 953e 2eaf 8ebe b088 293e 33e5 1bbd
00000170: b278 673e 24a0 613e 74b5 4ebe e503 833e
00000180: 0376 2dbd 2845 a33d 41aa e93d cccb fc3c
-0.16600683 0.3022436 0.050339174 0.074081436 -0.03686994 -0.019890286 -0.30240548 -0.113760665
-0.09822072 -0.21170992 -0.24859859 0.12890075 -0.17049214 0.24826975 -0.304036 -0.216225
0.13904974 -0.23709807 -0.34141695 0.13586813 0.16573016 0.18362966 0.11030215 0.24474575
0.24905877 0.20928353 0.050895467 -0.07981796 0.25541967 -0.19309737 -0.24249706 0.21833423
0.20803067 0.1267679 -0.25220504 0.18076706 -0.3189498 -0.0010788711 -0.098363765 0.26154998
-0.07186757 0.04587652 -0.25743094 0.19706188 -0.02488699 0.11795299 -0.14480461 -0.032916453
0.14501196 -0.12383402 -0.109212965 0.054271277 -0.13170518 -0.009699989 -0.29675105 0.08856393
0.0718583 0.02185788 -0.04742141 0.14939466 -0.30995655 -0.17160842 -0.18079966 -0.15201204
0.19994274 0.089609236 0.05555734 -0.302258 0.101277255 -0.18572459 0.13675155 0.06598018
0.29495218 0.09064204 0.24556288 -0.07752475 0.046991307 -0.08021102 -0.23163931 0.10717717
0.21637031 -0.07857868 -0.10335137 0.07843823 0.08471644 0.20918442 0.07190814 -0.16740496
0.2923181 -0.27868026 0.16556048 -0.03806038 0.22604635 0.22033745 -0.20186406 0.2558891
-0.042348873 0.07972175 0.114094265 0.030858897

i_resnet_layers.9.bottleneck_block.2.weight_u f4 [10]
00000000: 7d5c 1fbe a2ca 09bf 5696 c93e fb59 e3be
00000010: ccbe a53d 3deb 80be 52fc 4f3e 3843 05bd
00000020: ca05 f03e 42d1 2f3d
-0.15562625 -0.5382482 0.3937251 -0.44404587 0.08093032 -0.25179473 0.20311096 -0.032534808
0.46879417 0.042924173

i_resnet_layers.9.bottleneck_block.2.weight_v f4 [10]
00000000: 7479 c53e 623d 62be a9d5 16bd 0b6b 94bd
00000010: fece 003f dc5b 6e3e c68e 113e 97ce dcbc
00000020: 4b1a 063f 9801 e1be
0.38569224 -0.22093728 -0.036824856 -0.07246979 0.50315845 0.23277229 0.1421462 -0.026953978
0.5238387 -0.43946528

i_resnet_layers.9.bottleneck_block.4.weight_orig f4 [2, 10]
00000000: 336c 1e3d fb1b cb3e 3e21 7b3e cfee 1d3e
00000010: 3ca6 8fbc 54ed 313e 7277 d83d 8036 9fbe
00000020: 41dd 3abe 0fdf 11be 6133 42be 8336 803d
00000030: fc20 5abc 990a 61be 7149 763e d0c9 7d3c
00000040: 486f 773e d8da 653e 7c95 25be d3be 9abe
0.038677406 0.39669785 0.245244 0.1542313 -0.017535321 0.1737569 0.105696574 -0.31096268
-0.18248464 -0.14245246 -0.18964912 0.06260397 -0.013313528 -0.21976699 0.24051453 0.01549001
0.24163544 0.22446764 -0.16170305 -0.30223712

i_resnet_layers.9.bottleneck_block.4.weight_u f4 [2]
00000000: 5760 7e3f 974b e63d
0.9936575 0.11244886

i_resnet_layers.9.bottleneck_block.4.weight_v f4 [10]
00000000: 9f5a d43c b2a1 1b3f c9e3 bb3e 9f71 473e
00000010: 18ce 6e3c 8c4b 873e c01c 4d3e a021 dcbe
00000020: f8c6 9abe 2b2d 88be
0.025922118 0.607936 0.36697224 0.19476937 0.014575504 0.26424825 0.20030499 -0.42994404
-0.30229926 -0.2659696

i_resnet_layers.10.bottleneck_block.0.bias f4 [10]
00000000: aeb7 003f 6d95 d13c 57ec 9ebe 2ee1 d6be
00000010: e89b 2a3d a745 223f 3309 fb3e 9c71 253f
00000020: 526a 14bf 0617 05be
0.5028027 0.025583947 -0.31039688 -0.41968673 0.04165259 0.6338753 0.49030456 0.6462648
-0.5797473 -0.12997064

i_resnet_layers.10.bottleneck_block.0.weight_orig f4 [10, 2]
00000000: aea1 1e3f facd 033e b291 04be 23c5 a4be
00000010: b99e 4fbe c13b 27bf ec01 67bd 0404 1ebf
00000020: f62b 2d3d 9b04 25bd d65e 263f 7f21 fcbe
00000030: 8cf2 13bf 2711 d6be b27e a1be d1dc eb3d
00000040: 6009 b03e 117f ffbe cd20 083f 6786 fdbd
0.61965454 0.12871543 -0.12946203 -0.32181653 -0.20275392 -0.6532555 -0.056398317 -0.6172488
0.042278253 -0.040287595 0.6498846 -0.49244305 -0.5779197 -0.4180996 -0.31541973 0.11516727
0.34382153 -0.4990163 0.5317505 -0.12379151

i_resnet_layers.10.bottleneck_block.0.weight_u f4 [10]
00000000: 882a b9be 2a3c 0bbd 1f92 debd 219f 44be
00000010: 61ba 2fbd bdc3 1cbf cd04 683e 449e 803e
00000020: dc3a d3be f272 cbbe
-0.3616526 -0.033992924 -0.10867714 -0.19201328 -0.042902354 -0.6123617 0.22658081 0.25120747
-0.41255844 -0.39736134

i_resnet_layers.10.bottleneck_block.0.weight_v f4 [2]
00000000: 7928 5fbf e1e3 fa3e
-0.8717113 0.49001983
