experiments/diffeomorphism_effects/models/spiral/i_resnet_euclidean_product_100_blocks_10_int_features_20_epochs_True_subspace_reg_True_isometry_reg.pt (torch, 801014 bytes, 1000 tensors)

i_resnet_layers.0.bottleneck_block.0.bias f4 [10]
000000 04 3a 99 be 88 cd 0d be e8 4f 1a 3f 84 20 44 3e
       -0.29927075 -0.13847935 0.6027818 0.19153029
000010 87 bc 5f be 64 29 79 be c7 95 d3 3e 10 89 49 3d
       -0.21849261 -0.24332196 0.4132521 0.04920298
000020 f6 e2 00 bf f3 61 b2 be
       -0.50346315 -0.34840354

i_resnet_layers.0.bottleneck_block.0.weight_orig f4 [10, 2]
000000 2b b5 cf be 67 f9 83 3e 72 3b 2b 3f 47 28 f7 be
       -0.40567908 0.25776216 0.6688758 -0.48272917
000010 99 b6 34 bf 93 17 d5 3d aa 74 24 bf da 09 04 3f
       -0.7059112 0.10404887 -0.64240515 0.5157753
000020 2e e4 21 bf d2 62 27 3f 38 ae cf bc 04 5f 70 be
       -0.632388 0.6538516 -0.025351629 -0.23473746
000030 0e 2a 17 3f 83 dc bd be 0a 59 ab be cb 16 fc 3e
       0.59048545 -0.370823 -0.3346637 0.4923614
000040 c8 d2 7b 3e a4 64 23 3f 66 3b bb 3e 94 e6 93 3e
       0.24592125 0.6382544 0.36568755 0.28886855

i_resnet_layers.0.bottleneck_block.0.weight_u f4 [10]
000000 f3 21 80 3e fd c8 dc be eb a2 a5 3e 00 a8 dc 3e
       0.250259 -0.43122092 0.3235086 0.43096924
000010 ed 79 f1 3e 81 88 86 bd 25 b4 b9 be 64 20 98 3e
       0.47163334 -0.06569005 -0.36270252 0.29712212
000020 c4 44 d9 3d e8 20 67 bd
       0.10608819 -0.056427866

i_resnet_layers.0.bottleneck_block.0.weight_v f4 [2]
000000 38 e1 48 bf 4a b1 1e 3f
       -0.78468657 0.6198927

i_resnet_layers.0.bottleneck_block.2.weight_orig f4 [10, 10]
000000 40 f1 03 3d 28 d5 75 be ad 42 68 3e 0d e4 82 3e
       0.032212496 -0.24007094 0.22681685 0.25564614
000010 57 19 83 3e 1a 52 3a be d9 43 7c be d7 5d 55 3e
       0.2560527 -0.18195382 -0.24635257 0.20836578
000020 25 2f 9d 3d e4 66 ed 3d e3 25 0b be 99 2a 7d be
       0.07675008 0.115918905 -0.13588671 -0.24723281
000030 43 70 12 3d bc 9b 1b 3e 79 e8 5a 3e 11 11 d8 bd
       0.035751592 0.15196127 0.21377744 -0.1055013
000040 fc e5 c6 3c 3d 55 44 3e f3 89 b1 3e f1 f5 f3 3d
       0.024279587 0.19173141 0.3467556 0.11912144
000050 9f ca 27 bc d6 ec 48 be 63 e8 45 3e d2 89 5e 3e
       -0.01024118 -0.19621596 0.1932693 0.21732262
000060 9a c2 57 be 61 5d 74 be c0 2c 86 be 3c 5a 10 3e
       -0.21070328 -0.23863746 -0.26206017 0.14096922
000070 6f 30 1b be f1 7a 84 be cc 9d 69 bd 1f a4 bf 3c
       -0.15155195 -0.25875047 -0.057035252 0.023393689
000080 94 83 68 3e f2 fc 35 3e 5a 21 80 3e f4 7f 01 3d
       0.22706443 0.17772272 0.25025445 0.031616166
000090 16 b2 dc 3d 91 fa a5 bd de 34 4b 3e 01 87 c3 bd
       0.10776155 -0.081044324 0.19844386 -0.09547234
0000a0 09 fd 95 3d 7e 31 9e be f1 2f 36 bd 70 de 93 be
       0.07323653 -0.30897135 -0.044479314 -0.28880644
0000b0 c4 49 70 be 71 67 12 be 32 42 1d 3e 38 ca 96 3e
       -0.2346564 -0.14297272 0.15357283 0.29451156
0000c0 d6 40 9e 3e 83 07 28 3e b4 d9 59 be d1 e6 5e 3e
       0.3090884 0.16409115 -0.21274453 0.21767737
0000d0 04 c9 79 be 67 40 97 be e3 a8 f2 bd 60 ed ad be
       -0.24393088 -0.29541323 -0.11848619 -0.33970165
0000e0 be 0b 17 be 79 a2 2f be d6 e5 5e 3e 1f 6d d3 3d
       -0.14750573 -0.17151822 0.21767363 0.103235476
0000f0 da 01 12 3c d1 86 35 be 3c 10 e3 bc b4 8b 29 3e
       0.008911574 -0.1772721 -0.027717702 0.16557199
000100 47 86 5f 3e 7c bb 3f be d6 52 09 3d 60 e9 49 3e
       0.21828566 -0.18723863 0.033526264 0.19717932
000110 a7 07 52 be 0d 5f 8d 3e 2a db 51 3e b6 42 43 3e
       -0.20510732 0.2761158 0.2049376 0.19068417
000120 87 02 7a be 8c 15 72 3d 4f 35 b5 bd 03 e4 a8 be
       -0.24415027 0.05910258 -0.088480584 -0.3298646
000130 94 63 aa bd 77 18 4b be 17 3c b0 3b e3 f7 95 3e
       -0.08319774 -0.19833551 0.005378257 0.29290685
000140 8f 9c 3d be 33 ad c3 3e af 03 05 3e b4 46 0c 3e
       -0.18516754 0.38218078 0.12989686 0.13698846
000150 fc 92 15 3e bf 13 19 be 19 fe 0c bd 63 50 f2 bd
       0.14606851 -0.14948939 -0.034422014 -0.11831739
000160 6e 33 15 be 0b 9c 00 bb 3c 4d a3 bc c0 cd 39 be
       -0.145704 -0.001962426 -0.01993429 -0.18144894
000170 76 f6 6a bc a1 d5 5f 3e aa af c4 3d ae 9a 77 be
       -0.014340987 0.21858837 0.09603818 -0.241801
000180 60 94 90 3d f4 af 37 be d9 14 ae be 02 03 e4 3d
       0.0705955 -0.17938215 -0.3400028 0.11133386

i_resnet_layers.0.bottleneck_block.2.weight_u f4 [10]
000000 b7 c0 0c bf 34 63 b6 be 1f b3 a2 be 87 b3 49 be
       -0.5498156 -0.3562256 -0.31777284 -0.1969739
000010 d6 a2 33 bc f4 9e e4 3e be 2c b7 be 9a 54 6c 3e
       -0.010964116 0.44652522 -0.35776323 0.23079148
000020 6a 00 5f 3d 32 b4 5e be
       0.054443754 -0.21748427

i_resnet_layers.0.bottleneck_block.2.weight_v f4 [10]
000000 e3 c1 46 bc 5e 8e 0b 3f 19 57 c6 be 0f 1d 03 bf
       -0.012131187 0.5451411 -0.38738325 -0.51216215
000010 48 84 b8 be 29 d9 bc 3d 64 dc 94 3d 4a ce bf be
       -0.36038423 0.092211075 0.07268599 -0.37462074
000020 21 ee 9e 3d 34 2a 87 bc
       0.07760263 -0.016499616

i_resnet_layers.0.bottleneck_block.4.weight_orig f4 [2, 10]
000000 78 05 31 3e d6 1a 8d 3e c4 30 b3 be 3b 99 a9 3b
       0.17287242 0.27559537 -0.34998143 0.005175737
000010 e2 13 e8 3c 4e 42 85 3e 2e 78 aa 3d 1d e6 22 3e
       0.028329793 0.2602715 0.08323704 0.15908094
000020 62 b2 4b bd a8 7c e4 bd c2 8a ad be 60 27 35 3e
       -0.049730666 -0.11156589 -0.33894926 0.17690802
000030 1a 6c 26 be 1a 55 76 be cf 81 36 3e 0e 85 5d bd
       -0.16252175 -0.24055901 0.17822956 -0.05408197
000040 81 bd 89 be 7c 7a 52 3c 63 f7 2b be e0 ee 8b bd
       -0.26902393 0.012846585 -0.1679359 -0.06832671

i_resnet_layers.0.bottleneck_block.4.weight_u f4 [2]
000000 d7 48 0f bf 25 25 54 bf
       -0.5597052 -0.8286918

i_resnet_layers.0.bottleneck_block.4.weight_v f4 [10]
000000 5e 78 96 3e e7 1e f6 be 1f 1b 07 3f 29 87 a0 3e
       0.29388708 -0.48070452 0.5277576 0.3135312
000010 bc b3 85 be ca c2 24 be 7e 1b 90 3e 03 d7 22 be
       -0.2611369 -0.16089931 0.28145975 -0.15902333
000020 d1 7e 88 3e d7 75 42 3e
       0.26659253 0.18990265

i_resnet_layers.1.bottleneck_block.0.bias f4 [10]
000000 85 20 5d 3e d0 46 7e be b9 b3 63 bd 65 e2 2f 3f
       0.21594436 -0.248317 -0.05559132 0.68704826
000010 45 74 7c be 67 26 61 3e 36 bf 8a 3e 06 3b 62 3e
       -0.24653728 0.21987306 0.27099007 0.22092828
000020 54 4f 15 3f 32 f5 3a be
       0.5832417 -0.18257597

i_resnet_layers.1.bottleneck_block.0.weight_orig f4 [10, 2]
000000 0c 0a 9a bd f0 f3 05 3f 11 33 f8 bd b0 f9 ac 3e
       -0.075214475 0.52325344 -0.12119115 0.33784246
000010 2a 06 0a 3f 16 cf 2e 3a e8 12 05 bf e4 bc 1b 3f
       0.53915656 0.00066684315 -0.51981974 0.608351
000020 15 0e bf 3e a1 b5 12 bf a2 e4 ce 3e be ab ae be
       0.3731543 -0.57308394 0.40408808 -0.34115404
000030 87 a5 2d 3f 96 db ad be 21 41 30 3f c2 83 2a 3f
       0.678307 -0.33956593 0.6884938 0.66607296
000040 f3 e7 1f bf b6 55 0a 3f a2 b3 fd 3e 33 4a 1e bf
       -0.624633 0.54037035 0.4955111 -0.6183197

i_resnet_layers.1.bottleneck_block.0.weight_u f4 [10]
000000 87 7f 63 3e c6 af 2e 3e 3d fd 4d be a6 f4 d6 3e
       0.22216617 0.1705924 -0.20116134 0.41983527
000010 30 36 b4 be 8d 10 8e be 14 3e c2 be 75 d7 28 bc
       -0.35197592 -0.27747002 -0.37937987 -0.010305275
000020 b1 11 de 3e 9b 34 d4 be
       0.43372872 -0.41446385

i_resnet_layers.1.bottleneck_block.0.weight_v f4 [2]
000000 f6 b3 35 bf 46 55 34 3f
       -0.70977724 0.70442617

i_resnet_layers.1.bottleneck_block.2.weight_orig f4 [10, 10]
000000 7d 49 a0 bd 66 c2 63 3d a4 b6 a9 bd 7e 8b a2 be
       -0.07826517 0.055605315 -0.08286789 -0.3174705
000010 8f c9 06 bc 6f fe 16 bd ec 4c a1 3d 32 ef c9 3d
       -0.008226766 -0.03686374 0.07876 0.09860076
000020 67 e7 d0 bd 1c e2 a7 3e b8 3e 84 3d 9f fd 83 bd
       -0.102003865 0.32789695 0.06457275 -0.06444859
000030 5d d8 37 bd fb d8 44 3e 47 09 c7 be 11 9e 2a 3e
       -0.044884074 0.19223396 -0.38874266 0.1666186
000040 5c fb 2c be 8f bc a7 3d 18 18 48 3e e2 14 6d 3e
       -0.16892761 0.081902616 0.19540441 0.23152497
000050 98 3a 08 be 82 ee a1 3d 5f c3 06 3e c9 43 89 be
       -0.13303602 0.0790682 0.13160466 -0.26809528
000060 4f 3f 87 3d 1f eb 97 bd 5e 5c 5f 3e 47 54 6d 3e
       0.06603872 -0.07417893 0.21812579 0.2317668
000070 2e 9f bb bd 6c 24 c3 3d 1d 25 15 be 67 af b4 bd
       -0.091612205 0.09528431 -0.14564939 -0.08822518
000080 5d b9 d1 bd 4c 53 52 bd 3d 1d 94 3e cf cd 38 be
       -0.10240433 -0.05134897 0.28928557 -0.1804726
000090 2e 6f 29 be b9 d5 cb 3c bf 7f a8 bd 81 3c 54 3e
       -0.16546318 0.024882184 -0.08227491 0.20726205
0000a0 92 e5 91 bc ab f1 34 3e 82 cd 41 3e 6f 87 34 be
       -0.017809663 0.17670314 0.18926051 -0.17629789
0000b0 de d7 2f 3e 9e 63 08 3e 33 c9 de 3d d0 95 51 3e
       0.1717219 0.13319251 0.108782195 0.20467305
0000c0 1c cb 14 be df 7a 06 3e 6c 8d 69 be 85 e3 1c 3e
       -0.14530605 0.13132809 -0.22807854 0.15321167
0000d0 81 f0 2a 3e de 8e 3e 3d 7e 55 96 be 98 4f 14 3e
       0.16693307 0.046522968 -0.293621 0.14483488
0000e0 72 ee aa bd 84 e9 35 be 6f 97 13 be 70 b5 4d 3e
       -0.08346261 -0.1776486 -0.14413236 0.20088744
0000f0 f7 30 1e be d1 2e a7 be fa 5f 38 be d3 80 7c 3d
       -0.15448366 -0.32652906 -0.18005362 0.061646294
000100 e1 55 8d be b0 19 86 be f9 a7 ba 3d cd e0 68 3d
       -0.27604583 -0.26191473 0.091140695 0.05685501
000110 a9 44 bb 3b c6 32 dc bd d5 a6 c2 bd 7a b4 69 be
       0.005714972 -0.10751872 -0.09504477 -0.22822753
000120 4d 9b a7 be 58 ed 59 3e 73 07 89 3e 66 65 18 3e
       -0.32735673 0.21281946 0.26763496 0.1488243
000130 4f de 71 3d eb c8 ae 3c 19 cf 98 3e d5 dd f4 bd
       0.0590499 0.02133604 0.29845503 -0.119563736
000140 8f d5 48 be 00 9d d8 bd 50 df 32 be 97 a8 0a be
       -0.19612716 -0.105768204 -0.17468 -0.13540874
000150 2e de ca 3d 18 ea 12 bd 5c 07 27 bc c2 9e bc be
       0.09905659 -0.03586778 -0.010194626 -0.36839873
000160 b3 e4 48 3e 37 58 8b 3e 57 2d 8c 3e 12 ed d5 bd
       0.19618492 0.2721574 0.27378342 -0.10445608
000170 e1 a5 ac 3e 98 9c bc 3d 0f c2 40 3c 5c 84 07 3e
       0.33720306 0.092095554 0.011765017 0.13234085
000180 e2 02 f6 3d b3 0f 3e be af a9 83 bc db 0f de bd
       0.120122686 -0.18560676 -0.016072122 -0.10842868

i_resnet_layers.1.bottleneck_block.2.weight_u f4 [10]
000000 e4 f1 b5 3e f5 b4 65 be a2 8a d8 3e 3a 05 7a 3d
       0.3553611 -0.22432311 0.42293268 0.06104014
000010 76 d0 f0 3e e2 88 3f 3e de 1e a1 be 0d 3b 04 bf
       0.47034043 0.1870456 -0.31468862 -0.51652604
000020 34 2d 0c be 3d 4c a8 bb
       -0.13689119 -0.0051360414

i_resnet_layers.1.bottleneck_block.2.weight_v f4 [10]
000000 59 01 1e bd 8e d9 e4 3e 0f 81 de 3e 4a ed ff be
       -0.038575504 0.4469723 0.4345784 -0.49985725
000010 dd c9 ca 3d 1e 2c ee 3b 0f e7 0b 3e 41 73 61 3e
       0.099017836 0.007268443 0.1366236 0.22016622
000020 93 9a e0 be 34 17 9a 3e
       -0.4386793 0.30095828

i_resnet_layers.1.bottleneck_block.4.weight_orig f4 [2, 10]
000000 75 e3 87 be 42 58 d1 3d 07 31 33 3e 8f ae 10 be
       -0.26540723 0.10221912 0.17499171 -0.14129089
000010 3c a5 12 bd 7d 3a 90 bd 21 d3 99 bd 20 39 26 be
       -0.03580211 -0.07042406 -0.07510973 -0.16232729
000020 33 02 7c 3c e9 30 93 3e 04 ef a6 be f0 69 44 3e
       0.015381384 0.28748253 -0.3260423 0.19181037
000030 43 d9 9b be 25 35 7f 3d 0e 70 62 3d 52 dd 54 3e
       -0.30439195 0.062306542 0.055282645 0.20787552
000040 99 e4 90 3d 5f b0 56 be 4c 8a 50 3d 3f 10 40 3d
       0.070748515 -0.20965718 0.05091314 0.046890493

i_resnet_layers.1.bottleneck_block.4.weight_u f4 [2]
000000 e2 64 f9 be b3 93 5f bf
       -0.4870978 -0.87334746

i_resnet_layers.1.bottleneck_block.4.weight_v f4 [10]
000000 25 39 2c 3f bf e3 b4 be 98 48 96 3e 71 bd c2 3c
       0.67274696 -0.35330006 0.2935226 0.023771973
000010 6d 7b 4c bd 7b 88 74 be 15 ce 28 bd f9 dd d9 3e
       -0.049922395 -0.23880188 -0.04121216 0.42552164
000020 a4 a5 ac bd 7f 90 96 be
       -0.08430031 -0.29407117

i_resnet_layers.2.bottleneck_block.0.bias f4 [10]
000000 a8 ea 0e bf 0f d9 29 3f 40 57 17 bc 25 42 f5 bd
       -0.5582681 0.6634683 -0.009237111 -0.11975507
000010 7d 1c a5 3e 19 19 16 bf 67 fe b3 be d4 86 29 3e
       0.32248297 -0.58632046 -0.3515503 0.16555339
000020 4b 4c fb 3d b5 c0 9b bd
       0.12270411 -0.07605115

i_resnet_layers.2.bottleneck_block.0.weight_orig f4 [10, 2]
000000 11 1a 80 be a8 1d 6a 3e 8b e6 67 3e 6e 69 e6 bd
       -0.25019887 0.22862875 0.22646539 -0.11250578
000010 84 77 14 3f a0 8d 27 be f7 13 1f be df df d2 3e
       0.57994866 -0.1636262 -0.1553496 0.41186425
000020 da ca eb be 25 45 54 be 01 7c 1c 3f ea 94 2c 3f
       -0.460532 -0.20729502 0.61126715 0.67414725
000030 df 16 01 be 80 85 02 3f 50 a5 06 bf 7b a1 5e be
       -0.12606381 0.50984955 -0.52595997 -0.21741287
000040 67 3b 6e be b4 55 8d be fd 3f 87 3e d7 e9 7c be
       -0.23264848 -0.2760445 0.26416007 -0.24698578

i_resnet_layers.2.bottleneck_block.0.weight_u f4 [10]
000000 d4 37 84 3d 3c 3f c9 bd de e1 9b be 06 bf 97 bd
       0.06455961 -0.09826514 -0.3044576 -0.07409482
000010 8e c1 c4 3e 24 dd 2d bf e7 c3 09 be 63 87 dc 3e
       0.3842892 -0.6791556 -0.13453637 0.43072042
000020 4c 8c 88 3e fa 85 86 bd
       0.26669538 -0.06568523

i_resnet_layers.2.bottleneck_block.0.weight_v f4 [2]
000000 1a fc 55 bf b6 85 0c bf
       -0.835878 -0.54891527

i_resnet_layers.2.bottleneck_block.2.weight_orig f4 [10, 10]
000000 9f 2d 0d 3e a5 aa 70 be 66 0d c6 3d 3a 2a 0f bd
       0.13786934 -0.23502596 0.09670524 -0.03495238
000010 f8 49 89 3e 4c 86 b5 3e 40 28 89 3c e0 97 01 3e
       0.26814246 0.35454023 0.016742826 0.12655592
000020 0e 88 85 3e cd 93 1d bd 06 31 06 be 7b 1b aa be
       0.26080364 -0.038471032 -0.13104638 -0.3322409
000030 95 ee 75 be e3 81 1e 3d 6d c6 96 3e 52 a9 a2 be
       -0.24016793 0.03869809 0.29448262 -0.31769806
000040 62 cb de 3b 55 a9 7b bd 1e 80 90 3e c0 13 90 3d
       0.0067991475 -0.061440784 0.28222746 0.07035017
000050 7f d3 a2 be 56 d9 13 bd 34 94 64 3e 44 1a ee bd
       -0.31801984 -0.03609594 0.2232216 -0.116261035
000060 e9 49 5f 3e cb c4 5a 3e 63 46 8b 3e 03 8b 59 3e
       0.21805538 0.21364133 0.27202138 0.21244435
000070 b0 a3 92 3d 19 27 24 be ea 13 78 3d 49 ff 05 bd
       0.07160127 -0.1603054 0.060565867 -0.032714162
000080 b0 31 24 be 36 8f 9d bc 57 6b f8 3d 79 bd 9e be
       -0.1603458 -0.019233327 0.121298485 -0.3100393
000090 ed 49 94 3e 0b 38 87 bd 37 40 29 be 44 d3 23 be
       0.2896265 -0.06602486 -0.16528402 -0.1599856
0000a0 83 ed da bd 4c 24 52 3e 83 38 00 3e 8a 29 15 be
       -0.10689833 0.20521659 0.12521558 -0.14566627
0000b0 d7 db a7 bd d6 ad bb 3d f0 19 86 3e d2 85 4f 3e
       -0.08196228 0.09164016 0.26191664 0.20265892
0000c0 79 7a 8f be b0 7f 40 3d 69 a5 99 3c a7 52 92 bd
       -0.28023127 0.046996772 0.018755632 -0.07144671
0000d0 69 2a 80 be d7 9a 68 be 96 6d ea bc 3d 65 94 bd
       -0.25032356 -0.22715317 -0.028616708 -0.07245872
0000e0 b7 ec a4 bb 1d f0 5c be 63 51 d7 3d ad 1d 9c 3d
       -0.0050331014 -0.21575971 0.1051357 0.07622848
0000f0 e7 8e 6e be 5a 54 88 be 5e c1 4e bc 44 8e 14 be
       -0.232967 -0.26626855 -0.0126193445 -0.14507395
000100 c4 36 56 3e 81 2a ce 3b 72 83 f7 3d 71 56 36 3e
       0.20919329 0.006291688 0.12085618 0.17806412
000110 76 87 c5 bd 74 25 8c 3e 4d 64 76 3c 33 43 2b be
       -0.09644978 0.27372324 0.015038562 -0.16724853
000120 34 a0 83 3e c9 2b a1 be bf 3a 71 be 83 4f 2f 3e
       0.25708163 -0.31478718 -0.23557566 0.17120175
000130 1b 5b d4 be 72 05 06 bc 6a 7c b4 3d 42 09 39 be
       -0.41475758 -0.008180009 0.088127926 -0.18069938
000140 bd 0a 66 be 50 e7 aa 3e 51 86 22 be ad cd 9b bc
       -0.22465034 0.33379602 -0.1587155 -0.019018972
000150 1f 29 3b 3e f2 c4 b2 bd 74 0b d4 be 04 4c 36 be
       0.18277405 -0.087289706 -0.41414988 -0.17802435
000160 63 36 33 bd e6 1f c2 bd 45 7c cf bc f9 ad 19 3e
       -0.04375304 -0.094787404 -0.025327811 0.15007772
000170 cc e1 4e be 47 f5 8b bd da 05 d8 bd c9 3b a2 3e
       -0.20203322 -0.06833892 -0.10547991 0.31686237
000180 88 62 9e 3d d7 a0 58 be 51 80 4a be 71 f5 53 3e
       0.07733637 -0.21155106 -0.19775511 0.20699097

i_resnet_layers.2.bottleneck_block.2.weight_u f4 [10]
000000 4d 56 15 be 12 77 24 3f a8 51 77 be 5f 1c b2 3e
       -0.14583702 0.64244187 -0.24152243 0.3478727
000010 e7 ad a6 be b2 cb 75 3e 25 df c3 3d bc 77 d3 be
       -0.32554552 0.24003485 0.09564046 -0.41302288
000020 f8 5d 13 3e a6 f8 19 be
       0.14391315 -0.15036258

i_resnet_layers.2.bottleneck_block.2.weight_v f4 [10]
000000 83 45 d8 bc 5c e4 5b be c5 d6 05 bf 65 c3 3b 3e
       -0.026400333 -0.21473831 -0.5228084 0.18336256
000010 3c 58 b2 3e a3 b5 25 bf a8 e6 8a 3d bd 8e 79 be
       0.34832942 -0.6473028 0.067822754 -0.24370857
000020 18 1c 36 3e 7a b0 cf 3d
       0.17784154 0.10141082

i_resnet_layers.2.bottleneck_block.4.weight_orig f4 [2, 10]
000000 4d f8 1e 3e 6b c7 91 3e 42 8d 05 3e af 34 7b bc
       0.15524407 0.28472456 0.13042167 -0.015332385
000010 c5 ed a0 3d d0 62 8d bb 9d d6 c1 bd 83 31 e1 bd
       0.07857851 -0.004314758 -0.09464762 -0.10995772
000020 f3 f7 bf be 90 cf 69 3e a3 16 47 bd 47 ae 74 3c
       -0.37493858 0.22833085 -0.048605572 0.014934129
000030 f1 ac a2 be ba 4e 5d be f9 b6 2f be 23 11 86 3e
       -0.3177257 -0.21612063 -0.17159642 0.2618495
000040 10 13 a1 bb 0c 9d a4 be bb 8b 73 be 18 af 72 3d
       -0.0049156025 -0.32151067 -0.23783772 0.059249014

i_resnet_layers.2.bottleneck_block.4.weight_u f4 [2]
000000 04 d0 0d 3f c4 21 55 3f
       0.5539553 0.8325465

i_resnet_layers.2.bottleneck_block.4.weight_v f4 [10]
000000 7b bc 88 3d cc 49 7f 3e cd 08 90 be 6a 31 8d be
       0.06676575 0.24930495 -0.28131714 -0.27576762
000010 f8 f5 14 be 7b 8e a1 3e da 5b a9 bd cb 6a f6 be
       -0.14546955 0.31554016 -0.082694724 -0.48128352
000020 86 0c 18 bf 69 c5 83 3e
       -0.5939411 0.2573655

i_resnet_layers.3.bottleneck_block.0.bias f4 [10]
000000 d9 81 49 bf b5 0d 2d be bf d4 23 3f 01 69 27 bf
       -0.78713757 -0.1689976 0.639965 -0.653946
000010 8e e6 32 bd 18 40 52 bf db eb b9 be 20 2b c6 bd
       -0.043676905 -0.8212905 -0.36312756 -0.09676194
000020 0e 08 b9 be 1e 5f 20 3f
       -0.36138958 0.6264514

i_resnet_layers.3.bottleneck_block.0.weight_orig f4 [10, 2]
000000 72 93 d9 be b7 8b 3f 3e b9 9e 0f bf 06 97 2e bf
       -0.42495304 0.1870564 -0.56101567 -0.68199193
000010 d0 41 2a bf 05 ae 01 3f e4 29 36 be b4 ce 96 3d
       -0.6650667 0.5065616 -0.17789418 0.07363644
000020 bb 9a 00 3d b8 47 0b 3f 70 b2 01 3f fa a5 38 3f
       0.031397562 0.5440631 0.506629 0.7212826
000030 a2 7e d5 be 99 df 9f be fe c4 0c bf 6c fd f7 be
       -0.41698176 -0.3122528 -0.54988086 -0.48435533
000040 1d e7 0e 3b 78 46 41 be 25 da 06 3f 67 77 59 3e
       0.0021805235 -0.18874538 0.5267661 0.21236955

i_resnet_layers.3.bottleneck_block.0.weight_u f4 [10]
000000 47 64 cb bd be c9 05 bf d9 c4 85 bd d6 a6 32 bd
       -0.09931236 -0.5226096 -0.06531686 -0.04361614
000010 90 3a 78 3e 3b 38 04 3f c1 e0 9c be bf 8a de be
       0.2424109 0.516483 -0.30640224 -0.4346523
000020 8f 25 a1 bd ac e9 9e 3e
       -0.07868492 0.31037652

i_resnet_layers.3.bottleneck_block.0.weight_v f4 [2]
000000 e3 82 34 3f a7 86 35 3f
       0.7051222 0.7090859

i_resnet_layers.3.bottleneck_block.2.weight_orig f4 [10, 10]
000000 03 4e 3a 3e ac bf 6a 3e 04 14 d2 ba d0 b1 20 3d
       0.18193822 0.2292468 -0.0016027694 0.039232075
000010 5b 5a ab 3d 1a df 94 3c 32 a7 95 bd 99 30 07 3b
       0.08366843 0.01817279 -0.073072806 0.0020628332
000020 fb 6c f1 bc b4 8a af bd 18 eb 60 be 4a 07 93 be
       -0.029470911 -0.085713774 -0.21964681 -0.287165
000030 ec d6 88 3e 5a c4 9b 3d 8e c7 e9 b9 b9 23 74 be
       0.26726472 0.076058105 -0.00044589903 -0.23841752
000040 0d 48 4e be 8f 5f 81 bd da 3c 30 3e 0e a9 13 be
       -0.20144673 -0.063170545 0.17210713 -0.14419958
000050 20 0b 54 3d 2c a1 5a be 9c 5d 81 3e 77 94 10 be
       0.051768422 -0.21350545 0.2526673 -0.14119135
000060 10 5d 6a 3e de 5e 63 be dd b8 4a be 72 7e 14 b9
       0.22887063 -0.22204158 -0.19797082 -0.00014161484
000070 47 e2 a2 3d 2c 2a 64 3e 26 d8 74 3e be ce 21 3e
       0.07953315 0.22281712 0.23910579 0.15801522
000080 38 db 03 be dd b3 8f 3e 77 52 37 be e8 57 09 be
       -0.12876594 0.28066912 -0.17902552 -0.1341244
000090 f9 d5 9c be 2e ac 88 3b 2d 85 3b be 1b 80 12 be
       -0.30631998 0.004170916 -0.18312521 -0.14306681
0000a0 b7 c3 77 be 20 55 2f 3d 29 b1 8c be 01 55 9c be
       -0.24195753 0.04280579 -0.27478912 -0.30533603
0000b0 8b e8 30 3e 02 64 82 be 7b 9c 00 3d 75 14 68 3e
       0.17276208 -0.25466925 0.03139923 0.22664054
0000c0 0e 27 5d 3e e1 6f ee bd 41 31 17 be cb bf 5c be
       0.2159693 -0.11642433 -0.14764883 -0.21557538
0000d0 11 d3 b5 be de 5c 34 be 80 96 b2 bd 28 8f 9e 3e
       -0.35512593 -0.17613551 -0.08720112 0.30968595
0000e0 d8 a4 26 be 16 11 da 3b f7 6e b4 3d c4 73 90 be
       -0.1627382 0.006654869 0.08810227 -0.28213322
0000f0 83 36 58 3d 09 ff ab be d7 4a 04 be 1e be ec bd
       0.05278636 -0.33593014 -0.12919174 -0.115596995
000100 81 9e 7f 3e c0 fd 5a be 1d 06 a1 be b5 a8 9d be
       0.24962808 -0.2138586 -0.31449977 -0.30792776
000110 cb 2e 65 bc e7 d2 8a be 3e 7b a8 bd 1d 19 84 bd
       -0.013988207 -0.2711403 -0.082266316 -0.064501025
000120 6b 2f 73 3e 82 92 5d bd 29 70 94 bd 93 15 8a 3d
       0.23748557 -0.0540948 -0.07247955 0.06742396
000130 46 e7 88 be bc 93 95 be a6 ab 2a 3e 42 a6 99 3e
       -0.26738948 -0.29214275 0.16667041 0.30009657
000140 91 42 3f bd d6 0c 26 be 59 67 8a 3e 18 d5 34 bd
       -0.046694342 -0.16215834 0.27031973 -0.044148535
000150 76 f2 13 be ea 61 31 3e 67 31 36 be 35 4e 9c be
       -0.1444796 0.17322508 -0.17792283 -0.30528417
000160 9c e1 f0 3d 34 ab 4f bd 6d 83 48 3e e1 50 1c 3d
       0.117617816 -0.05070038 0.19581385 0.03816307
000170 74 e6 96 bc c2 60 eb bd 7d ea 26 3d 03 b8 a5 3e
       -0.018420435 -0.114930645 0.04075097 0.32366952
000180 ee 67 93 3d 50 e4 11 be 8f 37 6f 3e 5f 45 3f 3e
       0.071975574 -0.1424725 0.23361038 0.18678807

i_resnet_layers.3.bottleneck_block.2.weight_u f4 [10]
000000 81 bd 01 be a4 2c f7 3e 0c 25 ce 3e 19 e0 ee bd
       -0.12669946 0.48276246 0.4026264 -0.11663837
000010 44 e1 0f bd 2e 0a 87 3d 52 62 f7 3e ad 04 d7 3e
       -0.03512694 0.065937385 0.483172 0.41995755
000020 37 a1 cc 3e 5a e1 ce bb
       0.39966747 -0.006313485

i_resnet_layers.3.bottleneck_block.2.weight_v f4 [10]
000000 87 7b 29 be 23 2f 0a bf 43 6b c0 3e 91 1e 1d be
       -0.16551028 -0.53978175 0.37581834 -0.15343691
000010 01 c7 f9 3d 31 d8 2c be 29 72 f4 be d7 e4 db be
       0.1219616 -0.16879345 -0.47743347 -0.42948028
000020 c6 30 7c 3e c7 15 d9 3b
       0.2462798 0.0066249105

i_resnet_layers.3.bottleneck_block.4.weight_orig f4 [2, 10]
000000 28 a1 64 be 7c 50 d6 be e7 05 34 3e 9b a7 08 bd
       -0.22327101 -0.4185828 0.17580377 -0.033362966
000010 8a fd 30 3d 7a 96 61 3e d3 11 ac be 63 d2 71 be
       0.043210544 0.22030059 -0.3360735 -0.23615412
000020 6e 5e 1b 3d e2 60 17 3d c1 1a 54 3c 08 c5 5d 3e
       0.037931852 0.03695763 0.012945832 0.21657193
000030 06 0c 28 bb 14 d9 fd bc 93 83 23 be 2c 68 ae bd
       -0.0025641932 -0.0309873 -0.1596816 -0.08515963
000040 d0 a8 6e be fa 23 8a be 2f 34 81 be 6a 86 63 3e
       -0.23306584 -0.26980573 -0.25235125 0.22219244

i_resnet_layers.3.bottleneck_block.4.weight_u f4 [2]
000000 0f a7 7d 3f af 5a 0a 3e
       0.99083036 0.13511156

i_resnet_layers.3.bottleneck_block.4.weight_v f4 [10]
000000 b4 e9 a1 be c7 1d 0e bf 63 4f 80 3e 9d 7c 5c bd
       -0.31623614 -0.55514187 0.25060567 -0.053829778
000010 6b a4 f9 3c 0c 7c 98 3e 01 63 06 bf b8 64 c7 be
       0.030473908 0.2978214 -0.5249482 -0.3894403
000020 60 fe a9 3b dd b0 c4 3d
       0.0051877946 0.096040465

i_resnet_layers.4.bottleneck_block.0.bias f4 [10]
000000 54 8a 15 3f 0b 37 ee be 25 a1 4d be e9 f5 b7 be
       0.58414197 -0.4652637 -0.20081003 -0.35929802
000010 06 3f 3f be 5e 12 24 3f 7f 68 bb be e3 3a 88 be
       -0.18676385 0.64090526 -0.36603162 -0.26607427
000020 1c f9 08 bf 32 21 82 3e
       -0.5350511 0.2541595

i_resnet_layers.4.bottleneck_block.0.weight_orig f4 [10, 2]
000000 2b ac 83 3e 48 b6 8c 3b 41 9a ab 3e 44 81 0e bf
       0.2571729 0.0042941906 0.33516124 -0.55665994
000010 42 89 3b 3e 4a 91 cd be e4 e2 9c 3e 12 a5 aa be
       0.18314078 -0.4014991 0.30641854 -0.33329064
000020 cc 63 fa bd 74 0f e6 3e fd b3 c3 bc 29 14 e7 3e
       -0.12226066 0.44933665 -0.023889536 0.45132568
000030 75 49 58 be 01 45 3c be 45 c1 3f 3f f9 d3 74 3c
       -0.21121772 -0.18385698 0.7490428 0.014943116
000040 e8 56 6d be 80 99 0d bf 0f 5d 8b 3e 8e 8c 18 bf
       -0.23177683 -0.5531235 0.27219436 -0.5958947

i_resnet_layers.4.bottleneck_block.0.weight_u f4 [10]
000000 3e 2c a4 3d 26 6f f1 3e 53 78 a4 3e 2d 05 a2 3e
       0.08016251 0.47155112 0.3212305 0.31644574
000010 f3 5c aa be 66 ca 9a be a0 72 54 3d 3d 8b 6d 3e
       -0.3327404 -0.30232543 0.051867127 0.23197646
000020 5d 8d 92 3e dc 1e f4 3e
       0.28623477 0.47679794

i_resnet_layers.4.bottleneck_block.0.weight_v f4 [2]
000000 d0 eb e2 3e c9 7b 65 bf
       0.44320536 -0.89642006

i_resnet_layers.4.bottleneck_block.2.weight_orig f4 [10, 10]
000000 40 30 38 3e a3 16 2e be 48 d6 2f bd 05 f8 21 be
       0.17987156 -0.17000823 -0.042928964 -0.15817268
000010 6b 0b f6 bc 11 12 86 3e 48 79 87 be 8c 8e c8 bd
       -0.030034741 0.2618566 -0.26459718 -0.09792814
000020 ea f4 49 3e 37 7b b1 be db d9 6e bd 73 c8 bb 3e
       0.19722334 -0.34664318 -0.058313232 0.36676368
000030 d6 f3 32 3e 4c f6 85 be 9a e1 bd be 82 92 92 3b
       0.17475829 -0.26164472 -0.37086183 0.0044730315
000040 09 e2 d6 bd 13 d1 8a 3d 1b 62 9c bd 00 cb b1 3e
       -0.104923315 0.06778159 -0.076359 0.3472519
000050 59 66 76 bd 95 a8 ac 3e f3 b9 34 3e 51 d9 c8 bd
       -0.0601562 0.33722368 0.17649059 -0.09807075
000060 2f d2 bc bd 1d 02 25 be 7f 67 62 3e ad f9 92 3e
       -0.09219777 -0.16114087 0.22109793 0.28706113
000070 2f bb c8 3d 03 f1 d0 bd ee 7c 82 3e ca eb 5e be
       0.098013274 -0.10202219 0.2548594 -0.21769634
000080 d4 5f 8a be 96 5e 50 be e3 ed e2 3c 73 cc 0e bd
       -0.27026236 -0.20348582 0.027701324 -0.034862947
000090 45 3a ae 3c 7e 45 54 3e e5 c6 df bd e7 72 e3 3d
       0.02126802 0.20729634 -0.10926608 0.111059
0000a0 9e f7 27 bd 2b c4 90 be c6 cd fe bb ee 0c 75 be
       -0.04100763 -0.28274664 -0.007775995 -0.23930714
0000b0 07 5d 45 be cb 9c 29 be 0c e7 a1 bd d2 65 81 3d
       -0.19273768 -0.16563718 -0.07905397 0.06318249
0000c0 b5 c2 63 3d 1c 43 61 ba c4 1d 62 be 26 b6 8e be
       0.05560561 -0.0008593069 -0.22081667 -0.27873343
0000d0 42 9e 81 be e6 91 89 bd a0 74 c4 bd 51 2e 9c 3e
       -0.25316054 -0.06717281 -0.09592557 0.30504087
0000e0 b1 3d 88 bd 7a c5 4b 3d bb 9c 28 3e 0e c5 36 3e
       -0.06652392 0.049748875 0.16466038 0.17848608
0000f0 7f c6 92 be 13 1c 95 bd df 66 89 3e 69 d1 cc 3d
       -0.28667066 -0.07280745 0.26836297 0.10000879
000100 7b 27 15 be b5 7c 7d be 30 f1 4e be 5a 7c 9e 3d
       -0.14565842 -0.24754603 -0.20209193 0.07738562
000110 7a 55 31 3e 57 02 60 be ed 20 96 bd 5c e3 08 be
       0.17317763 -0.21875893 -0.07330499 -0.1336798
000120 bc 7c 53 be 4f 68 ab bd 43 63 62 3e d7 0c 4b be
       -0.20653051 -0.08369505 0.22108178 -0.19829117
000130 6f 3a a5 3e 88 d3 9c 3d 78 78 62 bd a3 f1 b1 3c
       0.32271144 0.07657534 -0.05529067 0.021721667
000140 22 72 a1 3a c2 ad 0a bd b5 48 e0 bd ae e4 ae 3e
       0.001231734 -0.033857115 -0.10951368 0.34158844
000150 62 a5 4d 3d 02 b0 4a be 58 10 63 3e 2b df 3d 3e
       0.05020655 -0.19793704 0.22174203 0.18542163
000160 51 31 60 3c 4c 62 92 3e 91 fb a1 3e dc d4 94 3c
       0.013683633 0.2859062 0.31637242 0.018167906
000170 6f 13 29 3d 12 d7 04 be 58 c7 ba 3d b4 3e 01 be
       0.0412783 -0.12972668 0.09120053 -0.12621576
000180 c7 02 87 3e 14 5f e7 bd 2b 92 ce 3d 22 96 99 be
       0.26369306 -0.112974316 0.10086473 -0.29997355

i_resnet_layers.4.bottleneck_block.2.weight_u f4 [10]
000000 82 4e 05 bf 48 40 04 3f 33 7d e8 3e 7c 49 72 be
       -0.5207292 0.51660585 0.4540802 -0.23660845
000010 93 7d e7 bd de 45 96 be cd b9 21 3e 7d 8b 37 bd
       -0.11303248 -0.2935018 0.15793534 -0.04481076
000020 ba e9 6e 3e 5b ec 0e be
       0.23331347 -0.1395735

i_resnet_layers.4.bottleneck_block.2.weight_v f4 [10]
000000 fb 87 7b be 28 33 20 3f 1e 67 c2 3e f3 49 fe 3d
       -0.24563591 0.6257806 0.37969297 0.124164484
000010 0f b5 65 be f5 7a b5 be 16 3e 42 3e 56 a3 6b 3e
       -0.2243235 -0.3544537 0.18968996 0.23011526
000020 8d b7 ec bd 03 fc a9 3e
       -0.11558447 0.33200082

i_resnet_layers.4.bottleneck_block.4.weight_orig f4 [2, 10]
000000 79 34 24 3e 5f c7 99 be 9b b6 09 be b3 0e 5a 3e
       0.16035642 -0.3003492 -0.13448565 0.2129467
000010 11 86 24 3e b3 4b 91 3d 1a a0 77 be 0e 1f 52 39
       0.16066767 0.070945166 -0.24182168 0.0002003873
000020 8e b4 87 bd 01 b8 c2 3d e9 b4 19 3e 9c 3a 11 be
       -0.06626235 0.09507752 0.15010418 -0.14182514
000030 f7 05 99 be d3 9d a8 3d 69 e7 19 3c 3d 87 20 3e
       -0.29887363 0.082332276 0.009393551 0.1567659
000040 04 8e 48 3d aa cb dc 3d 85 cc 8f be 2a 6e 78 be
       0.04896356 0.10781033 -0.28085724 -0.24260774

i_resnet_layers.4.bottleneck_block.4.weight_u f4 [2]
000000 0e 4c 28 bf 83 e7 40 bf
       -0.6574105 -0.7535326

i_resnet_layers.4.bottleneck_block.4.weight_v f4 [10]
000000 61 90 ac be 79 2e f0 3e 44 9f f7 3e ef 8e 9f be
       -0.33703902 0.46910456 0.48363698 -0.31163737
000010 d5 11 32 be 94 28 82 be a1 00 41 3e 25 68 00 be
       -0.17389615 -0.25421584 0.18847896 -0.12539728
000020 a8 7c c9 3e 79 c4 3d 3e
       0.39352918 0.1853198

i_resnet_layers.5.bottleneck_block.0.bias f4 [10]
000000 ab ce 0d bf f6 c5 1c bf d3 1e d5 bd 5a 21 15 3e
       -0.55393475 -0.61239564 -0.1040627 0.14563504
000010 e5 77 cd 3e cc 33 0c 3f 27 af 1b be b9 69 95 bd
       0.40130535 0.54766536 -0.15203534 -0.072955556
000020 96 7e a3 be ef ed a4 bd
       -0.31932515 -0.08053195

i_resnet_layers.5.bottleneck_block.0.weight_orig f4 [10, 2]
000000 b6 75 c4 be d0 09 21 bf 82 79 98 3e 4e 22 d5 3e
       -0.38371056 -0.629056 0.29780203 0.41627735
000010 b2 e3 04 3e 98 91 af bd a2 85 96 3e 4f 51 e9 be
       0.12977484 -0.08572692 0.2939883 -0.45569846
000020 c4 65 9f 3e b2 36 21 3f 61 2f be be 69 52 36 be
       0.3113233 0.62974083 -0.37145522 -0.17804874
000030 57 af 01 bf e1 9d 57 bf ed 5f ae 3e e6 bd f1 3e
       -0.5065817 -0.8422528 0.3405756 0.47215194
000040 82 dd 05 3d 73 37 62 3e e5 da 3b be d9 f6 dc 3e
       0.03268195 0.22091465 -0.1834522 0.4315708

i_resnet_layers.5.bottleneck_block.0.weight_u f4 [10]
000000 c0 07 dd 3e 14 66 98 be 91 c4 1a 3c 80 83 21 3e
       0.43169975 -0.2976538 0.009446279 0.1577282
000010 d9 37 d3 be 35 2b 46 3e 05 7b 13 3f 46 3f ad be
       -0.41253546 0.1935242 0.5760959 -0.33837336
000020 95 e9 fd bd 8a 5b 33 be
       -0.12398068 -0.17515388

i_resnet_layers.5.bottleneck_block.0.weight_v f4 [2]
000000 c0 5c ec be ac 16 63 bf
       -0.46164513 -0.8870647

i_resnet_layers.5.bottleneck_block.2.weight_orig f4 [10, 10]
000000 1f 00 2a be 7b 95 45 be c1 06 71 be 71 4b e4 3d
       -0.16601609 -0.19295304 -0.23537733 0.11147202
000010 e2 5a 12 be 7d d3 d2 3b f0 df 98 be 9f 4f bb 3c
       -0.14292482 0.006433903 -0.2985835 0.022865115
000020 86 8e 6f 3e 0e 21 72 3e 42 f7 3d be 11 c1 55 be
       0.23394212 0.23645422 -0.18551353 -0.2087443
000030 41 d0 f3 bd 04 1e 78 be 52 4e b9 3d f5 b1 6d 3d
       -0.11904956 -0.242302 0.090481415 0.05803104
000040 89 c7 f8 bc fc 3f 63 3d 72 1c 34 3e fa 9a 34 be
       -0.030368583 0.055480942 0.17588976 -0.17637244
000050 87 8b 10 3e db 3d 80 3e b2 b3 48 be 0d b6 fb 3c
       0.14115725 0.25047192 -0.19599798 0.030726457
000060 48 39 52 be ac 75 79 3d fd d8 a4 3d 3f f4 07 be
       -0.20529664 0.060903236 0.080492 -0.13276766
000070 88 22 40 3e 2b 7e 44 3e 00 1e e1 bd 63 32 5a 3d
       0.18763173 0.19188754 -0.1099205 0.05327071
000080 51 6a 2d be 2b 5e 06 be f4 59 2d 3e dc c7 b4 3d
       -0.16935088 -0.1312186 0.16928846 0.08827183
000090 2c 55 c1 3c 91 0c af 3d ff c9 c2 bd 96 20 55 be
       0.023600183 0.08547319 -0.09511184 -0.20813212
0000a0 6e 62 1b be 1b db 64 3e a7 63 61 bb 3a f0 3b 3e
       -0.15174267 0.22349207 -0.0034391673 0.18353358
0000b0 c1 84 13 be d8 e6 88 3e 57 c5 8a 3e 2e 7c 19 bd
       -0.1440611 0.2673862 0.27103683 -0.037471943
0000c0 6b bb 20 3e 0c 19 8f be fa db 02 bb 52 a0 a5 3d
       0.15696494 -0.27948797 -0.0019967542 0.08087219
0000d0 38 8f 1a be 73 d4 42 3e c9 b1 61 be e4 32 6f 3c
       -0.15093696 0.19026355 -0.22040476 0.014599536
0000e0 36 ac 24 3e 06 71 87 3d c9 f5 37 be 9e 7e 80 3e
       0.16081318 0.066133544 -0.17964853 0.250966
0000f0 9a e4 cd bd 3b ba c8 3d 45 40 46 3e 49 e0 b8 bc
       -0.10053368 0.09801146 0.19360454 -0.022567885
000100 cf 31 bb bd 5c 47 6d 3e 7b 2e 8d be de 0e b6 3d
       -0.091403596 0.23171753 -0.27574524 0.088895544
000110 0a 29 7d be c1 2d 61 be 5d cd a0 bb 1a ca 4b 3e
       -0.24722686 -0.2199011 -0.0049072937 0.19901314
000120 c9 5f e4 3d cd 69 62 be 2d 74 4f 3e 1b 90 a2 3b
       0.11151082 -0.22110672 0.20259161 0.0049610264
000130 ac fb 41 bd f9 41 71 be 00 61 b7 3e bf e0 56 3e
       -0.047359154 -0.23560323 0.35816193 0.20984171
000140 81 b4 d2 bd fc 58 d2 3d 93 a9 ae 3d cd b5 42 bd
       -0.10288335 0.10270879 0.085284375 -0.04753666
000150 32 d6 9f bd d3 33 df 3c 27 5a a1 be 73 10 37 be
       -0.078045264 0.027246391 -0.31514093 -0.17877369
000160 6f 05 49 be 83 08 50 3e 1f d4 bd bd d0 16 09 3e
       -0.19630979 0.20315747 -0.092689745 0.13387609
000170 c2 ee 8a be cc 5f 0b be 99 2b ba bd b7 9f 41 be
       -0.27135283 -0.13610762 -0.09090347 -0.18908583
000180 a5 2e b5 be ce 01 f0 bb fb 5d 01 be e0 95 c7 bd
       -0.3538715 -0.007324434 -0.12633507 -0.09745383

i_resnet_layers.5.bottleneck_block.2.weight_u f4 [10]
000000 95 f3 c2 be 6f 2d b5 bd 1c a1 1c 3e 05 2e b6 bb
       -0.38076463 -0.088465564 0.15295833 -0.005559685
000010 1a 5b 0a 3f 55 c5 c7 3d 5e b8 5f be f3 bf 99 bb
       0.5404526 0.09754435 -0.21847674 -0.0046920716
000020 e9 57 e2 be da 36 07 bf
       -0.44207695 -0.5281807

i_resnet_layers.5.bottleneck_block.2.weight_v f4 [10]
000000 53 36 2d 3e fe 2c 19 3e 79 6e 15 3e 99 1b 80 3e
       0.16915254 0.1495857 0.14592923 0.25021055
000010 fc 40 a7 3c 24 f9 6a 3e 7e ca 57 3f ed c3 a7 3c
       0.02041673 0.22946602 0.84293354 0.020479167
000020 29 18 7c 3e 8e 03 4e be
       0.24618591 -0.20118544

i_resnet_layers.5.bottleneck_block.4.weight_orig f4 [2, 10]
000000 fa 01 8a be b7 16 7f bd f5 9d da 3d e7 be 1b 3e
       -0.26954633 -0.062277522 0.10674659 0.15209542
000010 af 06 98 bd 18 db 00 bc fe 8d 4f be 07 1d 89 3e
       -0.0742315 -0.007864736 -0.2026901 0.2677996
000020 cb fa ad be a0 aa 9a be da 4a 44 3d ad dd dc 3d
       -0.33980402 -0.30208302 0.047922947 0.10784469
000030 c1 f7 90 be d1 74 1a 3e 54 06 41 3e a8 fb ea 3d
       -0.2831402 0.15083624 0.1885007 0.11473781
000040 2a 09 80 be 6e 81 80 3e 8e 74 bd bd 9d 2c 07 3e
       -0.25006992 0.25098747 -0.09250747 0.13200612

i_resnet_layers.5.bottleneck_block.4.weight_u f4 [2]
000000 22 3b 69 bf f8 15 d3 be
       -0.91105855 -0.41227698

i_resnet_layers.5.bottleneck_block.4.weight_v f4 [10]
000000 18 2e a9 3e ef 37 91 3c c5 b7 ea 3c ca 9d 96 be
       0.3304298 0.017726867 0.028652081 -0.29417259
000010 4f 16 70 bc f0 13 70 bd 45 99 d7 3e 36 3a 02 bf
       -0.014653756 -0.058612764 0.42109123 -0.5087007
000020 c7 47 02 3f 16 71 a5 3e
       0.50890774 0.3231284

i_resnet_layers.6.bottleneck_block.0.bias f4 [10]
000000 49 f3 4f bf 44 12 48 3f 3e 47 3a 3f e3 19 09 bf
       -0.812306 0.7815287 0.72764957 -0.53555125
000010 48 c0 fd be 0b d6 02 3f 5c 71 ef 3e 8d 86 0b 3f
       -0.4956076 0.51107854 0.46766174 0.54502183
000020 6f 45 13 3d 2b 49 1c 3f
       0.03595489 0.61049145

i_resnet_layers.6.bottleneck_block.0.weight_orig f4 [10, 2]
000000 ee 91 62 3e 62 b1 24 3f 04 3a c9 be a7 66 80 be
       0.2212598 0.64333165 -0.39302075 -0.25078318
000010 e1 3e b4 3e a1 a6 d5 3d 38 af 4f be 14 42 06 bf
       0.35204223 0.104321726 -0.20281684 -0.5244458
000020 69 23 be 3e 77 72 f0 be 1f 67 bd bd ce da 20 be
       0.3713639 -0.4696233 -0.092481844 -0.15708467
000030 24 09 e0 be 97 ce 08 3f 70 bd 8e bd 04 f8 eb 3e
       -0.43756974 0.5344023 -0.06969726 0.46087658
000040 3c 6a 1c bf 4d c9 c7 be 35 d6 45 bf b2 43 d1 bd
       -0.610996 -0.39020768 -0.7727998 -0.1021799

i_resnet_layers.6.bottleneck_block.0.weight_u f4 [10]
000000 69 de de 3e d1 46 a7 be 5a 19 6e 3e 42 8a bb be
       0.4352906 -0.32671216 0.23251858 -0.3662892
000010 de 68 37 bd 49 0a 01 be 58 65 31 3d 93 a7 47 3e
       -0.044777744 -0.1260158 0.04330954 0.19497518
000020 42 11 02 bf 28 c3 e4 be
       -0.50807583 -0.44680142

i_resnet_layers.6.bottleneck_block.0.weight_v f4 [2]
000000 88 1a 37 3f 28 e9 32 3f
       0.7152486 0.6988702

i_resnet_layers.6.bottleneck_block.2.weight_orig f4 [10, 10]
000000 72 d2 3d 3d e1 1b 80 be 59 fe c0 bd bc 7d 15 3d
       0.046343274 -0.2502127 -0.09423513 0.036496863
000010 da ea 47 be e5 3c 85 3d dc 30 3f 3e 9d ff 70 bc
       -0.19523183 0.06505755 0.18670982 -0.01470938
000020 05 c0 87 3e e0 f5 a5 3d ed 94 a8 bd 15 ff 8e 3d
       0.26513687 0.081035376 -0.0823153 0.06982247
000030 f8 65 80 be 22 2f 02 3d ea fd 8e 3e cc 59 90 3e
       -0.25077796 0.03178323 0.27928096 0.2819351
000040 d4 3d 20 3e c2 aa c5 bd 85 3b 44 be 7d cb 9e 3e
       0.15648586 -0.0965171 -0.1916333 0.31014624
000050 f9 9e a7 bd 06 d9 87 be 1a 16 10 be da 75 44 3e
       -0.081846185 -0.26532763 -0.14070931 0.19185582
000060 1c db 2f be 5f 70 a5 3e 98 96 ad 3d 61 cd 04 3d
       -0.17173427 0.32312295 0.08475989 0.032422427
000070 f6 7c a3 be 0b c7 86 3e 4a 40 8a 3d 73 60 82 3e
       -0.31931275 0.26323733 0.067505434 0.2546421
000080 19 f0 fa 3d e8 76 7e 3e 91 f4 26 be 49 bd 20 3e
       0.12252826 0.24850047 -0.16304232 0.15697207
000090 2f f5 37 bd 32 a8 14 be 8a 23 b5 3d d4 26 aa bd
       -0.04491156 -0.14517286 0.08844669 -0.08308187
0000a0 0c 24 50 3e 2b 66 5d be dc f2 79 bd 09 4c 2f be
       0.20326251 -0.21621005 -0.061022624 -0.17118849
0000b0 2d dc 8a be cf c6 9d bd b7 08 9e 3e bf fb 41 3e
       -0.27121106 -0.07703935 0.30866024 0.1894369
0000c0 a3 07 e3 bd 78 8a 57 3e d3 d4 bf 3e 69 86 a6 be
       -0.11085441 0.21048915 0.3746706 -0.32524422
0000d0 38 44 6c bd f6 e2 82 3e 42 39 a6 3d f4 90 91 3d
       -0.057682246 0.25563782 0.0811639 0.07107726
0000e0 c0 fa 0d be 87 89 0b 3e e0 99 53 3d 2f df 54 be
       -0.13865185 0.13626681 0.05166042 -0.20788263
0000f0 8e e5 c7 bd e8 73 61 be 82 4c 79 3e 3b bb ab be
       -0.09760581 -0.22016871 0.24345592 -0.33541283
000100 da c9 8d 3c 83 cb 21 3d 0f c2 87 bd a6 b9 1c 3e
       0.017308164 0.039500725 -0.066288106 0.15305194
000110 25 df e2 3d 75 5a 2c 3e 4c 58 85 bc f7 33 f4 3d
       0.11077718 0.16831382 -0.016277455 0.11923974
000120 7e d4 6b 3e 78 14 dc 3d 30 08 dc 3c c3 4b 1f 3e
       0.23030278 0.107460916 0.026859373 0.15556245
000130 96 e3 77 be 7e 25 2b 3e 78 d0 c3 3d 65 6c 41 3e
       -0.24207911 0.16713521 0.09561247 0.18889005
000140 05 3a 1a bd 62 11 5c bd 22 10 7f be 6b b6 82 3e
       -0.037652988 -0.053727515 -0.24908498 0.255298
000150 6e d9 82 3d 53 73 1f 3e 87 0e 76 be 8f dc f3 3d
       0.06389128 0.15571336 -0.24028979 0.119073026
000160 fb 6e 81 bd eb 5b 0c bd a6 4f 09 be bf 63 9b be
       -0.06319996 -0.034267347 -0.1340929 -0.30349538
000170 95 8c 16 be 91 e5 02 bd 87 29 3b bd a7 b1 87 3e
       -0.14702065 -0.031957213 -0.0456939 0.26502725
000180 25 84 95 3e be da 38 be 53 40 7b bd 83 da 30 bc
       0.2920238 -0.18052194 -0.06134064 -0.010794285

i_resnet_layers.6.bottleneck_block.2.weight_u f4 [10]
000000 8f d7 81 3e a0 52 c2 3e ee 54 15 3f b0 ad 32 be
       0.2535977 0.37953663 0.5833272 -0.17449069
000010 d3 05 c3 3e f3 f3 04 3d 12 a9 01 3d 8b 81 2e be
       0.3809038 0.03245921 0.03165538 -0.17041604
000020 7a 79 97 3d ca 71 fa 3e
       0.07396217 0.4891494

i_resnet_layers.6.bottleneck_block.2.weight_v f4 [10]
000000 e8 0e 73 bd 3f 0a 05 bf 42 48 c1 be a5 03 f7 3b
       -0.059340388 -0.5196876 -0.3775044 0.0075382763
000010 1c be 0f be aa 48 c3 3e de b6 e6 3e d0 96 be bc
       -0.14037365 0.38141376 0.45061392 -0.023265272
000020 ef 61 9a be b2 65 b4 3e
       -0.30152842 0.35233837

i_resnet_layers.6.bottleneck_block.4.weight_orig f4 [2, 10]
000000 b9 34 a3 bc 95 0a 99 3d 01 fb 81 be 3d 5e 85 bd
       -0.019922601 0.074727215 -0.25386813 -0.06512115
000010 ec d0 86 3e 16 0f 93 3e 17 26 86 3c 10 ff 9b 3d
       0.2633127 0.28722447 0.016375585 0.07617009
000020 9b 9c 70 be d6 4e c0 be d4 b5 5c be 6c d8 04 be
       -0.2349724 -0.37560147 -0.21553737 -0.12973183
000030 9c f2 45 3d e6 19 20 bd 22 8b 4f be a1 d5 b3 bd
       0.048327073 -0.0390872 -0.20267919 -0.08780981
000040 66 d6 cd 3d 93 4e 42 bd 74 e9 fb bd ac 7b 16 3e
       0.10050659 -0.047438215 -0.12300387 0.14695615

i_resnet_layers.6.bottleneck_block.4.weight_u f4 [2]
000000 20 64 6e 3f c4 9b ba be
       0.9312153 -0.36446965

i_resnet_layers.6.bottleneck_block.4.weight_v f4 [10]
000000 71 d2 b1 3d e3 23 2d 3e f4 6e bc be 97 fd 89 bd
       0.08682717 0.16908221 -0.368034 -0.067378215
000010 09 9f ec 3e 1d 29 de 3e 45 36 fd bc 23 b1 02 3e
       0.46215084 0.43390742 -0.030909667 0.12762885
000020 8d 08 81 be d7 8c 15 bf
       -0.25201836 -0.5841803

i_resnet_layers.7.bottleneck_block.0.bias f4 [10]
000000 99 96 6e 3e c9 f4 28 3f fb 51 3d 3f 2f f2 3f be
       0.23299636 0.6599851 0.7395322 -0.1874473
000010 d0 ea ee bd 5c 22 2a 3f 12 86 af 3d 70 e9 2c bf
       -0.11665881 0.6645868 0.08570494 -0.675437
000020 8c 9b e1 3e 5f 25 20 3f
       0.44063985 0.62557024

i_resnet_layers.7.bottleneck_block.0.weight_orig f4 [10, 2]
000000 7c cb 51 bf 3e c1 79 3e 55 37 22 be 06 b8 54 3e
       -0.8195112 0.24390122 -0.1584142 0.20773324
000010 5c c5 f1 3d 72 d1 db bd f7 66 2b 3f ee 56 9c 3e
       0.118052214 -0.10733308 0.66953987 0.30535072
000020 13 ce 09 3f 49 94 86 be c4 02 16 3b 34 69 a9 3e
       0.5383007 -0.26285008 0.0022889832 0.33088076
000030 a3 9c ed 3e c6 5a 83 3e 5a 79 24 3f 96 3d 66 3e
       0.46408567 0.25655192 0.6424767 0.2248443
000040 43 90 f2 3e 22 3d c8 3e ef 99 85 3e d3 3c c0 3e
       0.47375688 0.3910914 0.26094005 0.37546405

i_resnet_layers.7.bottleneck_block.0.weight_u f4 [10]
000000 77 7e f4 be 56 01 90 bd 75 09 71 3d dd 6c eb 3e
       -0.47752735 -0.07031505 0.05884691 0.45981494
000010 bf 72 99 3e 7e b0 40 3d 4a 53 a6 3e e2 1c dd 3e
       0.29970357 0.047043316 0.3248542 0.43186098
000020 ec de b2 3e 39 a6 5b 3e
       0.349357 0.21450128

i_resnet_layers.7.bottleneck_block.0.weight_v f4 [2]
000000 ee fa 79 3f 4a c2 5c 3e
       0.97648513 0.2155849

i_resnet_layers.7.bottleneck_block.2.weight_orig f4 [10, 10]
000000 ef 7a 93 3e d3 f7 a2 bd 28 3f 88 3e 68 06 85 3e
       0.28804728 -0.07957425 0.26610684 0.2598145
000010 08 cb b5 3d 61 4e 1d be 3f 5d 16 3e ff 8d 80 3e
       0.08876616 -0.1536193 0.14684008 0.25108334
000020 c9 f1 45 be 63 78 c1 be b0 3b 40 be a5 36 9a be
       -0.19330515 -0.3778716 -0.18772769 -0.30119815
000030 aa aa bc bd d6 9d aa be 2d 44 fd 3d c3 b3 38 be
       -0.09212239 -0.33323544 0.12366519 -0.18037324
000040 79 1c 6a bd d6 e7 2a 3e ce 2d df 3d cf 42 59 3c
       -0.05715606 0.16690001 0.108974084 0.013260557
000050 91 fa 34 3e 0c 17 18 3e b9 a4 b7 3d 3f be d5 3c
       0.17673708 0.14852542 0.08966965 0.026091693
000060 22 fd fd 3d d3 36 57 bd 25 15 89 3e e0 37 41 3c
       0.12401797 -0.05254252 0.26773944 0.011793107
000070 f5 d8 83 be 1f 7f 23 3e fd a0 21 3e 3c 97 5b 3e
       -0.25751463 0.15966462 0.15784068 0.2144441
000080 58 6d 6a be e9 dc 8c be a0 20 4d 3e 05 1c c7 be
       -0.22893274 -0.2751229 0.20031977 -0.38888565
000090 87 73 1b 3d dd c7 74 3e 98 22 87 be 43 81 16 3d
       0.037951972 0.23904367 -0.2639358 0.036744367
0000a0 0a ab 8a 3e 18 d6 fa bd 6a b9 f7 bd 8d d2 95 3e
       0.27083617 -0.122478664 -0.12095912 0.292622
0000b0 58 7b 03 bd eb 95 e2 3d 34 4f 80 be 97 16 1d 3e
       -0.03210005 0.11063751 -0.25060427 0.15340649
0000c0 ad 26 46 be f6 28 70 3e 32 9c d4 3d c7 24 2a bd
       -0.19350691 0.23453125 0.103813544 -0.04153898
0000d0 fa a1 28 be 46 8c af bd 2d 74 2d be 0e c0 c1 bd
       -0.16468039 -0.08571677 -0.16938849 -0.0946046
0000e0 17 a1 58 be f7 5d 56 3e c3 99 90 3e 41 34 3d 3e
       -0.21155201 0.20934282 0.2824231 0.18476965
0000f0 84 14 b9 bd 08 23 e3 3c db e0 72 3e 01 f9 1f bd
       -0.09037116 0.027726665 0.23718588 -0.039055828
000100 48 4e 49 3e 28 50 cc 3d 18 d9 52 3e 67 92 45 3e
       0.19658768 0.09976226 0.20590627 0.1929413
000110 d1 22 90 bd 85 e5 c9 3d 1f 8a 41 be 3a f9 93 bc
       -0.07037891 0.098582305 -0.18900345 -0.018063176
000120 87 11 3a 3e 19 61 de bd f0 5c b9 bd 18 3c 8d be
       0.18170749 -0.10858364 -0.090509295 -0.2758491
000130 21 34 be bc d4 1b 9c bd 28 9d 35 3d 48 4d 30 3e
       -0.023218216 -0.07622495 0.04433933 0.1721698
000140 88 be cc 3d 21 ee 86 bd 3b 96 58 be 5b 88 54 3e
       0.099972785 -0.06588388 -0.21151058 0.2075514
000150 10 7e e5 ba 1c 10 47 3e 74 08 87 3e da 46 80 be
       -0.0017508883 0.19439739 0.26373637 -0.25054055
000160 03 02 01 be 86 96 2e 3e d0 df 5c be 3f 7c aa 3e
       -0.12598424 0.17049608 -0.21569753 0.33297917
000170 21 45 73 3e 60 bf 11 3e 45 ff 3c bd 47 96 99 be
       0.2375684 0.1423316 -0.04614188 -0.29997465
000180 d6 ce 8c 3e e1 3b 86 be 1e cf 4e bd 8c 94 79 be
       0.27501553 -0.2621756 -0.05049049 -0.24373072

i_resnet_layers.7.bottleneck_block.2.weight_u f4 [10]
000000 59 70 d5 be da 41 90 3e e9 b0 91 be 4c 93 50 bd
       -0.41687277 0.2817524 -0.28455284 -0.050921723
000010 f9 68 78 3e e4 94 db 3e b3 f4 29 be 71 3d 77 bc
       0.24258794 0.42887032 -0.16597252 -0.015090332
000020 9a c5 87 bd 07 87 1f bf
       -0.066294864 -0.6231541

i_resnet_layers.7.bottleneck_block.2.weight_v f4 [10]
000000 94 0f ca 3c 2a 6d b8 be 36 cf da be 41 1f 83 be
       0.024665631 -0.36020786 -0.42736214 -0.25609782
000010 a4 da 05 be 73 fa 48 3e fa c5 07 bf 2a 08 50 3e
       -0.13071686 0.19626789 -0.53036463 0.20315614
000020 27 a1 a5 3e 0a 9d be 3e
       0.32349512 0.37229186

i_resnet_layers.7.bottleneck_block.4.weight_orig f4 [2, 10]
000000 5a 71 f8 bd 46 ab 8e be ab 6c 53 be 1e 00 5c bd
       -0.12130995 -0.27865046 -0.20646922 -0.05371105
000010 1c 4f b0 3d 80 b0 22 bd de d4 e3 3d fe 48 88 be
       0.08608839 -0.039719105 0.111245856 -0.2661819
000020 b3 6d f5 3d 4b 07 56 be 20 d9 c8 be c0 14 8d 3e
       0.11983814 -0.2090122 -0.39228153 0.27554893
000030 71 26 12 3e 1a ef 30 be f1 40 77 be 4c 65 6c 3e
       0.14272477 -0.1727871 -0.24145867 0.23085517
000040 4b 0a 2c be 85 a4 1f 3c 7e a0 c8 bd ef b5 48 3e
       -0.16800801 0.009743814 -0.097962365 0.19600652

i_resnet_layers.7.bottleneck_block.4.weight_u f4 [2]
000000 c0 82 fe 3e 79 21 5e bf
       0.4970913 -0.86769825

i_resnet_layers.7.bottleneck_block.4.weight_v f4 [10]
000000 83 5c c0 3e 3b 9f 01 bf 14 b2 9b be b4 3e 29 3e
       0.3757058 -0.5063359 -0.304093 0.16527826
000010 b3 39 ad 3e af 27 97 be bb 2a 8a 3e 24 3e 41 be
       0.33833084 -0.29522464 0.26985726 -0.18871361
000020 4b 8f 46 3e 4f 22 bc be
       0.193906 -0.36744925

i_resnet_layers.8.bottleneck_block.0.bias f4 [10]
000000 a6 18 c5 3e 00 96 a6 3d f7 89 16 3f aa cf 37 3e
       0.38495368 0.08134079 0.5880427 0.17950311
000010 94 f2 29 3e 9c a1 a9 3e 0b 36 4e 3e 0a 6e c3 be
       0.16596442 0.3313111 0.20137803 -0.3816989
000020 fb 7e 05 3f ff 58 f9 3e
       0.5214688 0.4870071

i_resnet_layers.8.bottleneck_block.0.weight_orig f4 [10, 2]
000000 27 24 21 3f 2b 9f ab bd da 81 08 be 54 63 14 bf
       0.6294579 -0.08379968 -0.13330784 -0.5796406
000010 00 0b 43 bd a5 34 74 be 4f d7 14 3f 1d a5 84 3e
       -0.047617912 -0.23848207 0.58141035 0.2590722
000020 22 22 f9 be bd f4 8d 3e 7b 16 80 be 80 35 44 bf
       -0.48658854 0.27725783 -0.2501715 -0.76644135
000030 76 46 a3 be b0 88 3c be 8c ee 27 be fa 56 06 3f
       -0.31889695 -0.18411517 -0.16399592 0.52476466
000040 e7 6c c0 be c5 9a b8 be 64 dc 0a bf a9 70 9e 3d
       -0.37583086 -0.3605558 -0.5424254 0.07736332

i_resnet_layers.8.bottleneck_block.0.weight_u f4 [10]
000000 27 13 95 3e 2b f7 b6 be b3 b2 12 be 65 09 df 3e
       0.29116175 -0.3573545 -0.14325981 0.43561855
000010 ae ae f5 bd 28 ed 02 bf c0 fc 84 be a3 40 31 3e
       -0.11996208 -0.5114312 -0.25974083 0.17309813
000020 00 0c c1 be fc 56 7e be
       -0.37704468 -0.2483787

i_resnet_layers.8.bottleneck_block.0.weight_v f4 [2]
000000 56 e0 3a 3f 68 f7 2e 3f
       0.7299856 0.6834626

i_resnet_layers.8.bottleneck_block.2.weight_orig f4 [10, 10]
000000 84 23 6b be 08 d9 63 3d c6 55 c3 bd ee 4c 93 3e
       -0.22962767 0.0556269 -0.09537844 0.2876963
000010 1e 25 26 bd 6b 16 ad 3d be 98 0b be 04 5d f1 3d
       -0.04056274 0.084515415 -0.13632485 0.117853194
000020 02 f4 06 3e 52 f2 ba bd 33 32 2f bd f4 d5 d1 3d
       0.13179019 -0.0912825 -0.042772483 0.102458864
000030 b9 20 2c be 0e 0c 76 be 14 cd 79 3c 6b 43 21 3e
       -0.16809358 -0.24028036 0.015246648 0.15748374
000040 c0 4f 14 3e 93 4d 00 bd a7 1f 60 3e 9f d4 3e 3e
       0.14483547 -0.03132398 0.21887074 0.18635796
000050 11 e4 02 be c4 d7 1d be 00 02 77 3c 8e 6f 3b be
       -0.12782313 -0.1541434 0.01507616 -0.18304273
000060 36 2c 1c 3e c5 ba 7e 3e 61 30 4d be 3a bc c0 3d
       0.1525124 0.24875934 -0.20037986 0.09410901
000070 ce 50 18 be 7d 20 15 3e d7 7e 79 3e 86 ce 70 3d
       -0.14874575 0.14563175 0.24364792 0.058790706
000080 62 e9 86 3d ef b1 84 be 95 06 9b bd 69 64 b3 bd
       0.06587483 -0.25917003 -0.07569615 -0.08759386
000090 0e 6e 73 be d6 f0 7e be 1c 78 b8 3b 54 4c 56 3e
       -0.23772451 -0.24896559 0.0056295525 0.20927554
0000a0 42 50 09 be 95 ff 03 be b2 01 48 be a9 d8 df bd
       -0.13409522 -0.12890466 -0.19531897 -0.109299965
0000b0 18 f2 8d 3e dd c6 cb be 1c 06 91 bc e3 08 08 3e
       0.27723765 -0.39800158 -0.017703108 0.1328464
0000c0 cc 70 28 be d9 e3 92 3d da dc 58 3d ba ed 97 be
       -0.16449279 0.07172365 0.052944995 -0.29673558
0000d0 21 f0 93 3e 31 10 06 3e 29 02 f9 3d 81 9c ba bd
       0.2889414 0.13092114 0.12158615 -0.09111882
0000e0 52 7e 27 3e 99 aa 5b bd c0 1a 1d be 5c 12 1f be
       0.16356781 -0.05362949 -0.15342236 -0.15534347
0000f0 78 b3 e6 3d 63 6c c6 3b 1c 64 13 3e 56 d9 6e be
       0.112647 0.006055401 0.14393657 -0.23325095
000100 7b e6 e3 bd b8 e5 65 be 48 7c 27 3e 96 0c 43 be
       -0.11127945 -0.22450912 0.16356003 -0.1904777
000110 09 41 6f be 9a 81 d2 bd a5 7a 2e bd 89 8b 86 3e
       -0.23364653 -0.10278626 -0.04259743 0.26278332
000120 63 9a 82 3e f7 ba 52 3e 75 55 07 3b 1f f4 85 bd
       0.25508413 0.20579134 0.0020650302 -0.06540703
000130 e3 be 4b be 8b 7e 06 3d ba 16 e5 3d 76 b1 7b be
       -0.19897036 0.032835525 0.111859754 -0.24579415
000140 aa 50 89 3d 0c 02 8f be cd b1 0d be 8c 97 17 3e
       0.067048386 -0.2793125 -0.13837357 0.14803904
000150 86 64 24 be e7 57 c6 be c0 5b 32 be e1 b4 31 3e
       -0.16053972 -0.3873894 -0.17417812 0.17354156
000160 51 eb dd bd 55 1c a5 3d 0d 8f af be 70 08 0d be
       -0.10835899 0.080620445 -0.34288827 -0.1377275
000170 1a 82 44 3e 3c cc 54 be 43 87 3e 3e fb 7a b2 3d
       0.19190255 -0.20781034 0.18606286 0.08714863
000180 44 16 38 3e c6 24 64 3e f6 b2 d2 3c ab 1e 4f 3e
       0.17977244 0.22279653 0.0257201 0.20226543

i_resnet_layers.8.bottleneck_block.2.weight_u f4 [10]
000000 b0 3e 53 be a4 d4 c1 be 1c e1 34 be 39 fe f8 3d
       -0.20629382 -0.37857544 -0.17663997 0.12157864
000010 d5 0e c6 3e e4 e8 ac 3e 90 78 be 3e f8 85 3f bd
       0.3868319 0.3377143 0.37201357 -0.046758622
000020 96 8d 0d 3f ec e0 76 be
       0.5529417 -0.24109238

i_resnet_layers.8.bottleneck_block.2.weight_v f4 [10]
000000 02 0f 96 3e 09 b5 b5 be 1b f5 10 3d 06 9f aa 3d
       0.29308325 -0.3548968 0.03539 0.083311126
000010 c4 72 93 bd 36 3d 41 bf d3 19 49 bd fb bb 89 bd
       -0.07199624 -0.75484025 -0.049096894 -0.067253076
000020 8c 29 da be e1 85 03 be
       -0.42609823 -0.1284404

i_resnet_layers.8.bottleneck_block.4.weight_orig f4 [2, 10]
000000 e0 6a aa 3e 62 66 c0 3d ff b0 28 3e d6 ac 8a be
       0.33284664 0.09394528 0.16473769 -0.27084988
000010 e0 27 8f be 62 06 7e be 96 18 3b be b8 79 41 be
       -0.2796011 -0.24807122 -0.18271098 -0.18894088
000020 55 1b 83 be b6 06 32 3c 72 8a 87 be 0a fe b7 bd
       -0.2560679 0.010865858 -0.26472813 -0.08984001
000030 12 42 2c 3c 2a 2a de 3b a0 a3 7c be 80 b6 12 bd
       0.010513799 0.0067799287 -0.24671793 -0.035818577
000040 81 31 9b 3c 8a 62 24 3e 0c fb be bd 2b f7 80 be
       0.018944504 0.16053215 -0.09325227 -0.25188574

i_resnet_layers.8.bottleneck_block.4.weight_u f4 [2]
000000 96 24 7e 3f 87 3c f6 bd
       0.99274576 -0.120232634

i_resnet_layers.8.bottleneck_block.4.weight_v f4 [10]
000000 99 67 03 3f 39 d2 16 3e 24 57 6b 3e 8b a8 c3 be
       0.5132995 0.14728631 0.2298246 -0.38214526
000010 af ca b3 be 83 6d af be 9b 24 85 be 40 0e 96 be
       -0.35115573 -0.34263238 -0.2600449 -0.29307747
000020 a7 28 b0 be 7f e8 6d 3d
       -0.34406015 0.058083054

i_resnet_layers.9.bottleneck_block.0.bias f4 [10]
000000 6a 98 12 3e 13 79 91 3e 06 6f e9 bd cf dc 23 bf
       0.14315954 0.28412685 -0.11398129 -0.640088
000010 2d 8c 93 3e 1d cb b1 3e 3a 63 e9 3e 4f dd 10 bd
       0.28817883 0.34725276 0.45583516 -0.035367306
000020 05 62 e3 be 75 8e 1e 3e
       -0.4441072 0.1548403

i_resnet_layers.9.bottleneck_block.0.weight_orig f4 [10, 2]
000000 25 cb 55 be b5 3a 2d 3f 74 69 79 be ad 4f 30 3e
       -0.20878275 0.67667705 -0.24356633 0.17217894
000010 de 10 50 be af 97 39 3e 1f eb 81 3e 7c 58 7b be
       -0.20318934 0.18124269 0.25374696 -0.24545473
000020 b7 13 0a bf ff 1c 68 be 9d aa 25 3f b0 d3 46 bc
       -0.5393633 -0.22667311 0.6471346 -0.012135431
000030 28 9e 04 be 9d 90 82 3e 7e 9d 84 3e d0 14 fe be
       -0.12950957 0.25500956 0.25901407 -0.49625254
000040 ad 02 10 bf 32 87 21 bf 13 3b 4c be c5 40 0f 3e
       -0.5625408 -0.63096917 -0.1994441 0.13989551

i_resnet_layers.9.bottleneck_block.0.weight_u f4 [10]
000000 ee 90 14 bf 44 d9 74 be a2 9b 67 be eb 8d 97 3e
       -0.58033645 -0.23911005 -0.22617963 0.29600462
000010 9b 82 c8 bd 7a 76 a3 3e 83 08 79 be 73 f0 f3 3e
       -0.09790536 0.31926328 -0.24319653 0.47644386
000020 67 f9 35 3e ec ab 47 be
       0.1777092 -0.19499177

i_resnet_layers.9.bottleneck_block.0.weight_v f4 [2]
000000 e8 6b 0f 3f 71 0d 54 bf
       0.56024027 -0.8283301
