experiments/models/spiral/i_resnet_euclidean_product_100_blocks_10_epochs_2024_02_11_13_05_24.pt (torch, 681942 bytes, 1000 tensors)

i_resnet_layers.0.bottleneck_block.0.bias f4 [10]
000000 58 97 2d bd f8 62 32 3e 3e e5 2d 3e db e7 55 3d
       -0.04238066 0.17420566 0.1698198 0.052223068
000010 e5 1d e9 be cd e7 46 bf 82 9e 2b bf 58 46 49 3e
       -0.4553062 -0.7769745 -0.6703874 0.1965574
000020 ee 4f 93 be c9 e9 12 3f
       -0.2877192 0.5738798

i_resnet_layers.0.bottleneck_block.0.weight_orig f4 [10, 2]
000000 b4 eb fb 3e 86 f6 db 3e ce 20 31 3e 8e e5 42 bf
       0.49203265 0.4296152 0.1729767 -0.7613152
000010 39 ae 0e 3f bb ba 02 bf a6 5f 44 bf ec a4 58 be
       0.5573459 -0.5106618 -0.7670845 -0.21156663
000020 67 d5 0e be 46 08 41 b9 1e 7e 08 be 60 e9 a5 3e
       -0.13948594 -0.00018408996 -0.1332936 0.32404613
000030 af a2 9a be 19 52 78 3e 70 5c ab 3d ec 7b 49 bf
       -0.30202243 0.24250068 0.083672404 -0.78704715
000040 6e d7 46 3e 50 e8 ed be 3d d8 0c bf 55 fd 99 be
       0.19418117 -0.46466303 -0.55017453 -0.3007609

i_resnet_layers.0.bottleneck_block.0.weight_u f4 [10]
000000 db ad 45 be 71 9e 06 3f e3 6c dc 3e 2f 6e 2a 3b
       -0.19304602 0.5258551 0.43051824 0.0026005616
000010 1c 69 c8 bc d3 f8 6f be f0 27 58 be c9 e3 06 3f
       -0.024464183 -0.23434763 -0.21108985 0.5269132
000020 d5 64 ac 3e a5 72 ca 3d
       0.3367068 0.09885148

i_resnet_layers.0.bottleneck_block.0.weight_v f4 [2]
000000 89 c7 85 3e 56 1b 77 bf
       0.26128796 -0.96526086

i_resnet_layers.0.bottleneck_block.2.weight_orig f4 [10, 10]
000000 87 a9 b5 bd e5 18 08 be 15 07 d2 bd de fa 5e 3e
       -0.088702254 -0.13290747 -0.10255257 0.21775386
000010 1c e4 b4 3d bd c7 7b be 33 36 0b 3e 1e eb c5 3d
       0.08832571 -0.24587913 0.13594894 0.09663986
000020 0e a2 8f 3d 0d 98 8c 3e b8 d6 58 3e 19 5e a0 bd
       0.07013331 0.27459756 0.21175659 -0.07830448
000030 e4 2e 1f bc 9d 26 2c be 9a df 89 3d 33 50 86 be
       -0.009715769 -0.16811605 0.06732102 -0.26233062
000040 34 5b 09 3e 7a dc 82 be 91 c8 6e 3d 32 11 51 be
       0.13413697 -0.25558835 0.058296744 -0.20416716
000050 d1 03 54 3b bf 6a 69 be 43 d8 4a be 29 c0 f3 bd
       0.0032350908 -0.22794627 -0.1980906 -0.11901886
000060 d7 c9 9a bd 9a c7 41 be f4 05 2d 3e a3 f6 8b be
       -0.07558029 -0.18923798 0.16896802 -0.27336606
000070 b0 d0 8a be 45 60 43 3d f4 68 09 3e 61 dc cb bd
       -0.2711234 0.04769923 0.13418943 -0.09954143
000080 95 f7 83 be a3 e3 f6 3c 5d ef 7c 3e 90 a8 61 3e
       -0.25774828 0.030137843 0.24700685 0.22036958
000090 12 28 98 3e 63 e2 77 3e fe ac 00 3e 1c f2 97 be
       0.2971807 0.24207453 0.12565991 -0.29676902
0000a0 44 c4 c7 3d 99 2e 8b 3d 8f 17 05 3e 30 33 88 be
       0.097542316 0.06795997 0.12997268 -0.26601553
0000b0 de 70 c8 bc 26 50 84 be 6d 2d 4e bd 41 b3 89 bd
       -0.024467882 -0.25842398 -0.05033629 -0.06723643
0000c0 61 ad 6d 3e ad 7e 8c be 0a f4 75 bd 5d ca c2 3c
       0.2321067 -0.27440396 -0.060047187 0.023778135
0000d0 1c 94 f8 3d 0a 50 81 3d 8c 1d 66 bd b6 31 ce 3d
       0.121376246 0.06314094 -0.05618052 0.10068075
0000e0 21 fd 2e 3e ff 42 85 3b 6f 26 84 be 6f 45 06 3e
       0.17088749 0.0040668244 -0.25810573 0.13112424
0000f0 a6 1a e7 3d 97 99 a2 be 87 d5 45 be be 6a 23 3e
       0.1128438 -0.31757805 -0.19319735 0.15958688
000100 a0 45 5f 3e 8a c6 8f 3c cc 3e 87 be ee 34 05 be
       0.21803904 0.017550725 -0.26415098 -0.13008472
000110 dc f6 aa bd da 56 a1 3d 2c 46 44 3d bc 6d 22 be
       -0.08347866 0.07877894 0.047918484 -0.15862173
000120 5e 6d 6a be 83 f6 21 3d 94 46 23 be d1 19 54 bc
       -0.22893283 0.039541733 -0.15944892 -0.012945608
000130 f1 08 35 bd 1a fb ea bc 6f 62 91 be ae da 8b be
       -0.04419798 -0.028684188 -0.2839541 -0.27315277
000140 93 73 19 be 72 f2 34 3e c0 a7 9c be cb 1a c2 3d
       -0.14985494 0.1767061 -0.30596733 0.094777666
000150 28 d5 3f 3d d2 cb 97 be fc 6c 8b 3d 47 5e 3b 3b
       0.04683414 -0.2964769 0.068078965 0.002859013
000160 8c 14 22 3d c9 be 27 3e 2c 6e 5c 3e 19 c0 59 be
       0.039570376 0.16381373 0.21526402 -0.21264686
000170 2a b2 42 bc 85 17 81 3d f0 df a1 bd 02 92 41 3e
       -0.011883298 0.06303314 -0.07904041 0.18903354
000180 fb 3e 2d be ee 08 ab be f9 fb 23 3e aa 1a ff 3d
       -0.16918556 -0.3340525 0.16014089 0.12456258

i_resnet_layers.0.bottleneck_block.2.weight_u f4 [10]
000000 0d 6a be bd 1b 1a 8a be 08 7c 0c bf e7 87 8e 3d
       -0.09297571 -0.26973042 -0.54876757 0.06959515
000010 0c c5 f5 3d d4 01 0d 3d 98 1d 0c bf d1 25 bb be
       0.12000474 0.03442557 -0.54732656 -0.3655229
000020 4f 94 bd bc 65 e9 ce be
       -0.023142008 -0.4041244

i_resnet_layers.0.bottleneck_block.2.weight_v f4 [10]
000000 b8 0b 78 be 85 41 17 3f 57 d0 ce 3e 18 de aa bd
       -0.2422322 0.5908435 0.40393326 -0.08343142
000010 62 d5 66 bb 2a 9d 0d 3e 49 0f 08 3e 23 de 0a 3f
       -0.00352224 0.13829485 0.13287081 0.54245204
000020 ff fe 97 3e b1 a0 5d bd
       0.29686734 -0.054108325

i_resnet_layers.0.bottleneck_block.4.weight_orig f4 [2, 10]
000000 c4 70 bd 3d 60 a2 2e be 87 ac 0b bd b5 db 9b 3a
       0.09250024 -0.17054129 -0.03410008 0.0011891039
000010 b4 dd 90 be 06 55 4d be f1 8b 83 be 98 bd 80 be
       -0.28294146 -0.20051965 -0.25692704 -0.2514465
000020 19 84 5f 3e d9 80 45 be 68 12 62 be d8 41 4c be
       0.21827735 -0.19287433 -0.22077334 -0.19946992
000030 20 69 b6 be 45 9f 50 3e e0 41 cb bc c6 d6 79 3e
       -0.3562708 0.20373257 -0.024811685 0.24398336
000040 10 3d cb be 50 34 26 be ea bc 0b be af bd 64 be
       -0.39695024 -0.16230893 -0.13646284 -0.22337984

i_resnet_layers.0.bottleneck_block.4.weight_u f4 [2]
000000 63 56 ec be 55 18 63 bf
       -0.46159658 -0.88709

i_resnet_layers.0.bottleneck_block.4.weight_v f4 [10]
000000 8e d5 43 3e d0 4b a3 3e 5a e1 d3 3e c9 b8 67 be
       0.19124433 0.31893778 0.41382867 -0.22629084
000010 0f d6 42 3e be 3a 1e be c8 5a 16 3f c3 16 a6 3e
       0.1902697 -0.15452096 0.5873227 0.3243924
000020 8a 9c d0 3c 52 6b b7 3e
       0.025465269 0.35824066

i_resnet_layers.1.bottleneck_block.0.bias f4 [10]
000000 a6 ec 55 3f 33 8c e3 bc ec 11 15 3f a3 e9 21 bf
       0.8356422 -0.027776813 0.5823047 -0.63247126
000010 05 9a 17 3e 78 10 c0 3e f2 7e 23 be 0d c2 80 3e
       0.14804848 0.37512565 -0.15966395 0.2514805
000020 06 8e 14 bf 34 dc 4d be
       -0.5802921 -0.20103532

i_resnet_layers.1.bottleneck_block.0.weight_orig f4 [10, 2]
000000 f6 20 a8 3e 00 ca 2f be 0e 02 e3 3e bc e3 07 3f
       0.32837647 -0.171669 0.44337505 0.5308187
000010 40 25 5f be c4 d3 a1 3c 64 e5 c5 be 2a ed f1 bd
       -0.21791553 0.019754298 -0.38651574 -0.118128136
000020 26 3a fc 3e d4 ce ac 3e 26 c7 42 bc 80 33 1c 3e
       0.49263114 0.33751547 -0.011888301 0.1525402
000030 f0 64 38 be 04 05 22 bf 7f 45 f6 be 6a 49 2a 3f
       -0.18007255 -0.63288903 -0.48099896 0.6651827
000040 aa de 29 3e 76 d2 dd 3e 4c e9 b1 be d4 5b 0e 3f
       0.16588846 0.4332463 -0.34748304 0.5560887

i_resnet_layers.1.bottleneck_block.0.weight_u f4 [10]
000000 fd 41 d8 bd 65 5b d8 3e bc 92 8f 39 6f 60 e7 bd
       -0.10559461 0.42257228 0.0002738441 -0.1129769
000010 6a a5 90 3e 28 d4 e5 3d f0 26 f6 be 79 02 ec 3e
       0.282512 0.11222106 -0.48076582 0.46095636
000020 dc f3 a9 3e 82 29 c7 3e
       0.33193862 0.38898855

i_resnet_layers.1.bottleneck_block.0.weight_v f4 [2]
000000 9a 7e b5 3d 26 fe 7e 3f
       0.08862038 0.9960655

i_resnet_layers.1.bottleneck_block.2.weight_orig f4 [10, 10]
000000 df c4 14 bd 16 ec 0f 3e 5f 73 d8 3d ec 4a 18 be
       -0.036320563 0.14054903 0.1056888 -0.1487233
000010 e4 4d 67 bd a0 62 c4 3d 98 dc 79 be 43 a5 68 be
       -0.056470767 0.09589124 -0.24400556 -0.22719292
000020 a3 3f 20 be c1 e8 42 3e db fd 3b bb b9 c2 46 3e
       -0.15649275 0.19034101 -0.0028685245 0.19410218
000030 4c ec 93 be da 36 f1 bd 59 5e 4c bd 6e 2e 69 be
       -0.28891218 -0.1177804 -0.049894664 -0.22771618
000040 d0 db ac be f4 0e 00 3d 00 4c bd bd 9e 0c d1 bd
       -0.33761454 0.03126426 -0.092430115 -0.10207485
000050 f7 00 2d be 22 fa 59 3d 35 5a 96 3d 9c 54 60 3d
       -0.168949 0.05321706 0.073414244 0.05476819
000060 bd 3c 81 3e 9b 81 2f be 5b 01 ee bd 39 6e 7e be
       0.25241652 -0.17139284 -0.11621352 -0.24846734
000070 68 e5 3d 3e a6 47 b4 be d6 7f cc be de 21 53 3e
       0.18544543 -0.35210913 -0.3994128 0.20618388
000080 e5 04 27 be c1 56 0e bd 9a 13 0b be 37 53 d2 bc
       -0.16310461 -0.034750704 -0.13581696 -0.025674446
000090 1a ce e2 3d 8e 33 66 3e cb a0 ea 3d f6 98 19 3e
       0.11074467 0.22480604 0.1145645 0.14999756
0000a0 cb 45 70 3e 62 60 a4 3e 8b 95 29 3c 06 f9 22 be
       0.23464124 0.32104784 0.010350595 -0.15915307
0000b0 04 60 88 3e 39 03 fb 3c ab f1 45 bd 8c 23 44 3d
       0.26635754 0.030641185 -0.048326176 0.047885463
0000c0 9a a3 54 3d e7 43 35 3d fc 08 23 be d9 d7 0a 3e
       0.051913835 0.04425421 -0.15921396 0.13558902
0000d0 41 9e 99 bd 94 09 2c be 4d a6 4f bd 04 f1 2a 3d
       -0.07500888 -0.16800529 -0.050695706 0.041733757
0000e0 21 13 57 3d 8a 28 61 3e 44 e8 32 3e a6 01 fc bc
       0.052508477 0.2198812 0.17471415 -0.030762505
0000f0 d4 86 5d be 41 43 99 bd 38 e0 81 3d e3 5f 45 3e
       -0.21633464 -0.07483531 0.063415945 0.19274859
000100 4f e7 a9 bd b9 4d 22 bd 60 cd 6c be 52 ce 8b 3e
       -0.08296072 -0.039624903 -0.2312522 0.27305847
000110 d4 38 9b be 7c ab 82 be 9f ef b8 3d 69 3a 2c 3c
       -0.30316794 -0.25521457 0.09030079 0.010511973
000120 48 58 3a be 92 f5 7f 3e aa 17 ce 3d 02 44 b8 3d
       -0.18197739 0.24996021 0.10063107 0.089973465
000130 34 c1 4a be 7c 54 79 3e 62 97 12 be 29 6c 28 3e
       -0.19800264 0.24348634 -0.1431556 0.1644751
000140 40 35 d5 3d 6a c2 8e be e0 9d a3 bd 8d f9 74 3d
       0.10410547 -0.278827 -0.07989097 0.059808303
000150 98 cf 87 bd 37 35 09 3e df 4e 36 be 70 e3 85 be
       -0.06631392 0.13399206 -0.17803524 -0.26150084
000160 61 76 a4 bd f9 b2 ec bd 93 7f 28 be 87 57 5d bd
       -0.080303915 -0.11557574 -0.16454916 -0.05403855
000170 24 76 60 3e 95 b3 32 3e 68 16 c7 be a8 8a 7e bc
       0.21920067 0.17451318 -0.38884282 -0.015535988
000180 aa 11 a5 3d 56 b6 32 bd c3 6b 6e bd 76 c3 3e 3c
       0.0806001 -0.04363092 -0.05820824 0.011643281

i_resnet_layers.1.bottleneck_block.2.weight_u f4 [10]
000000 66 63 0c be 65 2b ac 3d 3c 85 94 be 8f d6 2d 3f
       -0.13709792 0.08406714 -0.290079 0.67905515
000010 23 07 ab bd 64 d0 c4 3e 79 be 50 3e 5a 0b 04 3e
       -0.083509706 0.3844024 0.2038516 0.12894955
000020 79 ed de be e2 4c 26 3e
       -0.43540552 0.16240266

i_resnet_layers.1.bottleneck_block.2.weight_v f4 [10]
000000 4e 7c 00 bf ce c4 9c 3e e8 7c 33 be ec d2 05 bc
       -0.50189674 0.306189 -0.17528117 -0.0081679635
000010 e1 59 9a be 98 a2 5f bd 90 4e 47 3e bb ff 29 3f
       -0.30146697 -0.05459842 0.19463563 0.6640584
000020 66 10 69 3d 2f 69 5f 3e
       0.056900404 0.21817468

i_resnet_layers.1.bottleneck_block.4.weight_orig f4 [2, 10]
000000 75 4f a2 3b 22 d6 89 be 38 97 5c be 54 94 f7 bb
       0.0049533197 -0.26921183 -0.2154206 -0.007555524
000010 6d 86 9f be 41 01 d1 3c b1 d4 df 3c 36 3d b2 3d
       -0.31157246 0.025513293 0.027323099 0.08703081
000020 c1 af b0 3e 81 24 7f 3e da d9 96 3e 3a d9 0b be
       0.3450909 0.24916269 0.29463083 -0.13657084
000030 88 3e 89 3e 56 33 8d 3e 53 72 7d 3e b7 99 27 3e
       0.2680552 0.2757823 0.24750642 0.16367231
000040 d1 3e 9a be d0 fb 15 be 20 4b 10 3e 2b 88 93 be
       -0.3012605 -0.1464684 0.14091158 -0.28814825

i_resnet_layers.1.bottleneck_block.4.weight_u f4 [2]
000000 a4 0a 03 bf 1c eb 5b 3f
       -0.5118811 0.85905623

i_resnet_layers.1.bottleneck_block.4.weight_v f4 [10]
000000 9b 78 a0 3e 61 63 d2 3c e0 11 da 3e c7 22 9a 3e
       0.31342015 0.025682153 0.42591763 0.30104658
000010 41 58 ee 3e f8 5b 23 3e 70 c0 ae be 3b 39 5a be
       0.46551707 0.15953052 -0.34131193 -0.21310894
000020 f0 78 8e bd c4 3d f0 be
       -0.06956661 -0.46922123

i_resnet_layers.2.bottleneck_block.0.bias f4 [10]
000000 c5 95 4e 3f 24 5e a6 3e bb 67 d6 be 7e 7b cb 3d
       0.8069728 0.324937 -0.41876015 0.09935664
000010 8f ce 55 3f b0 e7 52 bf 1a cd 33 bd a5 25 86 3e
       0.8351831 -0.8238478 -0.043896772 0.26200595
000020 20 9c 4e 3e 4a d5 9d 3e
       0.20176744 0.3082679

i_resnet_layers.2.bottleneck_block.0.weight_orig f4 [10, 2]
000000 4b 21 22 3e 00 ec 9e 3d f1 34 6f bf 2d b4 27 3f
       0.15833013 0.07759857 -0.9344016 0.655093
000010 be 4f af 3e 63 b8 11 3f 0c e6 93 3e e7 72 1a 3f
       0.34240526 0.56921977 0.2888645 0.6033158
000020 a9 6a db be 6b e7 33 3e a3 73 36 be a7 21 ca bd
       -0.42854813 0.17568748 -0.1781755 -0.098697
000030 ea c2 53 3e 88 c7 63 be 9f 03 3e 3e d7 f5 26 bf
       0.20679823 -0.22244084 0.18556069 -0.6521887
000040 59 de b3 be b0 1b ea be 3f 10 07 bf fb d6 6b be
       -0.35130575 -0.4572425 -0.52759165 -0.23031227

i_resnet_layers.2.bottleneck_block.0.weight_u f4 [10]
000000 25 c4 b6 3c 52 7f 42 bf 71 db 36 be 09 74 61 be
       0.022310326 -0.75975525 -0.17857148 -0.2201692
000010 58 5f 8e be 26 f7 98 bc dc fe 58 3e 5f 3f e4 3e
       -0.27807117 -0.018672537 0.21190971 0.44579598
000020 15 b3 e4 3d 6d a8 b8 bd
       0.1116697 -0.090165

i_resnet_layers.2.bottleneck_block.0.weight_v f4 [2]
000000 9b 23 18 3f 39 e3 4d bf
       0.5942933 -0.8042484

i_resnet_layers.2.bottleneck_block.2.weight_orig f4 [10, 10]
000000 7c f8 f6 bc 73 71 ca bb 23 7b 5c be c9 f7 5b 3e
       -0.030147783 -0.006178075 -0.21531348 0.21481241
000010 fc 11 8d 3d 5b 45 cc 3d 2e 81 88 be 48 ee 08 3e
       0.06888196 0.09974166 -0.26661056 0.13372147
000020 51 fb a0 bd 3e e2 97 bc 34 cb d2 bc d9 9f f9 be
       -0.07860435 -0.018540498 -0.02573166 -0.48754767
000030 e4 fb 75 be d4 58 f5 bc c8 c0 e1 3c bc 2c 09 3e
       -0.2402187 -0.029949583 0.027557746 0.13395971
000040 25 af 86 3e f7 dd 50 be be 42 f3 bc 6b e2 e6 b9
       0.263055 -0.20397173 -0.029694911 -0.00044037713
000050 26 e2 44 bd 4d 32 ca be f7 c6 4c bd d4 60 7b 3c
       -0.048067234 -0.394915 -0.049994435 0.01534291
000060 12 27 6a 3e 8c 8f 66 bd 18 0d 43 be a3 90 8b bc
       0.22866467 -0.05628924 -0.19047964 -0.017036742
000070 93 58 58 bd 18 f9 84 be fd d7 73 be 76 03 21 be
       -0.052818846 -0.25971293 -0.23812862 -0.15723976
000080 3e 32 7b 3d cb e5 6e 3e 5b af 5a 3d e6 45 03 3e
       0.06132721 0.23329847 0.05338989 0.12819633
000090 d5 ef 83 be f0 15 92 be 63 0a 92 3e 14 03 84 3e
       -0.25768915 -0.28532362 0.2852355 0.25783598
0000a0 71 f9 c8 be c9 31 9e bd d6 8a 02 be f5 57 24 3e
       -0.3925281 -0.077243395 -0.12748274 0.16049178
0000b0 c0 c7 5f be d8 45 ad 3e 7c 9f 88 bd 97 52 84 3e
       -0.21853542 0.3384235 -0.06671044 0.2584426
0000c0 a9 97 b5 3d 5a 37 85 3d d9 c5 ce bd 42 3b ba be
       0.088668175 0.06504698 -0.1009633 -0.36373335
0000d0 c9 16 0f be 2e 09 a7 be f5 e3 19 be 66 b9 52 be
       -0.13973536 -0.3262419 -0.15028365 -0.20578536
0000e0 c1 ff 33 bd 1c 8b cb bd 21 02 22 be 6c 85 75 3e
       -0.043945078 -0.099386424 -0.15821125 0.23976678
0000f0 25 6e 97 bd b8 5b 0e 3d a4 5c 0d be 1a 09 e3 bc
       -0.07394055 0.03475544 -0.13804871 -0.0277143
000100 a3 fd 86 3e c5 27 35 3e 9e 50 9a bc bb 4e d6 3d
       0.26365384 0.17690952 -0.01883727 0.104642354
000110 cb 64 69 be a6 83 9f be 40 aa f3 bd 92 70 bc bd
       -0.22792356 -0.31155127 -0.11897707 -0.092011586
000120 67 a1 55 3d 6e d8 97 3d a0 e9 83 be 11 3e bd bd
       0.05215588 0.074143276 -0.2576418 -0.09240354
000130 81 d4 36 3e f5 f6 2b 3d 99 0e 03 be 3b e3 6c 3d
       0.17854501 0.041983563 -0.12798537 0.05783389
000140 65 3a 45 3c 87 29 ae bd bb 60 b8 bd b6 58 c0 bd
       0.012037848 -0.085040145 -0.09002825 -0.0939192
000150 45 79 59 3e 94 d4 9e 3d c4 bc 50 3e bc c0 1c bd
       0.21237667 0.0775539 0.20384508 -0.038269743
000160 d6 91 65 3e 6d f0 8f be 07 76 89 bd 89 a1 5c 3d
       0.22418913 -0.28113118 -0.06711965 0.05386499
000170 7a 9d 94 bd 66 24 0b be 77 36 83 bc 5d f0 9a 3e
       -0.07256599 -0.13588104 -0.016017182 0.30261508
000180 f7 00 89 bd ad f5 52 bc c6 40 0a 3b 8a 09 7e be
       -0.06689637 -0.0128759565 0.0021095737 -0.24808326

i_resnet_layers.2.bottleneck_block.2.weight_u f4 [10]
000000 51 12 39 3d be 2c 28 3f b0 d3 cc 3e ed 47 9f 3e
       0.045183484 0.6569327 0.40005255 0.31109563
000010 1e 32 50 3e 7b ce fd 3e 56 cc 45 3c b2 8d a8 3d
       0.20331618 0.49571595 0.012072643 0.08230151
000020 e3 b7 fa 3d 24 3c c8 3c
       0.12242105 0.02444274

i_resnet_layers.2.bottleneck_block.2.weight_v f4 [10]
000000 3c 1b 95 be 7e 59 5a bf b9 9a a1 be 57 8b a3 bd
       -0.2912234 -0.85292804 -0.31563357 -0.07985561
000010 e7 58 a8 3c 55 8a d0 3d 40 ff fe 3b 04 4a 82 be
       0.020550204 0.10182635 0.007781893 -0.25447094
000020 fd 4f 03 bb dd d3 9f 3d
       -0.002003669 0.078040816

i_resnet_layers.2.bottleneck_block.4.weight_orig f4 [2, 10]
000000 6b 71 53 3e d4 b3 dc bd 94 09 12 be 1c c9 44 be
       0.20648734 -0.10776487 -0.14261466 -0.19217342
000010 04 06 45 bd 01 41 d8 3d 6b 39 9b bd 87 49 a6 be
       -0.04810144 0.105592735 -0.07579311 -0.32477972
000020 d5 e3 94 3e 0b 0d c0 bd 3d a5 46 3d a7 7f d0 3e
       0.29080072 -0.09377488 0.048497427 0.4072239
000030 b3 7e 8c 3e c4 83 4e be 60 c9 6d be db 9c 13 3e
       0.27440414 -0.20167452 -0.2322135 0.14415304
000040 ad 8b 71 3e 12 98 eb 3d 8e d6 84 3e 25 69 0c bd
       0.23588438 0.115036145 0.25944942 -0.03427996

i_resnet_layers.2.bottleneck_block.4.weight_u f4 [2]
000000 20 c8 bb 3d ef eb 7e 3f
       0.0916903 0.99578756

i_resnet_layers.2.bottleneck_block.4.weight_v f4 [10]
000000 ed 8c c2 3d 83 8e 0f 3f 28 d5 bc 3e ec 8e 9e be
       0.09499536 0.5607683 0.36881375 -0.30968416
000010 c1 0c ab be ff 53 5e 3e 3f 74 a5 3e f4 8b f6 3d
       -0.33408168 0.2171173 0.3231525 0.12038413
000020 f6 e0 ce 3e bb 86 77 bd
       0.40406007 -0.060431223

i_resnet_layers.3.bottleneck_block.0.bias f4 [10]
000000 e1 cf 1a bf 94 77 ab 3e 87 be b8 be 68 98 dc 3e
       -0.6047345 0.33489668 -0.3608286 0.43085027
000010 b2 5e 9e 3e 3e 0f 05 bd 56 7d 1b bf f4 78 86 be
       0.30931622 -0.03248524 -0.6073812 -0.26264155
000020 16 b7 d6 be 2f 0b a1 be
       -0.41936558 -0.31453845

i_resnet_layers.3.bottleneck_block.0.weight_orig f4 [10, 2]
000000 d7 70 07 3f cf 1c 3a 3e 5a cc 3c bf c5 b3 e3 3e
       0.52906555 0.18175052 -0.73749316 0.4447309
000010 ba b7 81 3e 89 16 1a 3f e2 8e 0c bf df 2d 24 bf
       0.25335485 0.60190636 -0.5490552 -0.64132494
000020 bc 2d 0c 3f 87 9c 0b bf 72 5f e5 3d 8f cd 10 3f
       0.54757285 -0.54535717 0.111998454 0.5656366
000030 78 91 be be 77 3f a2 bc 48 60 f8 3e 1f 1b e7 bc
       -0.3722036 -0.019805653 0.48510957 -0.028211175
000040 10 77 bc 3c 6d e2 fa 3e 5f 95 41 be cf b3 80 3e
       0.023005992 0.49000874 -0.18904637 0.25137183

i_resnet_layers.3.bottleneck_block.0.weight_u f4 [10]
000000 64 c8 32 3b 30 c0 f4 be 66 7c b2 be 68 1d 9c 3e
       0.0027280087 -0.47802877 -0.34860533 0.30491185
000010 6f 4c 00 3f b7 25 b7 be 7e b8 9a bd b3 2f 0a 3e
       0.5011663 -0.35770962 -0.0755472 0.13494758
000020 2d bd a7 be 5b 13 5d be
       -0.32761517 -0.21589415

i_resnet_layers.3.bottleneck_block.0.weight_v f4 [2]
000000 c0 8d a9 3e 1d 8e 71 bf
       0.3311596 -0.9435747

i_resnet_layers.3.bottleneck_block.2.weight_orig f4 [10, 10]
000000 30 f8 f7 3d 7d 82 48 bd aa 32 76 be 5b bd 4f 3e
       0.12107885 -0.04895257 -0.24042764 0.20287077
000010 40 ef d6 bc 52 bb 28 3e 7b 46 49 3e ef 43 5c be
       -0.02623713 0.16477707 0.19655792 -0.2151029
000020 4e 7d 3a be c2 90 bf 3d c6 69 4a be 90 ac 82 3e
       -0.18211862 0.09353782 -0.19766912 0.2552228
000030 d6 73 c8 3d e1 af 41 3e 04 dd 1e bc 0b df b6 be
       0.09787719 0.18914749 -0.009696249 -0.35717043
000040 0b a3 73 3e 7b 04 c7 bd fe dc 01 be ff 0e a2 be
       0.23792665 -0.097176515 -0.12681958 -0.31652066
000050 78 0c ac bd 81 82 1f 3b 9a cd e1 3d c0 0c 56 3e
       -0.08400816 0.002433926 0.110255435 0.20903301
000060 1d 0b a0 be 10 4b 71 be fe 16 31 be ba ce 08 bd
       -0.3125848 -0.2356379 -0.17293927 -0.033400275
000070 e5 41 8d 3d 71 c0 38 bd 94 f6 98 3e 17 3f 30 bd
       0.06897334 -0.0451054 0.29875624 -0.043028917
000080 c9 7e c9 3d 5f 19 f1 bd 7e b0 3a 3e 54 c3 80 3d
       0.098386355 -0.11772417 0.18231389 0.06287256
000090 cd 2f 0f 3e b0 7d 3c 3e e6 d1 ec 3d 09 d8 48 bd
       0.13983078 0.18407321 0.115634724 -0.049034152
0000a0 5f 1f 13 3e 03 57 30 3e f9 43 4e bd 88 6c 69 3e
       0.14367436 0.17220692 -0.050357793 0.22795308
0000b0 e1 eb 2b be fc 1d 50 be e1 d1 3e 3e 59 43 8f be
       -0.167892 -0.20323938 0.1863475 -0.2798107
0000c0 e7 d1 3a 3e 3f ad 81 3e 88 8a 2b bd 25 9e 58 be
       0.18244134 0.2532749 -0.04188016 -0.21154077
0000d0 31 06 a0 be 40 0a 29 be fe 7e da 3d f8 3a 69 be
       -0.31254724 -0.16507816 0.10668753 -0.22776401
0000e0 c8 9f f5 3c 59 66 04 be 65 06 8c be 28 6c 84 3e
       0.029983416 -0.12929668 -0.2734863 0.25863767
0000f0 a4 d3 0e be bb 7a 04 bf b0 ab 7b be 6c 03 88 bd
       -0.13947922 -0.5174977 -0.24577212 -0.06641278
000100 53 00 d1 3d 27 a8 31 be c0 18 10 bd f2 cc 2f be
       0.1020514 -0.17349301 -0.035179853 -0.17168024
000110 ec 87 0c 3d 75 ed 61 be 4d 9c 5b be 41 f9 a1 3e
       0.034309313 -0.22063239 -0.21446343 0.31635478
000120 88 0c e9 3d da 3f ed bd e8 88 ac be 2a 52 8d 3e
       0.11379343 -0.11584444 -0.336982 0.2760175
000130 d5 cd 15 be c9 c6 f8 bd b6 de 33 be 06 34 61 3d
       -0.146293 -0.1214729 -0.17565426 0.054981254
000140 cd f2 6a 3c 18 51 67 be b7 f7 96 3e 93 ea 40 bd
       0.014340115 -0.22589529 0.29485866 -0.047098707
000150 6f 41 29 3e 84 85 23 3e eb a7 03 3d 52 84 44 3e
       0.16528867 0.15968901 0.03214256 0.19191101
000160 c2 72 14 3d 97 24 26 be a9 e2 12 3e 9d 69 aa 3a
       0.036242254 -0.16224895 0.14344276 0.0013001446
000170 20 ba a6 3e 5d e7 28 3d 8f f1 17 3e 72 e3 27 3d
       0.32563877 0.04123627 0.14838241 0.040988393
000180 0c 21 b7 bd 86 d2 ff 3d f8 0f bf bd 77 fd d3 3e
       -0.0894185 0.12491326 -0.09329218 0.41404316

i_resnet_layers.3.bottleneck_block.2.weight_u f4 [10]
000000 a4 74 0a bc e1 5d 7f 3e f2 8d 83 3e 42 56 4f be
       -0.008450661 0.24938156 0.25694233 -0.20247748
000010 42 15 a0 3e 26 ce 9e be 65 a7 10 bf 9c 7c 01 3f
       0.31266218 -0.31016654 -0.56505424 0.50580764
000020 d2 a1 72 be d7 bb 97 3d
       -0.23694542 0.074088745

i_resnet_layers.3.bottleneck_block.2.weight_v f4 [10]
000000 6b 6f d4 bd dd 3f 3f 3f 7d f3 91 3e bc a6 82 3e
       -0.10372814 0.7470682 0.2850608 0.25517833
000010 8d 65 fc be 5a b4 49 3d f4 d7 16 bd 08 bf fe bd
       -0.49296227 0.049244262 -0.036827043 -0.1243878
000020 5e bc 9b bc 69 52 18 3e
       -0.019010719 0.14875187

i_resnet_layers.3.bottleneck_block.4.weight_orig f4 [2, 10]
000000 48 1f 1f be c9 2f 4a 3d cf af ae 3d 1f 74 15 be
       -0.15539277 0.049361978 0.085296266 -0.14595078
000010 3d 5e 51 3e 9e 95 7a 3e c0 6a 12 be 66 c5 a2 3d
       0.20446105 0.24471137 -0.14298534 0.07947807
000020 76 3b 93 be 4b 05 43 3e 5d b4 12 be 47 e3 9f be
       -0.28756303 0.19044988 -0.14326616 -0.31228086
000030 41 3d 8a be 68 6d 07 be 8a 66 d5 3d e0 65 cc 3d
       -0.26999858 -0.13225329 0.104199484 0.099803686
000040 2b 1b c9 3e 17 ac a7 be a5 5d 5d be d5 5f 53 3d
       0.3927854 -0.32748482 -0.21617754 0.051605064

i_resnet_layers.3.bottleneck_block.4.weight_u f4 [2]
000000 86 7c 20 be 20 d6 7c bf
       -0.15672502 -0.9876423

i_resnet_layers.3.bottleneck_block.4.weight_v f4 [10]
000000 48 de 65 3e 08 59 d0 3e 03 7a af 3e 73 87 54 3e
       0.22448075 0.40692925 0.34272775 0.20754795
000010 cf f0 3a be bf a7 3d be b3 2b fd be 9e 6d d7 3e
       -0.18255924 -0.18521021 -0.49447402 0.4207582
000020 68 13 b3 3e 64 1e e0 bd
       0.34975743 -0.109432966

i_resnet_layers.4.bottleneck_block.0.bias f4 [10]
000000 58 be 61 3d 11 43 0c 3f 7b f1 5f be 74 12 bb 3d
       0.055113167 0.54789835 -0.21869461 0.09134379
000010 0f 78 34 3e 8b dd 36 bf f9 81 fc 3e 36 05 ae 3e
       0.17623924 -0.714318 0.4931791 0.3398835
000020 33 ac 1d 3e 66 8a 36 be
       0.1539772 -0.17826232

i_resnet_layers.4.bottleneck_block.0.weight_orig f4 [10, 2]
000000 c0 7c ed be f2 fb 90 3e 65 e7 8c be 27 a2 bb 3e
       -0.4638424 0.2831722 -0.2752029 0.3664715
000010 d8 bd 1f 3f e6 b2 10 3e 8c 7e 1d bd 9e c1 25 bf
       0.62399054 0.14130744 -0.038450763 -0.6474856
000020 b5 72 1c be b0 a4 30 be c4 08 e1 be 78 f6 0f bf
       -0.15278132 -0.17250323 -0.43952 -0.56235456
000030 7e 27 ec 3d 9b 09 11 3f bb c7 8b be 97 5e 9c 3c
       0.1153097 0.5665528 -0.2730082 0.019088073
000040 ff 53 23 bf 62 24 c0 be d9 cf 0f 3f a5 d5 0e bf
       -0.6380004 -0.37527758 0.56176525 -0.55794746

i_resnet_layers.4.bottleneck_block.0.weight_u f4 [10]
000000 30 21 47 bd bb c1 ac 3d 3e 00 ba 3e 63 f5 c5 be
       -0.048615634 0.08435389 0.3632831 -0.38663778
000010 79 9b 2b be 08 12 05 bf 19 35 c0 3e 04 0d e7 bd
       -0.16758527 -0.5198064 0.3754051 -0.112817794
000020 a8 c7 00 bf 9f 84 82 bd
       -0.5030465 -0.06372952

i_resnet_layers.4.bottleneck_block.0.weight_v f4 [2]
000000 b1 41 1f 3f d1 6e 48 3f
       0.6220961 0.7829409

i_resnet_layers.4.bottleneck_block.2.weight_orig f4 [10, 10]
000000 3e 97 2a 3e ad 81 c5 bd 5b dd 86 be 4e db 1c 3e
       0.16659257 -0.09643874 -0.26340756 0.15318033
000010 a0 b9 9f be 56 41 9d be d7 c9 5e bd 5a 4a 83 3e
       -0.31196308 -0.3071391 -0.05439171 0.25642663
000020 10 04 c7 bd cf 36 b9 bd 37 2d 94 be 37 18 19 be
       -0.09717572 -0.09043657 -0.28940746 -0.14950643
000030 c9 1c 6f 3e 63 15 d2 bd 88 34 ef 3d 32 6a 09 3e
       0.23350824 -0.102579854 0.116799414 0.13419417
000040 06 72 09 3e a9 83 3c 3e 6e cc 92 bd 8e 6d 69 3e
       0.13422403 0.184096 -0.07167898 0.22795698
000050 a4 14 be 3d b6 e1 52 3e 3c 0b d2 3e 47 50 8e be
       0.09281281 0.20593914 0.41024196 -0.27795622
000060 6c 29 61 be 97 d7 11 3e 4d 25 91 3e 2d 29 38 3e
       -0.21988457 0.14242397 0.2834877 0.17984457
000070 26 62 3f be 7b 24 6a bc eb 31 05 be de 7d 8e 3e
       -0.18689784 -0.014290924 -0.13007323 0.27830404
000080 cf 00 49 be d5 dd 04 be c3 f9 17 be af 59 96 be
       -0.19629215 -0.12975247 -0.1484137 -0.29365298
000090 61 60 3e be 22 e0 ac 3b e4 70 af bc 6d fd b5 bc
       -0.18591453 0.005275742 -0.021416135 -0.02221557
0000a0 1c e9 42 3e bb 98 bb 3e d6 bc 17 bd 44 20 26 3e
       0.19034237 0.36639962 -0.037045322 0.16223246
0000b0 ca f5 04 be fc 61 22 3e a4 20 71 3d c6 55 80 3e
       -0.12984386 0.1585769 0.05886902 0.2506544
0000c0 c7 b6 e6 3d 19 11 16 3e 1b 83 b0 bc 72 f2 2c bd
       0.11265331 0.1465496 -0.021546891 -0.0422234
0000d0 a5 36 22 bc 20 da 0a 3e 39 6d 3a 3d d6 94 b4 3e
       -0.009900724 0.1355977 0.04551432 0.35269803
0000e0 16 3c 1f bd 35 96 13 3e 9e 78 62 3e e2 b0 f9 3d
       -0.03887566 0.14412768 0.22116324 0.12191941
0000f0 dd b5 41 3e d5 8a 82 3d a9 69 5c 3e 64 e4 7d be
       0.18917032 0.06374136 0.21524681 -0.24794155
000100 d4 79 21 be 27 79 5a be 88 c3 8d bd b2 0f 6e be
       -0.1576913 -0.21335278 -0.0692206 -0.23248175
000110 65 dd 8c be f9 3d f5 3d 45 bd 51 be 61 a1 1a bd
       -0.2751266 0.11974711 -0.20482357 -0.03775156
000120 60 0b b4 bc 55 09 ae 3c aa 5f 45 be b2 16 54 bd
       -0.02197808 0.021244684 -0.19274774 -0.051779456
000130 e8 37 49 bd fa 3d 45 3e 1c 77 39 bd 48 bb 0f be
       -0.049125582 0.19261923 -0.045279607 -0.14036286
000140 39 13 74 3e 88 cb 80 3d dc 21 9f be a0 88 b1 3d
       0.23835458 0.062888205 -0.3108052 0.08668637
000150 b0 03 10 3e 09 86 38 3e 00 a8 80 3e 3d 80 76 be
       0.14063907 0.1801988 0.25128174 -0.24072357
000160 a7 1f a4 3d e7 f8 28 bd 02 e1 da bd 11 d0 43 bd
       0.0801385 -0.041252997 -0.10687448 -0.04780585
000170 8d 76 15 3e 14 e6 18 3e b1 c3 6b be 2c 37 92 3d
       0.14596005 0.14931518 -0.23023869 0.071394295
000180 e6 e8 0b be 54 13 a9 bd 6a 23 01 3e 6d 95 53 3d
       -0.13663062 -0.0825564 0.12611166 0.051656175

i_resnet_layers.4.bottleneck_block.2.weight_u f4 [10]
000000 4d ab e5 be 71 87 f7 3e 1a 00 21 3f 9a 58 90 be
       -0.44857255 0.4834552 0.6289078 -0.28192598
000010 7b 17 9d 3c 3e 14 d1 3d 1a c3 25 3e 08 a4 2a bd
       0.019176235 0.10208939 0.16187707 -0.04166034
000020 a5 a4 64 be 14 8d 1c 3d
       -0.22328432 0.03822048

i_resnet_layers.4.bottleneck_block.2.weight_v f4 [10]
000000 e4 85 1d be 67 08 c2 3c 5d f7 3c 3f 0f 4b aa be
       -0.15383106 0.023685647 0.73814946 -0.3326039
000010 84 31 4d 3d 3d f1 c6 3e 0a b9 8e 3e d3 1d ff 3d
       0.05009605 0.38855925 0.2787555 0.124568604
000020 1e 7a 1a be 5c d6 66 3e
       -0.15085647 0.22542709

i_resnet_layers.4.bottleneck_block.4.weight_orig f4 [2, 10]
000000 45 4f fc 3e ad bc 95 be 60 29 87 be 39 2b 81 3d
       0.49279228 -0.2924551 -0.26398754 0.06307072
000010 5c dd 51 3e a8 ca 70 be 7c fa 16 be d2 17 76 3e
       0.20494598 -0.23514807 -0.1474399 0.24032524
000020 1d 8a 92 3d 39 17 a7 3d e9 8b 70 3e b2 04 44 bd
       0.07155249 0.08158726 0.23490871 -0.04785604
000030 5d be 6f 3e 28 85 53 3e 99 d1 46 3e 93 f7 e3 bd
       0.23412462 0.20656264 0.19415893 -0.111312054
000040 cc a2 19 3e dd 0a 29 3d 5a b0 09 3e 9a f1 e4 bd
       0.15003508 0.041270126 0.13446179 -0.11178894

i_resnet_layers.4.bottleneck_block.4.weight_u f4 [2]
000000 95 21 71 3f 56 f3 ab 3e
       0.9419187 0.33584088

i_resnet_layers.4.bottleneck_block.4.weight_v f4 [10]
000000 18 ed 2d 3f da bd ba be 3c f8 59 be aa d5 24 3e
       0.679399 -0.3647297 -0.212861 0.16097131
000010 6d 6c a5 3e c5 d1 a5 be fe ca e2 bd e6 ee 99 3e
       0.32309285 -0.32386604 -0.11073874 0.30065078
000020 58 1b 10 3e 48 f1 49 3d
       0.14072931 0.04930237

i_resnet_layers.5.bottleneck_block.0.bias f4 [10]
000000 1e 9c af 3e 3d 5a 91 be 3f b9 a0 bd 13 d9 bf 3e
       0.34298795 -0.2838916 -0.07847833 0.37470302
000010 d0 eb 89 be a9 e2 27 3e 12 18 83 bd 53 e9 8c be
       -0.26937723 0.16395058 -0.064010754 -0.27521762
000020 70 41 1d 3d c3 d1 ca 3e
       0.038392484 0.3961316

i_resnet_layers.5.bottleneck_block.0.weight_orig f4 [10, 2]
000000 4c a2 c9 be 7c 34 e2 be 26 b6 f7 3e 7b 2f 7d be
       -0.39381635 -0.44180667 0.48381156 -0.24725144
000010 68 46 9a 3e 09 60 06 bf 04 a6 3a bd 0e 23 07 3e
       0.3013184 -0.5249029 -0.04556848 0.13196966
000020 69 55 f5 3e 8e ae 08 3e ae 15 ad be c9 0c 04 bf
       0.47916725 0.13347837 -0.33805603 -0.5158201
000030 a6 6f e4 be 27 36 26 3e 24 16 9e 3e 0b b9 a9 be
       -0.4461643 0.16231595 0.30876267 -0.3314899
000040 f2 f7 27 3f ff e6 fc 3e e3 cb 9c bd cc ed e8 bd
       0.6561271 0.49394986 -0.07656076 -0.11373481

i_resnet_layers.5.bottleneck_block.0.weight_u f4 [10]
000000 8f 41 db be a8 36 66 3e 02 ad b0 ba 4d 5a a6 3c
       -0.42823455 0.22481787 -0.0013479295 0.02030673
000010 c2 ee bb 3e e7 e8 d6 be 18 05 6e be 26 44 9e 3d
       0.36705595 -0.41974565 -0.2324413 0.07727842
000020 3d 08 1f 3f 66 69 c0 bd
       0.62121946 -0.09395103

i_resnet_layers.5.bottleneck_block.0.weight_v f4 [2]
000000 b0 a2 5d 3f b2 1d 00 3f
       0.86576366 0.5004531

i_resnet_layers.5.bottleneck_block.2.weight_orig f4 [10, 10]
000000 aa ca da bd 60 58 7b 3e 67 69 ab be 46 71 47 be
       -0.10683186 0.24545431 -0.33478853 -0.19476804
000010 e5 b7 4a 3e 84 9e e6 bd 49 69 65 3e 71 58 55 3d
       0.19796713 -0.11260703 0.22403444 0.052086297
000020 50 0c 89 3e 92 65 29 3e 85 dd 60 3e 74 b2 13 be
       0.26767206 0.16542652 0.21959503 -0.14423543
000030 2a 1f 59 3e ff f1 f3 bd 50 17 83 3e a6 ee 85 be
       0.21203294 -0.119113915 0.25603724 -0.26158637
000040 3f 24 ae 3d 59 73 d4 3d ee 86 47 be 18 24 8b 3e
       0.08503007 0.10373563 -0.19485065 0.27175975
000050 a2 06 8f be b1 2a 3d 3e ab 6a 03 be a8 d3 1b 3e
       -0.27934748 0.18473317 -0.1283366 0.15217459
000060 77 3b 69 3e 40 70 7b be b1 ad 28 bd 1e ae 21 be
       0.2277659 -0.24554539 -0.04118127 -0.15789077
000070 e6 d3 c7 3d 7a 72 ee bd 84 19 95 be 09 8d 53 3e
       0.09757213 -0.116429284 -0.2912103 0.2065927
000080 6c 72 00 3e 7d fe d5 bc e6 a2 5d be 42 30 ae bd
       0.12543648 -0.026122326 -0.21644172 -0.08505298
000090 9a d5 6c 3d 3d 40 cd bd 7d a7 5b 3e 09 4e 70 be
       0.057820894 -0.10022018 0.2145061 -0.23467268
0000a0 88 19 89 3e 1e fc 7e 3e e3 67 28 3e f0 f1 97 be
       0.2677729 0.24900863 0.1644588 -0.2967677
0000b0 f3 72 28 be 26 99 0a 3e 2e 7a cb bd b0 b8 fa bc
       -0.164501 0.13534984 -0.09935413 -0.030605644
0000c0 6d af 1a bd 81 a8 1c bd f3 70 ad be 56 90 57 bd
       -0.037764955 -0.038246635 -0.33875236 -0.052627884
0000d0 ff 87 22 be 60 09 23 3d 6c 53 3b 3e 74 82 91 be
       -0.15872191 0.039803863 0.18293542 -0.2841984
0000e0 85 0b bc 3d aa f7 11 3e ba 70 8b be 51 ac 8f be
       0.09181885 0.14254633 -0.2723444 -0.28061154
0000f0 48 13 82 3d 1c e4 82 3e 56 2a 7f 3e fd c4 91 bd
       0.06351334 0.2556466 0.24918494 -0.07117651
000100 de 1a 2f be 95 23 f7 bd b4 58 34 bd cb c4 e1 bd
       -0.17100093 -0.120673336 -0.044029906 -0.110238634
000110 5f b9 8c be 98 79 62 be 01 2f 9e 3d 3e 0f 56 be
       -0.27485177 -0.22116697 0.07723809 -0.20904252
000120 03 75 6f 3e 0b 83 3b be d1 d5 5e 3e b0 59 e6 3d
       0.2338448 -0.18311708 0.21761252 0.11247575
000130 f5 05 8f 3e 4b 06 4a be 20 2f 49 3e 01 3b 03 3c
       0.27934232 -0.19728963 0.19646883 0.008009673
000140 aa c9 a5 3e 03 4a 85 be 4e 10 11 3e 4b db ab 3e
       0.3238042 -0.2603303 0.14166376 0.33565745
000150 fe 80 5e be 57 ba 80 be 94 c0 b0 bd c4 11 2b be
       -0.21728894 -0.25142166 -0.08630481 -0.16705996
000160 9c b9 f2 bd 75 54 cb bd 59 30 5c 3e 90 f2 00 3e
       -0.118518084 -0.09928218 0.21502818 0.1259253
000170 25 6d 42 bd 15 99 46 be e5 46 06 be f6 47 be 3d
       -0.04746737 -0.19394334 -0.13112982 0.09291069
000180 3c 7c aa 3d 22 5f 28 3d 9d 1a 88 be c5 a0 04 3e
       0.08324477 0.04110635 -0.26582804 0.12951954

i_resnet_layers.5.bottleneck_block.2.weight_u f4 [10]
000000 2c 95 df be 92 75 64 3e 69 1f e1 be 43 ec 63 be
       -0.43668497 0.22310475 -0.43969277 -0.22258095
000010 41 a3 a7 3e 46 f3 bf be fd f9 5d 3e 43 dd 7b 3d
       0.3274174 -0.3749029 0.21677394 0.06149031
000020 94 42 c6 3e 81 b2 85 3e
       0.3872267 0.2611275

i_resnet_layers.5.bottleneck_block.2.weight_v f4 [10]
000000 b0 8a 30 3f c1 d0 40 be 7d bf e1 3e 8a 63 7b bd
       0.6896162 -0.18829633 0.44091406 -0.061374225
000010 49 f6 ae be 8b 49 32 3e 36 4f 12 be 6c df 77 bd
       -0.34172276 0.17410867 -0.14288029 -0.060515806
000020 a0 ed a3 be 43 02 06 3e
       -0.3201723 0.130868

i_resnet_layers.5.bottleneck_block.4.weight_orig f4 [2, 10]
000000 40 7b 1e be 96 f8 c6 3d af 84 96 be d4 98 b2 3c
       -0.15476704 0.09715383 -0.29398105 0.02180139
000010 43 e1 76 be 38 8a db bc 85 99 84 3e 26 66 bd bd
       -0.24109368 -0.026799306 0.25898376 -0.09247999
000020 07 f0 84 3e dd 54 5d 3d ba 21 b6 bd 07 e0 07 3e
       0.25964376 0.05403601 -0.088931516 0.13269053
000030 19 0b a1 3e e5 dd 50 3e bb f8 e1 bc 9d 3c 9f 3e
       0.3145378 0.20397146 -0.027584424 0.31100932
000040 71 04 02 be e5 de e2 3d ac 96 73 3e 1c db 1b be
       -0.12697007 0.1107767 0.23787946 -0.15220302

i_resnet_layers.5.bottleneck_block.4.weight_u f4 [2]
000000 f1 c0 0b 3f d0 7c 56 bf
       0.5459128 -0.837842

i_resnet_layers.5.bottleneck_block.4.weight_v f4 [10]
000000 47 c0 80 bc 3d bd ba bd ea 60 2a bf ed 8e 7f be
       -0.015716685 -0.091181256 -0.6655413 -0.24956866
000010 d0 4d 2e be b2 2b dd be 62 1a c7 3e 7d 23 66 be
       -0.1702187 -0.431974 0.38887316 -0.22474475
000020 54 cb b8 bd d6 68 7c 3e
       -0.09023157 0.24649367

i_resnet_layers.6.bottleneck_block.0.bias f4 [10]
000000 ac 52 fb bd 4a a8 ae be 2c da 95 be 13 25 14 be
       -0.12271628 -0.3411277 -0.29268014 -0.14467268
000010 d4 53 04 be b8 ea 01 bf 2a f3 90 3e 48 c7 e9 3e
       -0.12922603 -0.5074878 0.2831052 0.45659852
000020 03 a3 05 bf f4 12 a1 bb
       -0.5220186 -0.0049155895

i_resnet_layers.6.bottleneck_block.0.weight_orig f4 [10, 2]
000000 5c 7c 21 bf 32 75 33 3f fd 52 07 3f 98 2f f2 bd
       -0.6308038 0.701007 0.52861005 -0.11825484
000010 19 95 8b 3e be 48 0d 3f 95 29 2a 3f 5c f2 91 bd
       0.2726219 0.5518912 0.664697 -0.071263045
000020 63 6d 33 bf d8 ce 01 bf db 95 3c be 61 f5 0a bd
       -0.70088786 -0.50706244 -0.1841654 -0.033925418
000030 d6 0a 00 bf ab 51 c8 3e 8a 49 10 bf a7 45 d3 3e
       -0.50016534 0.39124808 -0.5636221 0.41264078
000040 f0 a0 c5 be e8 b6 25 3e 29 49 18 bf e9 a0 34 bf
       -0.38599348 0.16183054 -0.59486634 -0.7055803

i_resnet_layers.6.bottleneck_block.0.weight_u f4 [10]
000000 ce 13 da 3e fa e5 a4 be a2 20 f7 bd 18 60 cc be
       0.42593235 -0.32206708 -0.12066771 -0.39917064
000010 ab 5f c1 3e bc 54 da 3d 3d a6 a6 3e 96 bc ba 3e
       0.377683 0.10660693 0.32548705 0.36472005
000020 08 6c 76 3e bb a9 99 3e
       0.24064648 0.30012307

i_resnet_layers.6.bottleneck_block.0.weight_v f4 [2]
000000 cd 02 7e bf 67 cd fe 3d
       -0.99223024 0.12441521

i_resnet_layers.6.bottleneck_block.2.weight_orig f4 [10, 10]
000000 a3 91 cd bd 68 76 54 3e c1 8c bb 3d 85 1d 24 3e
       -0.100375436 0.20748293 0.09157706 0.16026886
000010 79 9a ad be 3d 14 c9 3d 45 f6 a9 3d 40 a1 9f 3e
       -0.33906916 0.09818313 0.08298925 0.3117771
000020 bb 31 6a 3e cc 43 ce bd 9e 57 a8 bd 4b be 0a be
       0.22870533 -0.10071525 -0.08219837 -0.13549154
000030 68 96 28 bd cd fe dd 3d 80 09 c7 bd bd 73 4d 3e
       -0.041159064 0.10839615 -0.09718609 0.20063682
000040 0b 09 62 3b 96 c7 89 3e c1 2a 83 be 22 46 b7 3e
       0.0034490253 0.26910084 -0.25618556 0.35795695
000050 29 a3 8d bd 3c ca 40 be d6 06 fe bd 5d 92 2f be
       -0.06915886 -0.18827146 -0.124036476 -0.17145677
000060 f9 b7 8b 3e 58 40 8d be 74 b7 5c bd 6e 88 01 be
       0.27288797 -0.27588153 -0.053885892 -0.126497
000070 8d d7 1f be 9a 3b d6 3d 00 fd 27 be de dc 8a 3d
       -0.1560957 0.10460587 -0.16405106 0.06780408
000080 2c ac 87 bd 6a b4 64 3c ee 54 35 be 23 61 31 3e
       -0.06624636 0.01395903 -0.1770818 0.17322211
000090 fd e3 df 3d dd a5 d6 3d 16 68 3b be 31 56 1e 3e
       0.10932157 0.10480855 -0.18301424 0.15462567
0000a0 c8 94 42 be c1 17 fb 3d 5b 34 e1 bd 70 75 7d be
       -0.19002068 0.1226039 -0.10996314 -0.2475183
0000b0 f4 e4 97 be e3 9f 0e 3e c7 46 3b 3c bd f0 ed bd
       -0.29666865 0.1392818 0.011430449 -0.11618183
0000c0 84 dc 97 3e 24 65 f3 bc b6 e2 76 bd d6 22 29 3e
       0.29660428 -0.029711314 -0.060274802 0.16517195
0000d0 c4 08 8b be cd 36 52 3e 3d ea 66 bd 18 82 50 3e
       -0.27155125 0.20528717 -0.05637573 0.20362127
0000e0 c6 54 75 be 03 07 7b be 9a 59 4d 3e f0 e0 90 bd
       -0.2395812 -0.24514394 0.20053712 -0.070741534
0000f0 8b 1c 72 3e ed f9 9c 3c 9c 48 7c be 8e e8 32 3e
       0.23643701 0.019162143 -0.24637073 0.17471525
000100 1c a8 a2 be 88 e4 49 3e e0 49 6a 3e a5 1a 78 be
       -0.31768882 0.19716084 0.22879744 -0.24228914
000110 2b 56 58 bd a6 4c 9b be 1b da ab be 1d 7b 09 3d
       -0.05281655 -0.30331916 -0.3356484 0.033564676
000120 3b 09 53 3e 43 e4 69 be 41 56 83 3e f4 bd e2 3c
       0.2060899 -0.22840981 0.25651744 0.027678467
000130 8b 97 50 be d2 41 4d 3d 35 a5 4d 3e e5 93 17 3e
       -0.20370309 0.0501116 0.20082553 0.14802511
000140 b6 9b a3 be 38 05 8d bd e6 8e 8a 3e d0 a9 93 3e
       -0.31954736 -0.06885761 0.27062148 0.28840494
000150 61 18 66 be fb 83 8c bc 41 48 34 be bc 46 1a 3e
       -0.22470237 -0.017152777 -0.17605688 0.15066046
000160 d3 75 72 3e 45 41 e3 bd 52 09 77 be 17 d2 a8 be
       0.23677759 -0.110964336 -0.24124649 -0.32972786
000170 01 01 39 be 72 d5 47 3e da 89 ec bc 3a 2a 7b 3e
       -0.18066789 0.19515017 -0.028874326 0.24527827
000180 23 b1 16 be 37 f5 e5 3d 0e c2 94 bd 58 8a 0b 3e
       -0.1471601 0.11228412 -0.072635755 0.13626993

i_resnet_layers.6.bottleneck_block.2.weight_u f4 [10]
000000 c9 5b ee 3e 99 07 d9 bc 4e 4c e9 be 5e de ff 3d
       0.46554402 -0.02649288 -0.45566028 0.12493585
000010 93 e7 95 3e 17 a8 9c 3e 44 98 f3 3e 6f f4 87 be
       0.2927824 0.30596992 0.47577107 -0.26553676
000020 33 5e 91 3e e8 55 4d 3d
       0.2839218 0.050130755

i_resnet_layers.6.bottleneck_block.2.weight_v f4 [10]
000000 2d 0c 0a bc 47 0c 75 3e d8 d0 fe bd eb b8 bc 3e
       -0.0084257545 0.23930465 -0.124421775 0.3685983
000010 54 a9 2c bf 9a 6a c0 3e b2 1a e1 3d b3 58 9d 3c
       -0.67445874 0.3758133 0.1099142 0.019207334
000020 c3 77 93 3e d1 ba a1 be
       0.28802308 -0.31587842

i_resnet_layers.6.bottleneck_block.4.weight_orig f4 [2, 10]
000000 13 f5 91 bd 4c 68 6e 3e 70 13 a1 3d e6 4b ed bd
       -0.07126822 0.23281974 0.078650355 -0.11586742
000010 51 fb 11 be a0 d3 f1 bd 47 e4 5c be c5 24 bf 3d
       -0.14256026 -0.118079424 -0.21571456 0.09333185
000020 46 9d 81 be 50 a8 23 3d 71 1d 82 3e 9a 78 70 be
       -0.25315303 0.039955437 0.25413087 -0.23483506
000030 da 7c 95 be f5 f9 b0 be 63 5c 85 3e b7 3c 6d 3e
       -0.29196817 -0.34565702 0.26047048 0.23167692
000040 5e a9 d0 3c 4f a9 94 3e a6 ab ce 3d 67 a5 82 3e
       0.025471386 0.29035422 0.10091333 0.25516817

i_resnet_layers.6.bottleneck_block.4.weight_u f4 [2]
000000 8a de 8a be 5f 67 76 3f
       -0.2712291 0.9625148

i_resnet_layers.6.bottleneck_block.4.weight_v f4 [10]
000000 30 23 a9 3e 55 57 b9 be a3 c6 c1 be 73 15 c1 be
       0.33034658 -0.36199442 -0.3784686 -0.37711677
000010 81 78 b9 3e fe 69 a3 3e 39 d8 d4 3d d8 cd a2 3e
       0.3622475 0.31916803 0.10392804 0.3179767
000020 90 91 54 3e c6 64 96 3e
       0.20758653 0.2937376

i_resnet_layers.7.bottleneck_block.0.bias f4 [10]
000000 96 58 9c 3e 58 b8 05 3f d3 7f 98 3e 80 e3 4d 3e
       0.30536336 0.5223441 0.29785022 0.20106316
000010 af 02 84 be 0f f1 b3 be d6 7f a3 be 72 79 1a bf
       -0.25783297 -0.3514485 -0.3193347 -0.6034156
000020 f2 d3 b1 be 25 3a f2 be
       -0.34732014 -0.47309986

i_resnet_layers.7.bottleneck_block.0.weight_orig f4 [10, 2]
000000 1a 9b 14 bf a2 26 6e 3e 5b 48 65 be 9c 06 b7 be
       -0.58049166 0.23256925 -0.22390883 -0.3574723
000010 71 26 62 3e 4b 60 c3 be 4e 9b da 3e d7 db 1f be
       0.22084977 -0.38159403 0.42696613 -0.15611206
000020 52 2b 72 3e 48 17 d5 be 9f 69 a7 be 3e be 58 3e
       0.23649338 -0.41619325 -0.3269777 0.21166322
000030 4b d4 1e be e2 ab b8 be 2e 27 8b be e4 8f f5 3e
       -0.15510671 -0.36068636 -0.2717833 0.47961342
000040 7d 9d 07 bf e1 5d e6 3e 87 a6 1c 3f 79 53 eb be
       -0.52974683 0.449935 0.611916 -0.45962122

i_resnet_layers.7.bottleneck_block.0.weight_u f4 [10]
000000 11 59 c1 be fd 23 43 3d 65 75 8a 3e b2 e4 8a 3e
       -0.37763265 0.047641743 0.2704269 0.27127606
000010 0e f5 95 3e 9d 6d 7d be df 0b a8 3d b6 92 ac be
       0.29288524 -0.24748845 0.08205389 -0.33705682
000020 b1 05 e5 be 28 52 fb 3e
       -0.44730905 0.49086118

i_resnet_layers.7.bottleneck_block.0.weight_v f4 [2]
000000 7f ae 3d 3f d0 eb 2b bf
       0.74094385 -0.67156696

i_resnet_layers.7.bottleneck_block.2.weight_orig f4 [10, 10]
000000 7d c1 64 3e e3 e6 84 be 4e 5a 12 3e 6b 73 01 bc
       0.22339435 -0.25957403 0.14292261 -0.007901053
000010 02 ca ed 3b 36 12 99 be 11 a2 25 be 8d 56 52 be
       0.007256747 -0.29896706 -0.16175105 -0.20540829
000020 14 35 c4 bd ee 75 92 3e 2b 03 e5 3d b5 32 18 be
       -0.09580436 0.28605598 0.11182245 -0.14863093
000030 e5 cc 34 be b8 48 88 be 51 2c 33 bd b5 36 01 be
       -0.17656286 -0.2661798 -0.043743435 -0.12618525
000040 41 02 af 3d 73 93 a0 bd 42 03 0c bd 43 75 1e bd
       0.08545352 -0.07840624 -0.034182794 -0.03868605
000050 3a 44 0b 3e 9d 07 d7 3c bc 65 f1 3d fb fb 99 be
       0.13600245 0.026248747 0.117869824 -0.30075058
000060 2a 70 82 3e 3d 35 33 3e 18 24 cc bd b2 d5 bb bd
       0.254762 0.17500778 -0.09967822 -0.091716185
000070 38 76 ee 3d 93 49 c1 bd 9d bc 72 3e 1d 51 72 be
       0.11643642 -0.09437861 0.23704763 -0.23663755
000080 f4 63 49 be 6a 61 53 bd cd 80 ae bd 37 0b ca 3e
       -0.19667035 -0.051606573 -0.085206605 0.3946168
000090 16 75 6b 3e cc d6 49 3e 99 dc 8d 3e b7 33 7b 3e
       0.22993883 0.19710845 0.27707365 0.24531446
0000a0 5e ca 20 3e cc 2f 55 be c9 b7 63 bd 88 50 84 3e
       0.15702197 -0.20819014 -0.055595193 0.2584269
0000b0 c5 25 31 be ec 9d 8c be 53 7f 8e 3e c2 e3 81 be
       -0.17299564 -0.27464235 0.27831516 -0.25369078
0000c0 5d 01 15 3e 4b 39 0a be 31 3f 12 bd 2c 48 80 bd
       0.14551301 -0.13498418 -0.035704795 -0.06263766
0000d0 5d d1 d7 bd 28 80 46 3e 31 ed 94 3e ac 95 26 3d
       -0.1053798 0.19384825 0.29087213 0.040670082
0000e0 ce 96 39 be d9 82 91 be c3 f9 90 3e 67 5e 7c 3e
       -0.18123934 -0.2842014 0.28315553 0.24645387
0000f0 e4 a2 65 bd 49 f8 93 be 78 76 86 bc 6d 66 be 3c
       -0.056063548 -0.28900364 -0.016413912 0.0232422
000100 89 eb d4 bd e3 d2 07 3e 15 a9 ac 3d 8b 7d 1c 3d
       -0.10396487 0.1326404 0.08430687 0.038205665
000110 fb 18 2b 3d 49 52 38 be ee d7 63 bd 79 98 01 be
       0.04177187 -0.1800014 -0.05562585 -0.1265582
000120 f5 4b 28 be 40 e8 1e be 42 79 60 be 17 8b 8f 3d
       -0.16435225 -0.15518284 -0.21921256 0.07008951
000130 8b 9b 08 be 61 a5 8e be 51 ab 3e 3e 7e 96 9f be
       -0.13340585 -0.2786055 0.1862004 -0.31169504
000140 dd 01 1c 3d e0 cb f7 bd 6c f1 da 3d bb b1 6a bb
       0.038087714 -0.12099433 0.10690579 -0.0035811502
000150 b8 42 90 3e 8f da ad bc 93 d8 92 3e 35 07 01 3e
       0.28175902 -0.02122238 0.28680858 0.12600406
000160 68 6c 86 3d 21 4b f4 3d a1 d3 47 3e 46 0e 87 3c
       0.065636456 0.11928392 0.19514324 0.016486298
000170 15 c0 b8 3d 94 be c3 bd 4c 44 05 bd 0c 9a 49 3e
       0.09021012 -0.09557834 -0.032535836 0.1968767
000180 d6 2c 89 bd 56 a5 0f be a4 98 48 be 49 b6 41 3e
       -0.06698005 -0.14027914 -0.19589478 0.18917193

i_resnet_layers.7.bottleneck_block.2.weight_u f4 [10]
000000 f0 8d 3b 3e a8 a9 01 bc 47 8e 45 be 89 55 59 bf
       0.18315864 -0.007913984 -0.19292556 -0.8489614
000010 aa ad 4c 3e e8 2d e9 bd 9a aa fa bd f6 25 23 3e
       0.19988123 -0.11385709 -0.12239571 0.1593245
000020 25 a0 a1 be 67 ff fe bd
       -0.31567493 -0.12451058

i_resnet_layers.7.bottleneck_block.2.weight_v f4 [10]
000000 77 da 72 be 6b 74 54 3e 54 2b 04 3e 50 03 16 3e
       -0.2371615 0.20747535 0.12907153 0.14649701
000010 0f 81 3f be cc 31 21 bf be b6 9b be d5 5c b0 be
       -0.18701576 -0.6296661 -0.3041286 -0.34445825
000020 a4 72 9f be 80 91 b3 be
       -0.3114215 -0.35071945

i_resnet_layers.7.bottleneck_block.4.weight_orig f4 [2, 10]
000000 41 94 1a be 85 cf 91 bd 8d 6c 2a 3d e2 01 d4 3e
       -0.15095617 -0.07119659 0.04160743 0.41407686
000010 cc 2f 81 be ec c4 7e 3e 37 81 d7 bc b9 8e 0c 3c
       -0.2523178 0.24879807 -0.026306732 0.00857895
000020 2a 09 cd 3d cf 79 ab bd e7 3c 18 bd 8c c8 90 bc
       0.100115135 -0.083728425 -0.037167456 -0.017673753
000030 b1 2e 99 3e a5 ec 9c 3e 6c 77 a6 bc c3 e0 60 be
       0.29918435 0.30649295 -0.020320617 -0.2196074
000040 0c b9 50 3e ae 6e 32 be 3e 07 37 be 74 d9 88 3d
       0.2038309 -0.17425033 -0.17873856 0.06682101

i_resnet_layers.7.bottleneck_block.4.weight_u f4 [2]
000000 38 a1 36 bf fa 64 33 bf
       -0.7133975 -0.70075953

i_resnet_layers.7.bottleneck_block.4.weight_v f4 [10]
000000 c5 f0 55 3e 1a 36 ca 3d 43 6b bf be 80 10 4c bf
       0.20892628 0.098736 -0.37386522 -0.79712677
000010 43 68 9b 3e 61 5b 17 bd 70 82 46 be 1c a7 39 3e
       0.30352983 -0.03695238 -0.19385695 0.18130153
000020 11 1c ac 3d 13 02 a5 3c
       0.08403791 0.02014259

i_resnet_layers.8.bottleneck_block.0.bias f4 [10]
000000 78 d5 8a 3e b5 a0 71 bd 40 9e e0 bb 5d f3 81 bd
       0.2711599 -0.058991153 -0.0068548024 -0.06345246
000010 74 24 3b bf dd 67 af 3e 03 cc 29 3e 5c 4b c3 3d
       -0.731025 0.3425893 0.1658173 0.09535858
000020 5a 80 32 3e 91 8e 81 3e
       0.17431775 0.25304082

i_resnet_layers.8.bottleneck_block.0.weight_orig f4 [10, 2]
000000 d8 50 2e be aa ed 02 3f 62 7f c1 3e fa 7f 31 3f
       -0.17023027 0.51143897 0.37792498 0.693359
000010 81 24 bd be 77 9f a8 3e 05 c7 15 bf f3 d5 bb 3e
       -0.36941913 0.32934162 -0.58506805 0.36686668
000020 ae b8 eb 3d db fb 9d be 3f bc c3 3e aa cc a0 be
       0.11509834 -0.30856213 0.38229558 -0.31406146
000030 df 51 06 3f 8f 5c 0d be 48 2f fd 3e cc 80 49 bc
       0.52468675 -0.1380484 0.49450135 -0.012298774
000040 0a db c4 be 2c 21 1b 3e 46 89 9f 3e c6 a0 36 3f
       -0.38448364 0.15149373 0.3115942 0.7133907

i_resnet_layers.8.bottleneck_block.0.weight_u f4 [10]
000000 52 5b bf 3e 45 22 7f 3e 74 9c b3 3e c1 97 ed 3e
       0.3737436 0.24915417 0.35080302 0.46404842
000010 3e 48 6c be b5 b0 b1 be 27 6c 9b be ad c6 5d be
       -0.23074433 -0.3470513 -0.3035595 -0.2165782
000020 9d 17 81 3e cd f7 93 3e
       0.25213328 0.28899994

i_resnet_layers.8.bottleneck_block.0.weight_v f4 [2]
000000 a8 4a 15 bf 2a f6 4f 3f
       -0.5831704 0.8123499

i_resnet_layers.8.bottleneck_block.2.weight_orig f4 [10, 10]
000000 d6 d9 53 be b5 4d f1 be cc 97 83 bd e2 99 47 3e
       -0.20688567 -0.47129598 -0.06425437 0.19492295
000010 c9 e6 7c be aa af 02 3e a9 0f ac bd 48 db 64 be
       -0.24697413 0.12762323 -0.084014244 -0.22349274
000020 83 55 52 be 5d 94 82 be 76 43 85 3e 56 fc 09 be
       -0.20540433 -0.25503817 0.2602803 -0.13475165
000030 e0 a5 c7 3d 26 26 dd bd 18 e7 ad be 00 47 84 3e
       0.09748435 -0.10798292 -0.33965373 0.2583542
000040 57 18 78 be e5 65 52 bd 31 e9 4e be 0a bc 80 3e
       -0.24228035 -0.051366705 -0.20206143 0.25143462
000050 06 98 ec 3c e9 07 63 be 03 37 4a be d0 ea 46 be
       0.028881084 -0.22170986 -0.19747548 -0.19425511
000060 ea 45 55 3e 81 2b 91 be 43 0c 23 be b8 57 e4 3d
       0.20827451 -0.28353503 -0.15922646 0.111495435
000070 8f 4a b4 3d d8 81 78 3e 0d 2c 05 3d b3 a3 be 3e
       0.088032834 0.24268281 0.032512713 0.37234268
000080 80 24 9d 3e af cc 58 be c1 a7 0d bd aa 0f 5d 3e
       0.3069191 -0.2117183 -0.03458381 0.21588007
000090 12 60 9c 3d d4 8a 01 3c 15 dd 06 3d 67 2e b2 3e
       0.076355115 0.007906634 0.032925684 0.34801027
0000a0 18 d7 8c bd bf 51 64 be 66 05 3f be 3b c1 3d 3e
       -0.068769634 -0.22296809 -0.18654403 0.18530743
0000b0 4b c7 c2 bd fd 18 10 3d af b2 a9 bc e9 8d 1b 3e
       -0.09510668 0.03518008 -0.020715086 0.15190853
0000c0 3f e7 65 3e 72 23 0a bd 99 00 5d be d5 e4 07 3e
       0.22451495 -0.03372521 -0.21582259 0.13270886
0000d0 e5 03 5b be 7a 94 d9 bd 2c f3 a4 3e a8 ab cd 3d
       -0.21388204 -0.10624023 0.32216775 0.100425065
0000e0 92 17 2a be 69 df 65 3e 18 38 38 be 47 dd 8a 3e
       -0.16610554 0.22448505 -0.17990148 0.27121946
0000f0 af d1 78 be 46 38 89 3e 1a c4 49 be cb 12 aa 3e
       -0.24298738 0.26800746 -0.19703713 0.33217463
000100 1c d3 20 3e 5c 3d 50 be 01 19 9a be f3 58 b4 3c
       0.15705532 -0.20335907 -0.300972 0.02201507
000110 fa 28 0c be 3d 8c 9b 3e 3c 0c 7c 3e ab 4b 6e 3e
       -0.13687506 0.3038043 0.24614042 0.23271053
000120 eb e3 91 be 71 43 72 3e 88 b6 71 be 7b 06 4a 3d
       -0.284942 0.2365854 -0.23604786 0.049322587
000130 d2 46 2a be 5d 67 a2 3e e9 14 70 3e 43 a7 64 be
       -0.16628578 0.31719485 0.23445477 -0.2232943
000140 b6 f7 57 3d a0 a1 f8 bd 2f a6 88 3e 8b 37 80 be
       0.05272647 -0.121402025 0.26689288 -0.25042376
000150 43 a7 90 3e ee 6d 4b 3e 31 04 e7 bc 88 53 6e 3e
       0.2825261 0.19866154 -0.02820024 0.23274052
000160 1c d1 75 be d8 62 47 3e 86 89 49 3d 0e 42 08 3e
       -0.2400555 0.194713 0.04920342 0.13306448
000170 57 cb 49 3e 35 67 12 3e 3f ce 86 be 7e d5 ab be
       0.19706474 0.14297183 -0.26329228 -0.3356132
000180 2e 83 46 be f9 9f 0e 3d b5 91 a6 bd 1e 25 8a be
       -0.19385979 0.03482053 -0.0813326 -0.26981443

i_resnet_layers.8.bottleneck_block.2.weight_u f4 [10]
000000 80 5d d3 3e 11 09 85 bd b4 d5 39 be f9 a1 d5 be
       0.41282272 -0.0649587 -0.18147928 -0.41725138
000010 53 44 5d 3e 61 f3 d3 be f4 c2 1a be 8c d7 9f 3e
       0.21608095 -0.4139662 -0.15113431 0.31219137
000020 0a 3e e0 be 1c 01 98 3e
       -0.43797332 0.29688346

i_resnet_layers.8.bottleneck_block.2.weight_v f4 [10]
000000 c4 01 55 3d 8d 51 7f be a8 d0 31 be ab 23 d7 3e
       0.052003637 -0.24933453 -0.17364752 0.420194
000010 22 45 fe be b8 e7 21 be db dc 06 bc cb f7 19 be
       -0.4966212 -0.1581105 -0.008231367 -0.15035932
000020 b2 7c 33 3e 6a 97 22 bf
       0.17528036 -0.6351229

i_resnet_layers.8.bottleneck_block.4.weight_orig f4 [2, 10]
000000 3c c4 90 3e e2 1e 8c 3d 7c 6a da 3d 38 b7 8a be
       0.28274715 0.06841828 0.106648415 -0.2709291
000010 50 b9 dd 3c a9 86 a9 be 86 88 e1 3d 23 6c 2a 3e
       0.027065903 -0.3311055 0.11012368 0.16642813
000020 5d 59 a7 be 5f 98 00 3e 42 f4 90 bd 6c fc 40 3e
       -0.32685366 0.12558125 -0.070778385 0.18846291
000030 62 85 8c 3d 73 8a 9f 3e e8 5a 6a be 4c bb ae bd
       0.06861378 0.31160316 -0.2288624 -0.08531818
000040 86 7f 71 3e 68 20 81 be db 1b 3f be ea fb 83 be
       0.23583803 -0.25220037 -0.1866297 -0.25778133

i_resnet_layers.8.bottleneck_block.4.weight_u f4 [2]
000000 4e cc 45 3f 78 84 22 bf
       0.7726487 -0.6348338

i_resnet_layers.8.bottleneck_block.4.weight_v f4 [10]
000000 bd 18 c2 3e 43 05 c5 bd 81 34 65 3d 0e 05 16 bf
       0.379095 -0.09620144 0.055958275 -0.5860146
000010 bf 05 75 3e 71 8f 94 be d9 b3 be bd b3 a5 d4 3e
       0.23927973 -0.29015687 -0.09311647 0.41532668
000020 6b 85 45 be 7c 07 c0 3e
       -0.19289176 0.3750571

i_resnet_layers.9.bottleneck_block.0.bias f4 [10]
000000 c0 7c 88 3e e7 33 2b 3f 94 03 fa 3e cd cf 02 3f
       0.26657677 0.6687607 0.48830855 0.5109833
000010 4c 46 19 3f 9b 61 bd bc 8d 1f 45 3f ef 77 84 be
       0.5987289 -0.023117831 0.7700127 -0.25872752
000020 dc dd 6e 3e 65 ea 7a 3e
       0.2332682 0.24503477

i_resnet_layers.9.bottleneck_block.0.weight_orig f4 [10, 2]
000000 2c d9 d5 3e ac 4d fb 3e f1 b5 a2 3e 88 ae 6e 3e
       0.41767251 0.49082696 0.31779435 0.23308766
000010 9a 87 d5 3e a1 c8 4d 3f 6c 80 0c 3f 25 d8 59 be
       0.41705018 0.8038426 0.54883456 -0.21273859
000020 75 0f 32 bf 05 a7 ba 3e c1 fc 94 3e 59 81 dc be
       -0.69554836 0.3645555 0.29099086 -0.43067434
000030 44 ee df be b7 c3 16 3e 43 9e 87 3e 37 4f 94 3e
       -0.4373647 0.14723097 0.26487932 0.28966686
000040 8e ab f9 bc d1 7e 45 3f ac af 12 3f 12 43 63 3e
       -0.030477311 0.7714663 0.57299304 0.22193554

i_resnet_layers.9.bottleneck_block.0.weight_u f4 [10]
000000 5b 7f dc be 78 fb 80 be 07 73 19 bf af 60 d2 bd
       -0.43065915 -0.25191855 -0.5994114 -0.10272347
000010 79 cc a1 3d 0b ef ef 3d ae 64 c0 3d da db 85 be
       0.07900328 0.11715516 0.09394203 -0.26144296
000020 42 0c cf be 26 c4 b1 be
       -0.4043904 -0.34719962

i_resnet_layers.9.bottleneck_block.0.weight_v f4 [2]
000000 14 95 17 bf 3f 4c 4e bf
       -0.5921185 -0.8058509
