experiments/models/spiral/i_resnet_euclidean_product_20_blocks_20_epochs_2024_02_11_14_01_07.pt (torch, 134850 bytes, 200 tensors)

i_resnet_layers.0.bottleneck_block.0.bias f4 [10]
0.11922328 0.00036774337 0.23945495 0.04850991 -0.54537886 -0.99848104 -0.2712446 0.002979895
-0.07025079 0.029018821
00000000: 562b f43d aecd c039 ae33 753e 54b2 463d
00000010: f39d 0bbf 749c 7fbf 92e0 8abe 584a 433b
00000020: a5df 8fbd e1b8 ed3c

i_resnet_layers.0.bottleneck_block.0.weight_orig f4 [10, 2]
0.35882998 0.46395373 0.14426696 -0.27510563 0.47966397 -0.39970073 -0.7925823 -0.79072213
0.13236341 -0.10945787 -0.099634826 0.005415337 -0.64178586 0.5538694 -0.22334398 -0.6469078
0.36060572 -0.4003834 -0.34070042 -0.25377262
00000000: 90b8 b73e 588b ed3e b8ba 133e a5da 8cbe
00000010: 8496 f53e 93a5 ccbe ace6 4abf c46c 4abf
00000020: 468a 073e 732b e0bd 580d ccbd 2473 b13b
00000030: 144c 24bf 63ca 0d3f 49b4 64be c09b 25bf
00000040: 50a1 b83e 0eff ccbe 4970 aebe 7cee 81be

i_resnet_layers.0.bottleneck_block.0.weight_u f4 [10]
-0.39248148 0.108897224 0.06416682 0.73122114 0.017256258 0.03143184 -0.09681946 0.4507785
0.10606788 0.2649274
00000000: 55f3 c8be 8205 df3d e569 833d 4f31 3b3f
00000010: ff5c 8d3c acbe 003d 4849 c6bd 71cc e63e
00000020: 1e3a d93d 90a4 873e

i_resnet_layers.0.bottleneck_block.0.weight_v f4 [2]
-0.5155833 -0.8568395
00000000: 44fd 03bf d559 5bbf

i_resnet_layers.0.bottleneck_block.2.weight_orig f4 [10, 10]
0.11870992 -0.18560936 -0.31384763 0.06503868 0.06395396 -0.102577105 0.36012203 0.0070871124
0.017960135 0.22319283 0.20595102 -0.0057268525 0.043650534 -0.496478 -0.04044948 -0.15776843
0.1349803 -0.30868325 -0.006740839 -0.26158834 0.0061325766 -0.13668516 -0.049819488 -0.39500073
-0.041149054 -0.012150967 0.08964364 -0.21030614 -0.32530105 0.013537878 0.14596926 -0.18198207
-0.13862425 0.14231049 0.21475755 -0.084682204 0.013248409 0.19267201 0.03982368 -0.30950186
-0.12892723 0.25704095 0.08381303 -0.17766804 0.05579659 -0.13816063 0.029694173 0.10678575
0.32503513 -0.11915883 -0.42473048 0.087374575 0.24792816 0.08932567 -0.07706805 -0.0960662
0.15947501 0.007685071 -0.103521846 0.17822914 0.15497479 -0.1573153 -0.12947394 0.04802688
0.14810562 0.028440323 -0.21090488 -0.022368442 0.020864448 0.07368098 0.068134315 0.023346685
-0.27107894 0.027810615 0.03640666 0.28135678 0.15454178 0.18726958 -0.119059265 -0.2431085
-0.06671645 0.20920755 -0.18530741 -0.08496417 0.032402925 -0.29185542 0.051878124 -0.0443131
0.14087234 0.07755336 0.24322316 -0.10082486 0.026436264 -0.00864152 -0.11918229 0.27296057
-0.14795509 -0.19176947 0.19450323 0.16533414
00000000: 301e f33d 6110 3ebe a3b0 a0be 0033 853d
00000010: 4bfa 823d f213 d2bd ea61 b83e 023b e83b
00000020: 2221 933c a98c 643e d3e4 523e 52a8 bbbb
00000030: e7ca 323d 5d32 febe 5bae 25bd 0c8e 21be
00000040: 4738 0a3e bb0b 9ebe 42e2 dcbb e8ee 85be
00000050: c8f3 c83b 32f7 0bbe 850f 4cbd 893d cabe
00000060: e98b 28bd d914 47bc 1697 b73d 7e5a 57be
00000070: dc8d a6be facd 5d3c f778 153e 8259 3abe
00000080: 84f3 0dbe d7b9 113e 67e9 5b3e dd6d adbd
00000090: db0f 593c d04b 453e 281e 233d 0777 9ebe
000000a0: 8005 04be df9a 833e 2aa6 ab3d 9cee 35be
000000b0: f78a 643d fb79 0dbe 3241 f33c 7db2 da3d
000000c0: 016b a63e 8b09 f4bd 4676 d9be 71f1 b23d
000000d0: e1e0 7d3e 60f0 b63d dbd5 9dbd 5bbe c4bd
000000e0: 6b4d 233e 0cd3 fb3b 4303 d4bd b381 363e
000000f0: b6b1 1e3e 4317 21be d194 04be d5b7 443d
00000100: 00a9 173e aefb e83c 73f7 57be 063e b7bc
00000110: ebeb aa3c 0ee6 963d 018a 8b3d 8c41 bf3c
00000120: dcca 8abe 16d3 e33c 261f 153d ff0d 903e
00000130: 3340 1e3e 99c3 3f3e 58d5 f3bd 6ff1 78be
00000140: a2a2 88bd 813a 563e 3ac1 3dbe b201 aebd
00000150: eeb8 043d 136e 95be 287e 543d a781 35bd
00000160: d740 103e 4cd4 9e3d 7e0f 793e 447d cebd
00000170: dd90 d83c 2995 0dbc d815 f4bd 7dc1 8b3e
00000180: 8a81 17be 375f 44be db2b 473e 5a4d 293e

i_resnet_layers.0.bottleneck_block.2.weight_u f4 [10]
-0.059921943 -0.7751959 -0.54371715 0.030902252 0.017578999 0.29544723 -0.00837653 -0.02156408
-0.050097175 -0.090853795
00000000: b670 75bd 3d73 46bf 0c31 0bbf b826 fd3c
00000010: d501 903c dc44 973e b73d 09bc 27a7 b0bc
00000020: b232 4dbd 8e11 babd

i_resnet_layers.0.bottleneck_block.2.weight_v f4 [10]
-0.36547384 0.13254017 0.11147115 0.72738695 0.048942678 0.099207476 -0.13618924 0.4395887
0.15687296 0.24230583
00000000: 631f bbbe 9cb8 073e fc4a e43d 0836 3a3f
00000010: 1e78 483d 4a2d cb3d 3175 0bbe c511 e13e
00000020: 4ea3 203e 051f 783e

i_resnet_layers.0.bottleneck_block.4.weight_orig f4 [2, 10]
0.06412789 -0.20625792 0.106682695 -0.18240353 -0.14929456 -0.2340291 -0.032981355 -0.15752466
0.23053636 -0.089373976 -0.0704726 -0.6089242 -0.44072857 0.042681385 0.0003128691 0.25268453
0.0016659071 -0.03497971 -0.038504038 -0.091300115
00000000: 7c55 833d 4735 53be 757c da3d fec7 3abe
00000010: ace0 18be 53a5 6fbe 7517 07bd 254e 21be
00000020: b911 6c3e b409 b7bd f053 90bd 75e2 1bbf
00000030: 2da7 e1be add2 2e3d 9408 a439 de5f 813e
00000040: 915a da3a e246 0fbd 69b6 1dbd 8efb babd

i_resnet_layers.0.bottleneck_block.4.weight_u f4 [2]
-0.030609388 -0.9995314
00000000: 8ac0 fabc 4ae1 7fbf

i_resnet_layers.0.bottleneck_block.4.weight_v f4 [10]
0.08508301 0.7643254 0.5436077 -0.046202943 0.0052625667 -0.30532384 -0.0008184325 0.049288943
0.039237533 0.117062196
00000000: 0040 ae3d d4aa 433f e029 0b3f 4c3f 3dbd
00000010: 9c71 ac3b 6853 9cbe 138c 56ba 34e3 493d
00000020: 89b7 203d 4ebe ef3d

i_resnet_layers.1.bottleneck_block.0.bias f4 [10]
0.6276373 0.12251484 0.12635809 -0.4784157 0.061436575 0.31730554 0.017249 0.57326126
-0.45108616 0.10480575
00000000: d7ac 203f 0fe9 fa3d 0464 013e e7f2 f4be
00000010: eba4 7b3d df75 a23e c64d 8d3c 40c1 123f
00000020: c4f4 e6be 66a4 d63d

i_resnet_layers.1.bottleneck_block.0.weight_orig f4 [10, 2]
0.23330198 -0.34984124 0.59478104 0.3193263 -0.5534046 -0.06054099 -0.3214844 -0.09544019
0.39386964 0.08732128 -0.11827672 0.10629557 -0.6506976 -0.44709352 -0.256599 0.50250894
0.07136337 0.14017752 -0.24455559 0.81980985
00000000: b7e6 6e3e 641e b3be 9243 183f bd7e a33e
00000010: edab 0dbf d4f9 77bd 9a99 a4be 2576 c3bd
00000020: 48a9 c93e 80d5 b23d 113b f2bd 7eb1 d93d
00000030: 1e94 26bf 71e9 e4be f260 83be 6da4 003f
00000040: f526 923d b28a 0f3e c86c 7abe 0fdf 513f

i_resnet_layers.1.bottleneck_block.0.weight_u f4 [10]
0.0010803192 0.52329916 -0.385116 -0.24969848 0.2932531 -0.031144956 -0.61420697 0.049394958
0.10661355 0.19357
00000000: 7f99 8d3a eff6 053f ed2d c5be f5b0 7fbe
00000010: 4525 963e b523 ffbc ab3c 1dbf 5e52 4a3d
00000020: 3458 da3d 3737 463e

i_resnet_layers.1.bottleneck_block.0.weight_v f4 [2]
0.83378077 0.5520956
00000000: a872 553f 2356 0d3f

i_resnet_layers.1.bottleneck_block.2.weight_orig f4 [10, 10]
-0.069349594 0.003918796 0.10636541 -0.123489946 -0.17423815 0.060459808 -0.16177393 -0.10199395
-0.21399568 0.35132575 0.086089484 0.3118033 -0.3653322 -0.18648586 0.091765486 -0.02830386
-0.5349679 -0.013511443 -0.0514169 -0.033903085 -0.20116942 0.033532638 0.019402698 0.07623582
0.17233631 -0.041589446 -0.104414225 -0.12759961 0.29206467 -0.15905659 -0.30766222 0.12079865
-0.06018716 -0.12421909 -0.12495588 0.09485912 0.05833802 0.3093727 0.060182992 0.28446025
0.22167389 0.20405497 0.06031871 -0.05955803 0.20948403 0.07997918 0.044777915 0.08530498
0.067560636 0.18021725 -0.18946038 0.0223722 -0.049306516 -0.13187554 -0.09334101 0.052577823
0.059618935 0.27692997 0.16094069 0.12571123 -0.18766606 0.022434572 0.1453172 0.16997448
-0.032981202 0.057651434 -0.26356286 0.21887133 -0.26713127 -0.35001314 0.16782051 -0.07482539
-0.10753426 0.27300015 -0.016973278 0.082064964 -0.08035746 0.082759656 -0.16263233 -0.009508352
0.112169094 -0.39006728 0.047776002 0.033003043 -0.21754809 0.10169418 -0.06761229 -0.060189642
-0.0989509 0.094177775 -0.20319419 0.21954253 0.15046163 0.19168308 -0.23969243 -0.07480721
0.04767346 -0.074760534 -0.008791614 -0.21374936
00000000: 2907 8ebd 3e69 803b 1cd6 d93d 4ce8 fcbd
00000010: 7c6b 32be b4a4 773d 11a8 25be 34e2 d0bd
00000020: af21 5bbe f8e0 b33e af4f b03d afa4 9f3e
00000030: d20c bbbe 26f6 3ebe 8bef bb3d 7fdd e7bc
00000040: a8f3 08bf 195f 5dbc 879a 52bd f6dd 0abd
00000050: 5bff 4dbe 8559 093d 68f2 9e3c 8721 9c3d
00000060: ee78 303e b259 2abd 20d7 d5bd 79a9 02be
00000070: 8089 953e bbdf 22be e785 9dbe 4865 f73d
00000080: d086 76bd 9466 febd dee8 ffbd 8045 c23d
00000090: d9f3 6e3d 1966 9e3e 7182 763d c6a4 913e
000000a0: 7bfe 623e c9f3 503e c010 773d 1ff3 73bd
000000b0: fb82 563e 20cc a33d 0c69 373d 61b4 ae3d
000000c0: 3b5d 8a3d df8a 383e e701 42be e745 b73c
000000d0: a1f5 49bd 620a 07be 9229 bfbd d85b 573d
000000e0: fc32 743d c4c9 8d3e a3cd 243e 72ba 003e
000000f0: 882b 40be b5c8 b73c 08ce 143e ca0d 2e3e
00000100: 4c17 07bd e923 6c3d b6f1 86be ce1f 603e
00000110: 6ec5 88be ec34 b3be 24d9 2b3e 0e3e 99bd
00000120: ec3a dcbd adc6 8b3e 8b0b 8bbc ad11 a83d
00000130: 7492 a4bd e57d a93d 1789 26be ebc8 1bbc
00000140: e9b8 e53d e6b6 c7be c5b0 433d 332e 073d
00000150: edc4 5ebe 0a45 d03d 5078 8abd 6a89 76bd
00000160: c5a6 cabd 47e0 c03d 2312 50be c2cf 603e
00000170: 9d12 1a3e 9248 443e ef71 75be 8634 99bd
00000180: 3f45 433d 0d1c 99bd b40a 10bc 1de1 5abe

i_resnet_layers.1.bottleneck_block.2.weight_u f4 [10]
-0.15703432 0.7728982 0.22033092 -0.22895989 -0.0027955256 -0.18193951 0.37888208 0.0884642
-0.28857636 0.096106924
00000000: 9bcd 20be a8dc 453f 6e9e 613e 7674 6abe
00000010: 2335 37bb 5a4e 3abe d5fc c13e b82c b53d
00000020: 48c0 93be b5d3 c43d

i_resnet_layers.1.bottleneck_block.2.weight_v f4 [10]
0.036403704 0.43548086 -0.2804138 0.05136595 0.25686598 -0.09817492 -0.6423632 -0.053486913
-0.090395145 -0.47799566
00000000: 0d1c 153d 59f7 de3e 6692 8fbe 1a65 523d
00000010: f083 833e ef0f c9bd ea71 24bf 1815 5bbd
00000020: 1721 b9bd d9bb f4be

i_resnet_layers.1.bottleneck_block.4.weight_orig f4 [2, 10]
-0.04363917 -0.46248206 -0.32549906 -0.07161196 -0.34779653 -0.034180965 0.035795815 0.111847885
0.3239955 0.27203616 0.24165098 -0.43197793 0.08391624 0.29962707 0.21056645 0.19212715
-0.32121173 -0.13278493 0.14702426 -0.2744629
00000000: fcbe 32bd 73ca ecbe d0a7 a6be 4ba9 92bd
00000010: 6312 b2be 5701 0cbd a29e 123d 8110 e53d
00000020: bde2 a53e 5348 8b3e 5b73 773e 362c ddbe
00000030: 47dc ab3d b868 993e bb9e 573e fbbc 443e
00000040: dd75 a4be c6f8 07be 878d 163e 6786 8cbe

i_resnet_layers.1.bottleneck_block.4.weight_u f4 [2]
0.75832295 0.6518791
00000000: 7421 423f 8ce1 263f

i_resnet_layers.1.bottleneck_block.4.weight_v f4 [10]
0.15442982 -0.7849863 -0.23878483 0.1749736 -0.15730937 0.12320871 -0.2262748 -0.0018948647
0.42427772 0.03423011
00000000: da22 1e3e ddf4 48bf 0384 74be 482c 333e
00000010: b515 21be d954 fc3d 95b4 67be 1c5d f8ba
00000020: ee3a d93e df34 0c3d

i_resnet_layers.2.bottleneck_block.0.bias f4 [10]
0.56440794 0.28971794 -0.47019064 0.39489233 0.47679877 -0.43512785 -0.22197783 0.5110926
0.23921995 0.4559217
00000000: 0a7d 103f e955 943e d4bc f0be 542f ca3e
00000010: f81e f43e 14c9 debe 284e 63be f7d6 023f
00000020: 13f6 743e 926e e93e

i_resnet_layers.2.bottleneck_block.0.weight_orig f4 [10, 2]
0.17705806 0.11921401 -0.52560455 0.70853347 0.6630775 0.6582045 0.3040752 0.22747828
-0.4660713 0.23621859 -0.20343493 -0.26368234 0.17699382 -0.19351944 0.08560634 -0.7623521
-0.0950359 -0.7383597 -0.559313 -0.2382191
00000000: b54e 353e 7a26 f43d 058e 06bf 7362 353f
00000010: 72bf 293f 1780 283f bfaf 9b3e 11f0 683e
00000020: e6a0 eebe 49e3 713e 3f51 50be 5f01 87be
00000030: de3d 353e f629 46be 6052 af3d 8229 43bf
00000040: 2fa2 c2bd 2405 3dbf 232f 0fbf b5ef 73be

i_resnet_layers.2.bottleneck_block.0.weight_u f4 [10]
-0.099531814 -0.37592614 -0.50687647 -0.18557732 -0.0854278 0.19461869 0.098185666 0.47012296
0.47962382 0.22702613
00000000: 56d7 cbbd 6479 c0be a8c2 01bf fb07 3ebe
00000010: c5f4 aebd 1f4a 473e 9115 c93d f5b3 f03e
00000020: 4191 f53e 8a79 683e

i_resnet_layers.2.bottleneck_block.0.weight_v f4 [2]
-0.21169148 -0.9773365
00000000: a7c5 58be ba32 7abf

i_resnet_layers.2.bottleneck_block.2.weight_orig f4 [10, 10]
-0.035688423 -0.032240354 -0.22095491 0.20094751 0.011398109 0.16706052 -0.17068483 0.13969606
-0.13327084 0.006962539 -0.004008051 -0.21130142 0.028921211 0.13120946 -0.02748009 0.20391376
0.2919619 -0.2903181 -0.1627855 -0.06328468 -0.04515825 -0.22876938 0.05632961 0.0549588
0.20807315 -0.07848484 -0.23963018 -0.119607344 -0.058929794 -0.3436086 -0.16649963 -0.18717597
0.030173087 0.17475726 0.079493664 0.02878538 -0.22326075 -0.20011972 0.38405415 0.20777981
-0.20068195 -0.3130283 -0.46745035 -0.029591786 -0.11258678 0.10132512 0.024035776 0.44508106
0.27764547 0.12045622 -0.11156503 -0.13658275 0.028633485 -0.17515692 -0.19286458 -0.0982609
0.008237303 -0.14642675 -0.258977 0.24202329 -0.05401814 0.113200925 -0.008097913 0.14635387
0.19526608 0.1538443 -0.12055473 0.030919034 -0.28272107 -0.30620605 -0.10965694 0.0063106245
0.14998811 0.08525672 -0.22369067 -0.17175463 0.050475568 -0.09042128 -0.13447537 -0.057386063
-0.044420242 -0.034646653 -0.03481781 -0.061111335 0.17963679 0.20349492 0.24554631 -0.051227476
0.17186902 -0.23344819 -0.04764588 0.06866555 -0.10250803 -0.16600911 0.054041795 0.24977405
-0.13594621 -0.0017409129 0.055147078 -0.31453297
00000000: 062e 12bd 760e 04bd 0142 62be 2fc5 4d3e
00000010: 22bf 3a3c ea11 2b3e 01c8 2ebe 7c0c 0f3e
00000020: 2778 08be 0326 e43b f855 83bb 665f 58be
00000030: 2dec ec3c c65b 063e ed1d e1bc c5ce 503e
00000040: 087c 953e 93a4 94be 3eb1 26be 669b 81bd
00000050: dbf7 38bd 8542 6abe e1b9 663d 7b1c 613d
00000060: 2111 553e a9bc a0bd 9d61 75be b2f4 f4bd
00000070: 5e60 71bd 77ed afbe e17e 2abe 0fab 3fbe
00000080: 8d2d f73c 91f3 323e 93cd a23d 51cf eb3c
00000090: 779e 64be 2fec 4cbe bfa2 c43e 3bc4 543e
000000a0: 927f 4dbe 3f45 a0be a755 efbe 796a f2bc
000000b0: e693 e6bd 8b83 cf3d ade6 c43c aae1 e33e
000000c0: 8c27 8e3e c0b1 f63d 357c e4bd 59dc 0bbe
000000d0: c590 ea3c 565c 33be 4b7e 45be 033d c9bd
000000e0: c1f5 063c e5f0 15be a298 84be f4d4 773e
000000f0: 2042 5dbd e3d5 e73d 1cad 04bc cadd 153e
00000100: d5f3 473e 5c89 1d3e 66e5 f6bd ea49 fd3c
00000110: d1c0 90be 0ac7 9cbe d193 e0bd 5bc9 ce3b
00000120: 7c96 193e 139b ae3d 2b0f 65be 72e0 2fbe
00000130: 78bf 4e3d cb2e b9bd e9b3 09be a60d 6bbd
00000140: 00f2 35bd a6e9 0dbd 1f9d 0ebd e14f 7abd
00000150: b5f2 373e f960 503e 7e70 7b3e e7d3 51bd
00000160: 6ffe 2f3e 0b0d 6fbe 5428 43bd 86a0 8c3d
00000170: bbef d1bd 4bfe 29be ee5a 5d3d c5c4 7f3e
00000180: 7c35 0bbe 582f e4ba e7e1 613d 770a a1be

i_resnet_layers.2.bottleneck_block.2.weight_u f4 [10]
0.15363012 -0.22127624 -0.20037223 0.2575004 0.8342783 -0.06591177 -0.28194788 -0.20245682
0.0039007037 -0.010764036
00000000: 3751 1d3e 3d96 62be 612e 4dbe 18d7 833e
00000010: 4393 553f c0fc 86bd 795b 90be d750 4fbe
00000020: f3a2 7f3b a45b 30bc

i_resnet_layers.2.bottleneck_block.2.weight_v f4 [10]
-0.17289314 -0.26572683 -0.49909297 -0.036467362 -0.11208033 0.09034178 -0.059345115 0.4836872
0.519474 0.34788164
00000000: e60a 31be 590d 88be 1d89 ffbe cd5e 15bd
00000010: 5f8a e5bd 1c05 b93d dd13 73bd d9a5 f73e
00000020: 40fc 043f 8b1d b23e

i_resnet_layers.2.bottleneck_block.4.weight_orig f4 [2, 10]
0.32878223 -0.1712147 -0.24433404 -0.16670671 -0.109244585 0.0318196 -0.14323975 -0.31022686
0.22935618 -0.15950781 -0.011589071 0.28324246 0.15548064 -0.29787624 -0.41620246 0.06311
0.2441468 0.18849854 0.12771559 -0.098499626
00000000: 2556 a83e e852 2fbe b432 7abe 2ab5 2abe
00000010: a0bb dfbd 4555 023d 71ad 12be 0ed6 9ebe
00000020: 59dc 6a3e 0456 23be 16e0 3dbc 2805 913e
00000030: 5136 1f3e 3c83 98be 7d18 d5be d13f 813d
00000040: 9e01 7a3e c305 413e e0c7 023e 2cba c9bd

i_resnet_layers.2.bottleneck_block.4.weight_u f4 [2]
0.4614201 -0.8871817
00000000: 413f ec3e 571e 63bf

i_resnet_layers.2.bottleneck_block.4.weight_v f4 [10]
0.22625677 -0.46126795 -0.34992343 0.26143965 0.44496793 -0.05798252 -0.39452934 -0.4333112
-0.010731211 0.018899702
00000000: dbaf 673e 502b ecbe 2a29 b3be 6bdb 853e
00000010: d6d2 e33e 147f 6dbd c0ff c9be f7da ddbe
00000020: f6d1 2fbc 8cd3 9a3c

i_resnet_layers.3.bottleneck_block.0.bias f4 [10]
-0.6680961 0.08782636 -0.5877174 0.5661664 0.16217308 -0.36768678 -0.4008934 -0.0137515785
-0.20598991 -0.326453
00000000: 5908 2bbf 4ede b33d a674 16bf 48f0 103f
00000010: b310 263e 7141 bcbe e641 cdbe 4d4e 61bc
00000020: 05ef 52be d924 a7be

i_resnet_layers.3.bottleneck_block.0.weight_orig f4 [10, 2]
0.55433536 0.0989141 -0.7520355 0.16925888 0.23186412 0.5481628 -0.5002817 -0.94404507
0.47572288 -0.64114106 0.07801739 0.44444638 -0.5532585 0.100605205 0.7765359 0.029438913
-0.2164713 0.7607192 -0.2629489 0.1591908
00000000: ece8 0d3f 7a93 ca3d 6685 40bf 3352 2d3e
00000010: ca6d 6d3e 6654 0c3f 7612 00bf f0ac 71bf
00000020: f391 f33e d221 24bf 95c7 9f3d 7a8e e33e
00000030: 59a2 0dbf 1a0a ce3d 0fcb 463f e029 f13c
00000040: a7aa 5dbe 7ebe 423f 3da1 86be ea02 233e

i_resnet_layers.3.bottleneck_block.0.weight_u f4 [10]
0.23627627 -0.15479417 0.37534195 -0.67954797 -0.19360636 0.26820904 -0.12691636 0.2712976
0.3441156 0.00043853506
00000000: 68f2 713e 5d82 1ebe d22c c03e dbf6 2dbf
00000010: bf40 46be b252 893e 5df6 01be 85e7 8a3e
00000020: ec2f b03e 2eeb e539

i_resnet_layers.3.bottleneck_block.0.weight_v f4 [2]
0.5158404 0.85668474
00000000: 1e0e 043f b14f 5b3f

i_resnet_layers.3.bottleneck_block.2.weight_orig f4 [10, 10]
0.0788938 -0.1413044 -0.294664 0.2857322 0.09386255 0.09486461 0.19516015 -0.15004726
-0.26360777 0.047909856 -0.20807305 0.2210705 0.17157792 0.229991 0.11984037 -0.29636955
0.24035661 -0.051151156 -0.13169713 -0.26715302 -0.107481904 0.009129138 0.16477017 0.28240344
-0.19047584 -0.19329885 -0.12351779 0.02749804 0.07761875 0.031849917 0.26794204 0.046787325
0.23727302 -0.10626509 0.1201328 0.15704773 0.21310447 0.122242734 0.32880166 0.12310347
0.11524671 0.1410624 -0.114988066 0.24045473 -0.20646697 -0.20423445 0.13309686 -0.34160388
0.12019641 0.17671879 -0.015369795 -0.15711994 -0.26911575 -0.28605086 0.07154633 -0.11408131
0.027982287 -0.12641114 -0.15601721 0.26538917 -0.19065918 -0.26770937 -0.19382657 -0.18904783
-0.08918942 -0.04184192 -0.1103192 -0.15137853 0.24207453 -0.21147627 -0.26296604 0.35153762
0.15867773 0.022027021 -0.054539338 0.27148062 -0.0055978945 -0.12870635 -0.16177823 0.21959369
-0.074603654 -0.18533479 0.2838305 0.0060916264 0.15896223 0.13617842 0.037425697 0.16224511
0.08360398 -0.115158044 0.14124338 -0.07553724 0.21093503 0.07893444 0.22415708 -0.08592608
-0.15309277 0.104940735 -0.2598848 0.28049356
00000000: 1393 a13d 1ab2 10be 33de 96be 7e4b 923e
00000010: 023b c03d 6048 c23d 10d8 473e fda5 19be
00000020: 99f7 86be 203d 443d 1a11 55be 4e60 623e
00000030: 1fb2 2f3e c382 6b3e de6e f53d c0bd 97be
00000040: 0b20 763e e083 51bd 9ddb 06be 48c8 88be
00000050: 791f dcbd 6192 153c 83b9 283e 2f97 903e
00000060: 190c 43be 22f0 45be e5f6 fcbd 9243 e13c
00000070: 94f6 9e3d 0f75 023d b32f 893e 11a4 3f3d
00000080: b3f7 723e 83a1 d9bd 2f08 f63d 1fd1 203e
00000090: 0f38 5a3e 665a fa3d b158 a83e ac1d fc3d
000000a0: 7806 ec3d a972 103e dd7e ebbd c439 763e
000000b0: 146c 53be d622 51be 8b4a 083e b4e6 aebe
000000c0: 8929 f63d c5f5 343e 98d1 7bbc 0de4 20be
000000d0: 8ac9 89be 4275 92be e286 923d 76a3 e9bd
000000e0: 1c3b e53c ec71 01be fac2 1fbe 17e1 873e
000000f0: 293c 43be 3411 89be 797a 46be c195 41be
00000100: f1a8 b6bd 6f62 2bbd 08ef e1bd f902 1bbe
00000110: 63e2 773e 3c8d 58be 7ca3 86be bdfc b33e
00000120: 6a7c 223e 0372 b43c a464 5fbd 82ff 8a3e
00000130: 8b6e b7bb 99cb 03be 31a9 25be 2bdd 603e
00000140: cdc9 98bd 67c8 3dbe 3b52 913e 449c c73b
00000150: ffc6 223e 5b72 0b3e b04b 193d 9523 263e
00000160: 9038 ab3d fbd7 ebbd 1ba2 103e 45b3 9abd
00000170: 5aff 573e 61a8 a13d 6f89 653e 03fa afbd
00000180: 5ac4 1cbe 2beb d63d 9f0f 85be da9c 8f3e

i_resnet_layers.3.bottleneck_block.2.weight_u f4 [10]
-0.4179758 -0.30935025 -0.15157951 0.45740464 -0.52711856 -0.14517817 0.072865106 -0.15428597
0.40666795 0.063089326
00000000: ed00 d6be 2863 9ebe a937 1bbe f130 ea3e
00000010: 3ef1 06bf 96a9 14be 4d3a 953d 24fd 1dbe
00000020: c836 d03e fa34 813d

i_resnet_layers.3.bottleneck_block.2.weight_v f4 [10]
0.13883944 -0.23074919 0.40689385 -0.44653732 0.2210945 0.33469674 -0.1366497 0.48582202
0.3661015 -0.113529965
00000000: ed2b 0e3e 8449 6cbe 6454 d03e 8aa0 e4be
00000010: 9966 623e 5f5d ab3e e6ed 0bbe aabd f83e
00000020: a871 bb3e 6682 e8bd

i_resnet_layers.3.bottleneck_block.4.weight_orig f4 [2, 10]
-0.16048771 0.0587478 0.023882588 -0.24179786 0.23956798 0.34743702 -0.15651464 0.105148986
-0.32929537 0.20871915 -0.20336303 -0.3446544 -0.23167484 -0.15855914 0.110313125 0.16916646
0.42663613 -0.28800064 -0.19771299 0.030997597
00000000: e456 24be 88a1 703d 6ba5 c33c dc99 77be
00000010: 4f51 753e 44e3 b13e 6045 20be 5a58 d73d
00000020: 6799 a8be 79ba 553e 663e 50be 8b76 b0be
00000030: 2b3c 6dbe 545d 22be d9eb e13d f939 2d3e
00000040: 0d70 da3e d274 93be 4675 4abe acee fd3c

i_resnet_layers.3.bottleneck_block.4.weight_u f4 [2]
-0.48487785 -0.8745819
00000000: e941 f8be 99e4 5fbf

i_resnet_layers.3.bottleneck_block.4.weight_v f4 [10]
0.31883028 0.34039518 0.2381851 0.31919777 -0.26531872 -0.39435402 -0.37062466 0.2506576
0.4148465 -0.16018848
00000000: b93d a33e 4748 ae3e cbe6 733e e46d a33e
00000010: dbd7 87be c5e8 c9be 84c2 bdbe 3156 803e
00000020: c366 d43e 7308 24be

i_resnet_layers.4.bottleneck_block.0.bias f4 [10]
0.04891317 0.42408568 -0.0535954 0.028696913 0.12474246 -0.45267114 0.64345443 0.25389344
0.059832007 -0.13008782
00000000: 2d59 483d c221 d93e da86 5bbd ca15 eb3c
00000010: fa78 ff3d 83c4 e7be 6eb9 243f 52fe 813e
00000020: 6812 753d be35 05be

i_resnet_layers.4.bottleneck_block.0.weight_orig f4 [10, 2]
-0.58770144 0.06485726 -0.42598698 0.3426923 0.65506035 0.18329042 0.08727543 -0.6308339
-0.13337906 -0.18394718 -0.5193402 -0.56916666 -0.11467113 0.25414023 -0.31431407 0.024517782
-0.6110064 -0.26116118 0.35556108 -0.90506876
00000000: 9a73 16bf e2d3 843d f71a dabe 5d75 af3e
00000010: 09b2 273f 7cb0 3b3e 76bd b23d 557e 21bf
00000020: 8594 08be a65c 3cbe 7bf3 04bf e8b4 11bf
00000030: b3d8 eabd ab1e 823e c6ed a0be 84d9 c83c
00000040: ea6a 1cbf ebb6 85be 1a0c b63e 96b2 67bf

i_resnet_layers.4.bottleneck_block.0.weight_u f4 [10]
-0.27582505 -0.04917496 0.43774638 -0.27582943 -0.16387278 -0.5630873 0.0693721 -0.15276168
-0.45432016 -0.2744477
00000000: f138 8dbe af6b 49bd 4b20 e03e 8439 8dbe
00000010: 44ce 27be 7d26 10bf f612 8e3d 8f6d 1cbe
00000020: a79c e8be 6984 8cbe

i_resnet_layers.4.bottleneck_block.0.weight_v f4 [2]
0.71778524 0.69626456
00000000: c6c0 373f 653e 323f

i_resnet_layers.4.bottleneck_block.2.weight_orig f4 [10, 10]
0.15039165 -0.15649503 -0.2408407 0.05509874 -0.24943674 -0.2907277 -0.035035238 0.2085716
-0.041604362 -0.14405176 -0.23625822 -0.02669788 0.14981087 -0.07326906 0.06121312 0.05320366
0.09918103 0.2542432 -0.09014247 0.13985582 0.19354811 0.2631957 0.33867735 -0.26963428
-0.12502381 0.2783359 0.26212895 0.22925523 -0.0001693783 -0.15527348 -0.06526479 0.32006964
-0.1607224 -0.31087738 -0.039524067 -0.33047768 -0.062443305 -0.023922939 0.07197106 -0.26472247
0.25367457 0.31522998 -0.16391768 0.114310004 -0.08245187 0.2386315 -0.10713214 0.31409645
0.27461883 0.12355111 -0.13485146 -0.06066353 0.03949695 0.13162419 -0.10941779 0.17221802
-0.11943044 0.1218434 0.071185805 0.11633985 0.23567118 0.021387216 0.24938896 -0.11035823
-0.07345152 -0.06859236 -0.05211831 -0.2623493 -0.15416399 0.13081639 -0.11696412 0.039689817
-0.039172895 -0.16669367 -0.13055395 -0.12995332 0.07946414 0.18218344 0.0035946856 -0.31060395
0.23800431 0.028418744 -0.4284039 0.054304767 0.17499611 0.18253008 0.10457794 -0.13383515
0.23323677 -0.059786405 -0.17283186 -0.09900043 0.0806658 0.08883724 -0.21374826 0.11432489
-0.13658203 -0.0086443415 0.20480871 0.040592406
00000000: 4500 1a3e 3c40 20be f29e 76be 37af 613d
00000010: 586c 7fbe 43da 94be 1c81 0fbd cb93 553e
00000020: 5669 2abd 4e82 13be aded 71be 83b5 dabc
00000030: 0568 193e 170e 96bd 9cba 7a3d 15ec 593d
00000040: 6d1f cb3d 2a2c 823e 9e9c b8bd 5d36 0f3e
00000050: 7a31 463e 96c1 863e 1e67 ad3e 810d 8abe
00000060: 3e06 00be 0b82 8e3e c435 863e e2c1 6a3e
00000070: 249b 31b9 0300 1fbe 8ca9 85bd 2be0 a33e
00000080: 6a94 24be 522b 9fbe fde3 21bd 5f34 a9be
00000090: 8dc4 7fbd 0afa c3bc 9065 933d b489 87be
000000a0: a2e1 813e d365 a13e 09da 27be 5d1b ea3d
000000b0: 87dc a8bd d15b 743e 1868 dbbd 40d1 a03e
000000c0: d79a 8c3e 5d08 fd3d 8016 0abe 527a 78bd
000000d0: 8ec7 213d 7ec8 063e 6f16 e0bd ec59 303e
000000e0: f297 f4bd 0889 f93d ddc9 913d 9643 ee3d
000000f0: c953 713e 3e34 af3c d25f 7f3e 7f03 e2bd
00000100: c06d 96bd 277a 8cbd 027a 55bd a652 86be
00000110: 2add 1dbe bbf4 053e e28a efbd ca91 223d
00000120: c273 20bd bfb1 2abe efaf 05be 7c12 05be
00000130: 18be a23d 4c8e 3a3e d194 6b3b 7b07 9fbe
00000140: 67b7 733e 6dce e83c c257 dbbe ad6e 5e3d
00000150: 2e32 333e 2ae9 3a3e f62c d63d 150c 09be
00000160: 9fd5 6e3e 97e2 74bd d6fa 30be bdc0 cabd
00000170: 1c34 a53d 4df0 b53d d3e0 5abe 2b23 ea3d
00000180: 29dc 0bbe ffa0 0dbc 60b9 513e 3944 263d

i_resnet_layers.4.bottleneck_block.2.weight_u f4 [10]
0.3438418 -0.22883007 0.13875775 0.5496321 0.382539 -0.17683843 -0.22500843 0.31200325
0.39856446 -0.15370162
00000000: 080c b03e 6e52 6abe 8316 0e3e b0b4 0c3f
00000010: 27dc c33e 2215 35be 9c68 66be e4be 9f3e
00000020: a410 cc3e f563 1dbe

i_resnet_layers.4.bottleneck_block.2.weight_v f4 [10]
0.2985778 0.39415047 -0.5734539 -0.20345257 -0.086337395 -0.19469106 0.055317856 0.23241447
0.28218445 -0.45076713
00000000: 30df 983e 17ce c93e e0cd 12bf df55 50be
00000010: a9d1 b0bd 185d 47be fa94 623d 0ffe 6d3e
00000020: 7b7a 903e f3ca e6be

i_resnet_layers.4.bottleneck_block.4.weight_orig f4 [2, 10]
0.31031972 -0.21317542 -0.23353219 0.17265287 0.27062583 -0.21267597 -0.15542871 0.33101556
0.17158458 0.1307188 0.16407591 -0.017805692 0.27047166 0.34328958 0.23884065 -0.10814046
0.100059815 0.11554676 0.19824766 -0.101189464
00000000: 3ae2 9e3e a84a 5abe 1023 6fbe eacb 303e
00000010: 788f 8a3e bbc7 59be b428 1fbe df7a a93e
00000020: deb3 2f3e 26db 053e 8403 283e 3edd 91bc
00000030: 437b 8a3e a7c3 af3e a592 743e bf78 ddbd
00000040: 29ec cc3d c8a3 ec3d 6f01 4b3e 6c3c cfbd

i_resnet_layers.4.bottleneck_block.4.weight_u f4 [2]
0.84054387 0.54174346
00000000: e22d 573f b3af 0a3f

i_resnet_layers.4.bottleneck_block.4.weight_v f4 [10]
0.4364606 -0.23570593 -0.062188793 0.41304234 0.44550797 -0.29608512 -0.09546187 0.42521447
0.3141138 0.06886095
00000000: c477 df3e e55c 71be adb9 7ebd 497a d33e
00000010: 9f19 e43e 7898 97be 8381 c3bd b6b5 d93e
00000020: 86d3 a03e f806 8d3d

i_resnet_layers.5.bottleneck_block.0.bias f4 [10]
0.50073093 -0.28312123 0.03437424 0.31254086 -0.33341572 0.2725549 -0.07457732 -0.28816688
-0.06346474 0.4369214
00000000: e72f 003f 44f5 90be 01cc 0c3d 5b05 a03e
00000010: 77b5 aabe 518c 8b3e febb 98bd 9c8a 93be
00000020: cdf9 81bd 29b4 df3e

i_resnet_layers.5.bottleneck_block.0.weight_orig f4 [10, 2]
0.06865018 -0.025106335 0.35838872 -0.17343141 0.531563 -0.3237213 -0.00698024 0.17030078
0.26881012 -0.018044082 -0.14697391 -0.84361064 -0.25573877 0.118532866 0.16175373 -0.3122052
0.6836707 0.28921187 -0.040039368 -0.09364621
00000000: 7798 8c3d cdab cdbc ba7e b73e 0198 31be
00000010: 8314 083f ccbe a5be 7fba e4bb 5463 2e3e
00000020: 7ba1 893e 2fd1 93bc 5480 16be def6 57bf
00000030: 31f0 82be 5cc1 f23d c5a2 253e 5cd9 9fbe
00000040: 0b05 2f3f 9413 943e 5200 24bd 96c9 bfbd

i_resnet_layers.5.bottleneck_block.0.weight_u f4 [10]
-0.004588355 -0.06371134 -0.15624383 0.1555309 0.05566459 -0.8184114 0.040547274 -0.24507542
0.45081863 -0.09735752
00000000: e959 96bb 177b 82bd 62fe 1fbe 7e43 1f3e
00000010: 8e00 643d 6983 51bf e614 263d 0df5 7abe
00000020: b3d1 e63e 6163 c7bd

i_resnet_layers.5.bottleneck_block.0.weight_v f4 [2]
0.27931607 0.96019924
00000000: 8402 8f3e 9ecf 753f

i_resnet_layers.5.bottleneck_block.2.weight_orig f4 [10, 10]
0.0029837652 0.11573001 -0.30041417 -0.055456072 0.123447746 -0.064503305 0.20810631 -0.008014953
0.22868302 0.017953582 0.20813182 0.0018706506 0.26342598 -0.1822301 0.2502367 -0.24497816
0.08911304 0.21360227 -0.18712625 0.4224963 -0.030790623 0.30102056 -0.11706707 0.054140873
0.23103887 -0.05692888 -0.03807941 -0.097516984 0.020915983 -0.027126463 -0.22138277 0.29208863
0.25136486 -0.11606294 -0.09671042 -0.12310861 0.02315567 0.012009855 0.12851453 -0.20357703
0.3069407 0.2453086 0.19441077 -0.24428765 -0.17627256 0.27663642 -0.12171639 0.04494365
-0.21267036 -0.020595245 -0.19521903 0.011838132 -0.15719819 -0.061301775 0.10777562 -0.28699556
0.126826 0.123059504 -0.33793303 -0.039652023 -0.04968911 0.28057858 0.20479108 -0.059453815
-0.13553487 -0.26444897 -0.021229945 -0.1411197 -0.11098 -0.1542609 0.13201016 -0.19875759
0.21933968 -0.040644456 0.31133306 0.092212096 0.16762413 -0.19285148 0.12136417 -0.020067431
0.24708629 -0.18284753 0.057525836 0.26079667 -0.16206379 -0.50063515 -0.10472352 -0.25907603
-0.044998914 -0.04708578 0.042713564 0.024164682 -0.13553324 -0.08441762 -0.14271228 0.031762026
0.07549369 -0.013509355 -0.19471084 0.031752482
00000000: 468b 433b db03 ed3d e3cf 99be e825 63bd
00000010: 2cd2 fc3d 4f1a 84bd d219 553e 2651 03bc
00000020: e22b 6a3e 6413 933c 8220 553e 9e30 f53a
00000030: c5df 863e 879a 3abe 061f 803e 8edb 7abe
00000040: e680 b63d 8eba 5a3e 069e 3fbe 6f51 d83e
00000050: 9e3c fcbc 5e1f 9a3e dcc0 efbd d2c2 5d3d
00000060: 7495 6c3e 422e 69bd 28f9 1bbd fcb6 c7bd
00000070: ff57 ab3c 5138 debc 2ab2 62be a48c 953e
00000080: e5b2 803e 68b2 edbd 1d10 c6bd 5e20 fcbd
00000090: f6b0 bd3c fcc4 443c 5099 033e 7f76 50be
000000a0: 5527 9d3e 2d32 7b3e 9e13 473e 8b26 7abe
000000b0: cb80 34be 4aa3 8d3e 7146 f9bd d516 383d
000000c0: 42c6 59be 5cb7 a8bc 7fe7 47be b9f4 413c
000000d0: 90f8 20be 9217 7bbd 77b9 dc3d 15f1 92be
000000e0: adde 013e 9f06 fc3d 8f05 adbe 296a 22bd
000000f0: cf86 4bbd ffa7 8f3e c1b4 513e d885 73bd
00000100: a7c9 0abe db65 87be 6cea adbc af81 10be
00000110: 7b49 e3bd 92f6 1dbe ac2d 073e 1c87 4bbe
00000120: 959a 603e cd7a 26bd 0c67 9f3e b2d9 bc3d
00000130: a9a5 2b3e dc7a 45be c78d f83d 7464 a4bc
00000140: 3004 7d3e 623c 3bbe 36a0 6b3d 2487 853e
00000150: 0df4 25be a029 00bf 4979 d6bd 9da5 84be
00000160: c850 38bd 05dd 40bd 6bf4 2e3d 03f5 c53c
00000170: 3ac9 0abe 25e3 acbd 2b23 12be e618 023d
00000180: 709c 9a3d 5756 5dbc 4762 47be e40e 023d

i_resnet_layers.5.bottleneck_block.2.weight_u f4 [10]
-0.08983103 0.27846533 0.0071981056 0.025961632 -0.2931928 0.30220696 0.32419533 -0.03785933
0.7934424 -0.016842762
00000000: 55f9 b7bd 0293 8e3e 16de eb3b 7dad d43c
00000010: 5e1d 96be dfba 9a3e eefc a53e 6312 1bbd
00000020: 0b1f 4b3f d5f9 89bc

i_resnet_layers.5.bottleneck_block.2.weight_v f4 [10]
0.09564887 -0.14330202 0.13346593 0.24245177 -0.049701598 -0.8944205 -0.021222275 -0.19834694
-0.22582255 0.02176647
00000000: 8ee3 c33d c4bd 12be 4bab 083e 4745 783e
00000010: e793 4bbd bef8 64bf 56da adbc 761b 4bbe
00000020: 073e 67be 994f b23c

i_resnet_layers.5.bottleneck_block.4.weight_orig f4 [2, 10]
-0.10459194 0.26424548 -0.17838804 0.028734827 -0.29386926 0.2113985 0.3490195 -0.1516623
0.40275088 0.074134395 -0.11402036 0.3506975 0.29663455 0.14881092 0.0451043 0.2657367
-0.028334092 0.14861923 0.20684274 -0.04854602
00000000: 4d34 d6bd 2f4b 873e 5bab 36be 4d65 eb3c
00000010: 0876 96be d978 583e afb2 b23e 5d4d 1bbe
00000020: 5d35 ce3e c6d3 973d 8283 e9bd 9f8e b33e
00000030: 7ce0 973e e461 183e 49bf 383d a40e 883e
00000040: e61c e8bc a42f 183e 95ce 533e 31d8 46bd

i_resnet_layers.5.bottleneck_block.4.weight_u f4 [2]
-0.8666421 -0.4989304
00000000: 42dc 5dbf ce73 ffbe

i_resnet_layers.5.bottleneck_block.4.weight_v f4 [10]
0.18432483 -0.50465477 0.008409435 -0.12380122 0.2899039 -0.39443782 -0.36006168 0.07156141
-0.56484616 -0.050083827
00000000: a6bf 3c3e 0e31 01bf bac7 093c 7e8b fdbd
00000010: 496e 943e c1f3 c9be 015a b8be ca8e 923d
00000020: c299 10bf b324 4dbd

i_resnet_layers.6.bottleneck_block.0.bias f4 [10]
-0.08700704 -0.33494252 -0.14538948 -0.01765198 -0.6836835 -0.41023624 0.27752763 0.5578314
-0.5587965 -0.2888474
00000000: bf30 b2bd 967d abbe fbe0 14be e39a 90bc
00000010: e205 2fbf 7c0a d2be 1a18 8e3e 0ace 0e3f
00000020: 4a0d 0fbf cee3 93be

i_resnet_layers.6.bottleneck_block.0.weight_orig f4 [10, 2]
-0.7265738 0.67468095 0.45708436 -0.15866365 0.40344614 0.7894292 0.5550463 -0.054437906
-0.46103007 -0.35413224 -0.20199203 -0.083664596 -0.50939775 0.41398203 -0.45221117 0.50386906
-0.23810406 0.019990057 -0.5221246 -0.5284543
00000000: be00 3abf e4b7 2c3f f606 ea3e b978 22be
00000010: 7e90 ce3e 0818 4a3f 8417 0e3f 48fa 5ebd
00000020: 220c ecbe d250 b5be 00d7 4ebe 5858 abbd
00000030: e467 02bf 74f5 d33e 3988 e7be 90fd 003f
00000040: 8dd1 73be 30c2 a33c f5a9 05bf c848 07bf

i_resnet_layers.6.bottleneck_block.0.weight_u f4 [10]
0.6226777 -0.30682576 0.026137577 -0.32841974 0.14527653 0.086394355 0.41771555 0.41435015
0.13977191 0.1237333
00000000: ce67 1f3f 4418 9dbe 791e d63c a226 a8be
00000010: 5fc3 143e 86ef b03d d0de d53e b425 d43e
00000020: 5e20 0f3e e267 fd3d

i_resnet_layers.6.bottleneck_block.0.weight_v f4 [2]
-0.8687832 0.49519277
00000000: 9368 5ebf e889 fd3e

i_resnet_layers.6.bottleneck_block.2.weight_orig f4 [10, 10]
-0.23847452 0.25588366 0.040768385 0.1659213 -0.30012268 0.004429387 0.011524532 0.2012945
0.019835304 -0.07830212 -0.016196653 -0.2097575 0.14191237 -0.052013304 -0.105747014 0.25951704
0.06119374 0.32241827 -0.11897488 0.2816109 0.029190252 -0.217168 -0.17443605 -0.11583108
0.2512577 -0.16135141 -0.0045087696 -0.13143961 -0.062175635 0.09770479 0.0020980998 -0.04080721
-0.059327237 -0.032071352 -0.18213521 0.16627994 0.21530637 0.23805761 -0.068711124 0.1483206
-0.20526537 0.17782693 -0.2812787 -0.21277153 -0.24865986 0.07115582 -0.013692263 -0.16535306
0.17946976 0.05632158 -0.039085492 0.19541846 -0.24846044 0.23548946 -0.080266744 0.048950534
-0.2341551 -0.22640094 0.024170665 -0.07352482 0.17588036 0.019441655 -0.39717245 0.13133013
-0.13910285 0.20602435 0.15923803 -0.21394679 0.09578267 -0.09629805 -0.4047305 0.17636323
0.25397936 -0.1256934 0.32882684 0.1807902 -0.2838066 -0.1961274 0.15718496 0.20088622
-0.22553626 -0.1097776 0.057889625 0.3460008 -0.18344116 -0.043272793 -0.106804825 0.10365091
0.15313688 0.014714514 -0.35234034 -0.228999 -0.15715976 0.27267545 -0.07272596 0.12898122
-0.18335938 0.054027256 -0.24194083 0.094859675
00000000: aa32 74be 2f03 833e c0fc 263d 46e7 293e
00000010: aea9 99be 6424 913b 64d1 3c3c 2520 4e3e
00000020: a67d a23c dd5c a0bd d8ae 84bc acca 56be
00000030: 7a51 113e e70b 55bd e491 d8bd 6bdf 843e
00000040: 4aa6 7a3d 0214 a53e 1aa9 f3bd 4e2f 903e
00000050: 6520 ef3c 4a61 5ebe 5d9f 32be d838 edbd
00000060: d9a4 803e 4e39 25be 4dbe 93bb 1b98 06be
00000070: e1ab 7ebd 7319 c83d 4680 093b 7625 27bd
00000080: 1e01 73bd 405d 03bd a781 3abe 4a45 2a3e
00000090: 4679 5c3e 60c5 733e 6bb8 8cbd 5be1 173e
000000a0: 1631 52be 4318 363e c303 90be c8e0 59be
000000b0: b1a0 7ebe 24ba 913d 8355 60bc 5052 29be
000000c0: ecc6 373e 75b1 663d 1c18 20bd c71b 483e
000000d0: 6a6c 7ebe 2624 713e e462 a4bd 5b80 483d
000000e0: 5bc6 6fbe a6d5 67be 8f01 c63c 2e94 96bd
000000f0: fb19 343e 1b44 9f3c 305a cbbe 687b 063e
00000100: fa70 0ebe 0cf8 523e 4b0f 233e de14 5bbe
00000110: b429 c43d e937 c5bd d638 cfbe 9098 343e
00000120: 9509 823e c5b5 00be fe5b a83e 1121 393e
00000130: 194f 91be 9fd5 48be 18f5 203e 1eb5 4d3e
00000140: faf2 66be 14d3 e0bd ac1d 6d3d 0427 b13e
00000150: 00d8 3bbe d03e 31bd 7dbc dabd ee46 d43d
00000160: eacf 1c3e 2515 713c f465 b4be b77e 6abe
00000170: 7dee 20be 1e9c 8b3e 59f1 94bd a713 043e
00000180: 90c2 3bbe af4b 5d3d 56bf 77be ca45 c23d

i_resnet_layers.6.bottleneck_block.2.weight_u f4 [10]
0.23129748 -0.20507891 -0.14536946 0.1110146 0.29472873 0.35847473 0.5715727 -0.5570206
0.116476566 0.071304
00000000: 3fd9 6c3e 3500 52be bbdb 14be 9f5b e33d
00000010: afe6 963e 008a b73e 9752 123f e798 0ebf
00000020: 448b ee3d d507 923d

i_resnet_layers.6.bottleneck_block.2.weight_v f4 [10]
0.16522211 0.15537448 -0.6242114 0.33090496 -0.56721205 0.056972098 0.17216693 -0.11554179
0.06887755 -0.27696872
00000000: fc2f 293e 7d1a 1f3e 51cc 1fbf 606c a93e
00000010: cf34 11bf 935b 693d 874c 303e 2da1 ecbd
00000020: ac0f 8d3d d8ce 8dbe

i_resnet_layers.6.bottleneck_block.4.weight_orig f4 [2, 10]
-0.022844065 0.19481863 0.02199795 -0.20873268 -0.23937072 -0.14704637 -0.37317616 0.3252972
-0.18131177 0.012490487 0.22205614 -0.2647166 -0.20818603 -0.24361497 0.22639756 0.26055396
-0.12721926 0.42082417 0.163207 0.25998515
00000000: 7a23 bbbc 897e 473e 0b35 b43c 05be 55be
00000010: 991d 75be 5393 16be f210 bfbe 5b8d a63e
00000020: cba9 39be e6a4 4c3c af62 633e ef88 87be
00000030: b82e 55be 3476 79be c3d4 673e 5467 853e
00000040: c445 02be 4476 d73e bc1f 273e c61c 853e

i_resnet_layers.6.bottleneck_block.4.weight_u f4 [2]
0.26084253 0.9653814
00000000: 278d 853e 3c23 773f

i_resnet_layers.6.bottleneck_block.4.weight_v f4 [10]
0.2597228 -0.2550398 -0.24333727 -0.36097845 0.19463342 0.2657141 -0.27452627 0.6122224
0.13737132 0.31692627
00000000: 63fa 843e 9494 82be 682d 79be 2bd2 b8be
00000010: fc4d 473e ae0b 883e b58e 8cbe 9bba 1c3f
00000020: 11ab 0c3e 2944 a23e

i_resnet_layers.7.bottleneck_block.0.bias f4 [10]
0.42380908 0.32186583 0.05687191 0.24546914 -0.3464227 -0.13892397 0.026244856 -0.3383479
0.016987266 -0.33742014
00000000: 81fd d83e 99cb a43e 85f2 683d 435c 7b3e
00000010: 515e b1be 1642 0ebe 74ff d63c f03b adbe
00000020: e128 8b3c 55c2 acbe

i_resnet_layers.7.bottleneck_block.0.weight_orig f4 [10, 2]
-0.36176392 0.109175846 -0.3864219 -0.6176048 0.03400973 -0.79180765 0.39748213 -0.018368723
0.15683469 -0.22213785 -0.22934705 0.15512396 -0.17179723 -0.42084783 -0.015431427 0.4627376
-0.47381783 0.474366 0.6527965 -0.2894911
00000000: 1f39 b9be 9697 df3d 17d9 c5be 591b 1ebf
00000010: c94d 0b3d e8b3 4abf c782 cb3e 017a 96bc
00000020: 4699 203e 1b78 63be f4d9 6abe d1d8 1e3e
00000030: 9deb 2fbe 5e79 d7be 19d4 7cbc f1eb ec3e
00000040: 4098 f2be 1ae0 f23e ac1d 273f 2d38 94be

i_resnet_layers.7.bottleneck_block.0.weight_u f4 [10]
-0.16574581 0.3243899 0.5491883 0.11265556 0.19128956 -0.16373883 0.2440954 -0.319893
-0.44334662 0.362116
00000000: 45b9 29be 6f16 a63e 9b97 0c3f f5b7 e63d
00000010: 69e1 433e 27ab 27be 25f4 793e 04c9 a3be
00000020: 54fe e2be 4567 b93e

i_resnet_layers.7.bottleneck_block.0.weight_v f4 [2]
0.34603032 -0.93822336
00000000: e32a b13e 682f 70bf

i_resnet_layers.7.bottleneck_block.2.weight_orig f4 [10, 10]
0.14891279 -0.27110833 0.1903921 0.021475011 0.0038533607 -0.30558047 -0.07521658 -0.21950588
-0.09039341 0.2473634 0.19839482 -0.1194345 -0.09364533 -0.352689 -0.02461995 0.011481749
0.16791506 0.050381 0.03187918 -0.038552523 0.05249763 0.04515288 0.14456135 -0.12424024
0.3050763 -0.0012208131 -0.03245112 -0.26800752 -0.024110928 0.022731287 0.12554905 -0.32019168
-0.3066742 0.04155176 -0.06730691 0.19411972 0.12994431 0.005313747 0.01943362 0.33308235
0.16667093 -0.17090428 0.03163266 0.20939617 -0.16948716 -0.22939216 0.3282729 -0.18361026
0.16022944 -0.15280767 -0.0062784413 -0.26766807 -0.40356344 0.14140862 0.067220375 0.061621137
-0.4248214 -0.22013935 0.30039924 0.07510352 -0.09764536 -0.23512395 0.0052926387 0.0581252
-0.025996504 -0.080694586 0.15315825 -0.21997741 -0.24210441 -0.07232108 0.06210031 -0.04685585
-0.05476546 -0.22633003 -0.18488337 0.11507352 -0.11381607 -0.12258852 0.23147471 -0.35962614
0.2228809 -0.16613199 0.003433008 -0.17155309 0.10993191 0.15041879 0.20581037 0.3413385
0.24457423 -0.08001485 0.18935269 0.073804565 0.12676238 -0.014493656 0.028120846 0.27842546
0.061289467 -0.18526335 -0.14832129 0.2872733
00000000: 987c 183e b6ce 8abe 26f6 423e 5dec af3c
00000010: aa88 7c3b 0b75 9cbe 260b 9abd 26c6 60be
00000020: 2e20 b9bd d54c 7d3e 0328 4b3e 139a f4bd
00000030: 1fc9 bfbd a793 b4be c7af c9bc f21d 3c3c
00000040: edf1 2b3e 4f5c 4e3d be93 023d 40e9 1dbd
00000050: c107 573d 3af2 383d e407 143e ab71 febd
00000060: f632 9c3e b103 a0ba 77eb 04bd 4838 89be
00000070: 4884 c5bc f736 ba3c ee8f 003e 2af0 a3be
00000080: 6704 9dbe 2e32 2a3d 35d8 89bd 52c7 463e
00000090: 1f10 053e f11e ae3b 4133 9f3c c589 aa3e
000000a0: c9ab 2a3e 8801 2fbe 4091 013d f36b 563e
000000b0: 0b8e 2dbe c7e5 6abe 6313 a83e 5404 3cbe
000000c0: 3013 243e 9d79 1cbe 62bb cdbb ca0b 89be
000000d0: de9f cebe 6ccd 103e d6aa 893d 7266 7c3d
000000e0: 3182 d9be 366c 61be eecd 993e e0cf 993d
000000f0: 4afa c7bd 55c4 70be df6d ad3b b114 6e3d
00000100: 9ff6 d4bc 3443 a5bd 84d5 1c3e c241 61be
00000110: 38ea 77be 131d 94bd e55c 7e3d ebeb 3fbd
00000120: bf51 60bd 0fc3 67be 1152 3dbe aaab eb3d
00000130: 6618 e9bd b10f fbbd b507 6d3e eb20 b8be
00000140: e43a 643e 811e 2abe 51fc 603b 9dab 2fbe
00000150: fb23 e13d 6207 1a3e f4bf 523e ebc3 ae3e
00000160: ab71 7a3e d3de a3bd ace5 413e d926 973d
00000170: ffcd 013e cd76 6dbc b05d e63c c88d 8e3e
00000180: aa0a 7b3d adb5 3dbe 89e1 17be 7c15 933e

i_resnet_layers.7.bottleneck_block.2.weight_u f4 [10]
-0.18754053 -0.016684825 0.048618134 -0.5023431 -0.08724648 -0.8287638 -0.043213855 -0.11486053
0.016741285 0.0059805596
00000000: a00a 40be 9dae 88bc cf23 473d 8f99 00bf
00000010: 48ae b2bd dd29 54bf 0301 31bd ff3b ebbd
00000020: 0525 893c 92f8 c33b

i_resnet_layers.7.bottleneck_block.2.weight_v f4 [10]
-0.1161333 0.5449638 0.544605 -0.1638588 0.037156023 -0.090338536 0.325463 0.2940481
-0.31656295 -0.2528618
00000000: 4cd7 edbd bf82 0b3f 3c6b 0b3f 9aca 27be
00000010: ea30 183d 6903 b9bd 16a3 a63e 798d 963e
00000020: 8a14 a2be 1a77 81be

i_resnet_layers.7.bottleneck_block.4.weight_orig f4 [2, 10]
-0.036359917 -0.07129392 -0.046963375 0.41687363 -0.15052219 0.4242221 0.11716069 0.06393072
0.03202322 -0.15604809 0.26207328 -0.17973466 0.30709326 0.09841638 -0.018841779 -0.17633371
0.24481118 -0.36807752 -0.37906063 0.18855013
00000000: 23ee 14bd 8c02 92bd ab5c 40bd 7670 d53e
00000010: 7d22 1abe a433 d93e f2f1 ef3d 1cee 823d
00000020: c82a 033d 12cb 1fbe 782e 863e 5d0c 38be
00000030: 543b 9d3e 878e c93d 135a 9abc d390 34be
00000040: c8af 7a3e a874 bcbe 3c14 c2be 4913 413e

i_resnet_layers.7.bottleneck_block.4.weight_u f4 [2]
-0.34698656 0.9378701
00000000: 39a8 b1be 4118 703f

i_resnet_layers.7.bottleneck_block.4.weight_v f4 [10]
0.32292357 -0.17974526 0.38039002 -0.06536808 0.043142386 -0.39069155 0.23600785 -0.45924142
-0.45823747 0.2887166
00000000: 3d56 a53e 240f 38be 7bc2 c23e b3df 85bd
00000010: 12b6 303d b908 c8be 0bac 713e b121 ebbe
00000020: 1a9e eabe aad2 933e

i_resnet_layers.8.bottleneck_block.0.bias f4 [10]
0.25045052 -0.12810409 -0.23132774 0.078009166 -0.6136256 0.17864846 -0.0075148814 0.2156056
0.20778209 0.4077886
00000000: 0d3b 803e b82d 03be 2ee1 6cbe 45c3 9f3d
00000010: 9116 1dbf 9fef 363e 653f f6bb b7c7 5c3e
00000020: d4c4 543e abc9 d03e

i_resnet_layers.8.bottleneck_block.0.weight_orig f4 [10, 2]
-0.10811054 0.7638012 0.34619224 0.40253443 -0.48992652 0.20684886 -0.52198714 0.5395185
0.117751874 -0.24201795 0.32541627 -0.52510655 0.53375435 -0.3028426 0.32694474 0.181298
-0.39421725 0.33862233 0.20139319 0.5739897
00000000: 0f69 ddbd 7a88 433f 1c40 b13e fe18 ce3e
00000010: a6d7 fabe 30d0 533e f3a0 05bf e21d 0a3f
00000020: e527 f13d 8ed3 77be f69c a63e 626d 06bf
00000030: 20a4 083f 2f0e 9bbe 4d65 a73e 2fa6 393e
00000040: d8d6 c9be e85f ad3e 043a 4e3e fdf0 123f

i_resnet_layers.8.bottleneck_block.0.weight_u f4 [10]
0.4564122 0.10224548 0.28169066 0.4753275 -0.1732916 -0.39997455 -0.34939492 -0.012664737
0.3211933 0.24604045
00000000: dcae e93e 1466 d13d c239 903e 205e f33e
00000010: 5a73 31be 77c9 ccbe e4e3 b2be c27f 4fbc
00000020: 7373 a43e 07f2 7b3e

i_resnet_layers.8.bottleneck_block.0.weight_v f4 [2]
-0.5299572 0.84802437
00000000: 46ab 07bf 2018 593f

i_resnet_layers.8.bottleneck_block.2.weight_orig f4 [10, 10]
0.02075367 -0.23379725 -0.0031879314 0.20443171 -0.21498485 0.10046382 -0.12926766 -0.15336585
-0.23127228 -0.0044029946 0.27561477 -0.12290371 -0.02892445 -0.23262265 -0.27648842 0.38381723
-0.19187652 0.0064348024 -0.31051525 0.270332 0.15235852 -0.1536207 -0.2863068 -0.2204887
0.11393618 -0.2419873 -0.19224253 0.19848865 0.10439787 0.40847483 -0.08501817 0.24231581
0.1306553 -0.26214027 0.0026195836 0.31303233 0.24503948 0.065211296 -0.052856937 0.1522699
-0.012580224 -0.18386982 -0.0016656185 0.33599117 -0.14246118 -0.12143833 -0.1590579 0.07308747
0.35804892 0.042072408 -0.36126885 0.033194505 -0.2578078 0.008487365 0.13140696 -0.00071681436
-0.18945342 0.20217861 -0.09926546 0.09834392 -0.2222651 0.2562379 -0.278022 0.16743024
0.1727722 -0.0769258 -0.28780144 0.08547298 -0.24780591 0.37025633 0.36236528 0.33077225
-0.14817344 0.23680304 -0.21041177 0.0016875465 -0.24762723 0.29556698 0.25625938 -0.054898765
-0.07046899 -0.21007472 0.29659283 -0.07407087 0.042285137 0.06788253 -0.08971565 0.16072755
-0.1037865 0.014897751 0.14777017 0.19367503 0.37638012 0.28377357 -0.2727323 -0.3848998
-0.30076867 0.009930203 0.04991214 -0.14790396
00000000: 9a03 aa3c 8c68 6fbe 9dec 50bb 8c56 513e
00000010: fd24 5cbe fabf cd3d be5e 04be f00b 1dbe
00000020: a4d2 6cbe ff46 90bb 611d 8d3e f1b4 fbbd
00000030: f8f2 ecbc a234 6ebe e48f 8dbe b183 c43e
00000040: 477b 44be 09db d23b dbfb 9ebe f568 8a3e
00000050: df03 1c3e bf4e 1dbe ce96 92be cac7 61be
00000060: 5f57 e93d 85cb 77be 3adb 44be 9c40 4b3e
00000070: 8dce d53d 9d23 d13e 021e aebd a321 783e
00000080: 81ca 053e 4037 86be 52ad 2b3b c645 a03e
00000090: a1eb 7a3e 808d 853d 8480 58bd a4ec 1b3e
000000a0: 491d 4ebc 5f48 3cbe e250 daba 0907 ac3e
000000b0: 58e1 11be a9b4 f8bd 13e0 22be e2ae 953d
000000c0: 3052 b73e 1e54 2c3d 3bf8 b8be f6f6 073d
000000d0: 62ff 83be 970e 0b3c 8c8f 063e 99e8 3bba
000000e0: 1400 42be e907 4f3e b14b cbbd 8a68 c93d
000000f0: 7699 63be 9d31 833e e658 8ebe d572 2b3e
00000100: 32eb 303e 468b 9dbd b65a 93be 750c af3d
00000110: d5c0 7dbe 3d92 bd3e f187 b93e fb5a a93e
00000120: c7ba 17be 7f7c 723e 2f76 57be aa30 dd3a
00000130: fe91 7dbe 8e54 973e 6e34 833e 87dd 60bd
00000140: 0c52 90bd d41d 57be 04db 973e 78b2 97bd
00000150: 2e33 2d3d ff05 8b3d d7bc b7bd c395 243e
00000160: 048e d4bd b215 743c 1051 173e bf52 463e
00000170: e5b4 c03e c54a 913e 91a3 8bbe 9611 c5be
00000180: 5afe 99be 4ab2 223c ac70 4c3d 2374 17be

i_resnet_layers.8.bottleneck_block.2.weight_u f4 [10]
0.03380978 -0.28825518 -0.07704841 -0.34743887 0.39111635 -0.14932589 -0.10273259 0.45943898
-0.0741851 0.6218552
00000000: 207c 0a3d 2f96 93be 8fcb 9dbd 82e3 b1be
00000010: 6740 c83e e3e8 18be 7765 d2bd 963b eb3e
00000020: 5cee 97bd e731 1f3f

i_resnet_layers.8.bottleneck_block.2.weight_v f4 [10]
0.251709 0.12825859 0.1792924 0.53744006 -0.27493885 -0.44079524 -0.29182944 0.068384625
0.39347512 -0.2909456
00000000: 01e0 803e 3856 033e 6d98 373e ac95 093f
00000010: c9c4 8cbe eaaf e1be ab6a 95be 3d0d 8c3d
00000020: 9275 c93e d2f6 94be

i_resnet_layers.8.bottleneck_block.4.weight_orig f4 [2, 10]
0.11591463 0.26383725 0.3431969 -0.117880724 -0.1713181 -0.20638397 0.20383024 0.19786836
-0.1927059 -0.038796607 -0.06578114 0.16273338 0.07910535 0.3193479 -0.3280968 0.13852388
0.1191623 -0.3550431 0.048950467 -0.47639972
00000000: a664 ed3d ad15 873e 81b7 af3e 736b f1bd
00000010: 036e 2fbe 5256 53be e0b8 503e 019e 4a3e
00000020: b254 45be 31e9 1ebd 43b8 86bd 94a3 263e
00000030: fc01 a23d 9181 a33e 4efc a7be 34d9 0d3e
00000040: 5d0b f43d 36c8 b5be 4980 483d aaea f3be

i_resnet_layers.8.bottleneck_block.4.weight_u f4 [2]
-0.06725255 -0.997736
00000000: b4bb 89bd a06b 7fbf

i_resnet_layers.8.bottleneck_block.4.weight_v f4 [10]
0.07254438 -0.22580896 -0.1279265 -0.38949296 0.42472437 -0.15581731 -0.16628942 0.42723817
-0.04489946 0.59900516
00000000: 2692 943d 773a 67be 2aff 02be 9f6b c7be
00000010: 7975 d93e 938e 1fbe c647 2abe f6be da3e
00000020: 7fe8 37bd 6758 193f

i_resnet_layers.9.bottleneck_block.0.bias f4 [10]
0.17336854 0.63043004 0.6729726 0.38442874 0.5751836 -0.0124351755 0.49978852 -0.37775725
0.24697243 0.50370264
00000000: 8687 313e dd63 213f ef47 2c3f d8d3 c43e
00000010: 3b3f 133f e8bc 4bbc 48e4 ff3e 6669 c1be
00000020: 57e6 7c3e a8f2 003f

i_resnet_layers.9.bottleneck_block.0.weight_orig f4 [10, 2]
0.3716507 0.32521933 0.49053544 0.56473905 0.4113184 0.8301087 0.5867054 -0.28559193
-0.7010788 0.23272815 0.26790178 -0.43900585 -0.39886865 0.13777128 0.16252045 0.31865564
-0.067207225 0.5781884 0.5225929 0.4187596
00000000: 0049 be3e 2683 a63e 7627 fb3e bd92 103f
00000010: 5398 d23e 0182 543f 5332 163f 1b39 92be
00000020: e679 33bf 4a50 6e3e 6c2a 893e 60c5 e0be
00000030: 8338 ccbe ea13 0d3e c36b 263e d526 a33e
00000040: f1a3 89bd 2804 143f a6c8 053f a967 d63e

i_resnet_layers.9.bottleneck_block.0.weight_u f4 [10]
-0.3109675 -0.47587553 -0.57187885 -0.10339498 0.17610894 0.10269253 0.09761089 -0.22156502
-0.25266668 -0.418433
00000000: 2237 9fbe f5a5 f3be a766 12bf bfc0 d3bd
00000010: e755 343e 7650 d23d 38e8 c73d f1e1 62be
00000020: 875d 81be da3c d6be

i_resnet_layers.9.bottleneck_block.0.weight_v f4 [2]
-0.6474698 -0.7620912
00000000: 95c0 25bf 6918 43bf

i_resnet_layers.9.bottleneck_block.2.weight_orig f4 [10, 10]
-0.16678941 0.2881305 0.04390192 -0.018587474 0.03550288 -0.13990419 -0.24229045 -0.066067204
-0.052976932 -0.21687393 -0.14958234 0.20809773 -0.05086838 0.22991484 -0.27648783 -0.119620316
0.111141704 -0.254558 -0.20194608 0.18817613 0.21784031 0.26048836 0.21968967 0.21270105
0.27961913 0.22599901 0.088407956 -0.102561854 0.3330699 -0.13360131 -0.18018377 0.29310194
0.29525414 0.06696973 -0.009618591 0.12854517 -0.1165091 -0.09874141 0.022359125 0.20998779
-0.1231787 -0.009374326 -0.34835786 0.31869355 -0.07369154 0.24465191 -0.17137754 -0.09451546
0.029792234 -0.1698412 -0.073425576 0.07195973 -0.084241375 -0.06269444 -0.25852805 0.20256689
0.02960285 -0.03139582 0.015240132 0.15129176 -0.27625012 -0.100753754 -0.05489998 -0.16518833
0.17899169 0.10137548 0.05352605 -0.26687142 0.13367218 -0.1053835 0.082454264 -0.014157288
0.18308891 0.13498934 0.1844669 0.0026066317 -0.030175239 -0.08253741 -0.32020652 0.036905646
0.057759274 -0.2244618 -0.29430893 0.044948187 -0.019926898 0.10040444 -0.015969794 -0.122542664
0.10066078 -0.35251832 0.21517777 -0.0193781 0.23530641 0.24672188 -0.28695402 0.17469922
-0.12156311 0.20559183 0.17716177 0.060703304
00000000: d8ca 2abe d785 933e 80d2 333d c244 98bc
00000010: 786b 113d 0b43 0fbe fd1a 78be 3e4e 87bd
00000020: 57fe 58bd 3314 5ebe 1d2c 19be 9217 553e
00000030: 5d5b 50bd cc6e 6b3e d08f 8dbe 7ffb f4bd
00000040: 439e e33d 6d55 82be f4ca 4ebe 3eb1 403e
00000050: 8811 5f3e bb5e 853e 54f6 603e 4ece 593e
00000060: 3d2a 8f3e 496c 673e 3b0f b53d f30b d2bd
00000070: 2388 aa3e c8ce 08be 1882 38be 7511 963e
00000080: 8d2b 973e 6d27 893d 4b97 1dbc 58a1 033e
00000090: 539c eebd f038 cabd 7c2a b73c 0a07 573e
000000a0: 1d45 fcbd c696 19bc f65b b2be cd2b a33e
000000b0: 97eb 96bd 0886 7a3e 987d 2fbe 5291 c1bd
000000c0: d80e f43c daea 2dbe 2660 96bd 9f5f 933d
000000d0: be86 acbd f165 80bd ca5d 84be b26d 4f3e
000000e0: ad81 f23c e798 00bd bfb1 793c 3aec 1a3e
000000f0: a870 8dbe fc57 cebd cdde 60bd 2127 29be
00000100: 9949 373e f39d cf3d 223e 5b3d 5fa3 88be
00000110: 5ce1 083e 4ed3 d7bd c8dd a83d f8f3 67bc
00000120: a97b 3b3e a53a 0a3e e4e4 3c3e 06d4 2a3b
00000130: 1032 f7bc 6009 a9bd 1cf2 a3be 602a 173d
00000140: fd94 6c3d 50d9 65be a9af 96be 971b 383d
00000150: bc3d a3bc d8a0 cd3d 16d3 82bc a6f7 fabd
00000160: 3d27 ce3d 487d b4be 9057 5c3e d2be 9ebc
00000170: 2af4 703e a9a4 7c3e a3eb 92be 5ae4 323e
00000180: 14f6 f8bd aa86 523e e569 353e 07a4 783d

i_resnet_layers.9.bottleneck_block.2.weight_u f4 [10]
-0.04886913 -0.2427905 -0.20770575 -0.48812667 0.32777604 -0.063695356 0.29861888 -0.19045645
0.56271565 -0.32197088
00000000: ff2a 48bd 139e 78be d1b0 54be bdeb f9be
00000010: 43d2 a73e b672 82bd 93e4 983e 0407 43be
00000020: 220e 103f 5ed9 a4be

i_resnet_layers.9.bottleneck_block.2.weight_v f4 [10]
-0.0958762 -0.47983888 -0.6687718 -0.1758434 0.1192567 0.026839362 0.019432697 -0.10751
0.09336171 -0.49678046
00000000: be5a c4bd 71ad f5be a134 2bbf 4b10 34be
00000010: db3c f43d 39de db3c 5231 9f3c 342e dcbd
00000020: 6d34 bf3d 025a febe

i_resnet_layers.9.bottleneck_block.4.weight_orig f4 [2, 10]
0.043283883 0.2602787 0.3914222 0.2010116 -0.21342044 0.1175632 0.07569904 -0.17326145
-0.28911537 -0.1552354 -0.09563601 0.121567026 -0.054095544 -0.21772096 0.3526556 0.08376879
0.22701478 0.2130011 -0.09883118 -0.2902467
00000000: 714a 313d 4043 853e 7e68 c83e fcd5 4d3e
00000010: e38a 5abe fac4 f03d 1908 9b3d 736b 31be
00000020: ee06 94be 07f6 1ebe d0dc c3bd 22f8 f83d
00000030: 4a93 5dbd 3ef2 5ebe 468f b43e f98e ab3d
00000040: 9076 683e f61c 5a3e 0068 cabd 379b 94be

i_resnet_layers.9.bottleneck_block.4.weight_u f4 [2]
0.88884085 -0.4582161
00000000: 138b 633f 4d9b eabe

i_resnet_layers.9.bottleneck_block.4.weight_v f4 [10]
0.11709405 0.25056624 0.5318562 0.3972091 -0.5011375 0.09409779 -0.05223514 -0.35909566
-0.30188555 -0.007283422
00000000: 01cf ef3d 384a 803e ba27 083f fe5e cb3e
00000010: 8c4a 00bf 58b6 c03d 84f4 55bd 63db b7be
00000020: be90 9abe c6a9 eebb

i_resnet_layers.10.bottleneck_block.0.bias f4 [10]
0.55397195 0.12693463 -0.194108 -0.55082524 0.16958599 0.56207633 0.6107603 0.65494525
-0.45833105 -0.10764127
00000000: 1bd1 0d3f 27fb 013e 3fc4 46be e202 0dbf
00000010: f3a7 2d3e 3ce4 0f3f c95a 1c3f 7eaa 273f
00000020: 5eaa eabe 0773 dcbd

i_resnet_layers.10.bottleneck_block.0.weight_orig f4 [10, 2]
0.60782313 -0.013803839 -0.13565624 -0.32990122 -0.17945364 -0.677052 -0.0051896125 -0.47712418
0.057130415 0.11899546 0.6096682 -0.42923695 -0.58323103 -0.57666725 -0.25703582 0.30784923
0.36371073 -0.4835397 0.567683 0.024633804
00000000: 4c9a 1b3f 7f29 62bc 78e9 0abe d0e8 a8be
00000010: b2c2 37be 4853 2dbf a00d aabb 9f49 f4be
00000020: 9501 6a3d e4b3 f33d 3713 1c3f f2c4 dbbe
00000030: a14e 15bf 77a0 13bf 339a 83be 6a9e 9d3e
00000040: 4b38 ba3e 8492 f7be ac53 113f d5cc c93c

i_resnet_layers.10.bottleneck_block.0.weight_u f4 [10]
0.2651315 -0.26991972 -0.5095063 -0.30454382 0.10113576 0.0029831324 -0.62778866 0.0790177
-0.14227237 0.27141088
00000000: 51bf 873e eb32 8abe 016f 02bf 2bed 9bbe
00000010: 4420 cf3d a880 433b c2b6 20bf 08d4 a13d
00000020: d9af 11be 5ef6 8a3e

i_resnet_layers.10.bottleneck_block.0.weight_v f4 [2]
0.5797663 0.8147828
00000000: 906b 143f 9b95 503f
