experiments/models/spiral/i_resnet_euclidean_product_100_blocks_10_epochs_2024_02_10_10_39_06.pt (torch, 681942 bytes, 1000 tensors)

i_resnet_layers.0.bottleneck_block.0.bias f4 [10]
00000000: 97d9 0f3f a44b bd3c 3fc1 a63e 4278 b13e
00000010: d433 953e 1522 aabe baba 0bbf af8f 66be
00000020: d101 52bd 1ec7 483e
0.5619139 0.023107357 0.3256931 0.34662062 0.29141104 -0.33229128 -0.545818 -0.22515748
-0.051271264 0.19607207

i_resnet_layers.0.bottleneck_block.0.weight_orig f4 [10, 2]
00000000: fa83 3a3f 3865 44be 1c76 10bf 9307 193e
00000010: 8786 dfbc 9f6e f2be 2590 eebe c3fd 073e
00000020: 5ee4 27bf 41a8 b2be d5be ba3e bfdb a7bc
00000030: 0eba 66be 49ad e93e b314 0abf 2375 2fbe
00000040: feaf f33e d75e 33be 0bbb 203f d080 1dba
0.7285763 -0.19179237 -0.5643022 0.14944296 -0.027285827 -0.47350022 -0.4659435 0.13280396
-0.65582836 -0.34893993 0.36473718 -0.020490525 -0.22531912 0.4564002 -0.53937835 -0.17134528
0.4759521 -0.17516647 0.62785405 -0.0006008269

i_resnet_layers.0.bottleneck_block.0.weight_u f4 [10]
00000000: ce1c ebbe 3529 b63e a483 b2bb 669c 963e
00000010: 7112 c73e 9ec4 67be af94 243e fb83 a63e
00000020: 0acf 9abe a3aa c6be
-0.45920414 0.35578313 -0.0054478217 0.29416198 0.38881257 -0.22633597 0.16072343 0.32522568
-0.30236083 -0.3880206

i_resnet_layers.0.bottleneck_block.0.weight_v f4 [2]
00000000: 7842 7fbf 0da5 9b3d
-0.997108 0.0759984

i_resnet_layers.0.bottleneck_block.2.weight_orig f4 [10, 10]
00000000: bd91 803e 80f6 c03d e0de bbbd 3a5b cabd
00000010: a658 813e 59a9 f7bc 0dad 02be 99c0 bfbd
00000020: 6dfb 083e f534 13be a204 663e 0a4a 41be
00000030: 7b6e 503d 372b db3c 30a6 103d eb7b 803e
00000040: ab3a 6ebe bcc1 f9bd 6e2e 9dbe 3e97 4a3e
00000050: 733a 94be 6a42 92bd c30c 863e 1bbd c73d
00000060: e291 2a3e 074a a33e 26ec 5a3b 4f84 91be
00000070: e6bc 063e 966d 893e ac98 6bbe 1a3a e5bd
00000080: 7b92 363d a808 97be b85c 843e b605 983e
00000090: 8604 963e 4819 70be 1b18 8abe b042 7d3e
000000a0: 2bf4 a83d d553 003e 7235 d5bd a3ff 92be
000000b0: 09a7 d13d 8197 243e e891 7c3e ab0b ccbd
000000c0: 0d4f 0139 2f7c 513e 16e5 523e 7949 2c3c
000000d0: 01fb f8bc e4d2 26be 0d30 0d3e 75fa 2f3e
000000e0: 21cc 50be 485f 89be a43c 63be d114 103e
000000f0: f3db f0bd e621 62be cfcf 99bd c952 adbd
00000100: 8428 7d3e 2b13 453e ae37 893e bd87 8cbd
00000110: 4546 933d 1a06 2dbd d71b 333e cfed 4dbd
00000120: e693 963d aa18 43be 5830 f0ba 2d5c 92be
00000130: d7b0 6cbe 700a c4bd 047d 433e ac7d 7e3e
00000140: adaa 993e 4c82 513e 8afc 56be 4046 573e
00000150: 09e8 5dbe e35f 8abe 8482 11be 28fb 9bbe
00000160: bf98 16be 6969 4dbe 2463 fe3d fa9f 3abc
00000170: 5d87 8d3c 0289 9bbe f839 a1bc e907 8c3e
00000180: 79b8 7a3e ee7f 9cbe d71b eb3c 70f8 913e
0.2511119 0.09422016 -0.091733694 -0.09880681 0.25262946 -0.030232118 -0.12761326 -0.09362907
0.13377161 -0.1437567 0.22462705 -0.188759 0.050886612 0.026754005 0.03531474 0.25094542
-0.23264568 -0.12195155 -0.30699486 0.19784257 -0.28950843 -0.07141574 0.2618161 0.09752866
0.16657212 0.31892416 0.0033404916 -0.28421256 0.13157997 0.2684142 -0.23007458 -0.111927226
0.04457329 -0.29498792 0.2585199 0.29691857 0.29300326 -0.23447144 -0.26971516 0.2473247
0.08249696 0.1253198 -0.104105845 -0.2871066 0.102369376 0.16073419 0.24665034 -0.09963163
0.00012331847 0.20457529 0.20595202 0.010515564 -0.030393125 -0.16291386 0.13787861 0.17185386
-0.20390369 -0.26830506 -0.22191101 0.14070441 -0.11760702 -0.22083244 -0.075103395 -0.08463056
0.24722487 0.19245593 0.26800293 -0.068618275 0.07191137 -0.042242147 0.17491089 -0.05027562
0.07352428 -0.19052377 -0.0018324954 -0.2858595 -0.23114334 -0.09572303 0.19090658 0.24852628
0.30013028 0.2045986 -0.20994774 0.21022892 -0.21670546 -0.2702628 -0.14209944 -0.30465055
-0.14706706 -0.20059742 0.12421253 -0.01139068 0.01727646 -0.30377966 -0.019680962 0.27349785
0.24484433 -0.30566353 0.028699799 0.28509855

i_resnet_layers.0.bottleneck_block.2.weight_u f4 [10]
00000000: c231 5ebd afa7 2d3e 9df1 c33e 6b38 123f
00000010: 977b 953e ae36 493e 95a4 8d3e 043d 58bd
00000020: 2395 b2be 7f94 d33e
-0.05424667 0.16958497 0.38270274 0.57117337 0.29195854 0.19649765 0.2766463 -0.052792564
-0.34879407 0.4132423

i_resnet_layers.0.bottleneck_block.2.weight_v f4 [10]
00000000: 89ff 49be 976d 36be 2005 013e 45c5 b6be
00000010: c954 a13e 23c7 0c3f 2ed0 a43e 612b 98be
00000020: 7764 d9bd 9ce7 d93e
-0.19726385 -0.17815243 0.12599611 -0.3569738 0.31509998 0.5499136 0.32190078 -0.29720595
-0.10614865 0.42559516

i_resnet_layers.0.bottleneck_block.4.weight_orig f4 [2, 10]
00000000: b26f 18be 0d45 4fbe aced ce3d 9c6b 073d
00000010: 1bfe 81be 5793 c3bd 4f93 9abd 4212 603d
00000020: 46da 6b3e 2e89 f73d 5220 9abe a440 28be
00000030: 4454 293e 7f02 1d3e f2cb 92be af43 c0bd
00000040: 32bb 503e ea3f 813e 6461 7c3e d3fd 6bbe
-0.14886358 -0.20241185 0.10103926 0.03306161 -0.2538918 -0.09549587 -0.07547628 0.054704912
0.23032483 0.12086712 -0.30102783 -0.16430908 0.16536051 0.15332983 -0.28671223 -0.093879096
0.2038391 0.25244075 0.24646527 -0.23046045

i_resnet_layers.0.bottleneck_block.4.weight_u f4 [2]
00000000: fde4 fa3e 2928 5f3f
0.4900283 0.87170655

i_resnet_layers.0.bottleneck_block.4.weight_v f4 [10]
00000000: ba62 debe dabc a0be 3a77 803e 0cc6 463e
00000010: 523e f8be bb8e 2abe ef96 3a3e 97bf a33e
00000020: 9555 d93e a5d9 3bbe
-0.43434697 -0.31394082 0.25090963 0.19411486 -0.48485047 -0.1665601 0.18221639 0.3198211
0.42448106 -0.18344744

i_resnet_layers.1.bottleneck_block.0.bias f4 [10]
00000000: a704 9ebd 2898 2d3e 7f72 f13e 0f7f 21be
00000010: 46bc 373f 7cab c93e 9298 e0be d5c3 25bf
00000020: 6678 dd3e f3a6 a93e
-0.07715731 0.16952574 0.47157666 -0.15771125 0.7177166 0.39388645 -0.43866402 -0.6475194
0.4325592 0.33135185

i_resnet_layers.1.bottleneck_block.0.weight_orig f4 [10, 2]
00000000: 0b3c dabe 7e98 f0be 723a af3e 0d78 cdbd
00000010: 4b1b 1bbf a321 073e 8b9c 69be c03e f3bd
00000020: 0d02 03bf c174 22bf 4921 29be 9095 eabd
00000030: 01d3 6abd c940 cbbd 912c cdbe da99 ad3e
00000040: 9108 71be 7235 443d 0729 723e 151f 323e
-0.42623934 -0.46991342 0.34224278 -0.100326635 -0.6058852 0.13196425 -0.22813623 -0.11877203
-0.51175004 -0.634594 -0.16516604 -0.11454308 -0.057330135 -0.09924466 -0.40073064 0.33906442
-0.23538424 0.047902532 0.23648463 0.1739467

i_resnet_layers.1.bottleneck_block.0.weight_u f4 [10]
00000000: 31bc fcbe 3c2d 533e 6a3c c4be 4963 58be
00000010: 3be8 1ebf 8a72 28be bb54 a5bd bbf1 1cbe
00000020: 1cd2 19be 2726 753e
-0.4936233 0.20622724 -0.38327342 -0.21131624 -0.62073106 -0.16449943 -0.08072802 -0.15326588
-0.15021557 0.23940335

i_resnet_layers.1.bottleneck_block.0.weight_v f4 [2]
00000000: ccfa 5f3f c0f1 f73e
0.8749206 0.48426628

i_resnet_layers.1.bottleneck_block.2.weight_orig f4 [10, 10]
00000000: 6294 9bbc 9410 923e 4514 f7bd fa8a fa3d
00000010: 2a27 133e b7d8 fb3d 43a3 9f3e 562b 60bc
00000020: c669 083e 5957 98be 8b4b 7d3d 5045 6f3d
00000030: bf75 703e 280a e43d 80bd 02be a1b6 123e
00000040: 69dc 6c3e 92cf 18be e75c a2bc 5275 ccbd
00000050: 5c69 7bbe 982a 45bd 948c 57be 6619 9cbe
00000060: 5d6a d83d a877 3ebc 0d6b 8abe a7a5 523e
00000070: 2b06 20be 4ca4 943e 794f 6cbe fe1f 7bbd
00000080: e01f 753c dc2e 7c3e e572 863a a780 82be
00000090: bbc5 29be edc9 77bd c98f e13d 4bfe e13d
000000a0: d9c2 03be 0a52 813e 1775 3abd ce48 69be
000000b0: f334 4ebd 6406 483e 6dda 86be 2b85 5f3e
000000c0: e7b8 17be 033c 883d c08f 6a3e 8965 933e
000000d0: 0302 06be bb01 523d 70f2 8f3d e702 17be
000000e0: d85b a53c 48d4 05bd cf17 623e 360b 193e
000000f0: 8574 a43c 6681 d73c 3b59 b4bd 3719 53bc
00000100: 6f1d 36bd b35e c8bd 7003 b13e 93ff 19be
00000110: ef18 02be 0d99 713c d4be 04be 8949 6a3e
00000120: e2c5 92bc ee29 6d3e 43ad 913e d158 93be
00000130: 6054 7c3e d016 753e 6441 323e 2644 913e
00000140: 7f7e 83be c52c 5b3e d215 43be 8760 5a3e
00000150: 0bcf 893e d24d 6abb 9ef3 75be fb0e 423e
00000160: d8b8 d0bc 4ad0 afbd 4663 8ebe 563a 763e
00000170: 4f1b aabd 3fb8 9bbe 6918 76be d50e 803c
00000180: dc8b 94be 8b83 5bbe 25cb d03d ef22 cc3d
-0.018991653 0.28528273 -0.12064413 0.12233539 0.14370409 0.122971945 0.31179246 -0.013682207
0.133216 -0.2975414 0.06183962 0.05841571 0.23482417 0.1113475 -0.12767601 0.1432748
0.23130955 -0.14922932 -0.01981969 -0.099833146 -0.2455191 -0.048136324 -0.2104972 -0.30488127
0.10567162 -0.011625208 -0.27034798 0.20571004 -0.15627353 0.290316 -0.23077191 -0.061309807
0.014961213 0.2462725 0.001025763 -0.2548878 -0.16579334 -0.060495306 0.11013753 0.11034831
-0.12867297 0.25257903 -0.04552182 -0.22781679 -0.050343465 0.19533688 -0.2633852 0.21828143
-0.14816628 0.06652071 0.22906399 0.28788403 -0.13086705 0.05127118 0.07028663 -0.14747201
0.020185396 -0.03267315 0.22079395 0.14945683 0.020075092 0.02630682 -0.08806082 -0.01288443
-0.044461664 -0.097836874 0.34572935 -0.150389 -0.12704824 0.014745963 -0.1296342 0.22879614
-0.017916624 0.23160526 0.284525 -0.287787 0.24641562 0.23934484 0.17407757 0.28372306
-0.25682446 0.21403797 -0.19051293 0.21325885 0.26915774 -0.003575195 -0.24018714 0.18951027
-0.025478765 -0.0858465 -0.27810115 0.24045691 -0.0830599 -0.30414006 -0.24032749 0.015632072
-0.29012954 -0.21436898 0.10194997 0.099676006

i_resnet_layers.1.bottleneck_block.2.weight_u f4 [10]
00000000: 2ea4 9bbe 5797 9ebe c90e 113f 4206 bb3d
00000010: 9bd7 d93e 951e 99bd dd7f 65be 3482 c5bd
00000020: debb 743e a499 d83e
-0.30398697 -0.30974838 0.56663185 0.09132053 0.42547306 -0.07476536 -0.22412057 -0.09643975
0.2389979 0.42304718

i_resnet_layers.1.bottleneck_block.2.weight_v f4 [10]
00000000: 3a25 cbbe caa4 8e3d ea44 59be 51cf ccbe
00000010: 8000 c8bc 8f44 143d 35fe 31bf 0492 583e
00000020: d423 0cbe 264e 943e
-0.3967684 0.06965025 -0.21217695 -0.4000192 -0.0244143 0.036198195 -0.69528514 0.2114945
-0.13685542 0.28965873

i_resnet_layers.1.bottleneck_block.4.weight_orig f4 [2, 10]
00000000: 2c17 7fbe c3c0 7b3e a484 01be 827d 0fbe
00000010: 0074 38be 864b 62be 32b8 47bc 27e2 b4bc
00000020: b8d3 983c db7a 053e 859c 06be 65be 883e
00000030: 4bcd 743c 9d9c 103e fc39 0dbe faac 1cbd
00000040: 0eec 313e c7b8 5dbc d49d 52be 941d 28be
-0.24911183 0.24585252 -0.12648255 -0.14012721 -0.18013 -0.22099122 -0.012189912 -0.022080494
0.018655643 0.13035147 -0.13145645 0.2670776 0.014941524 0.14122243 -0.1379165 -0.0382509
0.17375204 -0.013532824 -0.20568019 -0.16417533

i_resnet_layers.1.bottleneck_block.4.weight_u f4 [2]
00000000: cbc8 433f 15f0 243f
0.7647826 0.64428836

i_resnet_layers.1.bottleneck_block.4.weight_v f4 [10]
00000000: a34a f6be 8424 213f f1e4 1bbe 49e3 e7bc
00000010: bcd1 cabe c046 adbe 33b1 373e fd01 37bd
00000020: 477d 53be e6e0 2dbc
-0.48103818 0.62946343 -0.15224053 -0.02830662 -0.3961314 -0.3384304 0.1793869 -0.04467963
-0.20653258 -0.010612702

i_resnet_layers.2.bottleneck_block.0.bias f4 [10]
00000000: 2eb9 7f3c 6afa f23e f901 9f3e 8cb6 3f3e
00000010: 148d 1ebf 59c1 4cbe f0b9 3dbf a93b acbe
00000020: 5992 23bf f077 a33d
0.015608115 0.47456676 0.31056193 0.1872198 -0.6193402 -0.19995631 -0.74111843 -0.33639267
-0.63895184 0.07981861

i_resnet_layers.2.bottleneck_block.0.weight_orig f4 [10, 2]
00000000: 4146 04bf 023c 5f3e d7f4 b33e 9d5f 113f
00000010: 5148 4d3d 1b18 f2be 4e54 3cbc f57a 313e
00000020: 7aad 12bf 8183 1d3f 7750 d83e f5cf 2bbf
00000030: e294 193f 23c7 3cbe 3ff8 d1be cf22 00bf
00000040: be96 57be 6bc7 01bf e432 0b3f ba01 ebbe
-0.516697 0.21800235 0.35147735 0.5678652 0.050117794 -0.47284016 -0.011494709 0.1733206
-0.57295954 0.61528784 0.4224889 -0.6711419 0.599928 -0.1843534 -0.4100971 -0.50053114
-0.21053597 -0.5069491 0.5437453 -0.45899755

i_resnet_layers.2.bottleneck_block.0.weight_u f4 [10]
00000000: 6702 963e cba8 233e 6f85 82be bf5a ba3d
00000010: 0821 033f 5d38 f9be cf84 9cbe 1f5c d7bd
00000020: 52b8 37be 93d3 d8be
0.29298708 0.15982358 -0.25492427 0.0909934 0.51222277 -0.48675814 -0.30570075 -0.105156176
-0.17941406 -0.42348918

i_resnet_layers.2.bottleneck_block.0.weight_v f4 [2]
00000000: 7610 14bf 51d6 503f
-0.5783762 0.8157702

i_resnet_layers.2.bottleneck_block.2.weight_orig f4 [10, 10]
00000000: 9305 72bc 1566 90bd 6741 2b3e 9f59 63be
00000010: def6 32be b4ae cc3d 0b5d 6b3d 0756 19bd
00000020: 509c 003e 20ce 47bc b0eb 61be 0d7d 99bd
00000030: 3dae 38be 8fd2 5c3e 7e88 d5bd c51b 8dbd
00000040: 5310 81be f0ab 55be 3ffe 07bd d7c7 863e
00000050: 5f55 503e 9b25 883e c7a2 343d aff7 2cbd
00000060: b1a0 37be 1a2a 373e 5da5 c63d 36b3 4ebe
00000070: 4c40 7abe 5239 52be d7c6 2a3e c05f 853e
00000080: 1c99 5f3e e95a 85be 5c37 843d fe0d d2bd
00000090: 194e 9a3e 4660 8e3e 582f 52bd 746d 2f3e
000000a0: 759c 853e 1354 64bd 8a06 38be 65e5 62be
000000b0: f45f 77be ad59 f23d 9505 9e3e ab32 99be
000000c0: 1d97 853c 428f a8bd 88ed 953e 02ff 333d
000000d0: adcf 9ebe 8a26 49bd 8fea 903e 02fe 47be
000000e0: 7727 3f3e 0b52 353e 4137 923e 4761 473e
000000f0: a78a b03d 7500 69be 4855 943c 1a91 8c3c
00000100: 2817 43be b4e3 123c 4572 d43d c0b1 9bbe
00000110: b75b 7d3e 8089 1dbe cf10 2ebe 4f7a ccbd
00000120: e221 c7bd 3d3e 1a3e 15e1 393e c2b8 80be
00000130: 2487 12be 1219 793d cdb1 5e3e 8d97 5d3e
00000140: 9966 5bbe 3f94 f0bc 6716 183d 6d33 62bd
00000150: 1b14 8ebe 6795 6abe 1d46 e03c 07cc e2bd
00000160: 99ee b2bd e5cc 58be f8ca c43d 2966 123e
00000170: 8323 61be 25e8 87be 9812 98bc e683 f3bc
00000180: 4124 833e a76e 5e3d b606 743e 29d0 533e
-0.014771837 -0.070507206 0.16724168 -0.22202156 -0.17476985 0.099942595 0.05746178 -0.037435558
0.12559628 -0.01219514 -0.22062564 -0.07494555 -0.18035217 0.21564697 -0.104264244 -0.06890062
-0.25207767 -0.2086637 -0.033201452 0.2632434 0.20345066 0.2659119 0.04410055 -0.042228397
-0.17932393 0.17887154 0.09699509 -0.20185551 -0.2443859 -0.20529678 0.16677414 0.26049614
0.2183575 -0.2604592 0.064558715 -0.10256575 0.3013771 0.27807826 -0.05131468 0.17131597
0.2609593 -0.055744242 -0.17971244 -0.2215782 -0.24157697 0.118335105 0.30863634 -0.2992147
0.016307408 -0.08230449 0.29282784 0.043944366 -0.3101782 -0.04910902 0.28303954 -0.1953049
0.18667398 0.17707078 0.2855778 0.19470702 0.08620196 -0.2275408 0.018107072 0.017159034
-0.19051802 0.0089654215 0.10373358 -0.3040905 0.24742018 -0.15384483 -0.169986 -0.09984266
-0.097232595 0.15062805 0.18152268 -0.2514096 -0.14309365 0.060814925 0.21747513 0.21639843
-0.21425857 -0.029367564 0.03713074 -0.055224825 -0.27749714 -0.22908555 0.027377183 -0.110740714
-0.08736915 -0.21171911 0.09609026 0.14296784 -0.21986203 -0.265443 -0.018563554 -0.02972598
0.25613597 0.054304745 0.23830685 0.20684876

i_resnet_layers.2.bottleneck_block.2.weight_u f4 [10]
00000000: eca0 413e ceb8 0cbe db93 ed3e f5e4 b6bd
00000010: 1f91 d13e 86e4 e5be 74b9 853e 36a6 e9be
00000020: 9a87 783e f1ab 07be
0.18909043 -0.13742372 0.46401867 -0.08930389 0.4093103 -0.44900912 0.26118052 -0.4563462
0.24270478 -0.13249184

i_resnet_layers.2.bottleneck_block.2.weight_v f4 [10]
00000000: 6820 ee3d 1011 6a3c 3844 553e cb39 35be
00000010: 0793 06bf 952d a33e 9810 2d3e 9f0b dfbe
00000020: 1eb7 92be 0c41 f7be
0.11627275 0.014286295 0.20826805 -0.17697828 -0.52568096 0.31870714 0.16900861 -0.43563554
-0.28655332 -0.48291814

i_resnet_layers.2.bottleneck_block.4.weight_orig f4 [2, 10]
00000000: 4d0b 873c 7aa7 1dbe bb54 b13e c54e 783e
00000010: acbf 4a3e ec42 40be ce18 713e b02b 8cbe
00000020: 9f7f bf3c 6d83 913e 92ac 5c3e 0413 343e
00000030: 859d 5a3e 7571 2fbe da07 5fbe 1e3c 5bbe
00000040: 3a86 8d3e ba33 c03d 951f 223e 53df 9b3e
0.01648488 -0.15395918 0.34634957 0.24248798 0.1979968 -0.18775529 0.23544618 -0.2737708
0.023376284 0.28420582 0.21550205 0.17585379 0.21349151 -0.17133124 -0.21780339 -0.21409652
0.2764147 0.09384866 0.1583236 0.3044382

i_resnet_layers.2.bottleneck_block.4.weight_u f4 [2]
00000000: 8fd6 41bf 8438 27bf
-0.75718015 -0.6532061

i_resnet_layers.2.bottleneck_block.4.weight_v f4 [10]
00000000: 98aa 49be 1a5d 0f3b 7021 04bf 01d3 bcbd
00000010: 71e1 1fbc df84 b93e 4407 ecbe 460f 403e
00000020: 5145 1fbe 4432 08bf
-0.19693983 0.0021875561 -0.5161352 -0.09219933 -0.009758339 0.36234185 -0.46099293 0.18755826
-0.15553786 -0.532017

i_resnet_layers.3.bottleneck_block.0.bias f4 [10]
00000000: b6f0 8b3e bd7b 03bf ba7b 6abe 804e 213f
00000010: b716 2dbe 76c9 173f cc94 113e 2a95 da3e
00000020: 411d 923d 2cf0 bfbe
0.27332085 -0.51360685 -0.2289876 0.63010406 -0.16903196 0.5929178 0.14216918 0.42691928
0.07134486 -0.37487924

i_resnet_layers.3.bottleneck_block.0.weight_orig f4 [10, 2]
00000000: ed83 24bf 9569 01bf 6c2e 0ebe 1e9e d63e
00000010: 3d20 093e 412d 00bf ecd5 f0be 6ff6 3a3e
00000020: 170c efbe 9daa fc3e 240c bf3e 3c71 513f
00000030: 5e5c ff3c cb38 a2be f7a3 96be 1785 85be
00000040: c130 b3be 73ee 1dbe 236c debe 7762 20bf
-0.642638 -0.5055173 -0.13884896 0.4191751 0.13391204 -0.5006905 -0.4703821 0.1825807
-0.4668891 0.49348918 0.3731395 0.81813407 0.031171974 -0.31683955 -0.2942197 -0.26078102
-0.34998134 -0.15422992 -0.43441877 -0.62650245

i_resnet_layers.3.bottleneck_block.0.weight_u f4 [10]
00000000: 6a26 f13e 34ab 44be d7a8 743e 5960 193d
00000010: 11c3 0bbe caae 10bf a200 2b3e 6a79 6d3e
00000020: 50b1 413e aa19 f43e
0.4709962 -0.19205934 0.23892532 0.0374454 -0.1364863 -0.56516707 0.1669946 0.23190847
0.18915296 0.4767583

i_resnet_layers.3.bottleneck_block.0.weight_v f4 [2]
00000000: 2938 f0be 1013 62bf
-0.46917847 -0.8831034

i_resnet_layers.3.bottleneck_block.2.weight_orig f4 [10, 10]
00000000: 434e 5d3e 7acf 92be 5298 76bd 0c87 82be
00000010: 1e77 57be b69c b9bd 467d 29be 0a7e 993e
00000020: ee8d 7cbb 21e8 51be d09a dabd d454 443e
00000030: 5ddd 223e 5643 40be 6380 e53d 07db 33bb
00000040: 4bc8 163d 4b3d d63a d65d ab3d fe15 e73d
00000050: 31fb 78be 3919 e13d 3518 87be bc7a 913d
00000060: 1c8b 5f3d 4a25 473d ed11 433e a920 dd3d
00000070: f392 8f3d 9dfd c3bd 3d15 3abd 623e 443c
00000080: 02d3 3a3e 7a4b 423e 9d0e 94bd cf24 533c
00000090: da0d 133e ce59 873d f558 f9bd cc87 05bd
000000a0: b60c 18be 6617 9ebd afa8 74be 6f9a 73be
000000b0: 2e81 933e 75ab 473e f6ad 8ebd 16b1 8ebe
000000c0: 5288 3fbe 4b8d fabd 08f9 693e 1410 5abe
000000d0: ffbb c63d 511e 9bbe 9f77 7e3e e61c bebd
000000e0: df8e 5c3e bcd3 a3be be65 7dbe 526d 87bd
000000f0: c674 ba3d 8dcb 3e3e 83d3 8f3e 1e4f 2c3e
00000100: e81d 0fbe d9c5 ac3e 1c8e 7abe 7213 3abe
00000110: 55cf 9cbe 8582 a0bc 509a 88be 35bf 24be
00000120: 944b 77be 038c dd3d 5fdf 6bbe 9e45 96be
00000130: 70a5 163e 3027 79be 8157 9f3d 5dfe 873e
00000140: 7381 7f3e ff80 1dbe 34f4 29be 4f28 38be
00000150: 8dd6 88be ca63 8bbe 66cf 11be f72f 843e
00000160: 4e25 f4bd ca75 203c b053 173e 451e a0be
00000170: f88c 553d 44b8 4bbe e6b6 5dbe a1c2 22be
00000180: dc04 ac3e 823a 90bd cfb7 6ebe a0d8 5ebe
0.21611886 -0.28673917 -0.060203858 -0.25493658 -0.21041533 -0.09063093 -0.16551694 0.29978973
-0.0038536745 -0.20498706 -0.106740594 0.19172984 0.15904756 -0.18775687 0.112061284 -0.0027443783
0.036812108 0.0016345171 0.08367507 0.112834916 -0.24314572 0.10991139 -0.26385656 0.07103488
0.054576024 0.048619546 0.19049807 0.10797245 0.0701045 -0.09569857 -0.04543041 0.011977764
0.18244556 0.18974105 -0.0722935 0.012887194 0.14360753 0.06608926 -0.1217517 -0.03260021
-0.14848599 -0.07719307 -0.23892473 -0.2378938 0.28809494 0.19499 -0.06966774 -0.2786948
-0.18704346 -0.12233981 0.22848904 -0.21295196 0.09703826 -0.30296567 0.2485032 -0.09282856
0.21538876 -0.31997478 -0.24745843 -0.06612648 0.09104304 0.18632336 0.28091058 0.16827056
-0.13976252 0.33744696 -0.24468273 -0.1817148 -0.30626932 -0.019593487 -0.2668023 -0.16088565
-0.24149925 0.10817721 -0.23034428 -0.2934999 0.14711547 -0.24331355 0.07780362 0.2656125
0.24951725 -0.1538124 -0.16597062 -0.17984127 -0.2672619 -0.2722457 -0.14239272 0.25817844
-0.11921178 0.009793708 0.14778018 -0.31273094 0.05213639 -0.1989451 -0.21651801 -0.15894558
0.33597457 -0.070424095 -0.23312305 -0.21762323

i_resnet_layers.3.bottleneck_block.2.weight_u f4 [10]
00000000: 5ec8 013f 25bf 12be be22 08be 2cc7 64bd
00000010: 1bb9 03bd df5a a33e ebb7 87be b253 683d
00000020: 6c39 fb3e 4491 083f
0.5069636 -0.14330728 -0.13294503 -0.055854008 -0.032158952 0.31905267 -0.26507506 0.056720443
0.49067247 0.5334666

i_resnet_layers.3.bottleneck_block.2.weight_v f4 [10]
00000000: 1710 c73e 1834 0abf d605 03be d09a ddbe
00000010: 7ff6 8abe faf6 cdbe ebaa 023e ac70 233e
00000020: 3e49 3abe 3230 55be
0.38879463 -0.5398574 -0.12795195 -0.43282175 -0.27141187 -0.4022749 0.12760513 0.1596095
-0.18192002 -0.20819166

i_resnet_layers.3.bottleneck_block.4.weight_orig f4 [2, 10]
00000000: a4db cfbd e30b 4f3e b350 7fbe 3300 4d3e
00000010: f523 6c3d c311 6e3e 8b36 523e f550 febd
00000020: 9d6b 5abe 617a 34be 75e5 6a3e 6026 933e
00000030: 3233 883d 6db9 633e cc5a 12bd 148f 403e
00000040: dfd2 cabd a858 55be d132 313e 088d a63e
-0.10149315 0.20219378 -0.24933128 0.20019607 0.05765148 0.23248963 0.20528619 -0.12417785
-0.21330114 -0.17624809 0.22939093 0.28740215 0.0665039 0.22238703 -0.035731122 0.1880458
-0.09903502 -0.20834601 0.17304541 0.32529473

i_resnet_layers.3.bottleneck_block.4.weight_u f4 [2]
00000000: 6527 573e 1249 7a3f
0.21011122 0.97767746

i_resnet_layers.3.bottleneck_block.4.weight_v f4 [10]
00000000: 45ab a03e a115 003f 92f8 9f3c 1879 cd3e
00000010: f45a 10bd af48 b83e 81f1 a9bd 4dea b5be
00000020: adec 443e 6181 de3e
0.31380668 0.50033003 0.019527707 0.4013145 -0.03524299 0.35992953 -0.08298016 -0.3553032
0.1923091 0.43458083

i_resnet_layers.4.bottleneck_block.0.bias f4 [10]
00000000: d3b5 2d3f 28ee 0fbf a452 01bf 2008 a0be
00000010: 74a6 82be 3bb4 8a3e b4e4 f93e adae 26bf
00000020: 057d debe 0482 93bd
0.67855567 -0.5622277 -0.50516725 -0.312562 -0.2551762 0.2709063 0.488073 -0.65110284
-0.43454757 -0.07202533

i_resnet_layers.4.bottleneck_block.0.weight_orig f4 [10, 2]
00000000: 8b5d 8a3c c83e d4bd df2c d1be eac3 33be
00000010: 6d33 1cbf 30a9 09bf b190 06bf b728 183f
00000020: 136c 08bf b432 033f 845c 31bf d1be 1a3f
00000030: abdd dd3e 6af9 22bf e273 5c3e 95dc 2c3f
00000040: 42e9 003e b82e 013f 9d40 40be c543 d43e
0.016890308 -0.10363537 -0.40854546 -0.17555204 -0.6101597 -0.53773785 -0.5256453 0.59437126
-0.5328991 0.5124924 -0.6928179 0.6044741 0.43333182 -0.63661826 0.21528581 0.6752408
0.12588981 0.5046191 -0.18774648 0.41457954

i_resnet_layers.4.bottleneck_block.0.weight_u f4 [10]
00000000: f795 623d e35b 1dbd 0fe3 9b3d f3b5 e4be
00000010: fd8a d1be 688a 00bf c4e7 e03e 8624 86be
00000020: d254 53be a5db 83be
0.0553188 -0.038417708 0.07611667 -0.44670066 -0.40926352 -0.5021119 0.43926823 -0.2619974
-0.20637825 -0.25753513

i_resnet_layers.4.bottleneck_block.0.weight_v f4 [2]
00000000: f281 073f ef31 59bf
0.52932656 -0.8484182

i_resnet_layers.4.bottleneck_block.2.weight_orig f4 [10, 10]
00000000: 9270 60bd 07c9 10be 1995 b0bd 1266 703e
00000010: 2bf0 45be 6669 29be 8b6e 82be 8c90 f63d
00000020: 0f09 94be c1e1 3fbd 0899 553e 44f6 96be
00000030: bc0c 35be daf1 883e 1595 9dbe 2142 bcbe
00000040: e58e 2a3d f6b7 5cbe 46d8 823e a109 11be
00000050: 4540 30be 297d 2c3d 2f1f ffbd c7b8 21be
00000060: d8d8 34be c5c4 933e cc95 6d3e 8e5f a5bd
00000070: f31d 073d 4128 cb3d 3c5c 8e3e c265 993d
00000080: 6e10 f03d 4575 3ebe d4c8 ddbd 78b6 07be
00000090: 2f00 c0bd f323 643e 27f6 99be ec0b 1dbe
000000a0: be8f 853e 3db5 87be 8df1 54bd b373 9b3e
000000b0: c746 1a3e 93b1 92be 8830 94be c561 2dbd
000000c0: 910f 27be 56e3 c33d 5272 ccbd 17c0 9d3e
000000d0: 7217 b2bd a81d 8c3e b1d5 1e3e 8ff3 5fbe
000000e0: 2eae 6abc 1a82 0fbe e69a 3b3e 7e6e 803e
000000f0: ae88 813c b097 6dbe 6b57 943e 7f21 21be
00000100: c323 8cbe 012d 17be 95c5 3c3c 5fd8 6dbd
00000110: b43e 6b3c 1d06 ef3d 7f5a 04be b0ad 2c3e
00000120: 5d66 3dbd d8c4 97be aff3 81bc 8c27 8dbe
00000130: 9359 6bbe a9ec 2dbe 3392 85bd 94ab 133d
00000140: 066f 9f3d 9e50 3c3d 71b0 07be 11c6 90be
00000150: 4a40 87be 2d22 aa3d 5b1c dcbd c2e0 993e
00000160: 6c90 8dbd df26 f13c 302a 153e de46 843e
00000170: 234c 96be da8d b5bd 2984 7f3e 2cd5 b63d
00000180: 8a08 ecbd f876 67be 6f7a 59be bdfa 543d
-0.054794855 -0.14139186 -0.08622188 0.23476437 -0.19329898 -0.16544113 -0.25474963 0.12039289
-0.2891316 -0.046846155 0.20859158 -0.2948476 -0.17680639 0.26747018 -0.30777803 -0.36769202
0.04164018 -0.2155455 0.2555563 -0.1416383 -0.17212017 0.04211155 -0.1245712 -0.15793143
-0.17660844 0.2886106 0.23201674 -0.08074866 0.032987546 0.09919787 0.27804744 0.07490112
0.11721884 -0.18599422 -0.108293205 -0.132532 -0.09375035 0.22279339 -0.30070612 -0.15336579
0.2608623 -0.2650546 -0.051988173 0.3036171 0.15066062 -0.28651103 -0.28943276 -0.04232957
-0.16314532 0.09564845 -0.09982742 0.30810615 -0.08695878 0.27366376 0.15511204 -0.21870254
-0.014323754 -0.14014474 0.18320808 0.250843 0.015812244 -0.23202395 0.28972945 -0.15735434
-0.27371034 -0.14763261 0.011521717 -0.058067676 0.014358211 0.11671088 -0.12925147 0.16863132
-0.0462402 -0.29642367 -0.015863268 -0.27569234 -0.22983389 -0.1698481 -0.06522026 0.0360523
0.07784848 0.04597532 -0.13250901 -0.28276113 -0.26416236 0.083073 -0.10747596 0.3005429
-0.06912312 0.02943748 0.14566875 0.25835317 -0.29354963 -0.08864947 0.24952759 0.08927378
-0.11525066 -0.22603977 -0.21238111 0.051996935

i_resnet_layers.4.bottleneck_block.2.weight_u f4 [10]
00000000: 7d83 b2be fa62 17bf a7ce b63e afe7 64bd
00000010: 32d7 12bf d07b cbbd 8c33 02be 2cf9 553c
00000020: ee6e 243e a500 063e
-0.34865943 -0.591354 0.35704538 -0.055885013 -0.5735961 -0.09935725 -0.12714976 0.0130598955
0.16057941 0.13086183

i_resnet_layers.4.bottleneck_block.2.weight_v f4 [10]
00000000: 51a1 93be a71b d83e bc76 c93c 2316 05bf
00000010: cda6 e83d 322b 1a3f 0292 8e3e 53f9 d53d
00000020: 770e 413c fffb 773d
-0.28834012 0.42208597 0.02459275 -0.519869 0.1135994 0.6022216 0.2784577 0.104479454
0.011783234 0.060543057

i_resnet_layers.4.bottleneck_block.4.weight_orig f4 [2, 10]
00000000: e9c4 84be dd25 e2bd 1907 303e 2b61 ebbd
00000010: 92af aabe 195e c3bc 931a 903e 6715 7a3b
00000020: 917e 093e edb4 1a3e 4869 083e d582 9abe
00000030: 67ce dbbc b3c3 393e ce19 413e 1178 80be
00000040: 4f74 efbd b619 4abe 067e 323d 8f55 62bc
-0.2593148 -0.11042378 0.17190208 -0.11493143 -0.33337075 -0.02384858 0.28145275 0.003815973
0.13427188 0.1510808 0.13321412 -0.30177942 -0.026831819 0.1814106 0.188575 -0.25091603
-0.11692106 -0.1973637 0.043577217 -0.013814344

i_resnet_layers.4.bottleneck_block.4.weight_u f4 [2]
00000000: 1f50 4a3f 7bdc 1cbf
0.79028505 -0.61273926

i_resnet_layers.4.bottleneck_block.4.weight_v f4 [10]
00000000: 3cba dcbe 1859 163e 6f8d 6a3e 2f8e 9bbe
00000010: 73ed 11bf 6ac9 4f3e 987a e23e 29e2 3e3e
00000020: 7c8c f43d a20f 453e
-0.43110836 0.14682424 0.22905515 -0.30381915 -0.57002944 0.20291677 0.44234157 0.18640961
0.11940858 0.19244245

i_resnet_layers.5.bottleneck_block.0.bias f4 [10]
00000000: 4617 893d 2a52 c33d 403e eabd 92c2 1c3f
00000010: ad18 0bbe ef21 02bf 4664 ee3e f8f7 6a3e
00000020: 339d 2dbf 24ad efbe
0.06693892 0.09537156 -0.114376545 0.6123439 -0.13583632 -0.5083303 0.46560878 0.22946155
-0.6781799 -0.46811783

i_resnet_layers.5.bottleneck_block.0.weight_orig f4 [10, 2]
00000000: c494 eebe 4597 3b3e e8ec 8dbe 8071 4e3e
00000010: 3663 243e a179 543e 8761 d2be 3be9 13bf
00000020: b244 0fbe ed29 123f c10b 31bf e279 153e
00000030: 3742 843e 1b1e fcbe 458a 343e 7f20 113d
00000040: 4d7c ac3d e329 963e 5e9c 193f a931 f2be
-0.46597874 0.18319423 -0.27719808 0.20160484 0.16053471 0.20749523 -0.41090032 -0.57777756
-0.13991049 0.57095224 -0.6915856 0.14597276 0.25831768 -0.4924172 0.1763087 0.03543138
0.08422146 0.29328832 0.6000422 -0.47303513

i_resnet_layers.5.bottleneck_block.0.weight_u f4 [10]
00000000: a784 b1be f3e0 80be 85a5 5bbc 3610 6a3d
00000010: 95fb b6be 6dce e7be 3ca8 c43e 6356 a33d
00000020: cdd3 c7bd bf1a 103f
-0.34671518 -0.25171623 -0.013406162 0.057144366 -0.35738817 -0.45274678 0.38409603 0.07975461
-0.09757195 0.5629081

i_resnet_layers.5.bottleneck_block.0.weight_v f4 [2]
00000000: f622 3f3f 574d 2abf
0.7466272 -0.6652426

i_resnet_layers.5.bottleneck_block.2.weight_orig f4 [10, 10]
00000000: e877 47bd 73bd b3bb 4606 553e 3257 863e
00000010: 427e 5dbe 7b27 19be b69d abbd eb6c 293c
00000020: 7e44 283e 9558 423e 43c0 89be ebe0 e9bd
00000030: f753 223e d97b 8abd 331c ba3d 4558 08be
00000040: a96f 0a3d 3d9d 61bd 1c76 68be 8250 82be
00000050: ab4f 39be cc43 51be 7436 213e 3b7f 90bd
00000060: 3b2d 54be 9d83 69be 8572 7cbe 9c75 093e
00000070: c953 46bd b719 413e 5aae 82be 34d7 e4bd
00000080: 1b59 e4bd b2a2 2fbe 1f4c 96be 4e2d f13d
00000090: b0b3 02be 67f6 843c 039d 6dbe 35b6 563d
000000a0: 67df 953e 4176 a83e 0f4a 5dbe a5dc 1dbe
000000b0: b8b7 a0bd d087 83be f42a d53d d97e 91bb
000000c0: 6495 aabd 97d2 a73d 1054 383e 51ec 39be
000000d0: 40c0 313e cb68 833e fd5b 56be 7add c03d
000000e0: f158 72be 1b43 a13d 5338 f33d 0551 f6bd
000000f0: fc08 4e3e 682c 683e 87f3 10be 2be9 2b3d
00000100: f3f1 0bbe 13a0 84bd f038 243e d06c 6f3d
00000110: 59fa 71bc c8ae e73b bdf2 35be 3b44 9ebe
00000120: 0eab 08be 4aad 883e 1eb1 283e 06df a33e
00000130: b140 4cbe 70ac 943e 1e0c a93e 485a 85bb
00000140: 81ac 393e 4627 babe 6991 603d 18fa 263e
00000150: db1a f8bd c1db 753e cdef 42be e6d2 5b3d
00000160: 96e6 4e3e 7c95 f23d 587e 04be b076 753e
00000170: ea3a a5bd 938a c23d 7de9 ef3d 7488 0ebe
00000180: dd17 ccbc f1c8 873e 20e7 5fbe b8a0 0f3e
-0.048698336 -0.0054852306 0.20803174 0.262384 -0.21630195 -0.14956467 -0.0837969 0.0103409095
0.16432378 0.18979104 -0.26904497 -0.11419853 0.15852343 -0.06761903 0.0908741 -0.13314922
0.033797894 -0.055081595 -0.22701305 -0.25452048 -0.18096797 -0.20436019 0.15743428 -0.07055517
-0.20720379 -0.22804113 -0.2465306 0.1342377 -0.048419748 0.18857466 -0.25523645 -0.11173859
-0.11149808 -0.17151907 -0.2935495 0.11776219 -0.12763858 0.016230775 -0.23204426 0.05241986
0.29272005 0.3290272 -0.21610282 -0.154162 -0.078475416 -0.25689554 0.10408583 -0.0044401702
-0.08329275 0.08194464 0.18000817 -0.18156554 0.17358494 0.25665888 -0.20933528 0.09417243
-0.23666741 0.078741275 0.11875977 -0.12027172 0.20120615 0.2267319 -0.14155398 0.041970413
-0.13666515 -0.06475844 0.16037345 0.05845338 -0.01476916 0.007070396 -0.17768379 -0.3091143
-0.13346502 0.2669471 0.16473815 0.3200609 -0.19946553 0.2903781 0.33017057 -0.0040696003
0.18132211 -0.36358088 0.054826174 0.1630634 -0.12114497 0.2400961 -0.19036789 0.053667925
0.20205149 0.11844918 -0.12938821 0.23971057 -0.080678776 0.09499087 0.11714456 -0.1391924
-0.024913723 0.26520494 -0.21865511 0.14026153

i_resnet_layers.5.bottleneck_block.2.weight_u f4 [10]
00000000: 77ce 343e 0bf3 7bbd 8563 223e be71 2f3d
00000010: 9bb5 ddbe af5f b93e b482 5bbe 0527 113f
00000020: 6987 f03e 5338 35be
0.17656885 -0.06151108 0.15858276 0.042833082 -0.43302616 0.36205813 -0.21436578 0.56700164
0.4697831 -0.17697267

i_resnet_layers.5.bottleneck_block.2.weight_v f4 [10]
00000000: 4768 ebbd e944 1abf 65db 343e f5a1 b33e
00000010: 18d5 9cbd 4f99 c33e 35bc c1be 6179 2b3e
00000020: 7f66 c33e c949 d53c
-0.11494499 -0.602614 0.17661817 0.350845 -0.07657832 0.38202903 -0.37838903 0.16745521
0.38164136 0.02603616

i_resnet_layers.5.bottleneck_block.4.weight_orig f4 [2, 10]
00000000: 5772 7d3e 2c3f a2be 8bbb 99be fd3b 793e
00000010: 9bd0 23bd 541d 30be 375f fabd 4bc6 51bd
00000020: 19c2 ba3c 32b1 873e 807e a43c 94fe 153e
00000030: 7e5a 8c3e c468 443e 8a05 9ebc 0607 44be
00000040: fc8e 2f3e 7239 64bd d031 efba fe67 353c
0.24750648 -0.3168882 -0.30025896 0.2433929 -0.039993864 -0.17198688 -0.12225192 -0.051214498
0.022797631 0.26502377 0.020079851 0.14647895 0.2741279 0.1918059 -0.01928975 -0.19143304
0.17144388 -0.055718847 -0.0018249098 0.011072157

i_resnet_layers.5.bottleneck_block.4.weight_u f4 [2]
00000000: 32c6 783f 1b93 71be
0.9717742 -0.23591273

i_resnet_layers.5.bottleneck_block.4.weight_v f4 [10]
00000000: c7fd b43e 7d79 03bf bdd8 08bf 31cc 923e
00000010: 57e5 52bd 7333 3bbe 336f 74be 609b 60bd
00000020: 36df 0a3d a1b6 c33e
0.35349867 -0.5135725 -0.53455716 0.2867141 -0.051488247 -0.18281345 -0.23870544 -0.054835677
0.033904277 0.38225272

i_resnet_layers.6.bottleneck_block.0.bias f4 [10]
00000000: d58d 063f cbaf f43e 4f8b 39bf 2888 85bd
00000010: 7854 233e 6fd8 4abe 78ae cc3c 24ba d2bd
00000020: 32ad 2cbf 44a3 cb3d
0.5256017 0.4779037 -0.72478193 -0.0652011 0.15950191 -0.19809125 0.024985537 -0.1028941
-0.67451775 0.0994325

i_resnet_layers.6.bottleneck_block.0.weight_orig f4 [10, 2]
00000000: 6f78 27bf 21c2 a53e 2908 f93e c70c 953e
00000010: de43 03bf 21d7 063f 45c0 21be af6c c73e
00000020: 68ce 6a3e 4701 00bf ab0a bebd 48ff ba3e
00000030: 2591 fbbd d347 8b3e 7bcd cdbe aaac a5be
00000040: 3ab3 f4bd 6e5f 9bba c8d9 eabe 537a 833c
-0.6541814 0.3237467 0.48639038 0.2911131 -0.5127543 0.5267201 -0.15796001 0.38950107
0.229303 -0.5000195 -0.092793785 0.3652289 -0.122835435 0.27203235 -0.40195832 -0.32358295
-0.11948247 -0.0011854002 -0.4586928 0.01604954

i_resnet_layers.6.bottleneck_block.0.weight_u f4 [10]
00000000: d875 093f 9a9c 1dbe 3bf7 0b3f 50e7 8b3e
00000010: 75aa bbbe c6dc 643e f2fd 4a3e 153a b63d
00000020: c5f9 8f3d fdf0 8e3e
0.5369544 -0.1539177 0.5467412 0.27324915 -0.36653486 0.22349843 0.19823435 0.08897797
0.07030062 0.27918234

i_resnet_layers.6.bottleneck_block.0.weight_v f4 [2]
00000000: eb06 4abf ba3a 1d3f
-0.78916806 0.61417735

i_resnet_layers.6.bottleneck_block.2.weight_orig f4 [10, 10]
00000000: 4904 873e 9ef8 44be af64 9fbe 31d6 1a3e
00000010: de99 543e 20f3 803e c964 6abc 2123 743e
00000020: 90cd 563e 9da4 963e 2f0f 863e 1b33 563e
00000030: 4b96 bfbc 31b5 743e 6e8d 92bd 600a 43be
00000040: 7910 9abe 52d4 55bd 190c a3be f102 15bd
00000050: d3c8 a03d 8ca1 ea3d a5b7 ae3e b129 8b3e
00000060: 79e4 743e 3249 febd c09f 473e 79a0 8a3e
00000070: 9ccc a43e eb2a 303e 5167 84be d767 0abe
00000080: 3777 b73d 5aca 82be b6a4 adbd b89a 2ebd
00000090: 53da 5ebe c73d 753d 694a 4a3e 1c18 f93b
000000a0: f417 4b3e a2e9 163d 40e3 903c 488d 073d
000000b0: fc40 8fbe e2d4 bd3c d661 733e 35bc 933e
000000c0: 6d76 7c3e c399 d5bc 83e3 40be 4910 8f3e
000000d0: 22ed 80bd 2bbd 9dbe 6d0a 9dbd 54f4 153e
000000e0: 6863 64be 52e4 a73e 5a11 c83d bccb 363d
000000f0: 306c 9cbe 7c0e 8c3e a205 e63d f614 8c3e
00000100: 5e3d 2f3e 93b6 333e a8a4 53be 8473 9f3d
00000110: 8547 31bd 2e8b f8bd 98f5 b43d 87e6 abbd
00000120: b52f 473d c10d a1be 0bc9 12bc 4af9 88be
00000130: 6577 8dbe b8f7 a2bd aa9b 793e 48a1 343e
00000140: 96c6 46be 0afd 063e 68c5 953e c691 63be
00000150: c313 2bbe 104e 6b3e 5210 383e 04cc 313e
00000160: 8eb0 e8bd 55bc 153e 58b1 333c 6c3b 76be
00000170: c1a7 09be 2deb 7fbe 451d 663e d38d 95be
00000180: 5661 eb3d dce6 8e3d 22ad c7bd 7122 db3d
0.26370457 -0.19235465 -0.31131503 0.1512077 0.2076182 0.2518549 -0.014306256 0.23841526
0.20976853 0.29422465 0.2618346 0.20917933 -0.023387095 0.23897244 -0.07155882 -0.19046926
-0.30090693 -0.052204438 -0.31845167 -0.03637976 0.07850804 0.11456594 0.34124485 0.27180246
0.2391528 -0.12416305 0.19494534 0.27075556 0.32187355 0.17203872 -0.25860074 -0.13516174
0.08958285 -0.25545007 -0.08478682 -0.04262802 -0.21762972 0.05987337 0.19754948 0.007601751
0.19833356 0.036843903 0.017686486 0.03309372 -0.27979267 0.0231728 0.2376779 0.28854528
0.24654551 -0.026074296 -0.18836789 0.27942112 -0.062952295 -0.30808386 -0.07668004 0.14643985
-0.22303545 0.32791382 0.097689345 0.04462789 -0.3055129 0.273548 0.11231543 0.27359742
0.17113253 0.17550115 -0.2066828 0.07785705 -0.043281097 -0.121359214 0.08835906 -0.08393579
0.04862948 -0.31455806 -0.008959065 -0.26752692 -0.27630153 -0.07957405 0.24375787 0.17639649
-0.19411692 0.13182464 0.29252172 -0.22223577 -0.16706757 0.22978997 0.17974976 0.17362982
-0.113618 0.14622624 0.010967575 -0.24046105 -0.134429 -0.24992056 0.22472103 -0.29209766
0.11493175 0.06977627 -0.09749819 0.106999286

i_resnet_layers.6.bottleneck_block.2.weight_u f4 [10]
00000000: 5510 133f 0d2a b0be cd21 d83e 986c b03b
00000010: 4030 b13e 4dcf 8dbd 83db c0be 7979 3d3e
00000020: fcfd 94bd fdec 843e
0.57446796 -0.34407082 0.42213288 0.005384039 0.34607124 -0.06924305 -0.37667474 0.1850337
-0.07275006 0.25962058

i_resnet_layers.6.bottleneck_block.2.weight_v f4 [10]
00000000: 6170 b83e 875a bdbe 78ba f0bd ae36 86bd
00000010: 438b 333e 279d 71bd b813 b53e 3677 af3e
00000020: c59b 0b3f 7e63 c03e
0.36023238 -0.3698313 -0.11754316 -0.06553398 0.17533593 -0.058987763 0.35366607 0.34270638
0.5453456 0.37575907

i_resnet_layers.6.bottleneck_block.4.weight_orig f4 [2, 10]
00000000: befb f9bc fc6d 52be 07cb a0be e0ab 3abe
00000010: 0862 583d f33b 843e 2f27 603d 4f33 b73d
00000020: 7d71 bfbe b454 5bbe faf8 9a3e e92b 983e
00000030: 03b0 a8be ca60 86be 863d 6bbe c4ec 023e
00000040: e6bc 4cbe 5182 2b3e c008 1abe ab6b a63e
-0.030515548 -0.20549768 -0.31404898 -0.18229628 0.052827865 0.25826988 0.05472487 0.08945333
-0.37391272 -0.2141903 0.3026808 0.29721 -0.32946786 -0.2624572 -0.22972688 0.12785631
-0.19993934 0.1674893 -0.150424 0.3250402

i_resnet_layers.6.bottleneck_block.4.weight_u f4 [2]
00000000: 403c c6be 8108 6cbf
-0.38717842 -0.92200476

i_resnet_layers.6.bottleneck_block.4.weight_v f4 [10]
00000000: 6932 a8be 1ed1 74be 4add 053f 53bd c43e
00000010: 28eb 703e 952b 89be f352 4d3e e2ff 6dbe
00000020: 2e71 b23e 5d71 88be
-0.3285096 -0.23907897 0.52290785 0.38425693 0.23527205 -0.26791063 0.20051174 -0.23242143
0.34851974 -0.2664899

i_resnet_layers.7.bottleneck_block.0.bias f4 [10]
00000000: 3c7f c2bd c0ac d1be f4be 623e 9fe3 123f
00000010: 89fd 32be 57fa 553d 75b6 dbbd ef44 f7be
00000020: 38c1 e23e 7266 39bf
-0.09496924 -0.4095211 0.22143155 0.5737857 -0.17479528 0.052240696 -0.1072816 -0.4829478
0.4428804 -0.72421944

i_resnet_layers.7.bottleneck_block.0.weight_orig f4 [10, 2]
00000000: d771 9a3d 7d1f 0d3c bfd7 f4be b5df 5fbe
00000010: d0ed 0e3e a461 93bc a27f 26be bdec a03e
00000020: ef7b 8d3c 4173 b3bd 5d6f 2bbe 7e88 6ebe
00000030: bf6d bc3e 9147 c53e b862 133f 2a46 b3bc
00000040: 560e 163f 2b39 0abf 998b 8dbc d691 253e
0.075412445 0.008613464 -0.4782085 -0.21862681 0.13957906 -0.017990895 -0.16259626 0.31430617
0.01727101 -0.08762217 -0.167417 -0.23294255 0.3680248 0.38531163 0.5757251 -0.021884043
0.58615625 -0.5399348 -0.01727848 0.16168913

i_resnet_layers.7.bottleneck_block.0.weight_u f4 [10]
00000000: 5fe5 893d cbd3 c9be e774 063e 3b14 58be
00000010: b3f7 073d 6008 dbbd 5e3d 853e b6ee 073f
00000020: d7ad 243f b337 44bd
0.06733202 -0.39419398 0.13130532 -0.21101467 0.03319521 -0.10694957 0.26023382 0.5309862
0.6432776 -0.04790468

i_resnet_layers.7.bottleneck_block.0.weight_v f4 [2]
00000000: 3030 7a3f 79f4 58be
0.9772978 -0.21187009

i_resnet_layers.7.bottleneck_block.2.weight_orig f4 [10, 10]
00000000: 7407 5a3e f627 28bd 6cfa 363c 952c 8a3e
00000010: c4f4 b9bc 160c 8cbe c7d6 173e f9ef 8e3e
00000020: b3a8 1e3d e4d2 593e dfa2 3e3d a64e a4be
00000030: 97a2 343d 5806 943e 85b1 463e 9bb9 17be
00000040: 45db 5cbe aae4 5dbe 5a2f 8abd 87ad 723d
00000050: ec23 dabd dc4d 80be 94fd 733e ba32 d6bd
00000060: 51f2 4f3d 6487 9b3e a612 9e3d d20e 68be
00000070: ac5c 9fbe 4ff6 a63d 0ab6 573e a64f a43d
00000080: d7fb 8d3e 8ac2 80bd 6619 903e 3bb9 853e
00000090: 958a a73c fa43 bcbc 3217 323e d48d 853e
000000a0: 276b d1bd 87c4 85be 9911 57be 376c b6be
000000b0: 85ea 53bc 1a1b 9abe 25e4 2c3e c421 b0bd
000000c0: b69c c7bc 1167 8d3e df59 8c3c 26e3 713b
000000d0: d938 433e c39f 2d3e f435 c63c bfa2 9b3d
000000e0: c60a f23d 043a a4bd b6bd 923e 0979 183d
000000f0: 6928 6ebe a092 593e 64f0 e43d 7c3f 753e
00000100: a9d3 32be ef9e 91be 82cd 743e 13d5 98be
00000110: 4896 da38 448b 923e 86bb 0cbe 267f f23d
00000120: 950b 573e 1ca3 cabd acc4 96bc 47ed 7d3e
00000130: 86be b3bc 2aa7 143e da60 76be 2793 023e
00000140: cd0c 25be 9cf3 4b3e 7a1c c03d 184f 86bd
00000150: ce8a 1cbe 72cc 8fbd 2f62 25be 9de6 0dbe
00000160: b4d3 71be 4dc0 893e 4a28 583e c54f 773e
00000170: 0b61 d9bd 65b3 b1bb fc50 773e 88b2 0dbc
00000180: cdd2 243e 1c21 b43d 80d0 2f3e 0224 053e
0.21291906 -0.041053735 0.011168104 0.26987138 -0.022699721 -0.2735297 0.14828025 0.2791746
0.038735103 0.21271855 0.046542045 -0.32091254 0.04410037 0.2891109 0.19403656 -0.14816897
-0.2156802 -0.2166926 -0.06747313 0.05924752 -0.10651383 -0.25059402 0.23827201 -0.10458894
0.0507682 0.30376732 0.07718401 -0.22661904 -0.3112539 0.081524484 0.21065536 0.08023004
0.277312 -0.062871054 0.28144377 0.26117882 0.020451823 -0.022981633 0.17391661 0.2608477
-0.10225516 -0.261265 -0.21002807 -0.35629436 -0.012934332 -0.30098802 0.16883905 -0.0860019
-0.024366718 0.27617696 0.017132698 0.0036909073 0.19064654 0.16955476 0.024195649 0.07599401
0.11818461 -0.08018878 0.28660363 0.037224803 -0.23257603 0.21247339 0.111786634 0.23949999
-0.17463554 -0.2844157 0.2390652 -0.29850063 0.00010423042 0.28621876 -0.1374341 0.11840658
0.21000512 -0.09894392 -0.018404327 0.24797545 -0.021941435 0.14516893 -0.24060383 0.12751447
-0.16118164 0.19917148 0.093804315 -0.06558055 -0.15287325 -0.07021417 -0.16150735 -0.13857503
-0.23615915 0.26904526 0.21109119 0.24151523 -0.106142126 -0.005422997 0.24151987 -0.008648522
0.16096039 0.087953776 0.1716938 0.13002017

i_resnet_layers.7.bottleneck_block.2.weight_u f4 [10]
00000000: 2d73 ecbe cd6a 5b3c 371c 1d3f fcae 7b3b
00000010: 8dc2 fc3c 1298 1abe 87b1 22bd aa4b c23e
00000020: 6250 a33e eac2 bebe
-0.46181622 0.0133921625 0.6137118 0.003840386 0.030854488 -0.15097073 -0.039720085 0.37948352
0.31897265 -0.37258083

i_resnet_layers.7.bottleneck_block.2.weight_v f4 [10]
00000000: e912 c7be 514f 20be 9e30 933e 2de9 a7be
00000010: fac9 e3bd e02e dc3e 1f9d 41be 4a7e 9ebe
00000020: ca25 0dbf 34ff 0f3d
-0.38881615 -0.15655257 0.2874803 -0.32795087 -0.11122508 0.43004513 -0.18907593 -0.30955726
-0.55135787 0.03515549

i_resnet_layers.7.bottleneck_block.4.weight_orig f4 [2, 10]
00000000: d318 e23d 042a 0e3c 6853 b53e e348 223d
00000010: 9d3a 1a3e 52c5 40be ba57 eb3d d343 0e3e
00000020: bbc7 7f3e 2c5b 2a3e 2390 5a3e 1a02 2a3e
00000030: 56f7 4b3e 4b0e 3e3e bd26 a5bd 597c 543e
00000040: a0ba a3be 77f3 75be ac69 183e 2156 9bbe
0.11039891 0.0086770095 0.35415196 0.03962029 0.15061422 -0.18825272 0.11491342 0.1389306
0.24978535 0.16636342 0.21344046 0.16602364 0.1991857 0.1856014 -0.08064029 0.2075056
-0.3197832 -0.24018656 0.1488406 -0.3033915

i_resnet_layers.7.bottleneck_block.4.weight_u f4 [2]
00000000: 1798 4a3e 8ff0 7abf
0.1978458 -0.98023313

i_resnet_layers.7.bottleneck_block.4.weight_v f4 [10]
00000000: 5de5 8abe 4d84 6ebe 956f 39be cc16 81be
00000010: 1940 213e a462 b2be 212c f93e 06e0 c23e
00000020: 64e8 0ebe 43b3 f43e
-0.27128115 -0.23292656 -0.18108971 -0.25212705 0.15747108 -0.34840882 0.4866648 0.3806154
-0.13955837 0.47793016

i_resnet_layers.8.bottleneck_block.0.bias f4 [10]
00000000: 5ea5 313f a7ed 5c3e 491a 0a3f 004b 76bc
00000010: d845 09bf 9b18 123f d5a4 c6be a443 253f
00000020: 36a4 093f 82f4 24bf
0.69392955 0.21575032 0.5394636 -0.01503253 -0.536222 0.57068795 -0.38797632 0.64556336
0.5376619 -0.6443559

i_resnet_layers.8.bottleneck_block.0.weight_orig f4 [10, 2]
00000000: 2bb0 cd3e 968c 8dbe 4ae3 83be 3d0d 2a3f
00000010: b715 a1be a131 fcbd b47b debe d7d1 9c3e
00000020: 0c9d e93c 01ff 06bf 94de 233f e779 e9bd
00000030: edeb cc3e 8db5 dc3e ac90 8e3e ef44 9b3e
00000040: f51b fe3d ab01 49be d463 d13e c6aa 71be
0.40173468 -0.2764632 -0.25759345 0.6642645 -0.3146188 -0.123141535 -0.43453753 0.30628845
0.028517269 -0.52732855 0.640115 -0.11400204 0.40023747 0.43107262 0.2784475 0.3032603
0.12407676 -0.19629543 0.40896475 -0.23600301

i_resnet_layers.8.bottleneck_block.0.weight_u f4 [10]
00000000: e5a2 c03e 75d1 febe 0d1b edbd 894d d2be
00000010: fd8b 963e 03e0 da3e ad2b 343b fe91 d938
00000020: 64cc 323e 04d7 b73e
0.3762428 -0.49769178 -0.11577425 -0.4107478 0.29403678 0.42749032 0.0027491853 0.000103745595
0.17460781 0.3590623

i_resnet_layers.8.bottleneck_block.0.weight_v f4 [2]
00000000: 80a2 3c3f b411 2dbf
0.73685455 -0.6760514

i_resnet_layers.8.bottleneck_block.2.weight_orig f4 [10, 10]
00000000: 69d9 853e a47c e43d aa78 c73d 1e4c fb3d
00000010: 9afc 1a3e a23f 40be 7e2b 963e 94f6 853e
00000020: ed59 9abd 32c8 b33b 8d4c a03d 773f 6bbe
00000030: ad1a a53e b4d7 a23e 0425 3dbe 8c83 493b
00000040: 66a4 ae3c ff4c 3bbe 4dac e53d 32f7 033e
00000050: 88f4 3fbe 4abd 743d 19c1 56be c115 693e
00000060: e43b 21be db09 9cbe 7c9c 4dbe dba1 46be
00000070: ebfe 2d3e 0e85 c7bb 9dae 983e 4383 90be
00000080: 207f 6fbe 8cc8 d43d 3bc5 63bc c290 853e
00000090: 434f 4dbc 86b7 7a3d f1d5 27be 8c85 073e
000000a0: de40 e83d dec4 0f3b 4a60 00bd a093 0d3e
000000b0: 4895 77be 2a13 33be 1654 053c cb4b 563e
000000c0: 00fa a83d 5a76 87bd 8934 6f3e 6fc0 6e3e
000000d0: d142 0abe 1e19 48be 9a45 99bc 4385 1abe
000000e0: f40d 5b3e 3f17 6d3e 84a2 6dbe b22e b03d
000000f0: 8cb2 d2bd 2f5c 343e cf04 603e 6456 b43d
00000100: d984 323d d645 56be 25f8 00bd 9de8 aabd
00000110: 156b 65be 03ef 26be 18f3 793c 222f 7a3e
00000120: e027 cfbd 32f8 23bd cf68 afbe 83c8 0dbe
00000130: 8c68 693e 6bd2 9fbe c842 593d 38b4 ff3d
00000140: 3b6f 45be c719 0f3e ef0c fd3d 4e6f 59be
00000150: d6d3 7d3e 8954 073e bff6 803d 3b39 42bd
00000160: 0117 3c3e 44fe 15be d7b0 12be ba12 2abe
00000170: 3daa 633e aaa9 563d f3d0 013e 0a78 8abe
00000180: aa57 aabe 2d16 38be 315b 813e fe3d 81be
0.26142433 0.11156586 0.09739812 0.122703776 0.15135422 -0.18774274 0.29330057 0.26164687
-0.07536683 0.0054865116 0.07827101 -0.22973429 0.32246915 0.31805193 -0.18471152 0.0030748574
0.021318626 -0.1829109 0.112145044 0.12887266 -0.18745625 0.059750833 -0.20972098 0.22762205
-0.15745503 -0.3047627 -0.20079225 -0.1939768 0.16991775 -0.0060888594 0.2982072 -0.28225145
-0.23388338 0.10389814 -0.013902004 0.26087004 -0.0125311045 0.061210178 -0.16390206 0.13234538
0.113404974 0.002193741 -0.03134183 0.13825846 -0.2417804 -0.1748778 0.008137723 0.2092735
0.08250809 -0.06614371 0.23359884 0.23315595 -0.13502051 -0.19540831 -0.018709946 -0.15089898
0.21392041 0.23153399 -0.23206526 0.086026564 -0.10287961 0.1761329 0.21876834 0.0880554
0.043583725 -0.20925078 -0.03148665 -0.08345149 -0.2240413 -0.16302113 0.015255712 0.24432042
-0.101150274 -0.04003162 -0.3425965 -0.1384602 0.22793788 -0.31215224 0.053042203 0.12485546
-0.19280712 0.13974677 0.123559825 -0.21233866 0.2478784 0.13215841 0.06297063 -0.04741786
0.1836815 -0.14647776 -0.14325272 -0.16608706 0.2223291 0.052407898 0.12677364 -0.27044708
-0.33270007 -0.1797721 0.25264886 -0.2524261

i_resnet_layers.8.bottleneck_block.2.weight_u f4 [10]
00000000: 87c9 a1be 5ab7 653e a070 b83e 357e 9dbe
00000010: 3a6c 33bd 4f91 f6be 1e0d 0f3e 9bfd b8bc
00000020: b878 083e 4546 183f
-0.31599066 0.22433224 0.36023426 -0.3076035 -0.043804385 -0.48157737 0.13969848 -0.022581866
0.133273 0.5948222

i_resnet_layers.8.bottleneck_block.2.weight_v f4 [10]
00000000: 9a6c e9be b2ba 17be cfc6 8e3e c886 3a3e
00000010: 17e8 2f39 16c9 5abe 841c e5be c032 e1be
00000020: 593b cd3e 9533 79be
-0.4559067 -0.14817312 0.27886054 0.18215477 0.00016775761 -0.2136577 -0.44748318 -0.43984032
0.4008434 -0.24336083

i_resnet_layers.8.bottleneck_block.4.weight_orig f4 [2, 10]
00000000: d8cd a93c a6a5 45be 9f9b c7bd 2daa 9a3e
00000010: 20e8 08be 5a9c 54be de0d 31be 2499 8abe
00000020: 32a0 6fbe cce2 793b 9954 353c 5230 10be
00000030: 9653 1c3e f18c 983e 3f39 763d 4e4f 3a3e
00000040: 1aa6 8bbd 4411 6a3e 1e57 37bc e8f5 7a3e
0.020728037 -0.19301471 -0.09746479 0.3020796 -0.13369799 -0.20762768 -0.17290446 -0.27069962
-0.23400953 0.0038129566 0.011067533 -0.14080933 0.1526626 0.2979503 0.060113188 0.18194315
-0.06818791 0.22858149 -0.011190204 0.24507868

i_resnet_layers.8.bottleneck_block.4.weight_u f4 [2]
00000000: 0688 7dbf 85dd 0dbe
-0.9903568 -0.13854034

i_resnet_layers.8.bottleneck_block.4.weight_v f4 [10]
00000000: 6add 16bd 210f b43e eedd 003e d881 11bf
00000010: c413 543e 4042 9a3e 8772 9a3e 9422 ca3e
00000020: da53 c73e 0b1f 81bd
-0.03683225 0.35167792 0.1258466 -0.5683875 0.20710665 0.3012867 0.30165502 0.39479506
0.3893116 -0.06304749

i_resnet_layers.9.bottleneck_block.0.bias f4 [10]
00000000: 3c07 f43e 9629 9a3e 47aa 0abf efa7 633e
00000010: 91bd 43bd d9d8 47be cc2b 543e 33ef c43d
00000020: 851d bd3e 0379 1bbf
0.4766177 0.30109853 -0.5416607 0.2223203 -0.047788206 -0.19516315 0.20719832 0.09615936
0.36936584 -0.60731524

i_resnet_layers.9.bottleneck_block.0.weight_orig f4 [10, 2]
00000000: f1d1 b53d 3762 72bd 8f57 08bf 7ee3 a3bd
00000010: 4fe5 8dbd f59c b13e b9ab 4abe 84bb ccbe
00000020: ed7d cd3e 1958 0a3d 1bb1 14bf 7eb1 8a3e
00000030: b2ff 193f 2cc1 083f 76df d13e f825 24bf
00000040: edad b03e 9c39 33bd 834d ddbe c388 46be
0.08877934 -0.059175696 -0.53258604 -0.08002375 -0.06928503 0.3469006 -0.1979207 -0.39986813
0.40135136 0.033775423 -0.5808274 0.2708854 0.60155785 0.53419757 0.409908 -0.64120436
0.34507695 -0.043756112 -0.432232 -0.19388108

i_resnet_layers.9.bottleneck_block.0.weight_u f4 [10]
00000000: c6c8 7dbd 41b5 d43e e211 953c bf16 443e
00000010: 6cf0 9ebe a78f d53e d288 03bf 454d 7fbe
00000020: 27ee 84be fe4f b33e
-0.06195905 0.41544536 0.018197004 0.19149302 -0.31042802 0.4171116 -0.51380646 -0.2493182
-0.25962946 0.35021967

i_resnet_layers.9.bottleneck_block.0.weight_v f4 [2]
00000000: 49d4 7dbf c211 05be
-0.99152046 -0.12995055

i_resnet_layers.9.bottleneck_block.2.weight_orig f4 [10, 10]
00000000: f16f 8ebd 495f 4abe 5e50 1a3e cd3c 493e
00000010: f9df f63d 3b0a 91bc 7779 afbe 8e87 1f3d
00000020: a7ad 13be 9881 7ebe 43ed 1fbe d302 7f3e
00000030: 8f84 84be 48d4 053e 2c5b 723e 159e 34be
00000040: 1138 63be d5e9 803c c62c 363e afba 27be
00000050: bff0 85bd d3fb 813e 9832 c43c dab6 373e
00000060: 9e3c 643d d770 adbd 4c43 4a3e 370a 253e
00000070: d7a7 293e d01b e3bd 4cd5 fe3d 3138 6e3d
00000080: 9dc6 f23d f708 98bd cb04 93be 3b3c 66be
00000090: 02e3 97be 5ace afbc 3b8a a9be c814 1a3d
000000a0: a35d 40be 0f2e 1a3e bd23 9d3d 5a73 8ebe
000000b0: b252 68be 892a 1e3d ce9f 983d 43c0 3c3e
000000c0: 385a 2c3e 7019 c3bd a7bc cfbc 65ae 34be
000000d0: 8ec1 b8bd 5b13 203e d26f 823e 19bf a6be
000000e0: 0580 f4bc ee97 71be 0a54 c7bd 735a b7bd
000000f0: 6d40 5c3e bc1c 77be 362f 103e e4b3 75be
00000100: be21 573c 3d78 ddbc 2c4a 5d3e 30b2 e73c
00000110: 464b bbbd 6c85 a5be d99f 53be c9ea 4d3d
00000120: 5538 1d3e dfcf 43be 2203 8e3e 43f5 423e
00000130: 4384 aabd a431 ccbc 7a00 0c3e 8421 f5bd
00000140: e671 d4bc fae7 0f3e 9be8 09be d56f be3d
00000150: 5a23 04bd 0972 9fbd c58a b93b d3cd 253e
00000160: 8a2b 1ebd 2580 c9bd 27b2 a53e c0b7 9fbd
00000170: f3a7 283d 90f8 e6bd 42bb 593e 9adf 1bbe
00000180: 647d 09bd 2d89 923e ce66 6c3e 2848 34bd
-0.06954945 -0.19762911 0.1506972 0.196521 0.12054438 -0.017705074 -0.34272358 0.038947634
-0.14421712 -0.24854124 -0.15617852 0.24903421 -0.25882384 0.1306926 0.23667592 -0.17638429
-0.22189356 0.0157365 0.17790517 -0.16379808 -0.06540059 0.2538744 0.023949906 0.17940846
0.05572187 -0.08468788 0.19752234 0.16117178 0.16567932 -0.11089289 0.12443027 0.058159057
0.11854289 -0.07423585 -0.28714594 -0.22483914 -0.2966538 -0.0214607 -0.33113274 0.037617475
-0.1878572 0.15056632 0.07672832 -0.2782238 -0.22687796 0.038614783 0.07452355 0.18432717
0.1683129 -0.09526336 -0.025358511 -0.17644651 -0.090212926 0.15632384 0.25475937 -0.3256767
-0.0298462 -0.23593113 -0.09732826 -0.08952799 0.21508951 -0.24132055 0.1408051 -0.23994404
0.013130603 -0.027034873 0.21610326 0.028283209 -0.09145217 -0.32328355 -0.20666446 0.050272737
0.1535352 -0.19122265 0.27736765 0.19038872 -0.08326008 -0.024926014 0.13672057 -0.11969283
-0.025933217 0.14053336 -0.13467638 0.09298674 -0.032260276 -0.07785422 0.0056622946 0.16191797
-0.03861574 -0.09838895 0.32362482 -0.077987194 0.041175794 -0.11277878 0.2126284 -0.15222016
-0.033566847 0.28620282 0.23086092 -0.044014126

i_resnet_layers.9.bottleneck_block.2.weight_u f4 [10]
00000000: 7132 c63e d441 143f a6bd b53d f8e1 40bd
00000010: b37f c2be 89f5 033f 918f 91be acee 1c3d
00000020: f382 e33d d3f7 8f3b
0.3871036 0.57912946 0.08874063 -0.0470905 -0.37988052 0.5154653 -0.28429845 0.038313553
0.11108961 0.0043935566

i_resnet_layers.9.bottleneck_block.2.weight_v f4 [10]
00000000: 3a91 31be b750 fd3c 85ef 89be 7f71 063f
00000010: 7f26 053f 6c99 b1be d3ec d3be b032 32be
00000020: eb7d 2bbc d16e 2bbe
-0.17340556 0.030922277 -0.2694055 0.5251693 0.52011865 -0.34687364 -0.4139162 -0.17402148
-0.010467033 -0.16741492

i_resnet_layers.9.bottleneck_block.4.weight_orig f4 [2, 10]
00000000: e950 2fbd 99d3 54bd 0753 59be 72d6 a83e
00000010: 17df 733e 12d6 32be 6152 20be cfbd 873c
00000020: 449b 00bd ea33 0bbd acd8 6c3e c7b7 10be
00000030: 738c 853e b67b 913e 29cc 383e 7264 9dbe
00000040: 5340 6dbe 39de 183e 7a0b 92bd 7f91 38bd
-0.04280177 -0.051959608 -0.21223079 0.3297611 0.23815571 -0.17464474 -0.15656425 0.01657
-0.031398073 -0.033985056 0.23129529 -0.14132605 0.26083717 0.28414696 0.18046631 -0.30740696
-0.23169069 0.14928521 -0.07131095 -0.04506063

i_resnet_layers.9.bottleneck_block.4.weight_u f4 [2]
00000000: ea5d 0abf 8262 57bf
-0.5404955 -0.84134686

i_resnet_layers.9.bottleneck_block.4.weight_v f4 [10]
00000000: 45d5 6dbe 45eb 4b3e ae6a 11be 77b9 10bf
00000010: 5fa4 c2be d3e4 f43e aee8 c13e b4a8 3abe
00000020: c078 d53d 8c0f 9c3d
-0.23225887 0.19913967 -0.14200851 -0.56532997 -0.3801603 0.4783083 0.37872833 -0.18228418
0.10423422 0.07620153

i_resnet_layers.10.bottleneck_block.0.bias f4 [10]
00000000: 1acf 84bd fa8e d0be f526 68be c5e9 263e
00000010: f952 8a3e f8dd c63c 5529 efbe e923 243e
00000020: 9715 2abf 7216 bbbe
-0.06484814 -0.40734082 -0.22671111 0.16300113 0.27016428 0.024275765 -0.4671122 0.16029324
-0.66439193 -0.36540562

i_resnet_layers.10.bottleneck_block.0.weight_orig f4 [10, 2]
00000000: 37c8 113f 5d49 02bf fa1f f33e 49f7 a63e
00000010: b445 153f 81bc a3be 3a65 753e 57db 953d
00000020: e1af 313f 0751 0ebf 13e7 333e ccfd 273f
00000030: 936c c3be b9dd 29bf 6e45 d1be 6e31 dcbe
00000040: ee65 85be 5e26 98be 4c2d b53e f924 413e
0.5694613 -0.50893193 0.47485334 0.3261054 0.58309484 -0.31979755 0.23964396 0.073172264
0.69408995 -0.5559239 0.17568617 0.6562164 -0.38168773 -0.66353947 -0.40873283 -0.43006462
-0.2605433 -0.29716772 0.3538612 0.1886176

i_resnet_layers.10.bottleneck_block.0.weight_u f4 [10]
00000000: 4c87 00bf 9884 7abe 9050 efbe 6020 14be
00000010: 32d9 18bf ecff 093d 8520 d43d 241c 343e
00000020: b0ba da3d 7595 47be
-0.50206447 -0.24464643 -0.46741152 -0.14465475 -0.59706414 0.03369133 0.10357765 0.1758886
0.10680139 -0.19490607

i_resnet_layers.10.bottleneck_block.0.weight_v f4 [2]
00000000: 3216 72bf 5b7e a63e
-0.9456512 0.32518277
