experiments/models/spiral/i_resnet_euclidean_product_100_blocks_10_epochs_2024_02_11_15_04_42.pt (torch, 681942 bytes, 1000 tensors)

i_resnet_layers.0.bottleneck_block.0.bias f4 [10]
-0.108530946 0.022696843 0.17106873 0.07707603 -0.31697404 -0.72787786 -0.5498572 -0.03047663
-0.24959399 0.57179123
00000000: 7945 debd bbee b93c a42c 2f3e 0ada 9d3d
00000010: 6c4a a2be 3456 3abf 71c3 0cbf 20aa f9bc
00000020: 9195 7fbe e960 123f

i_resnet_layers.0.bottleneck_block.0.weight_orig f4 [10, 2]
0.27627066 0.33532655 0.3312694 -0.42310676 0.6465261 -0.3679301 -0.649607 -0.346328
-0.035163566 -0.12986091 0.062653504 0.39599326 -0.31415033 0.36089957 0.075827666 -0.5147209
0.17696223 -0.42320257 -0.6428219 -0.42591608
00000000: 5973 8d3e ecaf ab3e 259c a93e 73a1 d8be
00000010: bc82 253f 5661 bcbe a54c 26bf e751 b1be
00000020: ac07 10bd 42fa 04be 7b50 803d a1bf ca3e
00000030: 50d8 a0be d4c7 b83e 894b 9b3d c0c4 03bf
00000040: 9635 353e 02ae d8be fa8f 24bf ac11 dabe

i_resnet_layers.0.bottleneck_block.0.weight_u f4 [10]
-0.25549778 -0.21263619 -0.46697387 0.5503428 0.04231715 -0.09420916 0.20622301 -0.0012976134
-0.091228545 0.5541178
00000000: 9bd0 82be 4dbd 59be 3317 efbe 44e3 0c3f
00000010: bf54 2d3d bbf0 c0bd 202c 533e ae14 aaba
00000020: 08d6 babd aada 0d3f

i_resnet_layers.0.bottleneck_block.0.weight_v f4 [2]
-0.9897513 -0.14280237
00000000: 5760 7dbf c93a 12be

i_resnet_layers.0.bottleneck_block.2.weight_orig f4 [10, 10]
-0.08608736 -0.16517994 -0.2107981 0.20337921 0.0057050902 -0.26183593 0.20976053 0.07114262
0.03274296 0.24888046 0.22626142 -0.025066642 0.0006702426 -0.18962242 0.0720723 -0.24564344
0.18901919 -0.18654393 0.05099592 -0.20531468 0.21060243 -0.36986712 -0.24669188 -0.031344496
-0.11032884 -0.09103929 0.21578585 -0.23394802 -0.3473275 0.030296775 0.124166965 -0.10316353
-0.250685 -0.0028356565 0.28804103 0.048144538 0.1293191 0.21597408 0.12789653 -0.30479944
-0.028398728 0.09919157 0.15223241 -0.30359545 -0.09486883 -0.23096469 0.033739313 -0.06908231
0.18885697 -0.30902395 -0.13537599 0.128002 0.17849554 0.10496214 0.018375086 0.042388443
0.10680093 0.042787686 -0.1631179 0.16632508 0.069953665 -0.124997966 -0.20534714 0.2126908
0.1908769 -0.04517623 -0.25166842 0.061524596 0.121121325 0.14069301 0.059090547 -0.02505532
-0.23595217 0.047440108 -0.08276296 -0.023834558 0.031738363 0.14196685 -0.13952076 -0.2870899
-0.18874258 0.18450266 -0.28797746 0.05081234 0.07351379 -0.27898642 0.09015714 0.0003500355
0.025506182 0.15361708 0.2031791 -0.064706504 -0.020297224 0.12020181 -0.042251475 0.1321115
-0.12614357 -0.13170934 0.36907786 0.16460644
00000000: 924e b0bd ee24 29be 75db 57be a442 503e
00000010: c4f1 ba3b 5c0f 86be 77cb 563e 39b3 913d
00000020: 7b1d 063d 85da 7e3e 13b1 673e 8f58 cdbc
00000030: 38b3 2f3a 612c 42be a49a 933d f489 7bbe
00000040: 3f8e 413e 5f05 3fbe 19e1 503d 033e 52be
00000050: 2aa8 573e 395f bdbe cc9c 7cbe 1663 00bd
00000060: 16f4 e1bd cf72 babd f7f6 5c3e 1290 6fbe
00000070: e9d4 b1be f130 f83c 404b fe3d 6747 d3bd
00000080: c959 80be 6cd6 39bb 1d7a 933e 3533 453d
00000090: 3a6c 043e 4f28 5d3e 4ff7 023e ac0e 9cbe
000000a0: 73a4 e8bc f324 cb3d d0e2 1b3e dd70 9bbe
000000b0: 974a c2bd 0282 6cbe 3c32 0a3d 077b 8dbd
000000c0: b963 413e 6338 9ebe 01a0 0abe f512 033e
000000d0: 89c7 363e 64f6 d63d 5987 963c 819f 2d3d
000000e0: 72ba da3d 2442 2f3d 6108 27be 1f51 2a3e
000000f0: de43 8f3d effe ffbd 8546 52be 9ecb 593e
00000100: 3c75 433e b60a 39bd afda 80be 3701 7c3d
00000110: 750e f83d d411 103e ee08 723d d040 cdbc
00000120: 729d 71be 8f50 423d a07f a9bd b140 c3bc
00000130: 1600 023d c25f 113e 88de 0ebe 73fd 92be
00000140: bc45 41be 44ee 3c3e c871 93be 9a20 503d
00000150: 668e 963d 4fd7 8ebe 4ea4 b83d f884 b739
00000160: 57f2 d03c cc4d 1d3e 2f0e 503e d884 84bd
00000170: 5d46 a6bc 5e2c f63d e20f 2dbd 3d48 073e
00000180: c82b 01be d0de 06be c6f7 bc3e 978e 283e

i_resnet_layers.0.bottleneck_block.2.weight_u f4 [10]
-0.5177207 0.24500494 -0.316905 -0.016753618 0.5588738 -0.06399351 -0.39843145 -0.013410961
-0.28717947 -0.115732305
00000000: 5889 04bf 93e2 7a3e 5f41 a2be e23e 89bc
00000010: 5a12 0f3f 080f 83bd 35ff cbbe a6b9 5bbc
00000020: 3009 93be 0f05 edbd

i_resnet_layers.0.bottleneck_block.2.weight_v f4 [10]
0.031346675 0.2976385 0.5179207 -0.5145156 -0.11977482 0.06469523 -0.03806386 -0.07691057
0.1463224 -0.5745909
00000000: 5f65 003d 1364 983e 7396 043f 4bb7 03bf
00000010: 804c f5bd ef7e 843d dae8 1bbd 4a83 9dbd
00000020: 8ad5 153e 6418 13bf

i_resnet_layers.0.bottleneck_block.4.weight_orig f4 [2, 10]
0.058971286 -0.16718139 0.12476034 -0.101701476 -0.27769417 -0.19999747 -0.15463312 -0.19910006
0.17620419 -0.07529802 -0.298854 -0.11811076 -0.25505388 0.17318727 0.072638914 0.20051412
-0.41936824 -0.09641142 -0.23044893 -0.24563192
00000000: e08b 713d 9931 2bbe 5982 ff3d dd48 d0bd
00000010: ee2d 8ebe 23cc 4cbe 2558 1ebe e3e0 4bbe
00000020: df6e 343e d935 9abd 6403 99be 0ee4 f1bd
00000030: 6c96 82be 0158 313e b6c3 943d 9353 4d3e
00000040: 6fb7 d6be 5a73 c5bd cefa 6bbe ef86 7bbe

i_resnet_layers.0.bottleneck_block.4.weight_u f4 [2]
0.1640755 -0.98644775
00000000: 6803 283e d787 7cbf

i_resnet_layers.0.bottleneck_block.4.weight_v f4 [10]
0.41058362 0.119957685 0.36686486 -0.25277606 -0.15814428 -0.31094527 0.5236487 0.084225826
0.34557673 0.31003863
00000000: 0438 d23e 60ac f53d b6d5 bb3e dd6b 81be
00000010: 93f0 21be 3834 9fbe d70d 063f 977e ac3d
00000020: 6fef b03e 62bd 9e3e

i_resnet_layers.1.bottleneck_block.0.bias f4 [10]
0.51761746 0.055383474 0.53842306 -0.5751241 0.025134966 0.40329394 -0.2221694 0.4354283
-0.34377304 -0.041629143
00000000: 9482 043f c8d9 623d 18d6 093f 553b 13bf
00000010: d8e7 cd3c 8b7c ce3e 6080 63be 75f0 de3e
00000020: 0503 b0be 5283 2abd

i_resnet_layers.1.bottleneck_block.0.weight_orig f4 [10, 2]
0.39978936 -0.14084154 0.49159038 0.4443902 -0.24934685 -0.06008366 -0.3134864 -0.18609437
0.45675164 0.26037925 0.013871178 0.17354819 -0.4017855 -0.57783055 -0.38952285 0.5911869
0.3187558 0.4167771 -0.2999323 0.5535804
00000000: 31b1 cc3e c438 10be bcb1 fb3e 1d87 e33e
00000010: c854 7fbe 491a 76bd 4a81 a0be 868f 3ebe
00000020: 5adb e93e 6e50 853e f043 633c 9eb6 313e
00000030: d4b6 cdbe b4ec 13bf 8a6f c7be 0658 173f
00000040: f633 a33e cf63 d53e ba90 99be 72b7 0d3f

i_resnet_layers.1.bottleneck_block.0.weight_u f4 [10]
0.08519058 0.48892808 -0.14512318 -0.2512179 0.3594373 0.11389619 -0.5329412 0.19912659
0.39703083 0.2145743
00000000: 6678 ae3d c854 fa3e 2c9b 14be a29f 80be
00000010: 2a08 b83e 6842 e93d d66e 08bf d7e7 4b3e
00000020: a047 cb3e 5eb9 5b3e

i_resnet_layers.1.bottleneck_block.0.weight_v f4 [2]
0.57094 0.8209918
00000000: 2029 123f 852c 523f

i_resnet_layers.1.bottleneck_block.2.weight_orig f4 [10, 10]
-0.053099263 0.16004746 0.057885036 -0.06558554 -0.052356325 0.05695667 -0.32025343 -0.21038541
-0.15827689 0.20129515 -0.030983688 0.21300374 -0.2115411 -0.17983197 -0.044022355 -0.17284136
-0.43446133 0.0122275315 -0.065832436 -0.10249767 -0.17699751 -0.023660278 0.09754638 0.2400475
0.18099077 -0.31936607 -0.018407056 -0.29029906 0.16032471 -0.3559445 -0.3652188 0.2048684
-0.087922774 -0.004211673 -0.11608544 -0.060202073 0.07476957 0.26840323 0.06045851 0.118295476
0.25315726 0.23981577 -0.036539536 -0.11212602 0.17727645 -0.07489753 -0.005758338 0.02670235
-0.0002544884 0.030391045 -0.17405687 0.120701455 -0.07497024 -0.15785898 -0.06691994 -0.0017497517
0.0544826 0.27310494 0.15761226 -0.049696553 -0.19678526 -0.16013436 0.10777236 0.07840749
-0.1585772 -0.03242734 -0.16276266 0.2767216 -0.36432594 -0.24756065 0.025981225 0.059405133
-0.25169644 0.18927224 0.12220615 0.093003154 -0.12282804 0.23315513 -0.099233076 0.1349931
0.10252294 -0.3370923 -0.061674498 0.07588786 -0.11361495 0.14219524 -0.17814542 -0.08446187
-0.09626232 0.052717436 -0.17783074 -0.07502326 0.2381717 0.08523823 -0.37500036 0.081814915
0.052545384 -0.044767033 -0.073267534 0.007990959
00000000: 9d7e 59bd 7be3 233e dc18 6d3d b651 86bd
00000010: 9673 56bd 664b 693d 42f8 a3be 466f 57be
00000020: 5613 22be 5120 4e3e 81d1 fdbc a71d 5a3e
00000030: 3b9e 58be df25 38be c950 34bd 53fd 30be
00000040: b771 debe fc55 483c 28d3 86bd 4cea d1bd
00000050: d63e 35be 33d3 c1bc 65c6 c73d 03cf 753e
00000060: a555 393e f383 a3be 65ca 96bc 14a2 94be
00000070: 292c 243e 5c3e b6be f5fd babe 06c9 513e
00000080: db10 b4bd 1302 8abb 34be edbd 7396 76bd
00000090: ca20 993d 266c 893e 58a3 773d e644 f23d
000000a0: d49d 813e 4492 753e 7baa 15bd 54a2 e5bd
000000b0: f587 353e e063 99bd 71b0 bcbb e3be da3c
000000c0: db6c 85b9 a4f6 f83c f73b 32be 5332 f73d
000000d0: ff89 99bd c9a5 21be 520d 89bd ed57 e5ba
000000e0: 2629 5f3d 69d4 8b3e 1c65 213e 9d8e 4bbd
000000f0: 1382 49be 43fa 23be c1b7 dc3d 1b94 a03d
00000100: 1062 22be 88d2 04bd 41ab 26be 74ae 8d3e
00000110: ee88 babe 8a80 7dbe 94d6 d43c cc52 733d
00000120: 5bde 80be 95d0 413e 3847 fa3d 7078 be3d
00000130: 448d fbbd 38c0 6e3e b63a cbbd a23b 0a3e
00000140: 8cf7 d13d 5d97 acbe 669e 7cbd 186b 9b3d
00000150: f4ae e8bd a19b 113e c16b 36be 58fa acbd
00000160: 2e25 c5bd 3dee 573d 4319 36be cca5 99bd
00000170: 48e3 733e 6291 ae3d 0c00 c0be 948e a73d
00000180: d439 573d a35d 37bd 4a0d 96bd 83ec 023c

i_resnet_layers.1.bottleneck_block.2.weight_u f4 [10]
-0.11503087 -0.22248329 0.4958876 -0.45830277 0.1617458 -0.29510424 -0.49922216 -0.24871819
-0.038004465 -0.23568441
00000000: 4e95 ebbd a9d2 63be fbe4 fd3e a9a6 eabe
00000010: b1a0 253e e717 97be 0c9a ffbe fbaf 7ebe
00000020: 92aa 1bbd 4157 71be

i_resnet_layers.1.bottleneck_block.2.weight_v f4 [10]
0.394673 -0.090945356 0.12575258 0.1098146 0.43711892 -0.17788415 0.22468875 -0.63192123
0.33293617 -0.15721782
00000000: 9412 ca3e 8f41 babd 49c5 003e 7ae6 e03d
00000010: 0dce df3e 4327 36be cf14 663e 97c5 21bf
00000020: 9c76 aa3e b5fd 20be

i_resnet_layers.1.bottleneck_block.4.weight_orig f4 [2, 10]
-0.09503256 -0.26332337 -0.40140978 -0.026919985 -0.2540579 0.040539812 0.12534152 0.10739995
0.34732342 0.22631146 0.26742604 -0.09980086 0.13242233 0.23939021 0.23693797 0.15782028
-0.24895276 -0.075901866 0.10299349 -0.27999774
00000000: 6ea0 c2bd 52d2 86be 9585 cdbe 4d87 dcbc
00000010: e113 82be 130d 263d 8759 003e 81f4 db3d
00000020: 60d4 b13e 31be 673e 11ec 883e 6564 ccbd
00000030: b899 073e b522 753e de9f 723e a49b 213e
00000040: 79ed 7ebe 7072 9bbd 40ee d23d dd5b 8fbe

i_resnet_layers.1.bottleneck_block.4.weight_u f4 [2]
-0.80504847 0.59320897
00000000: a817 4ebf 8bdc 173f

i_resnet_layers.1.bottleneck_block.4.weight_v f4 [10]
0.29455572 0.1914585 0.502859 0.2048013 0.432221 0.07630325 -0.31131116 -0.16459209
-0.2736599 -0.4361624
00000000: 02d0 963e b20d 443e 5ebb 003f 6fb7 513e
00000010: 124c dd3e e144 9c3d 2d64 9fbe d48a 28be
00000020: 271d 8cbe ae50 dfbe

i_resnet_layers.2.bottleneck_block.0.bias f4 [10]
0.7056325 0.40490475 -0.6545943 0.20411256 0.6073844 -0.765416 -0.12735781 0.5783128
0.13451847 0.31790018
00000000: 55a4 343f ad4f cf3e 7e93 27bf e202 513e
00000010: 8b7d 1b3f 4ef2 43bf 166a 02be 4f0c 143f
00000020: 36bf 093e d0c3 a23e

i_resnet_layers.2.bottleneck_block.0.weight_orig f4 [10, 2]
0.22309324 0.09385016 -0.6487387 0.64873934 0.21837598 0.40551883 0.40193984 0.5374282
-0.39913124 0.2755561 -0.16603167 -0.3057449 0.29555675 -0.14718185 0.2949207 -0.51115584
-0.22950725 -0.60870767 -0.7713358 -0.25701642
00000000: 8e72 643e 8334 c03d bd13 26bf c813 263f
00000010: f49d 5f3e 2aa0 cf3e 0fcb cd3e e594 093f
00000020: ee5a ccbe b015 8d3e 3504 2abe 988a 9cbe
00000030: 3753 973e d7b6 16be d9ff 963e 1cdb 02bf
00000040: f303 6bbe 44d4 1bbf 4376 45bf a897 83be

i_resnet_layers.2.bottleneck_block.0.weight_u f4 [10]
-0.048643235 -0.5451063 -0.28129998 -0.36179575 -0.24335013 0.2119006 0.1378173 0.4089496
0.4315206 0.11790926
00000000: 213e 47bd 168c 0bbf 8d06 90be 4b3d b9be
00000010: c730 79be 79fc 583e fa1f 0d3e d861 d13e
00000020: 45f0 dc3e 697a f13d

i_resnet_layers.2.bottleneck_block.0.weight_v f4 [2]
0.1270483 -0.99189645
00000000: f318 023e edec 7dbf

i_resnet_layers.2.bottleneck_block.2.weight_orig f4 [10, 10]
0.004375026 -0.035005894 -0.19215244 0.21160252 -0.024090884 0.059683498 -0.20615222 0.10446995
-0.08739435 -0.04086622 -0.13271219 -0.3027445 -0.18025552 0.025425024 -0.00093300716 0.34655023
0.27369496 -0.21147129 -0.014284992 0.018119939 -0.12913613 -0.2938807 -0.06893401 0.02824159
0.22694705 0.047677677 -0.19543222 -0.033388138 -0.06396231 -0.2525972 -0.36321822 -0.1867813
0.08318129 0.22722551 0.073351495 0.25510857 -0.24840786 -0.20201321 0.33712 0.29121867
-0.26244035 -0.14836033 -0.14895566 0.15938208 -0.15045719 0.22231993 -0.053380646 0.29747388
0.084519416 0.09352448 -0.18191631 -0.18070605 -0.08470238 -0.32893848 -0.22963573 -0.19634359
0.009280129 -0.14625537 -0.22371724 0.23367438 -0.08534219 0.07589393 -0.15960146 -0.007531751
0.25038353 0.2490286 0.017112346 0.0937054 -0.2510053 -0.33639026 -0.24644177 -0.07360875
-0.008527156 0.024100093 -0.21721195 0.040620673 0.090367265 0.03282642 -0.057295393 0.1366108
0.014922022 -0.04087837 -0.052401777 -0.1089268 0.15156272 0.07406503 0.24396673 -0.09867841
0.20544614 -0.30684367 -0.029992545 0.079367146 -0.06369716 -0.09312641 0.089312464 0.32551113
-0.10671467 0.01888644 -0.021741653 -0.30339187
00000000: 615c 8f3b 5762 0fbd 9cc3 44be 55ae 583e
00000010: 3f5a c5bc af76 743d 9119 53be 57f4 d53d
00000020: cffb b2bd 5663 27bd b4e5 07be 5401 9bbe
00000030: e794 38be 2448 d03c 0d95 74ba 086f b13e
00000040: bf21 8c3e ee8b 58be 990b 6abc 4470 943c
00000050: 433c 04be 8877 96be 462d 8dbd e85a e73c
00000060: cf64 683e ab49 433d 621f 48be 00c2 08bd
00000070: acfe 82bd 6c54 81be bdf7 b9be 9943 3fbe
00000080: f45a aa3d cead 683e 4f39 963d 979d 823e
00000090: a15e 7ebe 8ddc 4ebe fe9a ac3e 9d1a 953e
000000a0: 955e 86be c5eb 17be d587 18be 0e35 233e
000000b0: 7311 1abe d6a7 633e aaa5 5abd 7f4e 983e
000000c0: 8418 ad3d c389 bf3d 4548 3abe 020b 39be
000000d0: 7178 adbd a06a a8be a125 6bbe 4b0e 49be
000000e0: af0b 183c f8c3 15be 2216 65be 5648 6f3e
000000f0: e3c7 aebd 476e 9b3d 916e 23be e8cc f6bb
00000100: 4532 803e 5a01 7f3e 312f 8c3c 9ee8 bf3d
00000110: c483 80be 583b acbe 3b5b 7cbe 2fc0 96bd
00000120: 7cb5 0bbc 8f6d c53c cf6c 5ebe dd61 263d
00000130: 7912 b93d ff74 063d 93ae 6abd b4e3 0b3e
00000140: 7f7b 743c 1470 27bd 3fa3 56bd 0415 dfbd
00000150: 4233 1b3e 68af 973d 6ad2 793e e817 cabd
00000160: 7960 523e 9d1a 9dbe edb2 f5bc 3e8b a23d
00000170: a873 82bd 0fb9 bebd 74e9 b63d 65a9 a63e
00000180: 398d dabd bcb7 9a3c 8d1b b2bc 2e56 9bbe

i_resnet_layers.2.bottleneck_block.2.weight_u f4 [10]
-0.07670902 -0.30506203 -0.05220934 -0.7192742 -0.4073624 -0.18167341 0.23479772 -0.28112504
0.17818706 0.12692672
00000000: 9e19 9dbd 1731 9cbe 76d9 55bd 5b22 38bf
00000010: ce91 d0be 9808 3abe d06e 703e 9fef 8fbe
00000020: ab76 363e 14f9 013e

i_resnet_layers.2.bottleneck_block.2.weight_v f4 [10]
0.5303911 0.40564895 0.039711192 -0.25004402 0.2125752 -0.26662198 0.1601264 0.113778844
-0.2468307 -0.5236871
00000000: b6c7 073f 38b1 cf3e 34a8 223d c505 80be
00000010: 50ad 593e ad82 88be 2df8 233e e204 e93d
00000020: 30c1 7cbe 5c10 06bf

i_resnet_layers.2.bottleneck_block.4.weight_orig f4 [2, 10]
0.16309413 -0.1960288 -0.21730001 -0.23490556 -0.092393555 0.082553715 -0.27209145 -0.28968477
0.26412612 -0.1814115 0.033784226 0.32627836 0.20747979 -0.22248152 -0.25149676 0.075128004
0.21050417 0.07046571 0.30453306 -0.03804915
00000000: 2602 273e c6bb 48be e583 5ebe 158b 70be
00000010: d538 bdbd ec11 a93d 924f 8bbe 9051 94be
00000020: 8a3b 873e f0c3 39be 5461 0a3d f50d a73e
00000030: 9575 543e 32d2 63be 2fc4 80be b6dc 993d
00000040: 688e 573e 5350 903d c2eb 9b3e 6dd9 1bbd

i_resnet_layers.2.bottleneck_block.4.weight_u f4 [2]
-0.9440876 0.32969457
00000000: baaf 71bf bacd a83e

i_resnet_layers.2.bottleneck_block.4.weight_v f4 [10]
-0.21328068 0.43732354 0.40893963 0.22166695 0.006452109 -0.07970007 0.4878812 0.44344065
-0.22273943 0.23710193
00000000: 4066 5abe dfe8 df3e 8960 d13e a9fc 623e
00000010: 376c d33b ca39 a3bd 91cb f93e a70a e33e
00000020: ce15 64be d9ca 723e

i_resnet_layers.3.bottleneck_block.0.bias f4 [10]
-0.6612328 0.2299679 -0.5717204 0.3930878 0.16673692 -0.08667719 -0.4363827 -0.10549496
-0.3358873 -0.23421629
00000000: 8e46 29bf b57c 6b3e 455c 12bf ce42 c93e
00000010: 15bd 2a3e d083 b1bd 8e6d dfbe be0d d8bd
00000020: 6cf9 abbe 65d6 6fbe

i_resnet_layers.3.bottleneck_block.0.weight_orig f4 [10, 2]
0.6405969 0.14035228 -0.53084654 0.4382338 0.24830295 0.47055033 -0.50288594 -0.6410025
0.45074442 -0.7848479 0.10464138 0.5835341 -0.6281201 0.13654864 0.5526768 -0.2716296
-0.25101432 0.5708944 -0.11426163 0.25467274
00000000: 29fe 233f 82b8 0f3e 8fe5 07bf 2e60 e03e
00000010: 2143 7e3e f9eb f03e 22bd 00bf bd18 24bf
00000020: f9c7 e63e cbeb 48bf 384e d63d 7e62 153f
00000030: 7bcc 20bf 68d3 0b3e 3a7c 0d3f 0913 8bbe
00000040: f384 80be 2326 123f 0002 eabd 7764 823e

i_resnet_layers.3.bottleneck_block.0.weight_u f4 [10]
-0.15894789 0.41432077 0.15048444 -0.14573745 -0.5621886 0.25968686 0.2956195 -0.3372343
0.381255 0.17094515
00000000: 3cc3 22be da21 d43e 9818 1a3e 333c 15be
00000010: 98eb 0fbf adf5 843e 705b 973e f9a9 acbe
00000020: db33 c33e 3f0c 2f3e

i_resnet_layers.3.bottleneck_block.0.weight_v f4 [2]
-0.57680935 0.8168788
00000000: c7a9 13bf f81e 513f

i_resnet_layers.3.bottleneck_block.2.weight_orig f4 [10, 10]
0.10235455 -0.056170642 -0.20250441 0.18415892 -0.006925594 0.21932232 0.27934906 -0.3376528
-0.1419888 0.15477626 -0.2602645 0.30322185 0.12107014 0.18557954 -0.03394452 -0.3193642
0.2389719 -0.22535793 -0.09664867 -0.2534861 -0.13495612 -0.0024854844 0.12493541 0.2282556
-0.28162116 -0.2624668 -0.19807905 -0.09201055 0.053978287 -0.027423741 0.23847328 -0.006671321
0.06125293 -0.18921384 0.23588909 0.07959363 0.23514222 0.11100698 0.13259514 0.004608528
0.21243806 0.18068172 -0.03571409 0.18130508 -0.32479525 -0.21893358 0.09573273 -0.21751024
0.1592643 0.2199792 -0.0035085562 -0.18016544 -0.27977857 -0.17980836 0.090963155 -0.17523283
0.03734701 -0.059761956 -0.18047361 0.2787661 -0.14774732 -0.3089381 -0.20975044 -0.09127819
0.0677957 -0.027824985 0.08828366 -0.21605146 0.15848039 -0.12461747 -0.23630095 0.32867736
0.16139762 -0.053458374 -0.20368262 0.24082927 -0.16584551 -0.08343358 -0.18776567 0.07695923
-0.07837753 -0.1867865 0.22354707 -0.03711575 0.20534162 0.13481155 0.13850248 0.07205074
0.022931091 -0.13996625 0.22364455 -0.10856383 0.36845046 0.06921713 0.17534828 0.021766804
-0.2539555 0.28824252 -0.16094002 0.32338458
00000000: 439f d13d 3013 66bd 515d 4fbe 2894 3c3e
00000010: 18f0 e2bb 0896 603e d706 8f3e d4e0 acbe
00000020: 8365 11be ab7d 1e3e 6341 85be e53f 9b3e
00000030: 9ff3 f73d 9008 3e3e 6909 0bbd b483 a3be
00000040: 0db5 743e 3bc4 66be bdef c5bd eec8 81be
00000050: f031 0abe 82e3 22bb 23de ff3d d6bb 693e
00000060: a630 90be 0c62 86be 3cd5 4abe 0770 bcbd
00000070: 5618 5d3d c1a7 e0bc 5732 743e 199b dabb
00000080: 5ae4 7a3d 46c1 41be e98c 713e fc01 a33d
00000090: 1fc9 703e a157 e33d 05c7 073e 2303 973b
000000a0: 5d89 593e a104 393e f048 12bd 0aa8 393e
000000b0: 904b a6be 2030 60be 860f c43d 01bb 5ebe
000000c0: 2e16 233e 3a42 613e ceef 65bb 4a7d 38be
000000d0: 233f 8fbe af1f 38be e44a ba3d 3c70 33be
000000e0: 2ef9 183d f4c8 74bd 13ce 38be 6eba 8e3e
000000f0: 134b 17be 222d 9ebe d2c8 56be 0ff0 babd
00000100: 79d8 8a3d 39f1 e3bc 10ce b43d 983c 5dbe
00000110: af48 223e 7237 ffbd e0f8 71be 6648 a83e
00000120: 6b45 253e 2bf7 5abd 2d92 50be f39b 763e
00000130: 68d3 29be 3adf aabd a545 40be cd9c 9d3d
00000140: 6684 a0bd f644 3fbe 86e9 643e af06 18bd
00000150: 1345 523e 0a0c 0a3e 98d3 0d3e 578f 933d
00000160: fcd9 bb3c 5053 0fbe 1403 653e b756 debd
00000170: 8aa5 bc3e b6c1 8d3d 808e 333e 4c50 b23c
00000180: 7506 82be 8694 933e 76cd 24be aa92 a53e

i_resnet_layers.3.bottleneck_block.2.weight_u f4 [10]
-0.1214055 -0.5506599 -0.3554443 0.31308037 -0.38103047 0.10653586 -0.035119668 -0.19366974
0.22686371 0.45927307
00000000: 72a3 f8bd 0cf8 0cbf ccfc b5be 124c a03e
00000010: 6d16 c3be 792f da3d a4d9 0fbd 5c51 46be
00000020: f64e 683e d725 eb3e

i_resnet_layers.3.bottleneck_block.2.weight_v f4 [10]
0.30963743 -0.39639217 0.113101564 -0.31785086 0.49357554 0.32887173 -0.11081634 0.48398986
-0.025155507 0.18505138
00000000: cc88 9e3e eaf3 cabe cba1 e73d 59bd a2be
00000010: efb5 fc3e e061 a83e adf3 e2bd 85cd f73e
00000020: ec12 cebc 1c7e 3d3e

i_resnet_layers.3.bottleneck_block.4.weight_orig f4 [2, 10]
-0.21073791 0.00463085 0.07133312 -0.136505 0.14164029 0.17232896 -0.18740568 0.078406736
-0.21574284 0.26494712 -0.1532737 -0.31678095 -0.21295886 -0.13107914 0.12279007 0.030983245
0.27327794 -0.2970044 -0.21439382 0.08123363
00000000: aecb 57be 63be 973b 1917 923d f7c7 0bbe
00000010: 270a 113e 0177 303e 46e7 3fbe b693 a03d
00000020: b1eb 5cbe 26a7 873e c8f3 1cbe 1d31 a2be
00000030: e311 5abe 9c39 06be 5c79 fb3d 93d0 fd3c
00000040: 16eb 8b3e f610 98be 0e8a 5bbe d15d a63d

i_resnet_layers.3.bottleneck_block.4.weight_u f4 [2]
-0.29966512 -0.9540444
00000000: b56d 99be 413c 74bf

i_resnet_layers.3.bottleneck_block.4.weight_v f4 [10]
0.3180473 0.45701313 0.27624077 0.25206843 -0.24237655 -0.12320512 -0.31067842 0.394621
0.4088567 -0.23832946
00000000: 19d7 a23e a0fd e93e 6e6f 8d3e 1d0f 813e
00000010: 8f31 78be f752 fcbd 3e11 9fbe c40b ca3e
00000020: aa55 d13e a30c 74be

i_resnet_layers.4.bottleneck_block.0.bias f4 [10]
0.13755742 0.52204 -0.23211756 0.09400375 0.2482074 -0.71916676 0.4990359 0.20610459
0.05301134 -0.08644727
00000000: dadb 0c3e 6aa4 053f 3ab0 6dbe 0a85 c03d
00000010: 152a 7e3e 501b 38bf a281 ff3e 150d 533e
00000020: 6b22 593d 440b b1bd

i_resnet_layers.4.bottleneck_block.0.weight_orig f4 [10, 2]
-0.46667346 0.3446651 -0.37302348 0.36131603 0.51107854 0.24820231 0.050849915 -0.6217993
-0.16753446 -0.084986955 -0.5226033 -0.52404064 0.07292029 0.49587962 -0.40217865 -0.23433907
-0.6491297 -0.23647639 0.55293727 -0.66076547
00000000: d3ef eebe f277 b03e effc bebe 6afe b83e
00000010: 0bd6 023f bf28 7e3e 0048 503d 3d2e 1fbf
00000020: 278e 2bbe a40d aebd 54c9 05bf 8727 06bf
00000030: 3c57 953d efe3 fd3e 5cea cdbe 95f6 6fbe
00000040: 5d2d 26bf de26 72be 4c8d 0d3f ed27 29bf

i_resnet_layers.4.bottleneck_block.0.weight_u f4 [10]
0.30704778 0.23649794 -0.40125206 0.027250176 0.13180831 0.4381697 -0.10506985 0.3197324
0.5013401 -0.3377396
00000000: 5e35 9d3e 842c 723e e970 cdbe c33b df3c
00000010: c2f8 063e c757 e03e dd2e d7bd f7b3 a33e
00000020: d357 003f 34ec acbe

i_resnet_layers.4.bottleneck_block.0.weight_v f4 [2]
-0.99018 -0.13979813
00000000: 707c 7dbf 3e27 0fbe

i_resnet_layers.4.bottleneck_block.2.weight_orig f4 [10, 10]
0.09204731 -0.15135384 -0.26268733 0.17772382 -0.28637284 -0.25309736 -0.14007191 0.24190433
-0.072217174 -0.08180265 -0.24613775 -0.18976264 0.15779163 -0.05515161 0.17067088 0.17937103
0.053708505 0.23825896 -0.0123869255 0.22031046 0.22063826 0.2484304 0.26700097 -0.22801438
-0.13074236 0.3093536 0.15205745 0.30454817 0.015004478 -0.14666837 -0.19501364 0.22956489
-0.08155034 -0.13981016 -0.1327208 -0.20116176 -0.16552185 0.043805342 0.05020519 -0.019461863
0.14133456 0.32795706 -0.029692966 0.1340008 -0.12969433 0.15358526 -0.03821219 0.19250223
0.11920766 0.13374797 -0.015758054 -0.06533248 -0.009868178 0.13025488 0.0063727526 0.35091275
-0.02992909 0.15157719 0.22291784 0.102858745 0.2538337 0.08582266 0.18700211 -0.2735458
-0.1643863 -0.23915838 -0.030169057 -0.234402 -0.28817293 0.054564416 -0.26956004 -0.060456507
0.046222154 -0.008902351 -0.24319917 -0.029889824 -0.051016353 0.16692197 -0.05330986 -0.1733069
0.16897224 0.0027999158 -0.20631105 0.053151116 0.12738815 0.17190656 0.19801538 -0.3592891
0.06091586 -0.041150995 -0.25207084 -0.10218877 0.22651654 0.082246 -0.29500306 0.04333543
-0.03217085 -0.14542015 0.06340885 0.043327544
00000000: 4d83 bc3d 80fc 1abe f47e 86be 3cfd 353e
00000010: 769f 92be fa95 81be 036f 0fbe c5b5 773e
00000020: 99e6 93bd 2688 a7bd 890b 7cbe 2351 42be
00000030: 2194 213e a8e6 61bd 59c4 2e3e 0aad 373e
00000040: 73fd 5b3d 28fa 733e 88f2 4abc 1199 613e
00000050: ffee 613e 8a64 7e3e 5ab4 883e 9a7c 69be
00000060: 53e1 05be 9863 9e3e f3b4 1b3e bded 9b3e
00000070: 58d5 753c 3c30 16be a8b1 47be 0f13 6b3e
00000080: dd03 a7bd 652a 0fbe f6e7 07be 59fd 4dbe
00000090: 8f7e 29be 3b6d 333d f5a3 4d3d 7c6e 9fbc
000000a0: 02ba 103e fde9 a73e aa3e f3bc 8137 093e
000000b0: 97ce 04be 7445 1d3e 6384 1cbd 4e1f 453e
000000c0: 2523 f43d 3af5 083e 0917 81bc 09cd 85bd
000000d0: 23ae 21bc 8961 053e 86d2 d03b d6aa b33e
000000e0: da2d f5bc 0d37 1b3e 9344 643e 9ba7 d23d
000000f0: 7ef6 813e cac3 af3d 7b7d 3f3e 320e 8cbe
00000100: e254 28be efe5 74be 1925 f7bc 1407 70be
00000110: 678b 93be f07e 5f3d c603 8abe 3ea1 77bd
00000120: 7153 3d3d 2bdb 11bc 3409 79be 81db f4bc
00000130: 86f6 50bd 98ed 2a3e 715b 5abd 5d77 31be
00000140: 0f07 2d3e cb7e 373b 3443 53be fcb4 593d
00000150: 0a72 023e 4608 303e 8bc4 4a3e bef4 b7be
00000160: e982 793d f28d 28bd 6e0f 81be 5948 d1bd
00000170: f4f3 673e 9770 a83d a40a 97be 7e80 313d
00000180: 95c5 03bd 05e9 14be 80dc 813d 3978 313d

i_resnet_layers.4.bottleneck_block.2.weight_u f4 [10]
0.26657137 -0.39674684 -0.42631844 0.18778037 -0.2780974 -0.4872699 0.48908222 0.0077905613
0.021611063 -0.004843602
00000000: 0b7c 883e 6722 cbbe 6946 dabe 7f49 403e
00000010: c862 8ebe 717b f9be fc68 fa3e f747 ff3b
00000020: af09 b13c 14b7 9ebb

i_resnet_layers.4.bottleneck_block.2.weight_v f4 [10]
0.100227155 -0.0520432 -0.18737003 -0.108060196 -0.18264946 -0.7329419 -0.16155949 -0.46063617
-0.33831924 -0.13095677
00000000: e543 cd3d 402b 55bd eedd 3fbe aa4e ddbd
00000010: 7608 3bbe 15a2 3bbf da6f 25be 81d8 ebbe
00000020: 2e38 adbe 8819 06be

i_resnet_layers.4.bottleneck_block.4.weight_orig f4 [2, 10]
0.38579774 -0.2556874 -0.2477234 0.024560535 0.14947784 -0.24067083 -0.1906344 0.30366054
0.0036168466 0.16006747 0.0005080329 -0.02407154 0.25090685 0.1806104 0.1949424 -0.09030559
0.14962325 0.074865855 0.13583797 -0.030438377
00000000: 4887 c53e 75e9 82be 34ab 7dbe 2d33 c93c
00000010: b810 193e 6a72 76be aa35 43be 6579 9b3e
00000020: 9e08 6d3b bae8 233e 832d 053a ae31 c5bc
00000030: dd76 803e eff1 383e fb9e 473e 23f2 b8bd
00000040: d636 193e 4553 993d 1c19 0b3e e759 f9bc

i_resnet_layers.4.bottleneck_block.4.weight_u f4 [2]
0.9994427 -0.033379957
00000000: 7adb 7f3f 6cb9 08bd

i_resnet_layers.4.bottleneck_block.4.weight_v f4 [10]
0.5393929 -0.35645255 -0.35792524 0.025875451 0.19996884 -0.33220494 -0.27359283 0.42111185
-0.0012019897 0.22512119
00000000: a715 0a3f f380 b6be fa41 b7be c1f8 d33c
00000010: a2c4 4c3e c416 aabe 5c14 8cbe f99b d73e
00000020: 158c 9dba 2b86 663e

i_resnet_layers.5.bottleneck_block.0.bias f4 [10]
0.24148598 -0.07154559 -0.07621227 0.31444305 -0.26363084 0.17842874 -0.029447418 -0.15719199
0.13053565 0.43426746
00000000: 1a48 773e 7f86 92bd 2e15 9cbd aefe a03e
00000010: 9ffa 86be 06b6 363e b63b f1bc f0f6 20be
00000020: 23ab 053e 4e58 de3e

i_resnet_layers.5.bottleneck_block.0.weight_orig f4 [10, 2]
-0.35100114 -0.3025652 0.43174943 -0.42123082 0.34906122 -0.44127995 -0.012738035 0.1165594
0.4224916 0.085216634 -0.24582236 -0.55162555 -0.5132596 0.22045745 0.3143969 -0.34504434
0.64179355 0.54861045 -0.15668197 -0.06127364
00000000: 6cb6 b3be d3e9 9abe 430e dd3e 91ab d7be
00000010: 27b8 b23e 72ef e1be 31b3 50bc b2b6 ee3d
00000020: d250 d83e 0f86 ae3d dbb8 7bbe 5537 0dbf
00000030: fb64 03bf 99bf 613e a1f8 a03e a7a9 b0be
00000040: 954c 243f bc71 0c3f 3d71 20be 11fa 7abd

i_resnet_layers.5.bottleneck_block.0.weight_u f4 [10]
-0.35161155 0.22225337 0.15292223 0.020982152 0.3493317 -0.33615926 -0.33842215 0.15154101
0.64168733 -0.13731298
00000000: 6e06 b4be 6396 633e a597 1c3e c3e2 ab3c
00000010: 9bdb b23e 111d acbe ab45 adbe 912d 1b3e
00000020: 9f45 243f c69b 0cbe

i_resnet_layers.5.bottleneck_block.0.weight_v f4 [2]
0.9460196 0.32410952
00000000: 572e 723f aff1 a53e

i_resnet_layers.5.bottleneck_block.2.weight_orig f4 [10, 10]
-0.11048722 0.27964166 -0.21600556 -0.14812846 0.14827159 -0.12533186 0.25700814 0.100839466
0.25969595 0.14754935 0.2390567 -0.11469516 0.17088023 -0.17587759 0.25801426 -0.24322505
0.06500194 0.11839572 -0.27848747 0.2775662 -0.12208485 0.1451516 -0.18280104 0.11661905
0.19154659 -0.21080509 0.0065854997 -0.18949181 0.0020303542 -0.088362664 -0.21806769 0.30190206
0.19856808 -0.1349267 -0.09439995 0.023199935 -0.10817086 -0.02076439 0.20218623 -0.2735391
0.26141462 0.24457577 0.18119192 -0.28612584 -0.14527565 0.15286264 -0.081907 -0.01221888
-0.0037717521 -0.020316452 -0.24378756 -0.06633257 -0.15505639 -0.023529302 0.23873894 -0.31290898
0.0019918082 0.10627073 -0.21833347 -0.33104667 0.06304724 0.30338788 0.2788708 -0.082046
-0.13757442 -0.122798145 -0.14614801 -0.0761096 -0.20376359 -0.23635185 0.12114626 -0.18694277
0.2365056 -0.29211673 0.23518443 0.16452552 0.28756785 -0.16761138 0.14386222 0.053893425
0.3179745 -0.21250433 0.09426202 0.26824877 -0.14103371 -0.25480068 -0.14567894 -0.15264969
-0.15796417 -0.15228277 0.13373815 0.08921497 -0.10212292 -0.082353085 -0.19018632 0.0582957
0.06593535 0.015518359 -0.29216984 0.11026351
00000000: 2047 e2bd 312d 8f3e 9030 5dbe fdae 17be
00000010: 82d4 173e ff56 00be 9296 833e ec84 ce3d
00000020: def6 843e 2d17 173e 48cb 743e 4ce5 eabd
00000030: 3afb 2e3e 4119 34be 721a 843e fd0f 79be
00000040: bd1f 853d 7579 f23d e995 8ebe 281d 8e3e
00000050: 9f07 fabd 9fa2 143e 3230 3bbe f8d5 ee3d
00000060: ca24 443e 4add 57be 2dcb d73b 240a 42be
00000070: b10f 053b 7cf7 b4bd 234d 5fbe e892 9a3e
00000080: 6e55 4b3e 3a2a 0abe c354 c1bd ca0d be3c
00000090: af88 ddbd 151a aabc e809 4f3e 510d 8cbe
000000a0: 23d8 853e 1272 7a3e 608a 393e 167f 92be
000000b0: 24c3 14be 0688 1c3e dbbe a7bd b231 48bc
000000c0: 802f 77bb b06e a6bc 72a3 79be 5fd9 87bd
000000d0: 1ac7 1ebe 86c0 c0bc fb77 743e 9b35 a0be
000000e0: ff88 023b 78a4 d93d cf92 5fbe f37e a9be
000000f0: e91e 813d a855 9b3e 27c8 8e3e bc07 a8bd
00000100: 4fe0 0cbe 987d fbbd d3a7 15be 5adf 9bbd
00000110: 67a7 50be 3806 72be 881b f83d ed6d 3fbe
00000120: 862e 723e 5390 95be 30d4 703e 6179 283e
00000130: 183c 933e 51a2 2bbe 9e50 133e 5abf 5c3d
00000140: 8ecd a23e bc9a 59be 720c c13d e757 893e
00000150: 246b 10be 3c75 82be dc2c 15be 3350 1cbe
00000160: 5cc1 21be 04f0 1bbe a7f2 083e 57b6 b63d
00000170: d225 d1bd bca8 a8bd 34c0 42be 79c7 6e3d
00000180: 1d09 873d b740 7e3c 4997 95be d6d1 e13d

i_resnet_layers.5.bottleneck_block.2.weight_u f4 [10]
-0.5589124 0.27226424 -0.17288087 -0.20858446 0.16294022 -0.08523239 0.30275336 -0.110204875
0.60102135 0.20309706
00000000: e214 0fbf 3866 8b3e af07 31be 2a97 55be
00000010: cdd9 263e 528e aebd 7d02 9b3e 18b3 e1bd
00000020: 89dc 193f adf8 4f3e

i_resnet_layers.5.bottleneck_block.2.weight_v f4 [10]
0.5432719 -0.25696957 0.33239144 0.1693398 -0.29499507 -0.12372652 -0.30274436 -0.10330593
-0.53940326 -0.06363633
00000000: de13 0b3f 8491 83be 362f aa3e 6a67 2d3e
00000010: 9809 97be 5464 fdbd 4f01 9bbe 0f92 d3bd
00000020: 5516 0abf c453 82bd

i_resnet_layers.5.bottleneck_block.4.weight_orig f4 [2, 10]
-0.13935186 0.15796512 -0.2428071 0.06389845 -0.2229743 -0.035322826 0.31094393 -0.15538366
0.24329785 0.06720992 -0.06283831 0.14365353 0.32194445 0.18974972 -0.01230228 0.31389102
-0.09831169 0.17223392 0.15812881 -0.13463911
00000000: 41b2 0ebe 9cc1 213e 6da2 78be 31dd 823d
00000010: 6053 64be abae 10bd 0b34 9f3e e51c 1fbe
00000020: 1223 793e 5ba5 893d 5fb1 80bd e919 133e
00000030: e7d5 a43e c04d 423e 818f 49bc 53b6 a03e
00000040: a457 c9bd 175e 303e 85ec 213e d6de 09be

i_resnet_layers.5.bottleneck_block.4.weight_u f4 [2]
0.7007104 -0.7134457
00000000: c261 333f 61a4 36bf

i_resnet_layers.5.bottleneck_block.4.weight_v f4 [10]
-0.08212962 0.012878844 -0.6207323 -0.14076304 -0.22887263 -0.38602394 0.44701084 -0.3595821
0.089584 0.22231846
00000000: 9333 a8bd c901 533c 50e8 1ebf 3024 10be
00000010: 965d 6abe eea4 c5be 9bde e43e 251b b8be
00000020: d177 b73d 73a7 633e

i_resnet_layers.6.bottleneck_block.0.bias f4 [10]
-0.16314211 -0.33179054 -0.32389578 -0.10725685 -0.16967443 -0.48729125 0.31575292 0.46805155
-0.53082293 -0.033409614
00000000: ba0e 27be 73e0 a9be abd5 a5be 7ba9 dbbd
00000010: 22bf 2dbe 3d7e f9be 5eaa a13e 74a4 ef3e
00000020: 03e4 07bf 85d8 08bd

i_resnet_layers.6.bottleneck_block.0.weight_orig f4 [10, 2]
-0.55502313 0.71641994 0.5646094 -0.06819946 0.34302855 0.5354413 0.6636568 -0.048047855
-0.6707789 -0.4945847 -0.26985502 -0.030967591 -0.46143934 0.4401371 -0.47942567 0.44152606
-0.46283516 0.063784294 -0.5918664 -0.68219954
00000000: ff15 0ebf 4c67 373f 3e8a 103f 29ac 8bbd
00000010: 70a1 af3e ae12 093f 69e5 293f d4cd 44bd
00000020: 2ab8 2bbf 353a fdbe 702a 8abe bfaf fdbc
00000030: c741 ecbe a659 e13e 4877 f5be b40f e23e
00000040: bbf8 ecbe 57a1 823d 8e84 17bf a1a4 2ebf

i_resnet_layers.6.bottleneck_block.0.weight_u f4 [10]
0.32861793 -0.34185633 -0.21416983 -0.4021881 0.41263333 0.16401656 0.2749409 0.28587484
0.28002343 0.36690977
00000000: 9c40 a83e cb07 afbe 564f 5bbe 99eb cdbe
00000010: ad44 d33e f5f3 273e 0ec5 8c3e 305e 923e
00000020: 3b5f 8f3e 99db bb3e

i_resnet_layers.6.bottleneck_block.0.weight_v f4 [2]
-0.9998233 -0.018796684
00000000: 6bf4 7fbf 81fb 99bc

i_resnet_layers.6.bottleneck_block.2.weight_orig f4 [10, 10]
-0.15573922 0.2612981 0.100726806 0.21510738 -0.28623983 0.0848671 0.021531168 0.27172625
0.13983825 -0.07326489 -0.07797627 -0.17292686 0.057541862 0.095723696 -0.19097044 0.12958737
-0.0013527105 0.25279894 -0.28344154 0.25901282 -0.13334337 -0.19999303 -0.18427955 -0.18162876
0.16667907 -0.2811839 -0.10056329 -0.19762857 -0.1909676 0.042621985 -0.1590782 -0.042093292
-0.06017683 -0.08152217 -0.17199884 0.1919144 0.15199924 0.1475675 -0.1112742 0.11904763
-0.17579485 0.17977487 -0.11141802 -0.2129948 -0.20062405 0.19612801 0.015827512 -0.09795769
0.32166758 0.057482183 -0.008971401 0.2032102 -0.24319266 0.22673088 0.020858346 0.24737784
-0.20532067 -0.18674912 0.2441575 -0.0032746866 0.2838621 -0.0068950285 -0.24300213 0.15040642
-0.40829697 0.2046618 0.26493743 -0.18407868 0.0011012033 -0.38022956 -0.30551142 0.14298296
0.22334161 -0.1263235 0.17774884 0.0081891585 -0.1984992 0.03599845 0.15205972 0.12921359
-0.28234786 -0.108912155 0.13252966 0.22147441 -0.101840004 0.08604029 -0.13386983 0.18205546
0.34717202 0.049305692 -0.22633667 -0.25117183 -0.15894866 0.26115257 0.033231422 0.26711872
-0.17843227 0.07654493 -0.05652693 0.20356722
00000000: 1a7a 1fbe ddc8 853e db49 ce3d 1c45 5c3e
00000010: 078e 92be cdce ad3d 2262 b03c b41f 8b3e
00000020: c231 0f3e e70b 96bd 06b2 9fbd bd13 31be
00000030: 04b1 6b3d c90a c43d c18d 43be 8db2 043e
00000040: 6f4d b1ba dd6e 813e 401f 91be 549d 843e
00000050: 2a8b 08be f9ca 4cbe c7b3 3cbe e4fc 39be
00000060: ebad 2a3e 56f7 8fbe 20f4 cdbd 255f 4abe
00000070: 038d 43be 6494 2e3d 65e5 22be 046a 2cbd
00000080: fb7b 76bd 18f5 a6bd 7720 30be 3585 443e
00000090: b0a5 1b3e ef1b 173e bae3 e3bd 3ecf f33d
000000a0: 9103 34be e716 383e 222f e4bd 4f1b 5abe
000000b0: 6470 4dbe c8d5 483e b3a8 813c 0b9e c8bd
000000c0: 9db1 a43e 7072 6b3d c8fc 12bc 5616 503e
000000d0: 7f07 79be 242c 683e 1fdf aa3c 9e50 7d3e
000000e0: 953f 52be 293b 3fbe 6c04 7a3e 209c 56bb
000000f0: 6056 913e b1ef e1bb 8dd5 78be 2404 1a3e
00000100: 4d0c d1be dd92 513e e1a5 873e 1f7f 3cbe
00000110: 4056 903a 73ad c2be fe6b 9cbe 206a 123e
00000120: aab3 643e f35a 01be cb03 363e d22b 063c
00000130: 6043 4bbe 1c73 133d 8bb5 1b3e 9150 043e
00000140: e68f 90be 560d dfbd dbb5 073e 30ca 623e
00000150: 7e91 d0bd e435 b03d 2c15 09be bf6c 3a3e
00000160: 88c0 b13e c4f4 493d cdc4 67be 9899 80be
00000170: 70c3 22be cab5 853e ac1d 083d c9c3 883e
00000180: f3b6 36be 97c3 9c3d c888 67bd ed73 503e

i_resnet_layers.6.bottleneck_block.2.weight_u f4 [10]
0.3163705 -0.07107002 -0.38513243 0.07413893 0.22964075 0.28232124 0.7169295 -0.2970788
0.055957016 -0.05674615
00000000: 50fb a13e 298d 91bd 1430 c5be 27d6 973d
00000010: f226 6b3e 698c 903e b188 373f b61a 98be
00000020: 2f33 653d a76e 68bd

i_resnet_layers.6.bottleneck_block.2.weight_v f4 [10]
0.2505105 0.23424143 -0.22979937 0.29056612 -0.56135225 0.39848295 0.26062602 -0.058637813
0.25664985 -0.36606082
00000000: ea42 803e fcdc 6f3e 8750 6bbe 15c5 943e
00000010: c8b4 0fbf f505 cc3e c670 853e 342e 70bd
00000020: 9c67 833e 536c bbbe

i_resnet_layers.6.bottleneck_block.4.weight_orig f4 [2, 10]
-0.086673476 0.23175146 0.10494409 -0.1194143 -0.16356777 -0.11439079 -0.3530451 0.07407714
-0.18700527 0.03438389 0.21777849 -0.19245087 -0.29890528 -0.33295426 0.22793515 0.24090546
-0.07315169 0.3391994 0.12456417 0.27764076
00000000: dd81 b1bd 4150 6d3e edec d63d 7c8f f4bd
00000010: 4f7e 27be b845 eabd 54c2 b4be c1b5 973d
00000020: 4f7e 3fbe 1fd6 0c3d 5301 5f3e d711 45be
00000030: 1d0a 99be fb78 aabe d567 693e ecaf 763e
00000040: 8ed0 95bd 8bab ad3e 801b ff3d ee26 8e3e

i_resnet_layers.6.bottleneck_block.4.weight_u f4 [2]
-0.239411 0.97091836
00000000: 2828 75be 1b8e 783f

i_resnet_layers.6.bottleneck_block.4.weight_v f4 [10]
0.29308864 -0.3057927 -0.39795384 -0.37186697 0.32857648 0.32963735 0.017195443 0.39317712
0.20914477 0.32967976
00000000: b70f 963e dc90 9cbe 9bc0 cbbe 5965 bebe
00000010: 2d3b a83e 3ac6 a83e 75dd 8c3c 834e c93e
00000020: 0c2a 563e c9cb a83e

i_resnet_layers.7.bottleneck_block.0.bias f4 [10]
0.38679323 0.29322237 0.054759856 0.2754411 -0.38001075 -0.2631164 -0.15852597 -0.3829883
-0.05917021 -0.336924
00000000: c309 c63e 3e21 963e df4b 603d 9e06 8d3e
00000010: c590 c2be 31b7 86be a254 22be 0b17 c4be
00000020: 765c 72bd 4d81 acbe

i_resnet_layers.7.bottleneck_block.0.weight_orig f4 [10, 2]
-0.71063864 0.22013436 -0.1674804 -0.15415287 0.2232316 -0.50858366 0.46227717 -0.2362415
0.30240127 -0.3698989 -0.22331777 0.2389317 -0.19001698 -0.21515803 -0.18559587 0.5500705
-0.5012602 0.46736094 0.7293772 -0.4085216
00000000: 6aec 35bf e76a 613e fb7f 2bbe 40da 1dbe
00000010: d396 643e 8a32 02bf 98af ec3e 4be9 71be
00000020: 57d4 9a3e 6363 bdbe 6aad 64be 83aa 743e
00000030: d093 42be 6352 5cbe d80c 3ebe 6cd1 0c3f
00000040: 9752 00bf ef49 ef3e 77b8 3a3f be29 d1be

i_resnet_layers.7.bottleneck_block.0.weight_u f4 [10]
-0.42125934 -0.020301607 0.30085087 0.30964547 0.28506643 -0.19747274 -0.007571371 -0.29891324
-0.4168373 0.50231344
00000000: 4eaf d7be 8e4f a6bc 2009 9a3e da89 9e3e
00000010: 3af4 913e 4b36 4abe 4319 f8bb 280b 99be
00000020: b36b d5be 9d97 003f

i_resnet_layers.7.bottleneck_block.0.weight_v f4 [2]
0.7776079 -0.62874943
00000000: 5011 473f b9f5 20bf

i_resnet_layers.7.bottleneck_block.2.weight_orig f4 [10, 10]
0.26466972 -0.2643854 0.157418 -0.06626436 -0.008636294 -0.28320596 -0.1537634 -0.20773225
-0.06997428 0.22817618 0.23054112 -0.15315734 -0.12797585 -0.34644726 -0.04126734 -0.024311513
0.20208837 -0.027531356 0.042200975 -0.094775334 0.11285865 0.034208793 0.09985561 -0.31430492
0.27076843 0.18525766 -0.053872783 -0.092501536 0.098427065 -0.06760582 0.16742805 -0.23684578
-0.2295942 0.03848195 -0.099163786 0.2883153 0.24366908 0.10991416 0.1831786 0.28042388
0.26202732 -0.22520027 -0.041867595 0.19397223 -0.20643432 -0.211105 0.32435983 -0.21446091
0.227195 -0.20970164 -0.08028459 -0.07602581 -0.12682948 0.23081192 0.20384648 -0.035190057
-0.23389351 -0.34981558 0.25416636 0.1806387 -0.067394264 -0.29329342 -0.077586584 0.009002048
-0.13824774 0.11542985 0.072550535 0.023600657 0.01825257 -0.19896379 -0.034539107 -0.09189357
-0.095633045 -0.06354454 -0.1819501 0.012103396 -0.11668056 -0.27721632 0.22518407 -0.27524942
0.091247655 -0.20084609 0.05534166 -0.050095387 0.22237733 0.029733332 0.23815355 0.17012842
0.10469639 0.0563064 0.23214233 0.11203113 0.15503648 -0.13572323 0.07463673 0.28525555
0.008125881 -0.09041829 -0.22048783 0.2904669
00000000: ca82 873e 865d 87be 2f32 213e 9cb5 87bd
00000010: 3e7f 0dbc 5f00 91be 2774 1dbe c3b7 54be
00000020: ad4e 8fbd 04a7 693e f912 6c3e 47d5 1cbe
00000030: 1a0c 03be 8961 b1be f107 29bd f028 c7bc
00000040: 41f0 4e3e 7089 e1bc eeda 2c3d 9219 c2bd
00000050: 7022 e73d 851e 0c3d 1981 cc3d 93ec a0be
00000060: 29a2 8a3e 2fb4 3d3e b5a9 5cbd 7271 bdbd
00000070: 2194 c93d ec74 8abd 4272 2b3e b387 72be
00000080: be1a 6bbe 409f 1d3d 6216 cbbd 109e 933e
00000090: 6384 793e ad1a e13d 2c93 3b3e b893 8f3e
000000a0: 7228 863e e69a 66be 5b7d 2bbd a8a0 463e
000000b0: 8563 53be e92b 58be 7e12 a63e a49b 5bbe
000000c0: cea5 683e 07bc 56be 3f6c a4bd 6bb3 9bbd
000000d0: 96df 01be f659 6c3e 22bd 503e 7323 10bd
000000e0: c881 6fbe 071b b3be 1822 823e 5af9 383e
000000f0: 0106 8abd 8e2a 96be b7e5 9ebd 537d 133c
00000100: d190 0dbe 7c66 ec3d 6095 943d 2a56 c13c
00000110: 6a86 953c 2abd 4bbe e178 0dbd b232 bcbd
00000120: 42db c3bd a423 82bd 2151 3abe 524d 463c
00000130: 38f6 eebd 4cef 8dbe a796 663e 7eed 8cbe
00000140: 0de0 ba3d 99aa 4dbe f0ad 623d d230 4dbd
00000150: e2b6 633e 5193 f33c 86de 733e 2536 2e3e
00000160: 106b d63d 8aa1 663d b8b6 6d3e 9470 e53d
00000170: e2c1 1e3e 08fb 0abe 24db 983d 040d 923e
00000180: 6a22 053c 392d b9bd 90c7 61be 14b8 943e

i_resnet_layers.7.bottleneck_block.2.weight_u f4 [10]
-0.09929126 -0.2790427 0.13757496 -0.25979534 -0.69830585 -0.070463285 -0.2962355 -0.34507883
-0.09915557 0.3414574
00000000: 3759 cbbd afde 8ebe 73e0 0c3e e503 85be
00000010: 2cc4 32bf 0e4f 90bd 2eac 97be 2cae b0be
00000020: 1312 cbbd 81d3 ae3e

i_resnet_layers.7.bottleneck_block.2.weight_v f4 [10]
-0.20980173 0.5139527 0.25454444 -0.13411856 0.33829537 0.20740856 -0.3506894 0.21921237
-0.41601214 0.32785648
00000000: 44d6 56be 6792 033f a653 823e 6056 09be
00000010: 0d35 ad3e e962 543e 908d b3be 3579 603e
00000020: 8bff d4be cedc a73e

i_resnet_layers.7.bottleneck_block.4.weight_orig f4 [2, 10]
-0.106699176 -0.13663225 -0.04176728 0.31014395 -0.26423088 0.29806697 -0.039587867 0.017538467
0.03873788 -0.110770345 -0.056731436 -0.0353421 0.29837927 0.285216 -0.051615387 -0.21912208
0.19263497 -0.18284954 -0.12998798 0.09719685
00000000: 1985 dabd 53e9 0bbe 2b14 2bbd 30cb 9e3e
00000010: 4549 87be 3c9c 983e e326 22bd d5ac 8f3c
00000020: 9cab 1e3d 90db e2bd 395f 68bd e1c2 10bd
00000030: 2bc5 983e d507 923e a86a 53bd 8a61 60be
00000040: 1a42 453e e93c 3bbe 921b 05be 240f c73d

i_resnet_layers.7.bottleneck_block.4.weight_u f4 [2]
-0.3484171 -0.93733954
00000000: ba63 b2be 7cf5 6fbf

i_resnet_layers.7.bottleneck_block.4.weight_v f4 [10]
0.1584561 0.14140934 -0.46467698 -0.6579464 0.24606894 0.17801121 -0.29241788 0.2895409
0.18985447 -0.09193596
00000000: 5142 223e 9ccd 103e 24ea edbe 2d6f 28bf
00000010: 7ff9 7b3e 9248 363e ccb7 95be b43e 943e
00000020: 3669 423e ec48 bcbd

i_resnet_layers.8.bottleneck_block.0.bias f4 [10]
0.29169813 -0.05349 -0.112382054 0.07107388 -0.68162566 0.18973893 -0.024852363 0.08470148
0.24956608 0.20631161
00000000: 7559 953e 5518 5bbd 9028 e6bd 2f8f 913d
00000010: 057f 2ebf ec4a 423e 2f97 cbbc f877 ad3d
00000020: 408e 7f3e 5a43 533e

i_resnet_layers.8.bottleneck_block.0.weight_orig f4 [10, 2]
-0.2281643 0.6320395 0.30199713 0.53227556 -0.51134384 0.28616744 -0.49311796 0.51847315
0.032168027 -0.3117687 0.29246557 -0.5093275 0.5551721 -0.26220995 0.35968766 0.13045944
-0.3660173 0.26541713 0.19513637 0.70409536
00000000: e7a3 69be 57cd 213f 5e9f 9a3e 3643 083f
00000010: 6ee7 02bf 8a84 923e f579 fcbe a8ba 043f
00000020: 9fc2 033d 26a0 9fbe 0cbe 953e 4963 02bf
00000030: c21f 0e3f 6240 86be fb28 b83e 2997 053e
00000040: 9f66 bbbe c1e4 873e d4d1 473e 983f 343f

i_resnet_layers.8.bottleneck_block.0.weight_u f4 [10]
0.42792568 0.20063357 0.325615 0.44991064 -0.18513665 -0.37998003 -0.3263097 -0.04328107
0.26698107 0.33149734
00000000: 1319 db3e e372 4d3e 02b7 a63e b05a e63e
00000010: 7694 3dbe be8c c2be 1112 a7be 7e47 31bd
00000020: beb1 883e 05ba a93e

i_resnet_layers.8.bottleneck_block.0.weight_v f4 [2]
-0.4995748 0.8662708
00000000: 45c8 ffbe ecc3 5d3f

i_resnet_layers.8.bottleneck_block.2.weight_orig f4 [10, 10]
-0.13874881 -0.3754809 -0.10575901 0.20625436 -0.2754764 0.13852113 -0.040575128 -0.18321185
-0.23707724 -0.22388536 0.26731563 -0.14044118 0.0128909275 -0.1371461 -0.30250964 0.23790026
-0.17588587 0.0038871947 -0.26625055 0.22878924 0.022628885 -0.21385694 -0.27126193 -0.24438322
0.22731425 -0.28024235 -0.10631166 0.16618387 0.020943837 0.2539059 0.005201081 0.28959852
0.31047344 -0.21298791 0.054338157 0.24168435 0.10997219 0.032904215 0.021688828 0.28234515
-0.052321482 -0.23035023 -0.11938124 0.18419585 -0.14120041 0.012146033 -0.13729988 0.07131606
0.26236627 0.009065059 -0.3123651 0.052362088 -0.15208693 -0.093464 0.28360587 0.08690525
-0.24781291 0.14531673 -0.11534749 0.2002812 -0.24955095 0.2719047 -0.25972202 0.29581848
0.17323446 -0.25077546 -0.26019642 0.08399632 -0.19828756 0.29289535 0.24313283 0.25576997
-0.2883059 0.2147746 -0.28298315 0.07224595 -0.17187336 0.288832 0.24043375 -0.21465226
0.023055134 -0.14644244 0.33629456 -0.20157228 0.19998604 0.17113589 -0.11407882 0.15678714
-0.15704155 0.17527352 0.06179389 0.13430266 0.20077579 0.11590995 -0.3077936 -0.30215102
-0.1804276 0.020530771 -0.079992875 -0.26529366
00000000: 2b14 0ebe 083f c0be 2e98 d8bd 5834 533e
00000010: 3e0b 8dbe 7cd8 0d3e 1b32 26bd e39b 3bbe
00000020: 60c4 72be 3442 65be 98dd 883e d0cf 0fbe
00000030: 7834 533c 0770 0cbe 8be2 9abe 209c 733e
00000040: 6d1b 34be 4ec0 7e3b fe51 88be ba47 6a3e
00000050: 3660 b93c 50fd 5abe d8e2 8abe 983f 7abe
00000060: 11c5 683e ed7b 8fbe edb9 d9bd 1b2c 2a3e
00000070: 6992 ab3c f4ff 813e d46d aa3b 4246 943e
00000080: 60f6 9e3e 8119 5abe b091 5e3d 1a7c 773e
00000090: 1939 e13d 92c6 063d c5ac b13c 8b8f 903e
000000a0: 0d4f 56bd eee0 6bbe 277e f4bd d69d 3c3e
000000b0: d796 10be 2800 473c 5798 0cbe 280e 923d
000000c0: df54 863e 9d85 143c 52ee 9fbe a179 563d
000000d0: adbc 1bbe 0e6a bfbd ca34 913e 61fb b13d
000000e0: abc2 7dbe e9cd 143e 4e3b ecbd 8416 4d3e
000000f0: 498a 7fbe 1837 8b3e 49fa 84be 8575 973e
00000100: 6064 313e a465 80be 7738 85be 4306 ac3d
00000110: e50b 4bbe 61f6 953e d0f7 783e 48f4 823e
00000120: d59c 93be dfed 5b3e 2be3 90be aff5 933d
00000130: 92ff 2fbe cae1 933e 4434 763e cdcd 5bbe
00000140: 1fde bc3c 02f5 15be cd2e ac3e f768 4ebe
00000150: 24c9 4c3e 3f3e 2f3e 28a2 e9bd cf8c 203e
00000160: 80cf 20be e77a 333e 971b 7d3d a386 093e
00000170: 2b98 4d3e 3262 ed3d 1f97 9dbe 8ab3 9abe
00000180: 03c2 38be 2630 a83c 4ed3 a3bd 92d4 87be

i_resnet_layers.8.bottleneck_block.2.weight_u f4 [10]
0.3408035 -0.0014977867 -0.3106584 -0.33329034 0.19482704 -0.39352816 -0.21231377 0.43198895
-0.36445215 0.34484884
00000000: cc7d ae3e 6251 c4ba 9e0e 9fbe 08a5 aabe
00000010: bd80 473e 867c c9be c868 59be a82d dd3e
00000020: 7999 babe 0790 b03e

i_resnet_layers.8.bottleneck_block.2.weight_v f4 [10]
0.21157588 -0.06610443 -0.13153926 0.40386236 -0.6137681 -0.056554876 0.012813381 -0.10392583
0.16585423 -0.5933602
00000000: 59a7 583e c261 87bd 3ab2 06be 0cc7 ce3e
00000010: e81f 1dbf 16a6 67bd 37ef 513c 11d7 d4bd
00000020: b1d5 293e 74e6 17bf

i_resnet_layers.8.bottleneck_block.4.weight_orig f4 [2, 10]
0.25313017 0.09525755 0.24387117 -0.23869403 -0.061578598 -0.26415452 0.095335305 0.15237263
-0.28238672 0.07284223 -0.12180828 0.13164362 0.14557791 0.33572453 -0.2568487 -0.022825252
0.26346454 -0.30768773 -0.09807609 -0.29681838
00000000: 479a 813e 6416 c33d 5db9 793e 356c 74be
00000010: d739 7cbd 433f 87be 283f c33d 9207 1c3e
00000020: fe94 90be 4f2e 953d 9f76 f9bd 96cd 063e
00000030: 6012 153e 16e4 ab3e ac81 83be 06fc babc
00000040: d3e4 863e 3f89 9dbe 1edc c8bd 94f8 97be

i_resnet_layers.8.bottleneck_block.4.weight_u f4 [2]
0.38218945 -0.924084
00000000: 56ae c33e c590 6cbf

i_resnet_layers.8.bottleneck_block.4.weight_v f4 [10]
0.2909795 -0.11855721 -0.057563137 -0.5578958 0.29715064 -0.11103625 -0.28765997 0.47591266
-0.024114646 0.41983786
00000000: 44fb 943e 1fce f2bd 53c7 6bbd 42d2 0ebf
00000010: 2124 983e f966 e3bd 2b48 93be d3aa f33e
00000020: 148c c5bc fdf4 d63e

i_resnet_layers.9.bottleneck_block.0.bias f4 [10]
0.37153026 0.6203673 0.5566303 0.40593112 0.6567949 0.13670367 0.6231572 -0.2740397
0.28113553 0.030305663
00000000: 3739 be3e 64d0 1e3f 537f 0e3f 34d6 cf3e
00000010: b623 283f 0cfc 0b3e 3b87 1f3f ee4e 8cbe
00000020: fff0 8f3e 9543 f83c

i_resnet_layers.9.bottleneck_block.0.weight_orig f4 [10, 2]
0.46100336 0.5846811 0.34184512 0.23497188 0.4831304 0.7887159 0.47332597 -0.26636988
-0.6613255 0.3252645 0.34424978 -0.36077514 -0.4041791 0.19406162 0.26161835 0.38319993
0.17164092 0.63579184 0.495815 0.24608476
00000000: a208 ec3e a9ad 153f 5306 af3e 789c 703e
00000010: de5c f73e 49e9 493f c857 f23e a261 88be
00000020: a14c 29bf 1289 a63e 8241 b03e 85b7 b8be
00000030: 90f0 cebe 17b8 463e d7f2 853e c832 c43e
00000040: a3c2 2f3e 41c3 223f 77db fd3e a5fd 7b3e

i_resnet_layers.9.bottleneck_block.0.weight_u f4 [10]
-0.47634214 -0.2580314 -0.5835464 -0.073560275 0.12527797 0.026651444 0.078869745 -0.29499117
-0.37783995 -0.32889536
00000000: 1ee3 f3be b11c 84be 4c63 15bf c5a6 96bd
00000010: de48 003e 2154 da3c 7686 a13d 1509 97be
00000020: 3d74 c1be f964 a8be

i_resnet_layers.9.bottleneck_block.0.weight_v f4 [2]
-0.66364366 -0.7480488
00000000: 8de4 29bf 2080 3fbf

i_resnet_layers.9.bottleneck_block.2.weight_orig f4 [10, 10]
-0.1269573 0.3113141 0.06321275 0.11908847 -0.014013668 0.0037202893 -0.2836322 -0.09516195
-0.051518235 -0.2513128 -0.27507812 0.09961441 -0.21421406 0.2546802 -0.28450498 -0.15251718
0.14475732 -0.26211804 -0.37049362 0.08164736 0.1258542 0.17729025 0.07907411 0.2524939
0.22222593 0.21178095 0.047981143 -0.10640478 0.21882978 -0.2108852 -0.24610564 0.19531439
0.18541048 0.13833237 -0.22061345 0.23440392 -0.29390863 -0.032101616 -0.059843395 0.21334356
-0.06770656 0.04756461 -0.25821358 0.1933158 -0.03242127 0.1305022 -0.15897936 -0.0060836836
0.10799146 -0.10449978 -0.1331614 0.027413595 -0.1744391 0.0029862246 -0.28188992 0.16712481
0.07514248 -0.007247567 -0.07668275 0.09791112 -0.36106908 -0.19523104 -0.26002195 -0.110355094
0.2453568 0.15192585 0.113096856 -0.37753263 0.025060222 -0.28803125 0.15344572 0.07747793
0.3121188 0.08725212 0.24843645 -0.08223187 0.048818756 -0.074276954 -0.22618048 0.13308147
0.21726593 -0.057219233 -0.07986108 0.08974975 0.046107765 0.15433113 0.04999396 -0.16906206
0.26518616 -0.2399168 0.18581067 -0.0077917124 0.25414217 0.23620498 -0.24076669 0.21632387
-0.06582466 0.04767826 0.14542054 0.061853964
00000000: 1801 02be 9064 9f3e b075 813d a8e4 f33d
00000010: 9599 65bc 19d0 733b 3d38 91be 45e4 c2bd
00000020: c904 53bd 12ac 80be 0ad7 8cbe a402 cc3d
00000030: ee5a 5bbe 7165 823e a3aa 91be 772d 1cbe
00000040: 433b 143e 5634 86be 57b1 bdbe bb36 a73d
00000050: ecdf 003e 938b 353e 9bf1 a13d e146 813e
00000060: 328f 633e 1bdd 583e e087 443d c0ea d9bd
00000070: ea14 603e 4af2 57be 1e03 7cbe 7f00 483e
00000080: 3fdc 3d3e 00a7 0d3e 7ee8 61be 9507 703e
00000090: 317b 96be fc7c 03bd 591e 75bd bc76 5a3e
000000a0: bda9 8abd 1cd3 423d 9234 84be 94f4 453e
000000b0: 2acc 04bd 5ea2 053e 7ccb 22be a359 c7bb
000000c0: a02a dd3d fb03 d6bd 765b 08be 7a92 e03c
000000d0: 2aa0 32be 89b4 433b e053 90be c422 2b3e
000000e0: 4de4 993d 007d edbb d80b 9dbd a085 c83d
000000f0: 0cde b8be a5ea 47be 9921 85be da01 e2bd
00000100: d03e 7b3e 7392 1b3e 539f e73d f54b c1be
00000110: 184b cd3c d578 93be e020 1d3e c0ac 9e3d
00000120: 09ce 9f3e 3db1 b23d 2066 7e3e 2f69 a8bd
00000130: 2df6 473d 841e 98bd db9b 67be 8246 083e
00000140: f67a 5e3e b75e 6abd 358e a3bd b8ce b73d
00000150: 7fdb 3c3d fb08 1e3e 77c6 4c3d 9b1e 2dbe
00000160: 7bc6 873e c0ac 75be 2745 3e3e 9f51 ffbb
00000170: ec1e 823e b8df 713e 8b8b 76be 0184 5d3e
00000180: 14cf 86bd 474a 433d 1fe9 143e 955a 7d3d

i_resnet_layers.9.bottleneck_block.2.weight_u f4 [10]
-0.06468325 -0.54182047 0.15876997 0.033448018 -0.16057949 -0.23163587 -0.62707883 0.2592334
0.045371495 0.36604735
00000000: a778 84bd bfb4 0abf 9894 223e ca00 093d
00000010: f36e 24be f431 6dbe 3d88 20bf 3dba 843e
00000020: 76d7 393d 8f6a bb3e

i_resnet_layers.9.bottleneck_block.2.weight_v f4 [10]
0.60178655 0.091028325 0.59211993 0.054271113 0.08451836 0.03715045 -0.14555629 0.39040056
0.24742179 0.18076237
00000000: af0e 1a3f 0f6d ba3d 2c95 173f 634b 5e3d
00000010: f617 ad3d 122b 183d b50c 15be 95e2 c73e
00000020: 235c 7d3e c519 393e

i_resnet_layers.9.bottleneck_block.4.weight_orig f4 [2, 10]
0.105617814 0.45250484 0.23562612 0.14485738 0.061302327 0.23762192 0.16129422 -0.3458863
-0.17143479 -0.16626385 -0.23190576 0.08231818 -0.039755877 -0.23297778 0.22019738 0.03703433
0.27338085 0.21956353 -0.17829408 -0.29971102
00000000: 274e d83d b7ae e73e f947 713e 7e55 143e
00000010: 2618 7b3d 2953 733e 502a 253e 0218 b1be
00000020: 9a8c 2fbe 1241 2abe b478 6dbe 6f96 a83d
00000030: 0fd7 22bd ba91 6ebe 6c7b 613e 4fb1 173d
00000040: 93f8 8b3e 43d5 603e b992 36be b973 99be

i_resnet_layers.9.bottleneck_block.4.weight_u f4 [2]
0.96765554 0.25227502
00000000: 46b8 773f 312a 813e

i_resnet_layers.9.bottleneck_block.4.weight_v f4 [10]
0.05775572 0.6096118 0.2895622 0.108008325 0.15254468 0.31799197 0.29921946 -0.3714418
-0.28052393 -0.31455037
00000000: 4391 6c3d 850f 1c3f 7f41 943e 7833 dd3d
00000010: ac34 1c3e d8cf a23e 4b33 993e 9f2d bebe
00000020: d5a0 8fbe bf0c a1be

i_resnet_layers.10.bottleneck_block.0.bias f4 [10]
0.4632401 -0.036743257 -0.33323634 -0.4360984 0.09403177 0.6177446 0.44914377 0.71324736
-0.51073414 -0.09787211
00000000: ce2d ed3e 1980 16bd f49d aabe 4a48 dfbe
00000010: bb93 c03d 8324 1e3f 2cf6 e53e 6197 363f
00000020: 79bf 02bf 2c71 c8bd

i_resnet_layers.10.bottleneck_block.0.weight_orig f4 [10, 2]
0.6165375 0.19848767 -0.15817913 -0.22347252 -0.20371711 -0.68692374 -0.06451379 -0.63247836
0.039503176 -0.020134412 0.6574096 -0.4622073 -0.5882698 -0.37324566 -0.24453372 0.13923654
0.32569954 -0.53253305 0.46844935 -0.11758005
00000000: 67d5 1d3f 5a40 4b3e b6f9 21be fbd5 64be
00000010: 389b 50be 3cda 2fbf ce1f 84bd 1aea 21bf
00000020: 15ce 213d ecf0 a4bc ff4b 283f 6fa6 ecbe
00000030: da98 16bf 0e1a bfbe 0c67 7abe 0694 0e3e
00000040: 17c2 a63e 1654 08bf 98d8 ef3e cfcd f0bd

i_resnet_layers.10.bottleneck_block.0.weight_u f4 [10]
-0.0562709 -0.108690806 -0.4243433 -0.43024802 -0.027177904 -0.5405822 -0.07738948 0.17763291
-0.48418865 -0.2342868
00000000: 517c 66bd 4999 debd 8643 d9be 7849 dcbe
00000010: 32a4 debc 9863 0abf 607e 9ebd 67e5 353e
00000020: 93e7 f7be e1e8 6fbe

i_resnet_layers.10.bottleneck_block.0.weight_v f4 [2]
-0.41039222 0.91190904
00000000: ee1e d2be df72 693f
