experiments/models/spiral/i_resnet_euclidean_product_20_blocks_10_epochs_2024_02_11_13_32_27.pt (torch, 134850 bytes, 200 tensors)

i_resnet_layers.0.bottleneck_block.0.bias f4 [10]
00000000: 5ea4 d2bd a688 943d dbcd 093e ea80 bc3d
00000010: 0dbc c9be 1416 c9be 1e8b 24bf 90bf e43b
00000020: 8ee9 8ebe 575a fd3e
-0.10285257 0.07252626 0.13457434 0.09204276 -0.39401284 -0.39274657 -0.64274776 0.006980844
-0.27912563 0.49482986

i_resnet_layers.0.bottleneck_block.0.weight_orig f4 [10, 2]
00000000: a3d9 b63e 711f 983e 4099 943e 0b82 30bf
00000010: 6d58 243f c1e5 e5be d277 26bf 09bb b9be
00000020: 8536 1bbd d086 89bd 9b11 ae3d 3269 ce3e
00000030: 9ae2 b8be 9f23 9ebd 989f 083e 76ff fcbe
00000040: 4e51 563e f032 bebe b460 12bf e3a1 c4be
0.3571292 0.29711488 0.2902317 -0.6894843 0.6419743 -0.4490185 -0.6502658 -0.3627551
-0.03789379 -0.067151666 0.08499452 0.40314633 -0.36110383 -0.07721638 0.1334213 -0.4941365
0.20929453 -0.37148237 -0.5717881 -0.3840476

i_resnet_layers.0.bottleneck_block.0.weight_u f4 [10]
00000000: 9afc 2bbe 32e9 143f 63cb e93e 9041 2c3e
00000010: fc8f 393d 5ed3 97be 6d41 22bb 96ef ce3e
00000020: e025 a53e 19d8 4a3e
-0.16795579 0.5816833 0.45662984 0.16821885 0.04530333 -0.29653448 -0.0024758235 0.40417165
0.3225546 0.19808997

i_resnet_layers.0.bottleneck_block.0.weight_v f4 [2]
00000000: fe62 5e3e d6e3 79bf
0.2171745 -0.97613275

i_resnet_layers.0.bottleneck_block.2.weight_orig f4 [10, 10]
00000000: 40c8 44be 3bda d9bd 49e7 d9bd 77b6 a03e
00000010: feb5 9d3d 3b52 87be d747 4f3e 0ef4 133e
00000020: 48f4 0f3e 1f0b a03e dce2 123e 49ac 253c
00000030: 54b8 c5bc 32b8 b03c 7af6 3d3e 2b95 25be
00000040: 4db2 a13e 71d1 01be 1271 433e 215d 20be
00000050: 06dd cf3d db64 97be 0d09 7ebe 3e29 d8bd
00000060: 0dec bdbd b21d 1dbe b159 223e d78d 7bbe
00000070: 040f 98be b6a6 f2ba b69b 083e c1e6 7cbd
00000080: 714e 23be 7e3d aabd 4416 7d3e 4d37 c6bc
00000090: 9dce c13d e69b 5a3e 3389 a63d 4ef7 a0be
000000a0: 7477 5a3d fdb0 a3bc 4eb8 43bc 9a02 47be
000000b0: a746 44bd f7b1 37be 23c1 1a3e 3869 cbbd
000000c0: a5bf 083e 9e6a 67be 7c54 a1bd 0897 363d
000000d0: c0a8 273e 5887 103d 5771 afbd dadb f93d
000000e0: b985 cc3d 2ff6 c9bc 00f3 9bbe af7f 0c3e
000000f0: 925e 533d 60a7 bfbe 3899 8abe be69 133e
00000100: cd1a 113e 43c7 ac3d 5b32 38be d46d 21be
00000110: 1379 adbd b709 433d 03ea 96bd 66b8 e2bd
00000120: 8d79 80be e00e bc3d e3d0 10be 245f 30bd
00000130: 383f 333d 2709 2b3d af00 4fbe c767 46be
00000140: 43db 44be ee66 593e 3537 87be 050c 033e
00000150: 7dbc 7d3d 36da 95be ee5e 033c eb96 0d3d
00000160: afb1 d33d b6aa 413e c61b b83d f3d6 56be
00000170: c8c5 3cbd 27a0 043e b70f 88bd 3876 383e
00000180: 4c75 79bd 1daf 93be 7d90 6f3e 9b17 373e
-0.19217014 -0.10637327 -0.10639817 0.3138921 0.07700728 -0.26429924 0.20242248 0.14448568
0.1405803 0.31258485 0.14344352 0.010111877 -0.024135746 0.021572206 0.18551055 -0.16170184
0.31581345 -0.12677552 0.19086102 -0.15660526 0.10149579 -0.29569134 -0.2480814 -0.10554741
-0.09273539 -0.15343359 0.15854527 -0.24565826 -0.29698956 -0.0018512818 0.13340649 -0.0617435
-0.15947892 -0.0831251 0.24715525 -0.024196291 0.094632365 0.21348533 0.081316374 -0.31438679
0.053336576 -0.019981856 -0.011945797 -0.19434586 -0.04791894 -0.17938982 0.15112738 -0.09932178
0.13354357 -0.22599265 -0.07877442 0.04457763 0.16372967 0.035285324 -0.0856654 0.122001365
0.09986443 -0.024653522 -0.30458832 0.13720582 0.05160386 -0.37432384 -0.27070022 0.14395806
0.1417038 0.08436444 -0.17987959 -0.15764552 -0.08470359 0.047616687 -0.07368853 -0.110703275
-0.25092736 0.09182525 -0.14142184 -0.043059483 0.043761462 0.041756775 -0.20215105 -0.19375525
-0.19224267 0.21230671 -0.26409307 0.12797554 0.061947335 -0.29268044 0.0080182385 0.034567755
0.10336625 0.18912777 0.08989672 -0.20980434 -0.046087056 0.12951718 -0.06643622 0.18013847
-0.06090288 -0.28844538 0.23394962 0.17880099

i_resnet_layers.0.bottleneck_block.2.weight_u f4 [10]
00000000: 3acc 0b3e 18e9 5b3d 0145 213f ed25 863c
00000010: 9423 083c fb0a 54bd 984e 1f3f 0737 993e
00000020: a782 15bc 204e a33e
0.13652125 0.053689092 0.62995917 0.016375506 0.008309264 -0.051768284 0.622293 0.29924795
-0.009125388 0.31895542

i_resnet_layers.0.bottleneck_block.2.weight_v f4 [10]
00000000: c8b7 ec3d e59d 2bbf 7af2 0bbf 1bb8 253e
00000010: a98f e3bb 9ce4 7cbd 19ed f43c fb40 c9be
00000020: 6647 64be a111 693d
0.11558491 -0.670378 -0.54666865 0.16183512 -0.006944616 -0.061741456 0.029898213 -0.3930739
-0.22292861 0.056901578

i_resnet_layers.0.bottleneck_block.4.weight_orig f4 [2, 10]
00000000: 9529 df3c 41d5 15be b70e c1bd c724 9abd
00000010: 2957 46be 360d 46be ce11 a2be 4545 8ebe
00000020: 1614 3f3e 16cf 5bbe aa57 bfbe a1d9 fcbd
00000030: faa1 9bbe 0f34 1a3e 9c45 da3d 99d1 4f3e
00000040: a5a9 cebe d091 b7bd 58b4 7dbe 0eca 47be
0.027241508 -0.14632131 -0.09426635 -0.07526546 -0.19369186 -0.19340977 -0.3165421 -0.27787223
0.18660006 -0.21465716 -0.3737157 -0.12346197 -0.30397016 0.15058921 0.10657808 0.20294799
-0.40363804 -0.089633584 -0.24775827 -0.19510671

i_resnet_layers.0.bottleneck_block.4.weight_u f4 [2]
00000000: 12c9 c5be a920 6cbf
-0.38629967 -0.92237335

i_resnet_layers.0.bottleneck_block.4.weight_v f4 [10]
00000000: baca d53e 163b 5a3e ad91 ca3e 616d 0cbe
00000010: 7bb2 efbc ccf8 0fbe db2e 1e3f 0c22 733e
00000020: 921f 483e 2f2c a83e
0.4175623 0.21311602 0.39564267 -0.137136 -0.02925991 -0.14059752 0.61790246 0.23743457
0.19543293 0.3284621

i_resnet_layers.1.bottleneck_block.0.bias f4 [10]
00000000: f0df 163f 1b75 c23d aceb 133f 4771 21bf
00000010: 9606 01bd 95aa df3e 0e8b 04bd 6589 603e
00000020: b3f9 5bbe deac 74be
0.5893545 0.09494992 0.5778148 -0.6306347 -0.03150042 0.4368483 -0.032359175 0.21927412
-0.21481971 -0.23894069

i_resnet_layers.1.bottleneck_block.0.weight_orig f4 [10, 2]
00000000: 81bb 863e 4825 25be 14f3 e63e 7002 203f
00000010: f1a7 4dbe 9a96 00bd adf2 85be 2e00 89bd
00000020: f220 9f3e 1ecf d53e 4570 a7bc 4c6b de3d
00000030: 185e 92be 82e8 06bf ab54 3abf 9a6d 013f
00000040: 2638 3f3e 84a6 f53e 7a7e 9abe b130 da3e
0.2631493 -0.16127503 0.4510733 0.6250372 -0.20083596 -0.031393625 -0.2616171 -0.066894874
0.31079823 0.4175958 -0.020439276 0.10860309 -0.28587413 -0.5269853 -0.72785443 0.50557864
0.18673763 0.47978604 -0.3017462 0.42615274

i_resnet_layers.1.bottleneck_block.0.weight_u f4 [10]
00000000: b29f 52bd 9484 153f abc4 9bbd 1eb3 f2bd
00000010: ac0f c93e 7039 9b3d 2291 efbe d022 3f3e
00000020: 9446 d03e d5e7 743e
-0.05142183 0.58405423 -0.07605871 -0.1185057 0.3926977 0.07579315 -0.46790415 0.18665624
0.40678847 0.23916562

i_resnet_layers.1.bottleneck_block.0.weight_v f4 [2]
00000000: af7a a93e 7791 713f
0.33101413 0.94362587

i_resnet_layers.1.bottleneck_block.2.weight_orig f4 [10, 10]
00000000: 39e0 92bd fb09 903e 8aa6 9e3d f708 a9bd
00000010: 97cd 123d 38af 123e 7d0e e2be 3854 48be
00000020: 9a1e a7bd 7293 443e 7141 b2bd 9fb7 a43d
00000030: cf67 03be a570 c3bc 903f 26be 6d0a 37be
00000040: ca9b 98be 7306 bc3d 8cac 0bbe f68e bcbd
00000050: 4d95 28be 52a3 1d3d d72a e03d e8fa 2e3e
00000060: d934 713e 953e 39be 2622 40be 2606 6abe
00000070: fe67 783e 52f6 a7be e0c7 b9be 1d2f 843e
00000080: abda fdbd 9661 3c3d 2c62 f6bd c213 64bc
00000090: 2892 30bd 5576 583e 2acb 953d fd82 903d
000000a0: 8740 5e3e 231d 8e3e d7c1 90bc f4d5 b8bb
000000b0: 25dc 393e ef88 5abc 8640 7bbd 16ae 5a3d
000000c0: 5b9c 3f3d ccc3 3d3d b98d 8bbd 3e5f 623e
000000d0: ef2e 003d 9e3f 25be 3943 42bd 84a8 0f3e
000000e0: b614 bebd a963 5d3e d827 ea3d 67e6 1cbe
000000f0: 7a35 2dbe a182 20be 0184 593c d1d1 983d
00000100: 21bd ecbd a7ce c6bd 2d1f f3bd 081f 5b3e
00000110: 0be9 c1be 0430 92be 73c6 7b3d 046a a3bc
00000120: 68d1 35be 22b0 4c3e 5b87 443d b572 073e
00000130: 417a b4bd cd62 853e e837 59be 97c6 123e
00000140: a226 4e3e 59e7 70be 7c35 20be f5fd 133c
00000150: f643 e2bc b29d b03d 9a41 20be e437 9fbe
00000160: ed86 abbd 0e1f d7bd 5d42 c6bd b13c 02be
00000170: e76f 703e d2a6 763d 3ea5 c8be 23be 233d
00000180: d126 163e 44e7 c1bd 8e6f 0bbe 99f8 6dbd
-0.07171673 0.28132614 0.077466086 -0.08253663 0.035840597 0.14324653 -0.4415168 -0.19563377
-0.08160134 0.19196871 -0.08703888 0.080428354 -0.12832569 -0.023857424 -0.16235185 -0.17875071
-0.29806358 0.091809176 -0.1364004 -0.09206955 -0.16463204 0.038485833 0.10945671 0.170879
0.23555316 -0.1809028 -0.18763027 -0.22853908 0.2425842 -0.32805115 -0.36285305 0.25817195
-0.12395223 0.045991503 -0.120304435 -0.013920726 -0.043108135 0.2113889 0.07314141 0.07056234
0.21704303 0.27756605 -0.017670555 -0.0056407396 0.18150385 -0.013338312 -0.06134083 0.053388678
0.04677997 0.046329305 -0.06814141 0.22106645 0.03129476 -0.1613755 -0.04742739 0.14029127
-0.09281294 0.21620049 0.11433381 -0.15322267 -0.16914931 -0.15674831 0.013276101 0.07461894
-0.11559511 -0.097073846 -0.11871181 0.21398556 -0.3787311 -0.28552258 0.061468553 -0.019948013
-0.17755663 0.19989064 0.047980648 0.13227351 -0.088123806 0.26051942 -0.21212733 0.14333569
0.20131925 -0.23525752 -0.15645403 0.009032716 -0.027620297 0.08623828 -0.15650025 -0.3109733
-0.083753444 -0.1050397 -0.096806265 -0.12718464 0.23480187 0.060217686 -0.3918857 0.03997625
0.14663245 -0.094679385 -0.13616773 -0.05809841

i_resnet_layers.1.bottleneck_block.2.weight_u f4 [10]
00000000: 8228 033f 855f 503d c445 7b3e 870a 723e
00000010: ce0c c13e 2e07 803e 5334 cbbe caf5 e6bc
00000020: 54f7 31be c733 f3be
0.51233685 0.050872345 0.24538332 0.23636828 0.37705082 0.25005478 -0.39688358 -0.028193373
-0.17379504 -0.4750044

i_resnet_layers.1.bottleneck_block.2.weight_v f4 [10]
00000000: c75b 01bd 8180 2b3f 387f 84bd 2ad0 fabd
00000010: f785 d13e 9c42 713d acba d4be a569 d3bc
00000020: 4896 c33e 17fa 4e3e
-0.031581666 0.66992956 -0.064695776 -0.122467354 0.4092252 0.058901414 -0.4154867 -0.025807211
0.38200593 0.20212589

i_resnet_layers.1.bottleneck_block.4.weight_orig f4 [2, 10]
00000000: e997 aa3c 12b7 8dbe 8d86 19be d932 0bbd
00000010: 27eb 39be b096 c9bc db89 9dbd 3a79 d33c
00000020: cd40 bb3e 2623 2b3e ecf4 dc3e bd06 d0bc
00000030: fefe 4f3e 14c6 5c3e 3fb4 8c3e 3f26 473e
00000040: f1ef aabe 3016 aabd fe47 fb3c 8de8 acbe
0.02082439 -0.27678734 -0.14992733 -0.03398404 -0.1815611 -0.024607986 -0.076923095 0.025814641
0.36572877 0.16712627 0.4315561 -0.025393838 0.20312116 0.21559936 0.27481267 0.19448183
-0.33386186 -0.08305013 0.030673977 -0.33771172

i_resnet_layers.1.bottleneck_block.4.weight_u f4 [2]
00000000: cfdf 8abe 3267 763f
-0.27123877 0.96251214

i_resnet_layers.1.bottleneck_block.4.weight_v f4 [10]
00000000: 092f 023f 757b 803d d50e 963e 4da4 893e
00000010: ea82 c73e e362 763e adfc bebe 924c ddbd
00000020: f0c3 b0bd 5858 ebbe
0.5085302 0.062735476 0.2930819 0.26883164 0.38967067 0.2406116 -0.3730215 -0.1080562
-0.08631122 -0.45965838

i_resnet_layers.2.bottleneck_block.0.bias f4 [10]
00000000: 543d 1d3f 8209 dd3d b321 0cbf b804 fe3e
00000010: 8a92 293f 0632 27bf 4f71 89bc c6ea 0a3f
00000020: 16c7 a03e 28f9 8e3e
0.61421704 0.10792829 -0.5473892 0.49612975 0.66239226 -0.65310705 -0.016777663 0.54264486
0.3140189 0.27924466

i_resnet_layers.2.bottleneck_block.0.weight_orig f4 [10, 2]
00000000: 25bc 903e ca98 033d 008d 41bf 5b7d 083f
00000010: cf80 f33e 6245 c73e b31f 9c3e 81d1 9b3e
00000020: 792d abbe 0ed3 943e 4e40 1ebe 6107 7fbd
00000030: ac59 a13e a014 6cbe 7c0f d33d 0b89 2dbf
00000040: 4bb1 a4be cbfb 3bbf aacd 1dbf a88c 33be
0.28268543 0.032128133 -0.75605774 0.5331628 0.4755921 0.38920122 0.30492935 0.30433276
-0.3343313 0.29067272 -0.15454218 -0.062262896 0.31513727 -0.23054743 0.10305688 -0.67787236
-0.32166514 -0.7343108 -0.61641943 -0.17534125

i_resnet_layers.2.bottleneck_block.0.weight_u f4 [10]
00000000: 2c9b 32be 00e0 0d3e 1ff6 f0be af4b a9be
00000010: 21bf 043d cbde f33d 6418 5bbd 6efb 993e
00000020: db1a 113f 9505 df3e
-0.17442006 0.1385498 -0.47062775 -0.33065554 0.032408837 0.11907729 -0.053490058 0.30074638
0.56681603 0.43558946

i_resnet_layers.2.bottleneck_block.0.weight_v f4 [2]
00000000: 768f 39bf 835c 30bf
-0.7248453 -0.6889116

i_resnet_layers.2.bottleneck_block.2.weight_orig f4 [10, 10]
00000000: 2cd5 f6bc 686f cfbd 1b39 85be 4b30 2b3e
00000010: 7c6b 80bd 38d2 253e d050 0fbe 5918 6f3e
00000020: f95a ec3c 0ab9 99bd 35a5 d33b 809d a3be
00000030: 7094 f7bd 9666 203e d4a4 8f3d 47ae ed3d
00000040: f7b5 733e affb 94be b770 1cbe 47c7 ab3d
00000050: 1d70 a63c 27f8 97be 53b2 a9bc bbe2 0a3e
00000060: b6ff 863e 46d6 05be 4072 90be 11e6 34be
00000070: 6182 6abe 7bd7 16be 9fd9 68be 94d1 1ebc
00000080: c297 843d ba38 5b3e 11ca 0e3e 5902 763d
00000090: ad9a b1be 40fb 90be 550a 903e 22ab 823e
000000a0: 510e a5be 87fb c7bd 9774 abbe 4765 7dbb
000000b0: 93ba b0bd 2648 5e3e 8e1b 0fbe 1691 843e
000000c0: a984 003e 3a6e f93d ab1a 18be b426 88be
000000d0: 9a37 55bd 2d39 88be f940 40be 2783 d93b
000000e0: 8d46 903d a46b 76bd c4d6 10be 5037 5b3e
000000f0: 92af 8bbd 288a 3b3d 3843 10be 2aca 2a3c
00000100: fbb3 543e b844 253e ffb8 a6bc 6bf7 19bd
00000110: d448 c0be a869 7ebe 05d5 ecbd 4ad3 91bd
00000120: d908 c53b 043e ab3d 624f 1ebe 1e8d 21be
00000130: deb5 233d 6965 ffbd 97dd 77be 4e6d 1c3e
00000140: 8656 333d 96a8 a4be e850 aebd da4e 3bbd
00000150: 8b64 b73d c697 ce3d bccc ab3e 368a fb3c
00000160: 5394 903e 616c 8fbe f4a2 8abc fe34 163e
00000170: 2920 c3bd cd67 ebbd d61e 343d ff91 333e
00000180: 118b 4bbe a7f7 ccbd 4329 9fbd 72ca 25be
-0.030130945 -0.10128671 -0.2602013 0.16717641 -0.06270501 0.16193473 -0.13995671 0.23349132
0.028851973 -0.075059965 0.006458903 -0.319561 -0.12088859 0.15664133 0.0701386 0.116055064
0.23799883 -0.2909827 -0.15277372 0.083876185 0.020317132 -0.29681513 -0.020714914 0.13563053
0.26366967 -0.1307002 -0.28212166 -0.17665888 -0.22901298 -0.14730637 -0.22739266 -0.009693522
0.06474258 0.21408358 0.1394427 0.060060833 -0.3468832 -0.2831669 0.28132883 0.2552119
-0.32237485 -0.09764772 -0.33487388 -0.0038665102 -0.08629336 0.2170721 -0.13975355 0.25891942
0.12550606 0.12179227 -0.14853923 -0.26592028 -0.05205498 -0.26606122 -0.18774785 0.006637949
0.070447065 -0.060161248 -0.14144427 0.21407819 -0.06820597 0.045786053 -0.14088142 0.010424176
0.20771782 0.16139495 -0.020351885 -0.03758947 -0.37555563 -0.24844992 -0.11564068 -0.07120378
0.0060130176 0.08361438 -0.1545997 -0.15776488 0.039968364 -0.12470514 -0.24205624 0.15276071
0.043783687 -0.3215987 -0.085115254 -0.045729496 0.08954724 0.10087542 0.33554637 0.030705553
0.28238162 -0.28012374 -0.016923405 0.14668652 -0.095276184 -0.11494408 0.04397472 0.17536162
-0.19877268 -0.100081734 -0.07771542 -0.16190508

i_resnet_layers.2.bottleneck_block.2.weight_u f4 [10]
00000000: dcb6 35be b17a f73e cc51 093f 0808 47be
00000010: e461 e4be a701 8c3d b757 c93e 5301 493e
00000020: 0d86 e13d d888 a83c
-0.17745537 0.48335794 0.5364044 -0.19436657 -0.44605935 0.06836253 0.39324734 0.19629411
0.11011896 0.020573065

i_resnet_layers.2.bottleneck_block.2.weight_v f4 [10]
00000000: a0d5 423e f46a bdbe a1ca 603d a810 bc3d
00000010: 65c2 9d3e 94c1 04be f1cd 473e 90d2 f1be
00000020: 959a 1bbf 6576 8abe
0.19026804 -0.3699566 0.054880742 0.091828644 0.30812374 -0.12964469 0.19512154 -0.4723096
-0.6078275 -0.27043453

i_resnet_layers.2.bottleneck_block.4.weight_orig f4 [2, 10]
00000000: e280 893e d398 dcbd cd4b 95be df01 61be
00000010: a16a 043d 0576 9f3d 36fc 74be e5aa 78be
00000020: 9761 b63e 1462 29be 8a44 61bc a861 d63e
00000030: 0cdf ad3e 1b46 47be 4c6a 8abe 325a 953d
00000040: 07c1 773e aacf 273e 5332 883e 7af7 c6bc
0.26856142 -0.107713364 -0.29159394 -0.2197337 0.03232825 0.07786182 -0.23924336 -0.24283941
0.3562133 -0.1654132 -0.013749251 0.4187138 0.33959234 -0.19460337 -0.27034223 0.07292594
0.24194728 0.16387811 0.26600894 -0.024287928

i_resnet_layers.2.bottleneck_block.4.weight_u f4 [2]
00000000: e240 16bf 8744 4f3f
-0.58692753 0.8096394

i_resnet_layers.2.bottleneck_block.4.weight_v f4 [10]
00000000: 7384 57be 3297 003f 4e8a 0e3f 1fed 12bd
00000010: 8efc 97be 4808 883c 8dea d63e 37f9 af3e
00000020: c7de 023c 3c78 c53d
-0.21046619 0.50230706 0.55679786 -0.035870668 -0.2968487 0.016605511 0.41975823 0.34369823
0.007987685 0.096420735

i_resnet_layers.3.bottleneck_block.0.bias f4 [10]
00000000: 77e2 f3be c872 863e 57a8 11bf 1a2e 633e
00000010: 9bc9 f5bd 1e8d 3cbe 22ee c4be c1de c5bd
00000020: e065 a6be ca8d 75be
-0.47633716 0.26259446 -0.5689749 0.22185555 -0.12001344 -0.18413207 -0.3846293 -0.096616276
-0.324996 -0.2397987

i_resnet_layers.3.bottleneck_block.0.weight_orig f4 [10, 2]
00000000: 65d6 1a3f caff 573e db19 24bf 4dcf 013f
00000010: 7137 c53e a526 073f e42c 19bf 3781 2ebf
00000020: a524 173f 743a 22bf defe 7f3e f04e cb3e
00000030: 71fa 32be 13d3 f8bd 504e 043f 1b68 c7be
00000040: 09cf a33d 9143 e73e 4e0d b0bc 0f79 d33d
0.6048339 0.2109367 -0.6410195 0.5070694 0.3851886 0.5279334 -0.5983412 -0.68165916
0.5904029 -0.6337044 0.24999568 0.39708662 -0.17478348 -0.12149634 0.51681995 -0.38946614
0.07998473 0.45168737 -0.02149072 0.103258245

i_resnet_layers.3.bottleneck_block.0.weight_u f4 [10]
00000000: 7d37 abbe 12b9 0e3f 2d5c d3bd 9881 4b3e
00000010: 4b54 0fbf b03e 54bd 5318 a43d f368 e3be
00000020: a215 983d 61cd 2f3d
-0.33440772 0.55751145 -0.103203155 0.19873655 -0.55987996 -0.051817596 0.08012452 -0.44416007
0.07426001 0.042920474

i_resnet_layers.3.bottleneck_block.0.weight_v f4 [2]
00000000: f246 6bbf 73cc c93e
-0.9190513 0.39413795

i_resnet_layers.3.bottleneck_block.2.weight_orig f4 [10, 10]
00000000: e391 403e 5637 a2bd 306f a1be 1b99 2c3e
00000010: de44 97bd aec0 3c3e d79d 563e 78a5 8fbe
00000020: 6908 04be 0a80 e83d b8e7 cebd 426a ab3e
00000030: f694 113e aa84 953d e1cd 2ebe e6f7 64be
00000040: f5a7 853e 4052 99be 790c 843c 9d2c 86be
00000050: 6eca eebc bc1f b33d f086 0c3e 1030 273e
00000060: 64c7 c8be 7fab 31be 9d67 10be b365 52be
00000070: 6f8f 1a3e 86bb 4abb ead3 833e 54fa aa3d
00000080: 8bf2 643e c5b9 d63c b7ba fc3d 235e 05bd
00000090: 35d2 713e 83c0 603d 7840 de3d 6609 483d
000000a0: 561a 903e 7297 503d 3e5c 21be 647f 143e
000000b0: 3cb7 4ebe df83 19be fed7 ee3c 7eae 02be
000000c0: 209e 323e d188 ec3d 3641 a9bd cdfc b3bd
000000d0: 802a 77be ba13 f6bd cbae aa3c 6411 65be
000000e0: 14c5 9a3d b18d 5ebe 6eae 94be ba18 903e
000000f0: 8112 46be 59f1 bdbe 9c02 40be 171d f8bd
00000100: 6a74 dd3d 4eeb b0bc d2f5 853d 452c 18be
00000110: 641d 473e 76a5 c1bd 7c4f 8fbe 3cfe d83e
00000120: 6237 cd3d ddf4 e4bd 4f18 cdbe 026d a53e
00000130: d58b 89bd d3ac 90be 37fb 3bbd d31b 1c3e
00000140: 59a1 88bd ef04 e4bd 36ed a43e 6b1b 8f3d
00000150: 9d36 0d3e 6d34 7c3d b989 cc3d 1468 7d3d
00000160: b73f 023c 660c efbd 5e45 8e3d 0cc0 163d
00000170: aa96 b73e 41f9 423d 847a ba3d 01d4 a13c
00000180: a879 43be 7032 8c3d 07fb 30be ff1f ad3e
0.18805651 -0.07920711 -0.31530142 0.1685528 -0.07386182 0.18432876 0.20958649 -0.2805593
-0.12893833 0.113525465 -0.101027906 0.33479506 0.1421698 0.07300694 -0.17070724 -0.22360191
0.26104704 -0.29945564 0.016119229 -0.26205912 -0.02914926 0.08746287 0.1372335 0.16326928
-0.39214623 -0.17350577 -0.14102025 -0.20546608 0.15093778 -0.0030934527 0.25747615 0.083485276
0.22358148 0.026211629 0.123403005 -0.03256048 0.23615344 0.054871093 0.1085214 0.048837088
0.28145093 0.05092568 -0.15757844 0.1450172 -0.20187086 -0.14991711 0.029155727 -0.12761876
0.17443132 0.11549533 -0.08264391 -0.08788452 -0.24137306 -0.12015481 0.0208353 -0.22369915
0.07557121 -0.21733738 -0.2903933 0.28143865 -0.19342996 -0.37098196 -0.18750995 -0.121149234
0.1081322 -0.021596577 0.06541027 -0.14860637 0.19444805 -0.09455387 -0.2799033 0.42381465
0.10020329 -0.111795165 -0.40057608 0.3230973 -0.06716124 -0.28256854 -0.045893874 0.15244989
-0.066713996 -0.111337535 0.32212228 0.069876514 0.13790365 0.061573435 0.09987206 0.061866835
0.007949761 -0.11672287 0.069468245 0.036804244 0.35857135 0.04760099 0.09105399 0.019754412
-0.19089377 0.06845558 -0.1728326 0.33813474

i_resnet_layers.3.bottleneck_block.2.weight_u f4 [10]
00000000: f867 a7bd 9cd8 edbe c2d8 d8be fecd 863d
00000010: cb98 25be e4f4 36bc a805 693e 7fd5 34bf
00000020: 7dec 033e 922c 583c
-0.08174127 -0.46454322 -0.42352873 0.06582259 -0.16171567 -0.011166785 0.22756064 -0.7063827
0.12883182 0.01319422

i_resnet_layers.3.bottleneck_block.2.weight_v f4 [10]
00000000: 711d 283e 3b8a 17bf 183a ffbd 8431 9ebd
00000010: 1cf0 1f3f 06af 1dbd cacd 843b a415 e93e
00000020: c5c0 4cbb 971c 3abd
0.16417481 -0.591953 -0.124622524 -0.07724288 0.6247575 -0.038496993 0.0040528523 0.45524323
-0.003124283 -0.04543742

i_resnet_layers.3.bottleneck_block.4.weight_orig f4 [2, 10]
00000000: a3de e9bd 600a 1f3e a43a 683e ab2f 36be
00000010: ef64 873e 1585 403e f355 cbbd ab71 3b3e
00000020: 56bb a8be c2dd 213e a34d 2fbe 4439 bfbe
00000030: 08fd 93be de9d cbbd 3dd3 95bc 99d5 2e3d
00000040: adec 993e 9117 e3be bcf9 c2bd 925d 013e
-0.11419418 0.15531301 0.2267862 -0.17791621 0.26444194 0.18800767 -0.09928503 0.1830508
-0.32955426 0.1580725 -0.1711946 -0.37348378 -0.28903985 -0.0994222 -0.018289203 0.04268417
0.30063382 -0.44353917 -0.09520289 0.1263335

i_resnet_layers.3.bottleneck_block.4.weight_u f4 [2]
00000000: 96d5 fa3e 7c2c 5fbf
0.48991078 -0.8717725

i_resnet_layers.3.bottleneck_block.4.weight_v f4 [10]
00000000: 7113 ec3d f2d1 fd3e 806c e53e 8866 7db9
00000010: ccf3 373e 04cb 8a3d af97 c4be d559 163f
00000020: 4cb5 c5bd 3abc 24bd
0.11527146 0.49574238 0.4480934 -0.00024166156 0.17964095 0.067770034 -0.38396975 0.5873082
-0.0965372 -0.04021857

i_resnet_layers.4.bottleneck_block.0.bias f4 [10]
00000000: 203f cf3c e9bf 233f 9273 7fbe 8164 1e3e
00000010: 89d0 533d 41e5 11bf 3e31 413f 28dc d33e
00000020: 6a6d 103e 2731 1dbe
0.025298655 0.63964707 -0.2494643 0.15468027 0.051712546 -0.5699044 0.7546576 0.41378903
0.14104238 -0.15350781

i_resnet_layers.4.bottleneck_block.0.weight_orig f4 [10, 2]
00000000: d14d d3be 53dd 3e3e 0242 83be 5e3b 013f
00000010: 640e 1f3f ea41 373e 4d5c 87bd 6c0f 69bf
00000020: 08f5 34be 9ed2 3cbe 4e2b 9abe 8a57 b7be
00000030: a440 1c3e 3641 a63e 44fe 36be e3d6 073d
00000040: 19d2 2dbf f429 1dbe a0bf 043f 50f2 0fbf
-0.41270307 0.18639116 -0.25636297 0.5048121 0.62131333 0.17896238 -0.06609402 -0.91039157
-0.17671597 -0.18439719 -0.30111164 -0.35808975 0.15259033 0.32471627 -0.17870432 0.033163916
-0.6789871 -0.15348035 0.51854897 -0.56229115

i_resnet_layers.4.bottleneck_block.0.weight_u f4 [10]
00000000: 75d3 413e 8c03 d03e 7d83 673d 81f5 2abf
00000010: 49f4 ebbd ad6a 6abe 60b8 633e 4266 3e3d
00000020: 5199 f9bc 3c77 f6be
0.1892832 0.40627706 0.05652188 -0.6678086 -0.11521203 -0.22892256 0.22238302 0.04648424
-0.030468615 -0.48137844

i_resnet_layers.4.bottleneck_block.0.weight_v f4 [2]
00000000: ad32 27be 7f90 7c3f
-0.16327925 0.98657984

i_resnet_layers.4.bottleneck_block.2.weight_orig f4 [10, 10]
00000000: 2031 1f3e 8d2a 14be 237d 35be 3668 133e
00000010: 6d4c bdbe 7c97 88be 5afe 3abd 2469 933e
00000020: bc1d d3bd dc12 0bbe d600 b4be 48d2 08be
00000030: 8368 433e 5600 b7bd 5995 2f3e 56c4 063e
00000040: 9f91 b63d ef16 5c3e ec8d 4dbd 16de 953e
00000050: bb0a 243d 4ecf 8d3e a0a5 8c3e 3afd e9be
00000060: 272e e7bd 3973 903d 7693 ae3e cdaf 5f3e
00000070: a4cb 34bd 0a34 30be 01c9 82be ab68 963e
00000080: 72db 6cbe 73f6 5cbe 5291 6fbd b0c1 84be
00000090: 996f 15be 3a69 003d 24da 273d a468 21bd
000000a0: 49b6 1f3e 6e57 c23e 7507 dabc 5dbf ed3d
000000b0: d99c 35be a43d 663e dab5 003b 2038 8c3e
000000c0: deeb 2a3e 63f5 2a3e 0a8c e3bb 94fb c13c
000000d0: 07f1 df3c 9a0b 403d bdc3 cf3c 4ee4 8c3e
000000e0: 138e fabc c064 d73d 15ad 313e 2c70 de3d
000000f0: 38c2 493e 4be4 e23d 1892 a43d 5ffb b3be
00000100: 73f2 19bd 54b1 50be 94e2 a1bd 252a 6ebe
00000110: 9b49 11be b293 d7bc 2771 6bbe f7db b0bd
00000120: d330 e23c fc34 b63c f465 73be 9125 65bd
00000130: 1b85 71bc ff24 603e 1775 a8bd 38e0 4abe
00000140: a213 403e be19 b63d fdd0 41be 140e 353c
00000150: 0854 863d 2a03 203e bbeb 583e 27ca 74be
00000160: b35a 9c3c 52c0 f6bb 6435 0bbe bb1f 00be
00000170: 08b3 6f3e c089 c03d 1141 a0be d43c 1f3d
00000180: 315a 03bd 4088 96bd 787b a73d 1a65 aabc
0.15546083 -0.14469357 -0.17723517 0.14395222 -0.3697237 -0.26678073 -0.045652725 0.28791153
-0.10308406 -0.13581413 -0.35156888 -0.13361466 0.19082837 -0.08935611 0.17146815 0.13160834
0.08914494 0.21493123 -0.050184175 0.29271 0.040049296 0.27697223 0.27470112 -0.4570101
-0.112881 0.07053227 0.3409688 0.21844406 -0.04413952 -0.17207351 -0.2554398 0.2937673
-0.23130587 -0.21578388 -0.058488198 -0.25929022 -0.14593352 0.031350352 0.04097952 -0.039406434
0.1559688 0.3795733 -0.026614884 0.11608765 -0.17735614 0.22484452 0.0019639642 0.2738657
0.16691539 0.1669517 -0.006944184 0.023679532 0.02733661 0.046886064 0.02536189 0.27517933
-0.030585324 0.105172634 0.17351182 0.10861239 0.19702995 0.110787 0.08035678 -0.35152718
-0.037584733 -0.20380145 -0.079045445 -0.23258264 -0.14188235 -0.026315544 -0.22992383 -0.08635705
0.027611172 0.022242062 -0.23769361 -0.05594403 -0.0147412075 0.21889113 -0.08225458 -0.19812095
0.1875749 0.08891629 -0.18927379 0.01105072 0.065589964 0.15626207 0.21183674 -0.2390524
0.019086218 -0.0075302506 -0.13594586 -0.12512104 0.23408139 0.09401274 -0.31299642 0.03887637
-0.032068435 -0.073502064 0.08177847 -0.020800162

i_resnet_layers.4.bottleneck_block.2.weight_u f4 [10]
00000000: e4d7 8bbd 068e 7ebd 548c 543f 9554 993e
00000010: 6305 073e 004f d5bd ef5b d43e aa87 163d
00000020: 53a0 d23c fb91 cebd
-0.06828287 -0.062147163 0.83026624 0.29947343 0.13185649 -0.10415459 0.4147639 0.036750473
0.025711214 -0.10086437

i_resnet_layers.4.bottleneck_block.2.weight_v f4 [10]
00000000: 43d6 c83d fdfc 073f 6602 433e 356c 36bf
00000010: b7c9 0dbe 28e5 ebbd 32b7 843e be9e ec3d
00000020: ef2e c6bd fa63 51be
0.09806492 0.53120404 0.19043884 -0.7125886 -0.1384648 -0.115183175 0.25921017 0.11553715
-0.096769206 -0.20448294

i_resnet_layers.4.bottleneck_block.4.weight_orig f4 [2, 10]
00000000: 626d cd3e e554 8fbe 3c4b acbe 7119 9abd
00000010: 08d0 1a3e aef7 57be 1730 58be 85cf 963e
00000020: efc0 b93d 7a8d 1c3e 5232 3cbc 9e10 393d
00000030: 9a60 a73e 7af3 873e 2f46 9b3e 01d7 1fbd
00000040: 1ac3 4a3e 7380 b53c e5d6 043e e410 74bd
0.40122515 -0.27994457 -0.3365115 -0.07524384 0.1511842 -0.21090576 -0.21112095 0.294552
0.09070002 0.15288344 -0.011486607 0.045181863 0.3269089 0.26552945 0.30326983 -0.039023403
0.19800988 0.022155976 0.12972601 -0.05958642

i_resnet_layers.4.bottleneck_block.4.weight_u f4 [2]
00000000: fdef 6c3f 63df c1be
0.92553693 -0.37865743

i_resnet_layers.4.bottleneck_block.4.weight_v f4 [10]
00000000: b370 f03e facb b0be 393d 0bbf 5ab1 59be
00000010: 46b1 003d 040c 67be acf7 acbe ca30 a93e
00000020: dc44 323d 9f14 523e
0.46960983 -0.34530622 -0.54390293 -0.2125906 0.03141906 -0.22563177 -0.3378271 0.33045036
0.0435227 0.20515679

i_resnet_layers.5.bottleneck_block.0.bias f4 [10]
00000000: b618 8c3e 2798 5bbd f310 cf3d 96be c93e
00000010: 10f7 40be 828a 563e f2aa f03d 6019 fdbe
00000020: 3389 4a3d 391e c13e
0.27362603 -0.0536119 0.10110655 0.39403218 -0.18844247 0.20951274 0.11751355 -0.49433422
0.04944725 0.3771837

i_resnet_layers.5.bottleneck_block.0.weight_orig f4 [10, 2]
00000000: 5e0d 85be 7336 fdbd b26b 093f ac34 6dbe
00000010: 7c18 213e 1e41 14bf 019d 7bbd 4b52 c23d
00000020: 4fda c73e 5825 ad3d 88dc 0bbe 4612 34bf
00000030: d0ae 04bf e4b5 543e 5275 553e 722e e9be
00000040: 2fb5 283f 215f c83e 9aa9 dfbd 9349 28bd
-0.2598676 -0.12363901 0.53679955 -0.23164624 0.15731996 -0.5791186 -0.061429027 0.094883524
0.39033744 0.084543884 -0.13658345 -0.70340383 -0.5182924 0.20772511 0.20845535 -0.45543247
0.65901464 0.39135078 -0.10921021 -0.04108579

i_resnet_layers.5.bottleneck_block.0.weight_u f4 [10]
00000000: 1af3 95bd 393c 89be 91bd 04bf 1239 b73d
00000010: 1b1e ba3c 2d83 16bf 62ed 7a3e a96b d6be
00000020: ac60 813e f71b afbc
-0.073217586 -0.2680376 -0.51851755 0.08946432 0.022719434 -0.5879391 0.24504617 -0.41879013
0.25269067 -0.02137564

i_resnet_layers.5.bottleneck_block.0.weight_v f4 [2]
00000000: b550 16be 113a 7d3f
-0.14679225 0.9891673

i_resnet_layers.5.bottleneck_block.2.weight_orig f4 [10, 10]
00000000: 915a 893a 63d2 7e3e 6e3c 5abe cfce 58be
00000010: 0e82 c83d f657 10be 899f 493e fe6e 9f3d
00000020: ba9a 793e 33c4 ae3d d193 9a3e 76ba 99bd
00000030: 737b 523e 6778 22be 0bdb 103e 1c86 62be
00000040: 9269 cc3d 2d79 d43d c7ff a7be 7454 b23e
00000050: 6212 8dbd 1393 013e c68c a2be e7ed 373e
00000060: 8b6f 2e3e 240b c1be 89c6 4cbd 3184 c0be
00000070: d4bf a23d 7136 b6bb ca9f 05be 28ba ca3e
00000080: 4239 813e e159 89bc b71d 8abc c363 093b
00000090: a78c 56be 299f c43c 853b 563d 664a 84bd
000000a0: b074 3b3e 7d55 963e 51bb fe3d 30f9 21be
000000b0: ca4c 30bc c62a 0c3d 7e5a 0fbe c381 56bd
000000c0: 2777 60bd 2bee 56bd e410 a0bd 8117 25bd
000000d0: 2cf1 54be c1de 48bd c3e0 c73d 62cd afbe
000000e0: c553 e33c cb03 473d c133 b6be 3975 2abe
000000f0: d49d d6bc c69c 623e 728b 693e 3a56 d7bd
00000100: 022a 95bd 1d7f 00be 006c 1cbd c503 6bbd
00000110: 2094 12be dccc 8cbe 951d 7c3c 31df 5abe
00000120: cf23 503e 3b06 e7bd b0b7 953e ecdf ca3d
00000130: 5397 8a3e 63f2 2fbe d491 413e ae2c 3abc
00000140: abf1 9d3e 6f79 1ebe edd4 163e 6b14 893e
00000150: 6b47 40be d408 4dbe 95b7 13be 0514 28be
00000160: b511 a3bd 295b 41bd afed ff3c ab61 08bd
00000170: 9fb3 21be ae10 acbd 33a0 36be 541a a43d
00000180: 600e 423e 64bd 2dbd 5029 78bd b608 d93d
0.0010479261 0.24884944 -0.21312115 -0.21172641 0.09790431 -0.14096054 0.19689764 0.07784842
0.2437543 0.08533516 0.301909 -0.07506268 0.20554905 -0.15866242 0.14146058 -0.22121471
0.099810734 0.10374675 -0.3281233 0.34830058 -0.06888272 0.1265376 -0.31748027 0.17961846
0.17034738 -0.37703812 -0.049994025 -0.37600854 0.079467446 -0.005560689 -0.13049236 0.3959515
0.25238997 -0.01676649 -0.016859872 0.0020964004 -0.20952092 0.024001675 0.052302856 -0.06459503
0.18306231 0.29362097 0.124380715 -0.15817714 -0.010760495 0.03422048 -0.13999364 -0.052369844
-0.054801133 -0.05247323 -0.07815722 -0.04030562 -0.20795125 -0.04904056 0.09759667 -0.34336382
0.027749905 0.0485876 -0.3558636 -0.1664628 -0.026198305 0.22130117 0.228071 -0.10514493
-0.07283403 -0.1254849 -0.038188934 -0.05737664 -0.14314318 -0.27500045 0.015387912 -0.21374203
0.2032616 -0.11280485 0.29241705 0.09905991 0.27068576 -0.17182307 0.18903285 -0.0113631915
0.3084844 -0.1547601 0.14729662 0.2677339 -0.18777244 -0.20022899 -0.144255 -0.16413887
-0.07962362 -0.047206078 0.031241266 -0.03329627 -0.15791176 -0.08401619 -0.17834549 0.08012834
0.18950796 -0.042416945 -0.060586274 0.105973646

i_resnet_layers.5.bottleneck_block.2.weight_u f4 [10]
00000000: e849 cabd 4d92 803e 0738 27bf 2573 7fbe
00000010: b4de febd 49ec c9be 89ad 8dbe 88ea c83e
00000020: a1bc 0ebe 8e92 063e
-0.09877378 0.2511162 -0.65319866 -0.24946268 -0.12444821 -0.39438084 -0.2767146 0.39241433
-0.13939144 0.13141844

i_resnet_layers.5.bottleneck_block.2.weight_v f4 [10]
00000000: 7e01 2e3e 0ee3 efbe abff a43e 2a59 48be
00000010: 796d cd3c a8e6 0e3f 1f36 a63e 88d6 863e
00000020: cc30 ed3d f61b a93e
0.16992757 -0.46852916 0.3222631 -0.19565263 0.025076615 0.55820704 0.32463166 0.2633555
0.11581573 0.33029145

i_resnet_layers.5.bottleneck_block.4.weight_orig f4 [2, 10]
00000000: 0d8f 28be 3eea 9e3d 9a64 c8be fad2 20bd
00000010: c083 6bbe f397 17be 4535 663e e876 433e
00000020: cf28 1e3e cab8 bc3d 389d 10be 7796 9a3e
00000030: 8bc6 c13e 716d 713e a81f 2a3d dfb4 b13e
00000040: 3464 173c 9f65 20be 898b 903e 00eb 78bd
-0.1646082 0.07759522 -0.39139253 -0.039263703 -0.22999477 -0.14804058 0.22481258 0.19088328
0.15445255 0.09214933 -0.14122474 0.3019292 0.3784679 0.23576905 0.041534096 0.34708306
0.009240199 -0.15663765 0.28231457 -0.06077099

i_resnet_layers.5.bottleneck_block.4.weight_u f4 [2]
00000000: c855 073f 774d 59bf
0.52865267 -0.84883827

i_resnet_layers.5.bottleneck_block.4.weight_v f4 [10]
00000000: 7875 283d fec0 89be 8ada 28bf be41 8dbe
00000010: 43ac 48be 9b7f eebe 8729 0e3e d4a2 953e
00000020: de20 4abe 5d59 003e
0.041127652 -0.26905054 -0.65958464 -0.2758922 -0.19596963 -0.4658173 0.13883029 0.2922579
-0.197391 0.1253409

i_resnet_layers.6.bottleneck_block.0.bias f4 [10]
00000000: bfcc 75be 0536 c5bd e352 f4be 8c48 a7bd
00000010: 84be 99be 5533 e8be 4d7f 7f3e 9f61 ff3e
00000020: 3621 b9be f763 193c
-0.24003886 -0.09629444 -0.47719488 -0.08168134 -0.30028164 -0.45351663 0.24950905 0.49879166
-0.3615815 0.009362212

i_resnet_layers.6.bottleneck_block.0.weight_orig f4 [10, 2]
00000000: d109 c2be 4e32 2f3f 83b3 283f a8dd 5bbe
00000010: 8844 983e 9773 033f 9150 383f 7e0e 3ebe
00000020: 35ac 22bf 1b52 c1be f4fc 72be 6c1c a53d
00000030: 679c 99be 84f3 cf3e 7b79 e2be 1c8a f73e
00000040: 0f70 dabe 16c2 4e3e 8335 dfbe 7837 2cbf
-0.37898114 0.68436134 0.65898913 -0.21471274 0.29739785 0.5134825 0.71997935 -0.18560216
-0.6354402 -0.37757954 -0.23729306 0.08062062 -0.30002138 0.40615475 -0.44233307 0.48347557
-0.4266362 0.20191225 -0.43595514 -0.6727214

i_resnet_layers.6.bottleneck_block.0.weight_u f4 [10]
00000000: 0e06 d23e 46b5 e0be 249a dabc 4375 eebe
00000010: 0e9f 843e 8bbf 223e a0b6 923e 57b2 c73e
00000020: ac88 9a3e dd98 7c3d
0.41020244 -0.438883 -0.026684828 -0.4657384 0.259026 0.1589338 0.28654957 0.3900325
0.30182397 0.06166922

i_resnet_layers.6.bottleneck_block.0.weight_v f4 [2]
00000000: 5ef9 65bf 07ed e03e
-0.8983363 0.43930838

i_resnet_layers.6.bottleneck_block.2.weight_orig f4 [10, 10]
00000000: c593 18be befd 933e 404b 4e3c c10e 803e
00000010: 5190 07be 2390 653d f004 2d3d 8739 9d3e
00000020: f6dc 0c3e 57b9 143d 024b 83bd 0f9e 89be
00000030: fed7 df3d b7eb c5bc 7167 f9bd eba2 af3e
00000040: 9cc6 453c 830c 6e3e 1d38 0dbe af21 8d3e
00000050: d8db 70be 7081 69be b85e 6dbe 7ba6 63be
00000060: 0c69 1d3e 8ca8 87be aaf6 22be 1b7b 91be
00000070: 6ab4 53be 91e1 a13d 4729 05be fc2a d53c
00000080: 4613 db3c 6284 2abd 78cb 93be 6089 063e
00000090: 6d3e f43d 46d7 c33d b4c0 2ebe 399d 173d
000000a0: 1158 06be a819 543e 165f 16be 7893 32be
000000b0: efb6 35be e86d fd3d 9223 1d3d 5e80 44bd
000000c0: 182a 8e3e 1c9e 643d dc04 103c 9e9f 673e
000000d0: cb30 8dbe 0847 8b3e 75be 93bd 3792 c33d
000000e0: eb8e 1bbe 6d13 aabd f25d 0b3e c285 053c
000000f0: a260 aa3e 7f06 cfbc a10d 60be b1ba 0c3e
00000100: 8b85 88be 8d29 493e 1898 993e 0639 05be
00000110: 6439 c93c 88b0 94be fd63 8cbe 6f6b 9f3d
00000120: 96a0 293e e9d0 3abe db3f 853e c6ed 873d
00000130: b6b3 15be 0cee 9e3d fb52 503e 2c0f 3f3e
00000140: c8b1 85be 3f75 c43a 9755 123e b6b2 ac3e
00000150: 39ba b1bd 9acc 9fbb 259b 23be e709 323e
00000160: 62cb 8a3e 6d19 7b3d 9fba 15be 7230 aebe
00000170: 0120 72be dbad 463e 3fc4 8a3d 2087 5f3e
00000180: 9e01 2cbd 3e89 6d3e ba4d 8fbd 8a30 5a3e
-0.1490012 0.28904527 0.012591183 0.25011256 -0.13238646 0.056045663 0.042241037 0.30707952
0.13756165 0.036309566 -0.06410791 -0.26878402 0.10929869 -0.02416025 -0.12177933 0.34303984
0.012071278 0.2324696 -0.13790937 0.2756476 -0.23521364 -0.22803283 -0.23180664 -0.22231476
0.15372103 -0.2649578 -0.15914407 -0.28414235 -0.20674291 0.079043515 -0.13004027 0.026021473
0.026742589 -0.041630156 -0.28866172 0.13138342 0.11925969 0.095625445 -0.17065698 0.037015174
-0.13119532 0.20712912 -0.1468471 -0.17439067 -0.17745565 0.123744786 0.038364 -0.047973983
0.2776649 0.055814847 0.008790221 0.22619483 -0.2757629 0.2720263 -0.07214061 0.09549373
-0.15191238 -0.083044864 0.13610056 0.008149566 0.3327685 -0.025271652 -0.21880199 0.13743092
-0.26664385 0.19644757 0.2999885 -0.13010034 0.024563499 -0.29040933 -0.27420035 0.07784163
0.16565165 -0.18243755 0.2602528 0.066371486 -0.14619336 0.077602476 0.20344155 0.18658131
-0.261122 0.0014988555 0.14290462 0.33730096 -0.08678097 -0.0048766853 -0.15977152 0.1738659
0.27108294 0.061303545 -0.14621972 -0.34021336 -0.23645021 0.19402258 0.06775712 0.2182889
-0.04199373 0.23196885 -0.06997247 0.21307579

i_resnet_layers.6.bottleneck_block.2.weight_u f4 [10]
00000000: 2489 023f 72f8 353e 8dc7 17bf fa6f 2a3e
00000010: ee06 353e 5417 8a3e 3941 5c3e 6be8 26bd
00000020: 3cde c93e ed46 173e
0.5099051 0.17770556 -0.59288865 0.16644278 0.17678425 0.26970923 0.21509255 -0.040748995
0.39427364 0.1477315

i_resnet_layers.6.bottleneck_block.2.weight_v f4 [10]
00000000: ef0f 0ebd 535c 963e 7579 163d f726 043f
00000010: d799 c8be 2e7e d03e deed e13d 958e e43e
00000020: 444f ac3e a0fd d63c
-0.034683164 0.29367313 0.036736924 0.51621956 -0.3917987 0.40721267 0.11031698 0.4464003
0.33654225 0.026243985

i_resnet_layers.6.bottleneck_block.4.weight_orig f4 [2, 10]
00000000: c3d6 63be 9ada 813e fa1f 593e 918e bbbd
00000010: 37af d8bd 2689 c9bd 12d8 9abe 2357 313e
00000020: 36ac 7fbe 9165 663d 82b4 7a3e c8e4 14be
00000030: e52b b1be 2f0c a7be 265f 143e d312 5d3e
00000040: 322c 87bd 4e77 a43e f177 cd3d 90e9 a53e
-0.22249894 0.25362092 0.21203604 -0.09158052 -0.105802946 -0.09840612 -0.30242974 0.17318396
-0.24968037 0.056249205 0.24482921 -0.14540398 -0.346038 -0.32626483 0.14489421 0.21589212
-0.066002265 0.32122272 0.10032643 0.32404757

i_resnet_layers.6.bottleneck_block.4.weight_u f4 [2]
00000000: e8fd b9be f582 6e3f
-0.36326528 0.93168575

i_resnet_layers.6.bottleneck_block.4.weight_v f4 [10]
00000000: e003 c63e aff4 91be d5f3 ffbe daa9 adbe
00000010: 22a5 5e3e 6ae7 973e 4db3 773d 8a9c 973e
00000020: 1423 6c3e 8a93 b43e
0.3867483 -0.2850699 -0.49990717 -0.3391865 0.2174268 0.29668742 0.06047373 0.29611617
0.23060256 0.35268813

i_resnet_layers.7.bottleneck_block.0.bias f4 [10]
00000000: e0c2 1e3f cc99 ab3e 5a36 59bd 5c61 ca3e
00000010: c019 d9be 5e9f 98be 0a7a 05be 1613 e9be
00000020: 73a9 933d 6e61 0cbf
0.62016106 0.33515775 -0.05303035 0.39527404 -0.42402458 -0.29809088 -0.13034835 -0.45522374
0.07210054 -0.54836166

i_resnet_layers.7.bottleneck_block.0.weight_orig f4 [10, 2]
00000000: 520c 0ebf 4ba9 853e 11cf c9be 02f6 f7be
00000010: fb6a 553e 8bec 0fbf 4b32 ee3e 7be3 0abe
00000020: afe3 853e 8b9f 06bf fc55 99be eab2 da3d
00000030: f1b5 5ebe 1fb5 71be 1fd7 463e 9fa1 c73e
00000040: b409 f4be 6e64 c83e 9d73 f73e 9f91 eabe
-0.5548755 0.26105723 -0.39415792 -0.48429877 0.20841591 -0.5622031 0.46522745 -0.1356334
0.2615027 -0.52587193 -0.29948413 0.106786564 -0.21749093 -0.23604248 0.19418 0.38990495
-0.47663653 0.39139122 0.48330393 -0.45814225

i_resnet_layers.7.bottleneck_block.0.weight_u f4 [10]
00000000: 792e ccbe 20a0 6a3d 0d90 c53e 1181 953e
00000010: 0604 c93e bdbb 4abe 3d72 813c cdcc d7bd
00000020: 3ffb dabe 38e8 ed3e
-0.39879206 0.057281613 0.38586465 0.29200032 0.39260882 -0.19798179 0.015801543 -0.105371095
-0.4276981 0.4646623

i_resnet_layers.7.bottleneck_block.0.weight_v f4 [2]
00000000: 81a2 2f3f 8f3f 3abf
0.68607336 -0.7275323

i_resnet_layers.7.bottleneck_block.2.weight_orig f4 [10, 10]
00000000: 7287 563e b0fc 88be 42bb 0f3e f947 20bd
00000010: 4a7c 0f3c 0f99 91be 411b 20be 0350 21be
00000020: 5cc9 8abd 6614 923e 2eee 093e 6c72 57be
00000030: 41db 6bbe 1efd d6be bbe7 56bd 1b3b 6d3d
00000040: e563 873d 20f6 c23d e432 9c3c 4028 edbc
00000050: e98e 093e 8f1c 203e 96c3 113e bcf4 91be
00000060: 7200 9c3e a7a1 133e 44e0 da3d b1d8 3bbe
00000070: 6045 bd3d dd31 51bd e337 453e d8f8 13be
00000080: 3ff7 2abe 534a a23c 7e82 89bd de2c 9c3e
00000090: c912 863e 4d49 fc3c 234b 233e 2bbe 893e
000000a0: ed2e 8b3e 7469 39be 7264 20be 0733 1b3e
000000b0: 0140 a7be 00df 34be 4fcb 393e 76d6 0cbe
000000c0: 1dda 4c3e 4c53 8cbe a482 b3bd c86a 29be
000000d0: 986f 2abe 02f0 513e de2e 4c3e b6e5 33ba
000000e0: 71e5 a6be 69c7 a5be 95df 863e 2ed0 303e
000000f0: 3afd 35bd 9149 5cbe 8011 0fbe 7825 98bc
00000100: 111b 67be deef ef3d acff ed3c b2af 83bc
00000110: d818 02bd afd7 85be 96d6 68bd d61c bbbd
00000120: 0fee d2bc acf5 00be cdfe 9bbd f029 173e
00000130: b461 c9bd b322 43be c85c 683e 88d5 4bbe
00000140: 6845 913d 172a b1be c8c2 633d 98eb 96bd
00000150: 11e1 6c3e bf9a a53d e0c1 263e c2a6 873e
00000160: 30f8 033e 3b89 6f3d 5a5a 873e c664 993d
00000170: 73ea cf3d 054a 08be f10c 6e3c f80a 893e
00000180: 9e6c c93d c0e0 aabd 2103 1ebe 40e0 7d3e
0.20950106 -0.26755285 0.14036277 -0.03913114 0.00875766 -0.28437087 -0.15635397 -0.15753178
-0.067766875 0.28531188 0.13469765 -0.21039742 -0.23032857 -0.41989988 -0.05246709 0.057917695
0.0661085 0.09519601 0.019067235 -0.028949857 0.13433422 0.15635894 0.14234766 -0.2850703
0.3046909 0.14417134 0.106873065 -0.1834438 0.09241748 -0.051072944 0.192596 -0.14450395
-0.1669588 0.019810831 -0.067143425 0.3050298 0.26186207 0.030796671 0.15946631 0.269029
0.2718424 -0.18106633 -0.15663317 0.15156184 -0.3266602 -0.17663193 0.18143962 -0.13753685
0.20005079 -0.274073 -0.08765152 -0.1654464 -0.16644132 0.20501712 0.19939753 -0.00068625377
-0.32596925 -0.323787 0.26342455 0.17266914 -0.04443095 -0.21512438 -0.1397152 -0.018572554
-0.22568919 0.11715673 0.029052578 -0.016074989 -0.031761974 -0.26141116 -0.05684527 -0.091363594
-0.02574828 -0.12593716 -0.07616959 0.14762092 -0.098330885 -0.19056205 0.22691643 -0.19905674
0.07093316 -0.34602425 0.05560568 -0.07369155 0.23132731 0.08086156 0.16284895 0.26494414
0.12887645 0.058480483 0.2643612 0.07489924 0.101521395 -0.13309486 0.014529453 0.2676618
0.0983517 -0.08343649 -0.15430881 0.24792576

i_resnet_layers.7.bottleneck_block.2.weight_u f4 [10]
00000000: ae52 833d e975 00bf b13c 5bbe af6d 06bf
00000010: ffa3 1cbe 6254 a53e a181 1bbe fcd0 5bbd
00000020: c3ef c9be 105e acbe
0.06412254 -0.50179917 -0.2140987 -0.52511114 -0.15296935 0.3229094 -0.15186168 -0.0536661
-0.39440736 -0.33665514

i_resnet_layers.7.bottleneck_block.2.weight_v f4 [10]
00000000: b716 dabe f455 993e 18e0 0e3e 27c2 e83e
00000010: c39b 803d 5238 d9be 90ef 02bf f7f5 5bbe
00000020: 4c06 a7bd 6ff5 87bd
-0.42595455 0.2994839 0.13952672 0.45460626 0.06279709 -0.4242578 -0.51146793 -0.21480547
-0.08155498 -0.066386096

i_resnet_layers.7.bottleneck_block.4.weight_orig f4 [2, 10]
00000000: 74f6 bfbd e92a 2abe f21f c1bd 09e4 7b3e
00000010: e41e 9ebe aa17 9a3e a188 ebbd 09ba 24bc
00000020: a899 bf3d 3ee5 cbbd 556f a4bd 8322 f4bc
00000030: 3f8f e53e 4856 803e 1a3f 263c 4b9d 81be
00000040: 7a74 4d3e dc1d 1abe ace0 5dbe b221 0c3e
-0.09373179 -0.16617931 -0.09429921 0.24598707 -0.30882943 0.3009618 -0.11500669 -0.01005412
0.093554795 -0.09955834 -0.080290474 -0.029801613 0.4483585 0.25065827 0.0101468805 -0.25315318
0.20063964 -0.15050453 -0.21667737 0.13684729

i_resnet_layers.7.bottleneck_block.4.weight_u f4 [2]
00000000: e30f efbe 8761 623f
-0.46691808 0.88430065

i_resnet_layers.7.bottleneck_block.4.weight_v f4 [10]
00000000: 8b56 1abd cc70 913d 35a5 1c3f bbd7 173e
00000010: dcbd 593e 6f85 01bf be54 a43e b1cd 36be
00000020: ba6c a7be c83b 6e3e
-0.03768019 0.071015924 0.61189586 0.14828388 0.21263832 -0.5059423 0.32095903 -0.17851903
-0.3270014 0.23264992

i_resnet_layers.8.bottleneck_block.0.bias f4 [10]
00000000: e466 2f3e e394 b0bd 39cd 85be 237f e23d
00000010: cd39 32bf 9b68 ecbb ed20 43bd 1efc ff3d
00000020: c97f 373d 872f 853e
0.17129093 -0.08622148 -0.26133135 0.11059406 -0.69619447 -0.0072146184 -0.047638822 0.124992594
0.0447996 0.26012823

i_resnet_layers.8.bottleneck_block.0.weight_orig f4 [10, 2]
00000000: 97ff 283e 41f2 b43e cf0e 9f3e 743d 113f
00000010: 9ed2 8dbe 0c3b 923e c8f0 51bf f836 c33e
00000020: fcd1 d53d 3caf 9cbe b8cf d13e ba1d b4be
00000030: 275b 063f 498f 23be 5f09 e33e 1b60 973d
00000040: 2ff3 eabe 0093 423e 60d1 563e dcba 333f
0.1650375 0.35341075 0.31065986 0.56734395 -0.2769975 0.28560674 -0.8200803 0.38127875
0.10440442 -0.30602443 0.4097879 -0.3517893 0.5248284 -0.15972628 0.44343087 0.073913775
-0.4588866 0.19001389 0.20978308 0.70207

i_resnet_layers.8.bottleneck_block.0.weight_u f4 [10]
00000000: a8fb 023d 55f3 c03c 0683 8c3e 6467 233f
00000010: f2b6 35be 8433 c2be c83a c1be bec4 76be
00000020: a588 b23e ef41 0a3e
0.03197828 0.02355353 0.27443713 0.63829637 -0.1774557 -0.37929928 -0.3774016 -0.24098489
0.34869877 0.13501714

i_resnet_layers.8.bottleneck_block.0.weight_v f4 [2]
00000000: 33ef 59bf ba50 063f
-0.85130614 0.5246693

i_resnet_layers.8.bottleneck_block.2.weight_orig f4 [10, 10]
00000000: 7c70 59be 839e e1be f099 18be f6e5 303e
00000010: 4342 83be 773d 273e c85c ccbd 4c59 28be
00000020: 7ebe 84be 9b47 6abe 4501 753e af47 6bbe
00000030: 10f7 0ebc 4053 e5bd 4c15 bfbe 3091 8e3e
00000040: c3c4 25be 5234 9cbd a412 66be e80c 1c3e
00000050: 88bf e6bc 8523 a5be 5eaf 96be 82c5 2ebe
00000060: 1886 353e 2a78 8cbe a058 3abe 25f8 8d3d
00000070: 9b6c c83d c45f 183e 8bd0 d8ba c637 733e
00000080: 488b 4b3e 2214 aabe fe9d 9e3c ea0f 9c3e
00000090: b5ac 743e a7c9 ce3d bb23 b5bd 11fd 603e
000000a0: 17e7 4cbd 0817 e6bd 11bf 55bd 4edc 5e3e
000000b0: 1ee9 d23c e5a6 f0bb a525 0fbe 2595 e03d
000000c0: 6b32 8c3e 40fe a03d fd15 82be e15f 073e
000000d0: e909 87be 7751 53be 62eb 683e 019b e73d
000000e0: 87bd c1bd ced1 943e 0c42 6ebe 929f 543e
000000f0: cff1 93be 6d40 223e f06e 71be 36f0 873e
00000100: 5001 393e 72c9 2abe 33ce 86be bc7f 9b3b
00000110: a05f 34be 0390 943e a20b 4d3e e7c1 823e
00000120: 0b52 8bbe 5de6 593e 76f7 4ebe 353c f93d
00000130: 842e 3fbe a715 b63e e978 653e d7c8 36be
00000140: e861 633d 8f17 d4bd 7541 643e 5b22 94be
00000150: f9c7 ab3d 8e47 3e3e 3a46 1b3c fcd7 913e
00000160: 96fa 79be 0b99 143e dcc9 4b3d 43ab fd3d
00000170: fb14 923e 0965 6f3e 25bb 61be 1267 88be
00000180: 1598 8fbe 7dd5 a9bc 2881 b73b 7dd4 48be
-0.21234316 -0.44066247 -0.14902472 0.17275223 -0.2563649 0.1633204 -0.09978634 -0.16440314
-0.25926584 -0.22878878 0.23926266 -0.22976564 -0.0087258965 -0.11197519 -0.37320936 0.27845144
-0.1618834 -0.07627167 -0.22468048 0.15239298 -0.028167501 -0.32253662 -0.2943067 -0.17067531
0.17726934 -0.27435428 -0.1819787 0.069320954 0.0978634 0.14880282 -0.0016541643 0.23751745
0.1987735 -0.33218485 0.019362446 0.3048089 0.23894008 0.10097056 -0.08844706 0.21971537
-0.050025072 -0.112348616 -0.05218417 0.21763727 0.025745925 -0.007344114 -0.13979204 0.10965947
0.27382216 0.07860994 -0.254074 0.13220169 -0.26374748 -0.20636545 0.22746041 0.113088615
-0.094599776 0.29066318 -0.23267382 0.20763996 -0.28895423 0.15844889 -0.23577476 0.26550454
0.18066907 -0.16678408 -0.26329193 0.0047454517 -0.17614603 0.29016122 0.20023969 0.2553856
-0.2721103 0.21279283 -0.20211586 0.12169687 -0.18670088 0.35563394 0.22409405 -0.17850052
0.055513293 -0.10356056 0.22290595 -0.2893246 0.08387751 0.18581983 0.009477193 0.28485096
-0.24411997 0.14511506 0.049753055 0.12386181 0.28531632 0.23378386 -0.22044046 -0.26641136
-0.28045717 -0.020731682 0.0056001134 -0.19612308

i_resnet_layers.8.bottleneck_block.2.weight_u f4 [10]
00000000: f8cf 7e3e c5c5 c2bd 2004 3e3d 432b 0fbf
00000010: 6e66 5a3e c5f0 b9be 1e66 dd3d 9abf 853e
00000020: 9e92 e7be 96c6 c73e
0.24884021 -0.09510378 0.046390653 -0.5592539 0.21328136 -0.36316505 0.10810493 0.26122743
-0.45229048 0.39018697

i_resnet_layers.8.bottleneck_block.2.weight_v f4 [10]
00000000: 2834 a43c e745 f9bd dae3 1dbe d3ed 1f3f
00000010: 28c2 80be be5a bbbe 8ef1 a3be 7178 4ebe
00000020: ff68 943e b1e3 c3be
0.020044401 -0.12171536 -0.1541895 0.62472266 -0.2514813 -0.36592668 -0.3202023 -0.20163132
0.28986356 -0.38259652

i_resnet_layers.8.bottleneck_block.4.weight_orig f4 [2, 10]
00000000: 5f1d 933e 5b80 25bc 7a37 113e f874 c3be
00000010: abce 123d 327f abbe bfcd 043e cb61 0a3e
00000020: 83c5 d4be 6f8d f73d 1090 8fbd 3ac5 163e
00000030: a1a0 1e3e 07b1 753e d5e4 8ebe 7a06 10bd
00000040: 59f8 d63d 63d9 8dbe 7913 87bd 9356 aabe
0.28733346 -0.010101403 0.14181319 -0.38175178 0.035841625 -0.3349548 0.12969111 0.13513868
-0.4155694 0.12087523 -0.070098996 0.14723673 0.15490963 0.23993312 -0.2790896 -0.035162427
0.10496587 -0.27704915 -0.06595511 -0.33269176

i_resnet_layers.8.bottleneck_block.4.weight_u f4 [2]
00000000: efa4 653f 1445 e2be
0.89704794 -0.44193327

i_resnet_layers.8.bottleneck_block.4.weight_v f4 [10]
00000000: f2df b73e bc56 bdbd 06bd 953d 71c9 0ebf
00000010: 0bea 453e bc6a b5be 9e07 b23d e94a 9b3e
00000020: 23d2 dabe 12a7 a23e
0.35913044 -0.09245059 0.07311444 -0.55776125 0.19327562 -0.35432994 0.08692859 0.3033059
-0.42738447 0.3176809

i_resnet_layers.9.bottleneck_block.0.bias f4 [10]
00000000: 2a71 b53e 63b5 183f fbef 173f 85ca d53e
00000010: 26cd 2a3f db06 5d3e 0d17 223f ca86 9bbe
00000020: c8f4 243e 2741 7d3e
0.354379 0.59651774 0.59350556 0.41756073 0.6671928 0.21584646 0.6331642 -0.30376273
0.16109002 0.24731885

i_resnet_layers.9.bottleneck_block.0.weight_orig f4 [10, 2]
00000000: 5d09 db3e 4042 ea3e ebbe a23e 4d6f ae3e
00000010: e2f4 df3e 3d6e 343f a316 d33e f27a 82be
00000020: 2030 2dbf b6ec ed3e 91d7 7b3e 46a9 c5be
00000030: 3af6 c3be 7685 a83d 1c3e 4f3e a767 be3e
00000040: 3f55 a8bc 70e6 6e3f 5d59 0a3f 0e00 7b3e
0.4278058 0.4575367 0.31786284 0.3406929 0.43741518 0.7048071 0.41228208 -0.25484425
-0.6765156 0.4646966 0.24593951 -0.38605708 -0.38273793 0.08228581 0.20238537 0.37188455
-0.020548461 0.9332037 0.5404261 0.2451174

i_resnet_layers.9.bottleneck_block.0.weight_u f4 [10]
00000000: 1194 bbbe c29e 8bbe e6f8 04bf a89a 933d
00000010: f50e 16be b07e 3e3e bd1d e03c 3559 89be
00000020: 02e2 10bf 64da 84be
-0.36636403 -0.2726956 -0.5194229 0.07207233 -0.14654143 0.18603015 0.02735793 -0.26825872
-0.5659486 -0.2594787

i_resnet_layers.9.bottleneck_block.0.weight_v f4 [2]
00000000: 845e a1be e2f3 72bf
-0.31517422 -0.94903386

i_resnet_layers.9.bottleneck_block.2.weight_orig f4 [10, 10]
00000000: f408 90bc 7b1f c03e 85aa 313e c72b 9c3c
00000010: ea4c 22bd 07ae 85bd 8533 88be 9ea5 d8bc
00000020: 785f 8cbd e9e0 18be 515a 4cbe 30bd a33d
00000030: 3066 33be 6fc9 903e c1c5 a5be 1997 d7bd
00000040: da9d 383e 08d8 9ebe 7417 fbbe e31e 3b3d
00000050: f835 db3d 6e30 363e eecb b83d 22fc 763e
00000060: b1b4 543e 396e 8d3e 5a43 d73d 6c32 35be
00000070: 1ef1 183e ad78 52be 9263 0fbe 2596 873e
00000080: 481f 8b3e 3daa c23d 822a 22be edfc 3f3e
00000090: 9738 20be ad2b babd 773e c4bd 5730 603e
000000a0: 29ae 60be 4e78 8bbd 4f34 c3be 13c8 4f3e
000000b0: a86f d8bb 9529 043e f98e 69be 8e0b c2bb
000000c0: 9395 3f3e 581c 56be bbf2 82bd f1e2 1fbb
000000d0: 181f 16be 7d34 ad3c 8cb6 a7be 7021 563e
000000e0: 017d ce3d 0e97 76bd d8cb 5dbe ac44 5d3d
000000f0: 82ff 99be 96c6 2dbe 9f19 12be 9b03 09be
00000100: 7b31 503e 10bd 023e 3af1 8e3d 82dc a2be
00000110: a844 e43d d88b 59be 4187 9e3d 4131 ab3c
00000120: b972 663e dc0a e93d 3588 813e 352a 05be
00000130: 603c a7bb de73 cdbd 53ed 27be d2bf d13d
00000140: 24f7 5e3e adc1 46bb a76c 8ebd e584 c93d
00000150: 2874 573c 3651 f53d 382a c43c 9ea9 e9bd
00000160: f140 8e3e fe8e 1abe d74c 7f3e f41e 833d
00000170: 2c7a 9d3e d207 5c3e 87fb 76be 491a 333e
00000180: 8cf4 86bd 7eb2 173e fca6 4a3e 2104 313e
-0.017582394 0.37524018 0.17350204 0.019063843 -0.039624132 -0.06527334 -0.26601806 -0.02644616
-0.06854147 -0.14929546 -0.19956328 0.07995069 -0.1751945 0.28278682 -0.32377437 -0.105268665
0.18028966 -0.31024194 -0.4904133 0.045683753 0.10703653 0.17791912 0.090232715 0.24119619
0.20772053 0.27623156 0.10510893 -0.17695016 0.14935729 -0.20553847 -0.14002827 0.2648174
0.27172303 0.095051266 -0.15836528 0.18748827 -0.15646587 -0.09090362 -0.09582227 0.2189344
-0.21941437 -0.06810056 -0.38125846 0.20291166 -0.0066051073 0.12906487 -0.22808446 -0.0059217876
0.18709402 -0.2090925 -0.063939534 -0.0024396742 -0.14660299 0.021143192 -0.3275646 0.20911193
0.10082436 -0.06020265 -0.21659791 0.05402057 -0.3007775 -0.16970286 -0.14267586 -0.13380282
0.20331375 0.12767434 0.06979604 -0.3180886 0.11145908 -0.21244752 0.077406414 0.02089751
0.225047 0.113790244 0.2529923 -0.13004382 -0.005103633 -0.100318655 -0.16399126 0.10241665
0.21773964 -0.0030327842 -0.069543175 0.09839801 0.013150252 0.119783804 0.023945913 -0.11409305
0.2778392 -0.1509361 0.24931656 0.06402388 0.30757272 0.21487358 -0.24119388 0.17490496
-0.06589612 0.14814183 0.19790262 0.17286731

i_resnet_layers.9.bottleneck_block.2.weight_u f4 [10]
00000000: 5985 2d3e 35bb 1a3f c479 3ebe d15a cb3e
00000010: 7b05 93be d082 993e b0d9 b7be 367c e63d
00000020: 207b 88be a02b 2d3e
0.169454 0.60441905 -0.18601137 0.39717725 -0.2871512 0.29982615 -0.3590827 0.1125416
-0.26656437 0.16911173

i_resnet_layers.9.bottleneck_block.2.weight_v f4 [10]
00000000: 021f 6cbd 3f16 963e caae 753e 8d01 493e
00000010: a324 04bf ac27 c0bd bb87 153d 73c8 64bd
00000020: 52c9 1fbf ce35 c33e
-0.05764676 0.29313847 0.23992458 0.19629498 -0.51618403 -0.09382567 0.036506396 -0.055855226
-0.62416565 0.38126987

i_resnet_layers.9.bottleneck_block.4.weight_orig f4 [2, 10]
00000000: 27a6 9e3d 3596 df3e 7ab8 643e d064 163e
00000010: 56aa f0bd cda4 813e 3afb a43d 410a a6be
00000020: fec9 29be df30 23be b666 7ebe a4de 9e3d
00000030: 9cd7 ddb9 80d6 79be 71ee c13e 38e7 743d
00000040: 08a9 c53e 2831 e73d 0499 f8bd b34e d7be
0.07746535 0.43669286 0.22335997 0.14686894 -0.11751239 0.25321046 0.0805573 -0.32429698
-0.1658096 -0.15936612 -0.24843869 0.07757309 -0.00042313046 -0.24398232 0.3787723 0.05979082
0.38605523 0.11288673 -0.121385604 -0.4205223

i_resnet_layers.9.bottleneck_block.4.weight_u f4 [2]
00000000: 977c 773e 2769 783f
0.24168621 0.9703545

i_resnet_layers.9.bottleneck_block.4.weight_v f4 [10]
00000000: 28ca 8ebe d64c 683e 0c87 893d 5e4c 81be
00000010: c2de d93e 012b 193e 1817 fd3e 5010 203d
00000020: 21dc 4abe 0f6e 0fbf
-0.27888608 0.2268556 0.06715211 -0.25253576 0.42552763 0.14957811 0.49431682 0.039078057
-0.19810535 -0.5602731

i_resnet_layers.10.bottleneck_block.0.bias f4 [10]
00000000: f087 183f 7dd7 b33d 173d 85be 7cf0 bebe
00000010: 4a58 4e3d 1fbf 493f 8d0b 013f 6bad 2c3f
00000020: 67b1 07bf 9b4d 81be
0.59582424 0.087813355 -0.2602317 -0.3729285 0.050377168 0.7880725 0.5040825 0.67452115
-0.5300507 -0.2525452

i_resnet_layers.10.bottleneck_block.0.weight_orig f4 [10, 2]
00000000: a12f 0c3f faff 883d 6673 67be fdfb a5be
00000010: 1108 5abe f894 20bf e9a9 12bd 67e7 08bf
00000020: 9004 03bb bdf9 b1bd de0b 203f e288 09bf
00000030: d23c 23bf 0eee eebe 40c4 6abe 75be 7b3e
00000040: 1722 b13e 5843 05bf f88b fb3e 006a 1abc
0.54760176 0.06689449 -0.22602615 -0.32418814 -0.2129214 -0.6272731 -0.03580657 -0.5347809
-0.0019991733 -0.08690212 0.6251811 -0.5372449 -0.6376468 -0.46665996 -0.22926426 0.24584372
0.3459632 -0.52055883 0.49130225 -0.009424686

i_resnet_layers.10.bottleneck_block.0.weight_u f4 [10]
00000000: d8c9 10be 4115 19be eb86 bbbe 0085 b9be
00000010: b8c6 76bd 9650 17bf 99c8 dcbd 4d80 803e
00000020: 0c93 f7be c1b0 33be
-0.14139497 -0.14949514 -0.36626372 -0.36234283 -0.060248107 -0.5910734 -0.107804485 0.25097886
-0.48354375 -0.17547895

i_resnet_layers.10.bottleneck_block.0.weight_v f4 [2]
00000000: b374 e1be 26d8 653f
-0.44034347 0.8978294
