experiments/models/spiral/i_resnet_euclidean_product_20_blocks_10_epochs_2024_02_11_14_31_05.pt (torch, 134850 bytes, 200 tensors)

i_resnet_layers.0.bottleneck_block.0.bias f4 [10]
000000 0e a5 d1 3d 81 22 a6 3d bd fc 11 3e ce 2b 9a 3d
       0.1023656 0.0811205 0.14256568 0.07527886
000010 b0 26 c0 be 71 95 52 bf ae b1 1e bf ed 4d 3d 3d
       -0.37529516 -0.8225928 -0.6198987 0.046216894
000020 c6 ce 9b be 23 f0 92 3e
       -0.30431193 0.28698835

i_resnet_layers.0.bottleneck_block.0.weight_orig f4 [10, 2]
000000 c0 2a d8 3e ed 1f ca 3e 21 b7 77 3e 5d 1b b5 be
       0.42220116 0.39477482 0.24190952 -0.3537244
000010 ab c7 14 3f 2a 48 b0 be 09 ad 11 bf 13 a8 e0 be
       0.5811717 -0.34430057 -0.56904656 -0.4387823
000020 3e ce d0 bd 76 46 fb bd c2 7a 05 bd 2f bc 20 3e
       -0.101955876 -0.12269299 -0.032587774 0.15696786
000030 dd ef c8 be cf bb ea 3e 44 a4 dc 3c 56 c6 e6 be
       -0.392455 0.45846412 0.026933797 -0.45073193
000040 08 eb 84 3e 72 e9 b8 be 30 e6 27 bf 84 07 11 bf
       0.25960565 -0.36115605 -0.65585613 -0.5665209

i_resnet_layers.0.bottleneck_block.0.weight_u f4 [10]
000000 27 36 df be 8c 8c 16 3d fd e5 25 be 00 a0 0a 3f
       -0.43596002 0.03675513 -0.16201015 0.5415039
000010 1e f2 f2 3d 4d 9c 71 bd 11 67 e5 ba 11 20 54 3e
       0.118625864 -0.05898695 -0.001750203 0.20715357
000020 03 c8 f5 3c 16 6e 27 3f
       0.0300026 0.6540235

i_resnet_layers.0.bottleneck_block.0.weight_v f4 [2]
000000 3b b1 41 bf c0 63 27 bf
       -0.7566106 -0.6538658

i_resnet_layers.0.bottleneck_block.2.weight_orig f4 [10, 10]
000000 cd 5c 10 3b d1 60 ed bc 8b ee 9c 3c 22 f8 0e 3e
       0.002202797 -0.02897683 0.019156715 0.13961843
000010 20 0c a1 ba b0 91 6f be 68 3b 72 3e d0 dc f9 3d
       -0.0012286939 -0.23395419 0.23655474 0.1220032
000020 22 08 0f 3e 08 fd 32 3e ac 12 82 3e 92 e4 6b 3d
       0.13967946 0.17479336 0.2540487 0.05759103
000030 d7 e1 bb 3d ca 81 c6 be 1e e5 97 bd c7 63 7a be
       0.09173935 -0.38770896 -0.074167475 -0.24452125
000040 f3 61 a6 3d b2 ea 27 be 28 15 83 bc 6c f1 97 be
       0.08124151 -0.16398123 -0.016001299 -0.29676378
000050 d6 d4 1f 3e fc de 37 be e3 25 82 bd bd 07 00 bc
       0.15608534 -0.17956156 -0.063548826 -0.007814345
000060 cb 6f 39 3d 52 09 64 3d 75 2f 77 3e 8b 5e e7 bd
       0.04527263 0.05567295 0.24139197 -0.112973295
000070 da 84 81 be d2 a7 4c 3d 24 77 1d 3e 92 24 4a bd
       -0.2529667 0.049964733 0.1537748 -0.049351282
000080 9c 09 93 be 9f 9c 11 bc 59 e3 7a 3e ec 62 2c be
       -0.2871827 -0.008887439 0.24500789 -0.1683461
000090 34 6c 91 3b 5e f2 90 3e 77 58 1a 3e 75 2e 9b be
       0.0044379476 0.2830991 0.15072809 -0.3030888
0000a0 9f ec 80 3b 3b 03 c1 3d a8 37 fa 3d e1 2b b3 be
       0.0039344574 0.09424444 0.12217647 -0.34994414
0000b0 59 ed 5b bd ea cd eb bd 19 8e b2 3d 19 ab 8e bd
       -0.05369315 -0.11513884 0.08718509 -0.06966228
0000c0 8a 09 73 3e a6 17 bf be 18 5c 42 bd 6d cd 7d 3d
       0.23734108 -0.3732273 -0.04745111 0.061963487
0000d0 d2 38 00 3e 85 12 31 3c a3 65 5a be cc 18 9a bd
       0.12521675 0.010807638 -0.21327834 -0.07524261
0000e0 e1 b2 e6 3c 13 5e 63 bd c6 a3 4b be 60 18 c3 3d
       0.028161468 -0.055509638 -0.19886693 0.095261335
0000f0 e7 b1 29 3e 98 0e 29 be 16 ec 6e be d4 78 e0 3d
       0.1657177 -0.16509473 -0.23332247 0.10960546
000100 8f 2b 82 3e ac 41 d9 3c bf a2 84 be 4c 9c 8b 3c
       0.25423858 0.026520573 -0.25905415 0.017042302
000110 a4 6b 4a 3c eb 93 75 3d d0 b2 d3 3d 61 78 d3 3c
       0.012354765 0.05995552 0.1033684 0.025814237
000120 38 c2 79 be 9b ff f5 bc ed f8 fb bd 3d 6a eb bc
       -0.24390495 -0.030029109 -0.12303338 -0.028737182
000130 d6 ae 83 bd 0a ae 20 3e 0c b3 28 be f1 bf ab be
       -0.06429832 0.1569139 -0.16474551 -0.33544877
000140 39 20 8f be 7e 90 80 3e 11 0e 3e be 7d 37 cf 3d
       -0.2795427 0.2511024 -0.18560053 0.101180054
000150 da 58 df 3d 1b 74 93 be 8c 8c 27 3e 37 00 91 3d
       0.10905619 -0.2879952 0.16362208 0.07080119
000160 f5 fc e7 3d f9 1d 49 3e a2 33 90 3e b2 da 88 bd
       0.113275446 0.1964034 0.28164393 -0.06682338
000170 2e 80 81 3d b0 98 44 bd f0 c2 a9 bd 58 a9 43 3e
       0.063232765 -0.047997177 -0.082891345 0.19107568
000180 5d dd 6d be 09 c0 1a be bc 74 75 3e ba 81 58 3d
       -0.23228975 -0.15112318 0.23970312 0.052858092

i_resnet_layers.0.bottleneck_block.2.weight_u f4 [10]
000000 85 ca 40 3e af 05 1d bf bc 59 b0 3c f3 cb 88 be
       0.18827255 -0.613368 0.021527164 -0.267181
000010 ba 21 0f bf c2 cd 9e 3d 5c 52 b1 3d 03 a8 92 be
       -0.5591084 0.07754089 0.08658287 -0.28643808
000020 d7 58 99 3e f7 bc 0b be
       0.29950592 -0.13646303

i_resnet_layers.0.bottleneck_block.2.weight_v f4 [10]
000000 59 ed b8 be 45 e8 91 bc e3 8a 5d bd 7d 53 0e 3f
       -0.36118582 -0.01781095 -0.05408753 0.55596143
000010 20 47 d2 3d 66 2d ef 3d 6a df fa 3c 1f 2e ad 3d
       0.10267472 0.11678581 0.03062411 0.084560625
000020 3a 1a ee bd 51 13 37 3f
       -0.11626096 0.7151385

i_resnet_layers.0.bottleneck_block.4.weight_orig f4 [2, 10]
000000 b3 39 aa 3d 07 4e 89 be 6c 5e de 3d eb 68 cd be
       0.083117865 -0.26817343 0.10857853 -0.4011911
000010 2d b1 ae be 86 3c f9 bd 4d e5 32 be b7 0b 95 be
       -0.3411955 -0.12169747 -0.17470284 -0.291105
000020 ab a0 70 3e ff 09 e9 bd 4b 7e 46 be 6e fa 82 be
       0.2349879 -0.1137886 -0.19384114 -0.25581688
000030 f1 7d 31 be 44 3d ae 3d a1 a3 f9 bc 7b df 90 3e
       -0.17333199 0.08507779 -0.030473532 0.28295502
000040 ad 7f 9b be 7e c4 81 bd 28 09 02 be 1f da 4b be
       -0.30370846 -0.06336306 -0.12698805 -0.19907425

i_resnet_layers.0.bottleneck_block.4.weight_u f4 [2]
000000 b2 0c 7b bf 77 67 48 be
       -0.98066247 -0.19570719

i_resnet_layers.0.bottleneck_block.4.weight_v f4 [10]
000000 38 f5 6b bd 35 86 d3 3e fb cc c3 bd a4 9c fe 3e
       -0.057606906 0.4131333 -0.09560581 0.49728882
000010 5e 1c e6 3e d0 d8 ac 3d 9e d6 9b 3e 31 56 c9 3e
       0.44943517 0.08439791 0.30437177 0.3932357
000020 05 fd 8a be ca 78 4b 3e
       -0.27146164 0.19870296

i_resnet_layers.1.bottleneck_block.0.bias f4 [10]
000000 0e 14 2d 3f ae 07 9b 3d 1d cf a4 3e 74 b5 35 bf
       0.67608726 0.07569824 0.32189265 -0.7098
000010 43 fd 76 bc 4c c3 bd 3e ce e1 96 3d 1c 94 3a 3f
       -0.015075031 0.37063062 0.073672876 0.72882247
000020 7b 2c 20 bf 56 e9 16 3e
       -0.6256787 0.14737448

i_resnet_layers.1.bottleneck_block.0.weight_orig f4 [10, 2]
000000 87 e8 51 3e 32 53 9c be 3e 6d 02 3f 49 83 00 3f
       0.20498858 -0.30532223 0.5094794 0.50200325
000010 56 00 3c be 17 50 29 bc d7 f7 95 be 8b 17 18 3d
       -0.18359503 -0.010334036 -0.2929065 0.037131827
000020 a9 ff c1 3e 38 5d 02 3e 05 2a b9 bc c1 c7 6a 3e
       0.37890366 0.12730873 -0.022603044 0.22927763
000030 6a c2 19 bf cb f0 2a bf cf 51 b7 be 3d c6 0a 3f
       -0.6006228 -0.6677367 -0.35804603 0.5420874
000040 cc db 5a 3e 3b 8a ab 3e 3c 90 ee be 1e 15 ea 3e
       0.21372908 0.335039 -0.46594417 0.45719236

i_resnet_layers.1.bottleneck_block.0.weight_u f4 [10]
000000 a3 c0 b9 bd 48 05 0b 3f 78 c1 bb bd c8 28 e9 bd
       -0.09069946 0.54304934 -0.091677606 -0.113847315
000010 93 09 82 3e 33 5f 04 3e 7e bc 2f bf a1 e8 27 3e
       0.2539793 0.1292694 -0.6864699 0.16397335
000020 77 8a 9b 3e 5b e0 7e 3d
       0.30379078 0.06222568

i_resnet_layers.1.bottleneck_block.0.weight_v f4 [2]
000000 8e 46 1b 3f 52 88 4b 3f
       0.6065453 0.79504883

i_resnet_layers.1.bottleneck_block.2.weight_orig f4 [10, 10]
000000 5c 83 c8 bc 7c 76 0a 3e 18 05 d2 3d 35 5d af b9
       -0.0244767 0.1352176 0.10254878 -0.00033448046
000010 be f8 dd bd 4f de 12 3d a8 76 9a be 47 65 64 be
       -0.108384594 0.03585654 -0.30168653 -0.22304259
000020 1e 85 7c be 44 62 64 3e 50 1e be bc 8e ad 9b 3e
       -0.24660155 0.2230311 -0.023207814 0.3040585
000030 a1 0f 3d be bb 49 3b be ce 3e 9c 3c 05 7c ca bc
       -0.18462993 -0.18289845 0.019072916 -0.02471734
000040 43 99 10 bf fb 3c 55 3d a9 76 7a bc 55 76 70 bc
       -0.5648386 0.05206011 -0.01528708 -0.01467665
000050 84 b0 f0 bd 73 85 dc 3a 8a 8b 3b 3d 6f 38 35 3e
       -0.11752418 0.0016824439 0.04578737 0.17697309
000060 69 8d 51 3e d1 e3 94 be 26 36 11 be 4b 7a a3 be
       0.204641 -0.2908006 -0.14180812 -0.3192924
000070 86 da 2d 3d 6a 4b 8a be 99 5a a5 be b3 93 1f 3e
       0.04244473 -0.2701066 -0.32295683 0.15583687
000080 b3 d7 11 3d c6 07 31 bd 0f 50 45 be e2 f9 4c bd
       0.035606097 -0.043220304 -0.19268821 -0.050042994
000090 d5 3b 96 3d 23 5f 96 3e 19 4a 9a bd f0 53 55 3e
       0.07335631 0.2936946 -0.07533664 0.20832801
0000a0 1d 2a a0 3e 2d 86 57 3e 0d 1a a9 3c 58 9b e5 bd
       0.3128213 0.21047278 0.020642305 -0.1121127
0000b0 ff c3 04 3e 06 47 03 be 1a 30 0c 3d fd f4 a9 3c
       0.12965392 -0.12820062 0.03422556 0.020746702
0000c0 f1 c3 de bd 76 d1 9a 3d 05 15 c6 bd 5f 3f 7a 3c
       -0.108772166 0.07559483 -0.09671978 0.015273898
0000d0 95 b7 82 bd e5 69 59 be 7f 81 d4 bd 9c 5a 36 bc
       -0.06382672 -0.21231802 -0.10376262 -0.011130001
0000e0 1f 1b bd 3d a1 b6 8e 3e 9a f3 c1 3d fc 0d a2 bd
       0.092336886 0.2787371 0.094702914 -0.079128236
0000f0 94 11 3b be 2a 01 6a bd 4c 76 d7 3d fd b6 dd 3d
       -0.18268424 -0.057130016 0.1052061 0.10825918
000100 63 ce bb bb 21 27 1b 3d c4 a8 1f be f5 63 42 3e
       -0.0057313903 0.037879113 -0.15591723 0.18983443
000110 55 7f 34 be 0e 8a bc be 98 f0 31 bc cb fa db 3c
       -0.17626698 -0.36824077 -0.010860585 0.026852986
000120 ba bb 68 be d9 20 5a 3e 47 3a 14 3e 30 08 21 3e
       -0.22727862 0.21301593 0.14475356 0.1572578
000130 9b b9 c6 bd db f3 94 3e 8c 12 a3 3d 9c 05 1c 3e
       -0.0970337 0.29092297 0.07962522 0.15236515
000140 ce 08 a6 3d c8 87 ca be fe 26 a6 bc ec dc 00 3e
       0.08107148 -0.39556718 -0.020282265 0.12584275
000150 40 05 0b be 87 61 20 3e 19 0b a8 bd 26 90 88 bd
       -0.13576221 0.15662204 -0.08205242 -0.06668119
000160 36 a4 84 bd d8 05 ca 3b a3 a4 8b be a1 7a 1b 3d
       -0.06476633 0.0061652474 -0.27274045 0.037958745
000170 c5 aa 14 3e 6c 1b 17 3e c9 f2 88 be c4 01 3b 3d
       0.14518268 0.14756554 -0.2674773 0.04565598
000180 df 87 3f 3b 71 62 99 bd 50 9b 89 3d 65 74 a5 bc
       0.0029225273 -0.07489479 0.06719077 -0.020197103

i_resnet_layers.1.bottleneck_block.2.weight_u f4 [10]
000000 3d 20 e1 3e fd a8 44 3f dd 11 86 3e 51 eb c3 bd
       0.43969908 0.76820356 0.26185504 -0.095663674
000010 3a 86 6a 3e a3 69 24 be f7 69 96 3c d5 22 f9 ba
       0.22902766 -0.16055922 0.018361075 -0.0019007573
000020 7b 0f 5b be d0 5b f6 bd
       -0.21392624 -0.120292306

i_resnet_layers.1.bottleneck_block.2.weight_v f4 [10]
000000 b9 84 b3 3d 26 26 00 3f f6 5c d5 bd 42 cf 1e be
       0.08765549 0.5005821 -0.104181215 -0.1550875
000010 b3 b2 39 3e ae ee 32 be d9 b9 3f bf 84 1f 69 be
       0.18134575 -0.17473862 -0.74892956 -0.22765929
000020 2a 80 31 be 1e d0 ce 3c
       -0.17334047 0.025245722

i_resnet_layers.1.bottleneck_block.4.weight_orig f4 [2, 10]
000000 49 00 bb be f5 d2 be be 6d 01 9d be 86 cb 90 bd
       -0.36523655 -0.37270322 -0.3066515 -0.07070069
000010 39 8f 9d be 54 0a c3 3d 8c c5 64 3d 7b 8c dc 3d
       -0.30773333 0.09523454 0.055852458 0.10768982
000020 9f 04 a9 3e 97 2d 57 3e 89 a4 23 3e d5 41 91 be
       0.33011338 0.21013485 0.15980734 -0.28370538
000030 48 55 ab 3d 2a 72 87 3e e1 d8 0f 3e 18 3c 4a 3e
       0.083658755 0.26454288 0.14047576 0.19749486
000040 e9 86 14 be fc 55 81 bd d2 1d 57 3e 71 36 48 be
       -0.14504589 -0.06315228 0.2100747 -0.19552018

i_resnet_layers.1.bottleneck_block.4.weight_u f4 [2]
000000 24 e6 7f bf 32 1f e6 3c
       -0.9996054 0.028091047

i_resnet_layers.1.bottleneck_block.4.weight_v f4 [10]
000000 83 ef eb 3e c0 cd e8 3e 45 44 c5 3e 44 87 c7 3d
       0.4608117 0.45469475 0.38528648 0.09742597
000010 9a de c6 3e 34 c5 e4 bd cf a9 98 bd b1 9f 0b be
       0.38841707 -0.11170426 -0.074542634 -0.13635136
000020 e9 dd ce be f4 99 89 be
       -0.4040368 -0.2687527

i_resnet_layers.2.bottleneck_block.0.bias f4 [10]
000000 c0 9e 20 3f 12 89 22 3f 10 1f 0d bf a2 e6 df 3e
       0.62742233 0.634904 -0.5512552 0.43730646
000010 41 d3 04 3f a1 4a 12 bf f8 8d 00 be 40 59 53 3e
       0.5188485 -0.57145125 -0.12554157 0.20639515
000020 71 da 5a 3e 0f 2c bc 3e
       0.21372391 0.36752364

i_resnet_layers.2.bottleneck_block.0.weight_orig f4 [10, 2]
000000 5b 15 5e 3e 1c 12 3d 3e 30 cd 04 bf 6b 70 07 3f
       0.21687834 0.1846394 -0.5187559 0.5290591
000010 69 e5 74 3e fb f9 19 3f 38 00 ab 3e d3 1c fc 3e
       0.23915638 0.60147065 0.33398604 0.4924074
000020 b2 d4 12 bf aa bc 83 3e 68 64 95 be c5 b2 f4 be
       -0.573558 0.25729877 -0.29178166 -0.4779264
000030 f2 a8 81 3e 3b 00 58 be ce 2f f7 3e 56 2b 14 bf
       0.25324208 -0.21093838 0.4827866 -0.57878625
000040 ee 28 57 be fa 41 ec be 85 20 13 bf c0 06 c4 bd
       -0.21011707 -0.46144086 -0.57471496 -0.095716

i_resnet_layers.2.bottleneck_block.0.weight_u f4 [10]
000000 0a 06 89 bd 52 41 00 bf d4 a3 b0 be 47 18 7b be
       -0.06690605 -0.5009967 -0.3449999 -0.2452098
000010 48 4f a9 be b4 62 7c 3e a8 88 59 3e c4 63 06 3f
       -0.330683 0.24647027 0.21243536 0.5249598
000020 e2 e4 83 3e 09 7a b9 bd
       0.2576056 -0.090564795

i_resnet_layers.2.bottleneck_block.0.weight_v f4 [2]
000000 4b 18 bd 3e 99 e6 6d bf
       0.36932597 -0.9292999

i_resnet_layers.2.bottleneck_block.2.weight_orig f4 [10, 10]
000000 17 99 bf bb 6b be a2 bd 50 59 fc bd 79 2a 78 3e
       -0.005847107 -0.079464756 -0.123217225 0.24234952
000010 d1 67 0a bd 93 b2 8d 3d be 8a 56 be ea e7 17 3e
       -0.033790413 0.06918826 -0.20951363 0.14834562
000020 32 c6 ea bd 63 a9 1e bd 3c d3 13 be cb f4 6a be
       -0.11463584 -0.03873576 -0.14436048 -0.22944944
000030 15 22 74 be 00 bf 31 bd e0 5f 0a 3d bc 69 b2 3e
       -0.23841126 -0.043395042 0.03378284 0.34846294
000040 0c bc 8b 3e d3 75 5a be e5 46 f5 3c ff 79 b9 3d
       0.27291906 -0.21334009 0.029941032 0.09056472
000050 ec 60 17 be 50 0a 80 be 62 17 13 be 55 42 3b bd
       -0.14783067 -0.25007868 -0.14364389 -0.045717556
000060 1c e9 73 3e b6 39 ed 3d 67 06 49 be b4 15 34 bd
       0.23819393 0.11583273 -0.19631349 -0.04396601
000070 cd b0 26 3d fc 17 38 be 50 1d 99 be 6c f2 ef bd
       0.040695954 -0.179779 -0.29905176 -0.1171616
000080 e1 53 74 3d 56 f1 86 3e 4b 14 05 3e e5 43 0e 3e
       0.059650306 0.26356 0.12996022 0.13893087
000090 a2 1b c0 be 8a 01 ae be be 03 89 3e 3b 47 a3 3e
       -0.37521082 -0.3398555 0.26760668 0.31890282
0000a0 38 89 8d be 05 a8 8e be 14 2f 5a be da b4 30 3e
       -0.27643752 -0.27862564 -0.21307021 0.1725649
0000b0 c0 c5 8c be 82 8c 23 3e 31 1a 52 bd 73 cb a2 3e
       -0.2749462 0.15971568 -0.05129451 0.31795844
0000c0 f9 36 fb 3d b6 0d 88 3d 32 82 62 be e9 35 52 be
       0.122663446 0.0664324 -0.22119978 -0.20528378
0000d0 fa ce cf bd 86 f1 99 be f2 b1 46 be 60 84 a1 bd
       -0.101468995 -0.3006708 -0.19403818 -0.07886577
0000e0 39 f3 30 bd 0e 1f fd bd 05 a2 22 be 16 42 94 3e
       -0.043200705 -0.12359439 -0.15882118 0.2895667
0000f0 b4 92 b7 bd 21 e0 cd 3d 49 70 55 be 95 d2 a2 bd
       -0.08963528 0.10052515 -0.20843615 -0.079503216
000100 6b 21 7f 3e 05 7f a0 3e 0e 20 a0 3c 9f da e9 3d
       0.24915092 0.31346908 0.019546535 0.11418652
000110 b1 1f 31 be 49 82 8e be 69 1a 7b be 4a 66 2d bd
       -0.17297246 -0.27833775 -0.24521793 -0.04233388
000120 c6 e7 df bd 92 2d 00 bd 37 63 5c be 33 6b 32 3d
       -0.10932879 -0.03129346 -0.21522222 0.043559264
000130 29 55 ee 3d 99 f3 d2 3c 02 06 d4 3b 0b fd 17 3e
       0.11637337 0.025750922 0.0064704427 0.14842622
000140 bd 0a d0 3b b3 fd ed bc 0b de 2c bd ad d7 c5 bd
       0.0063489364 -0.029051637 -0.042203944 -0.096602775
000150 de 6c 32 3e 5f d1 9c 3d c2 37 4f 3e c9 89 a3 bd
       0.17424342 0.07657122 0.20236114 -0.07985265
000160 57 6a 6f 3e 37 95 8b be 23 e6 0b bd 1e 51 d3 3d
       0.23380409 -0.2726228 -0.034155022 0.10318206
000170 d6 a0 d6 bd b4 be 28 be da 70 a9 3d 35 41 ed 3e
       -0.10479896 -0.16478997 0.08273478 0.46338812
000180 f6 ce be bd c0 02 f4 3b bd b4 97 3d fe 96 8e be
       -0.093168184 0.007446617 0.0740752 -0.27849573

i_resnet_layers.2.bottleneck_block.2.weight_u f4 [10]
000000 2e ab db 3d ec fe 65 3e c1 ac b0 3d b8 06 1c 3f
       0.10726009 0.22460526 0.086267 0.6094775
000010 5f ab da 3e 5c 2b c7 3e 01 ad 86 be 92 c0 89 3e
       0.4270887 0.38900268 -0.26303867 0.26904732
000020 75 8a 64 be c2 e4 3c be
       -0.22318442 -0.18446639

i_resnet_layers.2.bottleneck_block.2.weight_v f4 [10]
000000 c4 c6 f9 be 8f da d5 be 11 e8 fc bd 20 8e 4e 3e
       -0.4878446 -0.4176831 -0.12348951 0.20171404
000010 51 d4 8d be 0d 7a 3d 3d 1a 85 83 be fa 15 2c be
       -0.27701047 0.046258975 -0.25687486 -0.16805258
000020 d4 38 0d 3e 07 29 15 3f
       0.1379121 0.5826573

i_resnet_layers.2.bottleneck_block.4.weight_orig f4 [2, 10]
000000 a4 c9 68 3e f5 7f 65 be 00 e3 4e be c9 98 65 be
       0.2273317 -0.22412093 -0.20203781 -0.22421564
000010 a5 f5 1d bd f9 5e d1 3b 18 c1 7d be e3 23 95 be
       -0.038564343 0.0063894955 -0.2478069 -0.29128942
000020 f7 f8 37 3e 64 c4 6c be e8 e4 95 bd f7 2d 7e 3e
       0.17966066 -0.23121792 -0.07319051 0.24822222
000030 c5 b7 f5 3c 79 5c 0e be 53 08 a2 be c3 2d 8c 3d
       0.029994855 -0.13902463 -0.31646976 0.06844666
000040 26 47 46 3e 0b af 00 3c a6 e0 50 3e 3c fa fc bc
       0.19363078 0.0078542335 0.20398197 -0.03088104

i_resnet_layers.2.bottleneck_block.4.weight_u f4 [2]
000000 da 51 78 3f 93 f1 78 be
       0.96999896 -0.24310903

i_resnet_layers.2.bottleneck_block.4.weight_v f4 [10]
000000 2b a6 b8 3e 5f 24 d7 be 2c 6b 9d be 0e 45 8e be
       0.36064276 -0.42019936 -0.30745828 -0.2778706
000010 90 c0 74 3d 9f 4e 80 bc 2e b7 de be 18 6e dc be
       0.059753954 -0.01566249 -0.4349913 -0.43052745
000020 98 6c 41 3e bf ea a7 be
       0.18889081 -0.32796285

i_resnet_layers.3.bottleneck_block.0.bias f4 [10]
000000 b8 98 47 bf 44 8e e2 3d 06 a5 f3 be 14 6e 74 3e
       -0.77967405 0.11062291 -0.4758684 0.23870116
000010 8d c3 1a 3f df 44 a5 bc 5a 64 65 be 48 b9 8c bc
       0.60454637 -0.020174442 -0.22401562 -0.017178193
000020 1d e5 cd bc 05 f0 6d be
       -0.025133664 -0.23236091

i_resnet_layers.3.bottleneck_block.0.weight_orig f4 [10, 2]
000000 23 79 01 3f a7 d4 c3 3e ad d4 fd be 56 c9 c2 3e
       0.50575465 0.38248178 -0.4957632 0.38044232
000010 cb 74 ad 3e b3 5a 02 3f 91 de 28 bf 04 b4 2b bf
       0.33878168 0.50919646 -0.6596461 -0.6707156
000020 c6 24 c3 3e 6f 7d 15 bf 9f cb 24 3e 6e 51 08 3f
       0.38113993 -0.5839452 0.160933 0.5324925
000030 a4 ac 19 bf a5 21 2c 3e d3 96 15 3f 9a 10 9e be
       -0.60029054 0.1680971 0.58433264 -0.3087204
000040 6b 63 b8 be e5 04 02 3f 75 35 bd bd 8b 01 71 3e
       -0.3601335 0.5078872 -0.09238712 0.23535745

i_resnet_layers.3.bottleneck_block.0.weight_u f4 [10]
000000 34 f1 db bd 18 96 de 3e 00 d1 1e 3d 80 a8 84 3d
       -0.10739365 0.43473887 0.038773537 0.06477451
000010 3c 3c ec be 87 d9 14 3e e2 28 cc 3e a6 13 e7 be
       -0.46139705 0.14536105 0.3987494 -0.45132178
000020 25 6a d5 3e d3 5c 1c 3e
       0.41682544 0.15269785

i_resnet_layers.3.bottleneck_block.0.weight_v f4 [2]
000000 15 63 47 bf 63 90 20 3f
       -0.7788556 0.62720317

i_resnet_layers.3.bottleneck_block.2.weight_orig f4 [10, 10]
000000 df 8e 80 3d 49 a7 10 3c ba 2a 11 be a1 16 0a 3e
       0.062772505 0.008828946 -0.14176455 0.13485195
000010 3a 24 1c bd 12 a3 a0 3e 76 72 5e 3e 2f fa b7 be
       -0.038120486 0.31374413 0.21723351 -0.35933062
000020 00 26 02 be 6f 74 3a 3e 57 68 f2 bd f7 4f 8d 3e
       -0.12709808 0.18208478 -0.118363075 0.2760007
000030 fe e5 91 3e 59 1b 5a 3d 17 38 54 3c 29 3f 7c be
       0.28495783 0.053248737 0.012952826 -0.24633469
000040 eb 96 38 3e 1d ef b8 bd 3c 89 78 bd f5 08 47 be
       0.1802632 -0.09029982 -0.060677752 -0.1943701
000050 6f 06 1e bd 7d 19 9a bd 55 36 4c 3e 10 86 20 3e
       -0.038580354 -0.07524393 0.19942601 0.15676141
000060 38 63 6d be 1f 83 3c be 63 88 4c be 68 db 51 3b
       -0.2318238 -0.18409394 -0.19973902 0.0032021645
000070 2b 9b dd 3d fe e7 6e ba 9c 2f 69 3e 9b 0a 9d bb
       0.108206116 -0.0009113549 0.22772068 -0.004792524
000080 00 45 13 3d 05 bb 9a be 6e bd 77 3e 90 59 97 3d
       0.035954475 -0.3022081 0.24193355 0.073901296
000090 ad a6 38 3e 3d 37 05 3e aa 70 43 3e 2d 4c 88 bd
       0.18032332 0.13009353 0.19085947 -0.066551544
0000a0 b2 f6 60 3e 92 4b fc 3d 0a e9 b5 bc 4d 5c 69 3e
       0.21969107 0.123191014 -0.022205848 0.22789116
0000b0 03 d6 62 be 9e fa 65 be 59 65 e5 3d 27 01 2d be
       -0.22151951 -0.22458884 0.11200971 -0.16894971
0000c0 28 f5 af 3d 9e 98 b9 3e cc 51 8a 3d 07 07 8a be
       0.08591682 0.3624925 0.06753883 -0.26958486
0000d0 ef 0e 2c be 1e aa 14 be 5c 4d 07 3e 5f bc 80 bd
       -0.16802572 -0.1451802 0.13213104 -0.06285929
0000e0 72 6a 57 3b 32 bd 7a bc 69 e1 7d be 41 9c 7b 3e
       0.0032869843 -0.015303897 -0.24793018 0.24571325
0000f0 5a d3 65 be 1c 4f 8b be 93 e0 95 be c4 7c 9f bd
       -0.22443905 -0.27208793 -0.292729 -0.07787469
000100 ea 72 0a 3e e0 0b 02 be 1f dc c7 3c 17 26 53 be
       0.13520399 -0.12699842 0.024396954 -0.20619999
000110 12 a4 66 3d ce 15 54 be bf a3 01 be d8 f0 82 3e
       0.056308813 -0.20711443 -0.1266012 0.25574374
000120 a8 36 66 3e 84 7e 22 be 14 f2 16 be bc 04 87 3e
       0.22481787 -0.15868574 -0.14740783 0.263708
000130 37 68 3b be a4 7d 93 3c 1d 96 09 be df 5c 83 3d
       -0.18301474 0.018004246 -0.1343617 0.06414198
000140 ed 69 8d bd 2e f2 24 be 74 d3 6d 3e c1 00 4b be
       -0.06904969 -0.16108009 0.23225194 -0.19824506
000150 30 55 23 3e cf 65 48 3e 0e fc ac 3d 1b 8b ae 3d
       0.15950465 0.19570087 0.08446513 0.08522626
000160 ca 31 dd 3d 4c 0b 17 be 11 84 68 3e a2 b1 71 be
       0.10800512 -0.14750403 0.2270663 -0.23602918
000170 21 6d 92 3e 2f af 29 3e 5e 1b 82 3e ce c0 a7 bd
       0.28598884 0.16570733 0.25411505 -0.081910715
000180 a4 85 90 be 4f 81 8f 3e 23 92 a1 be 2a 18 47 3e
       -0.2822696 0.28028342 -0.31556806 0.19442812

i_resnet_layers.3.bottleneck_block.2.weight_u f4 [10]
000000 e0 f4 c5 3e c3 3c 0d 3e 3e 02 ae 3b 1b 6c 6a be
       0.38663387 0.1379271 0.005310326 -0.22892801
000010 c5 a0 cb 3e 09 96 3f be eb 0a e9 3d 0f 44 79 bd
       0.39771095 -0.18709578 0.113790356 -0.06085592
000020 1d 97 97 be 8d a6 31 bf
       -0.29607478 -0.6939476

i_resnet_layers.3.bottleneck_block.2.weight_v f4 [10]
000000 09 11 13 be c0 ad b4 3e de 84 b9 be 59 e2 61 3e
       -0.14361967 0.3528881 -0.36234182 0.22059001
000010 00 ff e0 be f0 f6 3a bd 3d 2b ae 3e 56 70 10 bf
       -0.4394455 -0.045645654 0.34017363 -0.5642141
000020 6d 28 56 3e fe 9a 32 3d
       0.20913859 0.043604843

i_resnet_layers.3.bottleneck_block.4.weight_orig f4 [2, 10]
000000 10 3f 5a be 04 39 e0 bc 1f 1d 99 3d 41 7a ec bd
       -0.21313119 -0.027370937 0.074762575 -0.115467556
000010 e1 5b 05 3e ac 8f 3b 3e a8 e7 8f be 49 48 8b 3d
       0.1302333 0.18316525 -0.28106427 0.06800897
000020 d5 1e 45 be 6f da a7 3e b9 d6 17 bd e5 12 5d be
       -0.19250043 0.3278384 -0.03707001 -0.21589239
000030 ce 2a cc bd 79 fc 95 be fb 7c 45 3e 20 14 12 3d
       -0.09969102 -0.29294184 0.19285958 0.035663724
000040 46 7c a5 3e 9b a8 93 be b9 9e b4 be d1 61 21 bc
       0.32321376 -0.28839573 -0.35277346 -0.009849981

i_resnet_layers.3.bottleneck_block.4.weight_u f4 [2]
000000 e1 b8 29 be 8e 75 7c bf
       -0.16574432 -0.98616874

i_resnet_layers.3.bottleneck_block.4.weight_v f4 [10]
000000 c3 7e d0 3d f6 8e 9d 3e 88 54 f9 3d e9 36 df 3e
       0.10180428 0.30773133 0.12174326 0.4359658
000010 10 76 99 be f5 37 be bd 80 72 c5 be 54 34 c6 3e
       -0.29972887 -0.09288017 -0.3856392 0.38711798
000020 ec 9f 09 3f 86 7d 81 bd
       0.53759646 -0.0632277

i_resnet_layers.4.bottleneck_block.0.bias f4 [10]
000000 d3 21 0c 3e c2 dd e2 3e 53 cf 5d be 09 ec 69 3c
       0.13684778 0.44309813 -0.21661119 0.014277467
000010 be 61 7f 3e b1 dd 31 bf 6d 0a 32 3f 1f 1e 57 3e
       0.2493963 -0.694789 0.6954716 0.21007584
000020 5c d5 e7 3d fe 88 bb bd
       0.11319992 -0.091569886

i_resnet_layers.4.bottleneck_block.0.weight_orig f4 [10, 2]
000000 4f c0 02 bf 4b 1f c3 3e 0f 2c d6 be 33 10 ac 3e
       -0.5107469 0.38109812 -0.4183049 0.3360611
000010 8f 01 f0 3e 66 51 a2 3e 0f 79 30 3e 96 50 00 bf
       0.4687619 0.31702727 0.1723368 -0.50122964
000020 82 66 14 be 37 cd 03 be b0 e0 01 bf 5d 15 38 bf
       -0.14492229 -0.12871252 -0.5073347 -0.719076
000030 a5 6e 12 bc 3f 5c be 3e d9 f8 f5 be 56 00 55 be
       -0.0089375125 0.37179753 -0.48041418 -0.2080091
000040 32 6d 0e bf c8 54 82 be a9 dd 0a 3f 05 8e 23 bf
       -0.5563537 -0.25455308 0.54244477 -0.6388858

i_resnet_layers.4.bottleneck_block.0.weight_u f4 [10]
000000 17 95 48 be 92 97 1b be 71 18 d7 3e e5 d2 8b bd
       -0.19588123 -0.15194538 0.42010835 -0.06827334
000010 65 39 10 be 69 ff 16 bf 53 27 03 3e f1 e4 c6 be
       -0.14084394 -0.58983475 0.1280797 -0.38846543
000020 b7 f4 e8 be eb 7f fd 3d
       -0.45499203 0.12377914

i_resnet_layers.4.bottleneck_block.0.weight_v f4 [2]
000000 61 19 60 3f 23 83 f7 3e
       0.87538725 0.48342237

i_resnet_layers.4.bottleneck_block.2.weight_orig f4 [10, 10]
000000 b9 7e 9c 3d 2f d0 13 be 49 73 5d be 60 04 f5 3d
       0.07641358 -0.14434884 -0.21626009 0.11963725
000010 cb 12 94 be f8 4d 72 be 84 dc 25 bd 5a e7 83 3e
       -0.28920588 -0.23662555 -0.040493503 0.25762445
000020 47 e9 73 bd 4b c4 4c bd 65 d0 3b be 68 9a 19 be
       -0.059548642 -0.049991887 -0.18341215 -0.15000308
000030 10 61 00 3e 1c b0 90 bc 5c 82 39 3e 23 ed 70 3e
       0.12537026 -0.0176621 0.18116134 0.2352796
000040 d4 31 e5 bd 10 db 81 3e 1d 9c a7 3c 2a cb 25 3e
       -0.111911446 0.25362444 0.020460183 0.16190782
000050 0d 5b 8f 3e 94 87 95 3e 74 17 45 3e 12 c4 94 be
       0.27999154 0.29205 0.19247228 -0.2905584
000060 53 f6 be bd 48 77 8e 3e fd c3 09 3e b9 b1 8b 3e
       -0.09324326 0.2782538 0.1345367 0.2728403
000070 72 2e 15 3d 38 bb b5 be 14 40 29 be 98 17 7a 3e
       0.036421247 -0.354944 -0.1652835 0.24423063
000080 ec 08 83 be 44 0c 13 be 6f 34 d1 bd cd a0 44 be
       -0.25592744 -0.14360148 -0.10215079 -0.19201966
000090 54 33 71 be f5 7f df 3d 01 da d9 3d fa 9c 33 bd
       -0.23554736 0.10913078 0.10637284 -0.043850876
0000a0 0d db ce 3d 5c 7b 93 3e 12 cd bc bd bb d3 40 3e
       0.10100374 0.28805053 -0.092188016 0.18830769
0000b0 45 2a ca bd 94 90 13 3e cc fb 8b bd 0e cb 71 3e
       -0.098713435 0.14410621 -0.06835136 0.23612615
0000c0 58 78 20 3e b6 18 55 3e 11 2c b3 bc a6 77 c9 bd
       0.15670907 0.20810208 -0.021871598 -0.09837274
0000d0 ea b0 12 bc 12 03 41 3e b3 a8 5e bd 21 dc c4 3e
       -0.008953312 0.18848827 -0.054360103 0.38449195
0000e0 5a 31 8d be 37 1a d8 3d b8 e8 42 3e 4a 59 af 3d
       -0.27576715 0.10551875 0.19034088 0.085619524
0000f0 0e a4 8d 3e 1a b0 59 3d 56 87 21 3e 74 5a 27 bd
       0.27664226 0.05314646 0.15774283 -0.040857747
000100 18 5a 07 be 06 94 15 be 85 af 0e be c2 a9 3f be
       -0.13217962 -0.14607248 -0.13934143 -0.18717101
000110 97 54 62 be 25 5f 3e 3d 91 4e 9d be 23 93 9e bd
       -0.22102581 0.046477456 -0.30724004 -0.07742908
000120 67 4a 6d 3d 0f 4a 7c bd 8f da 74 be 25 45 3b bd
       0.057932284 -0.061594065 -0.23911498 -0.04572024
000130 21 f7 3d 3c a2 44 28 3e 02 c6 86 bd c2 67 04 be
       0.011594565 0.16432431 -0.06580736 -0.12930205
000140 bb 94 12 3e 99 85 dc bc d4 5e bb be 5b f4 b4 3d
       0.14314549 -0.026919173 -0.36595786 0.088356696
000150 ab 0f 0e 3e d0 75 44 3e e5 1a 01 3e fb 7e 52 be
       0.13873164 0.19185567 0.12607916 -0.20556252
000160 22 4e 13 3e f7 01 42 ba ac cd 97 be 61 5d c0 bd
       0.14385274 -0.00074008055 -0.29649103 -0.093928106
000170 5e 47 71 3e 46 e5 1c 3d 08 ec 7b be 30 57 15 3d
       0.2356238 0.03830459 -0.24601758 0.0364601
000180 9a b4 c7 3d 43 8c ce bd 94 88 a1 3d 8c 1a a3 3d
       0.09751244 -0.100853465 0.07887378 0.07964048

i_resnet_layers.4.bottleneck_block.2.weight_u f4 [10]
000000 0a 4c 22 3e 2d 07 f9 bd e2 ea 51 bf 47 9d d7 3b
       0.15849319 -0.12159572 -0.8199903 0.006580028
000010 73 40 ba be 21 5a 82 be f7 33 ca 3d 2e 4e 09 3e
       -0.36377296 -0.25459388 0.09873193 0.1340873
000020 f3 ca c8 bd 84 23 6c 3e
       -0.098043345 0.23060423

i_resnet_layers.4.bottleneck_block.2.weight_v f4 [10]
000000 b8 f9 ce be bd 83 dd be 2a 1e 99 bd f9 0f 26 3e
       -0.40424895 -0.4326457 -0.074764565 0.1621703
000010 d8 6b 93 bd 11 78 18 bf 75 03 6f bc 7d 00 d0 be
       -0.07198304 -0.59558207 -0.014588227 -0.40625373
000020 65 39 5d be 40 de 5a 3e
       -0.21603926 0.21373844

i_resnet_layers.4.bottleneck_block.4.weight_orig f4 [2, 10]
000000 aa 3d 9b 3e 2d 1b 59 be 72 68 a3 be 08 ef 42 3d
       0.30320483 -0.21201773 -0.31915623 0.04759124
000010 a1 3e 21 3e d6 c7 97 be be 28 10 be ed 3a a4 3e
       0.15746547 -0.2964465 -0.14078042 0.32076207
000020 9f c3 af 3b 74 bd 37 3e 28 e9 26 3e 4c 5f 00 bb
       0.005363896 0.17943364 0.1629988 -0.0019588051
000030 07 b7 3b 3e 9e 4b 35 3e fc f9 94 3e 6a 3d 38 bd
       0.18331538 0.17704627 0.29096973 -0.044980444
000040 3f 16 a7 3c b8 88 72 bc 80 f8 5a 3e e1 52 64 bd
       0.02039635 -0.014803104 0.21383858 -0.055743102

i_resnet_layers.4.bottleneck_block.4.weight_u f4 [2]
000000 e9 43 7d 3f 9e 46 15 3e
       0.9893175 0.1457772

i_resnet_layers.4.bottleneck_block.4.weight_v f4 [10]
000000 07 f3 e6 3e 96 cc 95 be 15 3d ce be d4 19 d0 3d
       0.4510729 -0.2925765 -0.40280977 0.10161176
000010 70 8a 8d 3e dc d5 d5 be 55 b5 42 be 5f ed e0 3e
       0.27644682 -0.41764724 -0.19014485 0.439311
000020 ac ce 50 3d c0 c8 71 3e
       0.050978348 0.23611736

i_resnet_layers.5.bottleneck_block.0.bias f4 [10]
000000 c2 33 93 3e cc a0 01 3d 41 4d 93 3d 16 45 8c 3e
       0.28750426 0.03164749 0.071924694 0.27396458
000010 08 c4 c7 be 49 88 9e 3e 7e dd c5 3d c1 02 5f be
       -0.39016747 0.30963352 0.09661387 -0.21778394
000020 86 7c af 3c c7 4a a8 3e
       0.021421682 0.3286955

i_resnet_layers.5.bottleneck_block.0.weight_orig f4 [10, 2]
000000 80 8b 9d be 02 58 8a be 8f 80 d2 3e 00 97 1b be
       -0.30770493 -0.2702027 0.41113707 -0.1519432
000010 06 61 cd 3e 6f d5 0a bf 3d fd 2c bc f7 a9 80 3e
       0.40113086 -0.54231924 -0.010558424 0.25129673
000020 53 64 93 3e 40 d3 67 bb 5e 31 25 be 8a b5 08 bf
       0.2878748 -0.0035373718 -0.16132113 -0.53402007
000030 86 05 0e bf ab 07 d2 3e 5f ad 58 3e 3a c6 4f be
       -0.5547718 0.41021475 0.21159886 -0.20290461
000040 61 93 22 3f 84 4b 1b 3f a9 8a 26 be 97 dc 2d 3b
       0.6350613 0.606621 -0.16263832 0.0026529187

i_resnet_layers.5.bottleneck_block.0.weight_u f4 [10]
000000 e8 a7 a7 3e 17 09 9a be 52 cc 40 be 7f 38 6e bd
       0.3274529 -0.3008506 -0.18827942 -0.058159348
000010 f4 e9 73 be 9c 72 8d 3e 28 b1 b3 3e 68 56 f9 bd
       -0.23819715 0.27626503 0.35096097 -0.12174684
000020 fa 50 30 bf e3 74 09 3e
       -0.6887356 0.13423495

i_resnet_layers.5.bottleneck_block.0.weight_v f4 [2]
000000 44 ba 73 bf 08 a0 9c be
       -0.95206094 -0.30590844

i_resnet_layers.5.bottleneck_block.2.weight_orig f4 [10, 10]
000000 67 99 b1 bd b9 4f 8b 3e 54 8c 68 be 8e 82 99 bd
       -0.08671837 0.2720926 -0.22709781 -0.074956045
000010 c8 3b 21 3e 94 7a ee bd e8 5f 75 3e d5 56 bc 3d
       0.15745461 -0.11644474 0.23962367 0.091962494
000020 c0 47 9b 3e 76 7f b1 3d e1 5a 9b 3e 56 5b ff bd
       0.30328178 0.08666889 0.30342773 -0.12468593
000030 be 21 59 3e 2d ad 02 be 3a 74 67 3e 60 bc 19 be
       0.21204278 -0.12761374 0.2260293 -0.15013266
000040 52 eb 81 3d 06 5b e5 3d cc dd 9c be eb 3e c5 3e
       0.06343712 0.11199002 -0.30637968 0.38524565
000050 aa 4b 61 3c 4c 7a 92 3d 8f 12 88 be 0b 3d 98 3c
       0.01375095 0.071522325 -0.2657666 0.018583795
000060 76 0c ec 3d c6 d3 2c bd b9 9f 94 3d ec ff 7b be
       0.11525814 -0.04219415 0.07257027 -0.24609345
000070 1a d0 92 bd 03 ef 61 bc 2e 63 18 be d4 28 ae 3e
       -0.071685985 -0.013789895 -0.14881584 0.34015524
000080 4d c3 86 3e 1f a1 bd bd 46 e0 14 be 42 7d cf 3d
       0.26320878 -0.09259247 -0.14538679 0.10131313
000090 58 16 34 be fe df a2 3c 9a bd 0f 3e e2 4f ec bd
       -0.17586648 0.019882198 0.14037171 -0.11538674
0000a0 d6 05 8f 3e 8f 5d 71 3e a2 1f 21 3e 8e c6 d3 be
       0.2793414 0.23570846 0.15734723 -0.41362423
0000b0 ee 69 2d be 5c 41 71 3e f1 aa 26 bd 89 aa 23 bb
       -0.1693494 0.23560089 -0.040690366 -0.0024973473
0000c0 22 0e 9e bd be cd 34 bc 14 5e 0b be a3 a6 ec bc
       -0.07717539 -0.011035381 -0.13610107 -0.028888052
0000d0 63 1b 0c be 0a cc 1d bd ca 2f 28 3e 49 5b 3f be
       -0.13682322 -0.038524665 0.1642448 -0.18687166
0000e0 88 48 d8 3c 6e 60 14 3e ff c9 d7 be 50 3a 33 be
       0.026401773 0.1448991 -0.42146298 -0.17502713
0000f0 7b 32 13 3d 73 2f a7 3e 54 11 a2 3e ff 5d cf 3d
       0.035936814 0.32653388 0.31653845 0.1012535
000100 f5 76 cd bd f4 f5 0d be 6c 82 61 be ae 7f 97 bd
       -0.10032455 -0.13863355 -0.22022408 -0.073974
000110 4e af ef bd 54 29 2a be 81 8b 19 3e 02 a6 22 be
       -0.117033586 -0.16617328 0.14994623 -0.1588364
000120 ac 15 83 3e 6c 69 ac be 21 d4 71 3e 2a 5c 78 3e
       0.25602472 -0.3367418 0.23616077 0.24253908
000130 64 97 87 3e 14 06 fc bd 1d c3 e5 3d 97 d2 03 3d
       0.2648269 -0.12305847 0.112188555 0.032183256
000140 81 1b 9a 3e a4 94 51 be 2d 28 23 3e 47 d2 7e 3e
       0.3009911 -0.20466858 0.15933295 0.24884902
000150 46 97 07 be 7b 9f 51 be bc d6 42 be 66 03 16 be
       -0.132413 -0.20470993 -0.19027227 -0.14649734
000160 77 11 20 be 45 bd d0 bd bb 90 7d 3d 28 bf ad 3d
       -0.15631662 -0.1019235 0.061905604 0.08483726
000170 4c ba e9 bd 1c e1 8b bd f2 69 d6 bd 1a a1 47 bc
       -0.114124864 -0.068300456 -0.10469426 -0.012184406
000180 cb fa 5c 3d d4 c2 6f bc b3 48 dd bd 8e 8e 3e 3d
       0.053950112 -0.014633853 -0.10804882 0.04652267

i_resnet_layers.5.bottleneck_block.2.weight_u f4 [10]
000000 ed 5e fa be 1d 0f 8e 3d 31 27 31 be 39 40 84 3e
       -0.48900548 0.069364764 -0.17300107 0.25830248
000010 ed 99 4e 3e db 76 ce 3b f1 df 0c 3f 4f 24 6c be
       0.20175906 0.00630079 0.5502921 -0.23060726
000020 98 2c 03 3f 00 9c 2d bc
       0.5123992 -0.010596275

i_resnet_layers.5.bottleneck_block.2.weight_v f4 [10]
000000 52 27 7c 3e 54 e1 d4 3d b0 0d 08 3f a6 df 4e 3e
       0.24624375 0.103945404 0.53145885 0.20202503
000010 f7 98 be be 58 02 00 be 52 3e 05 bf 92 1d b1 bd
       -0.37226078 -0.12500894 -0.5204822 -0.08648218
000020 61 07 b3 be 2b fd 65 be
       -0.34966567 -0.22459857

i_resnet_layers.5.bottleneck_block.4.weight_orig f4 [2, 10]
000000 cb 32 1c be 34 c4 1a 3e 5b 10 6c be e0 53 cf 3d
       -0.15253751 0.15113908 -0.23053114 0.1012342
000010 33 3c 87 be 4e 5b 01 3e 91 78 a6 3e bb 0f 52 be
       -0.26413116 0.12632486 0.3251386 -0.20513813
000020 a3 75 8c 3e d2 00 81 3c e5 e1 81 be 95 60 c2 3e
       0.274335 0.015747461 -0.25367656 0.3796431
000030 6a 2f 6e 3e 56 6b 25 3e 06 75 b3 3d 8f 23 8f 3e
       0.23260275 0.16154227 0.08762555 0.27956817
000040 1b 03 c5 bb 32 e2 0b 3e 59 fb 6c 3e 1f da 44 bd
       -0.006012333 0.13660505 0.23142757 -0.04805958

i_resnet_layers.5.bottleneck_block.4.weight_u f4 [2]
000000 17 26 27 bf 74 e6 41 bf
       -0.65292495 -0.7574227

i_resnet_layers.5.bottleneck_block.4.weight_v f4 [10]
000000 fd 94 cb 3e 14 bc 06 bf 11 68 0f bd a5 7c 83 be
       0.39762107 -0.52630734 -0.035011355 -0.25681034
000010 90 d7 13 3e eb 50 cd be 4e e8 90 be f8 a1 27 3d
       0.144377 -0.40100798 -0.28302234 0.04092595
000020 ff 27 f7 be a4 c7 11 3d
       -0.48272702 0.035590783

i_resnet_layers.6.bottleneck_block.0.bias f4 [10]
000000 15 f7 b1 bd 11 34 dc be f2 2e 95 be 2b 11 0d be
       -0.08689705 -0.43008474 -0.2913738 -0.1377608
000010 c0 4b 95 be e8 7c d1 be d6 99 85 3e 05 25 2d 3f
       -0.29159355 -0.40915608 0.2609393 0.6763461
000020 ba e6 fb be 39 ab 46 bd
       -0.49199468 -0.048503134

i_resnet_layers.6.bottleneck_block.0.weight_orig f4 [10, 2]
000000 dd c5 2e bf e6 ea 53 3f ab 7c 01 3f 9b 8e 6d be
       -0.68270665 0.827803 0.50580853 -0.23198931
000010 a6 d6 a9 3e 89 c5 41 3f a9 68 0f 3f 88 d5 09 be
       0.33171576 0.7569204 0.56019074 -0.13460362
000020 0b a4 1d bf 68 22 b9 be 30 dc 91 be dd a0 84 be
       -0.61578435 -0.36159062 -0.28488302 -0.2590398
000030 2b fd 0f bf f3 a3 03 3f 82 1b f7 be 1f 82 bf 3e
       -0.5624568 0.5142204 -0.48263174 0.37403962
000040 f8 ac df be 74 03 c8 bd 10 0f 0d bf d9 f2 1e bf
       -0.43686652 -0.09766284 -0.5510111 -0.62089306

i_resnet_layers.6.bottleneck_block.0.weight_u f4 [10]
000000 3c ba 19 3f f7 9b a8 be ed 15 75 3d 5f bf a7 be
       0.60049796 -0.32931492 0.059835363 -0.32763192
000010 c0 4e 52 3e 70 af 89 3d 92 38 e3 3e 54 9d b8 3e
       0.20537853 0.06722915 0.44379097 0.36057532
000020 30 9a 46 3e 31 93 bf 3d
       0.19394755 0.093542464

i_resnet_layers.6.bottleneck_block.0.weight_v f4 [2]
000000 8c 2e 5c bf 36 99 02 3f
       -0.86008525 0.5101503

i_resnet_layers.6.bottleneck_block.2.weight_orig f4 [10, 10]
000000 3b 07 60 be 5e f1 84 3e 52 ba 85 bc 0f 28 46 3e
       -0.21877758 0.259654 -0.016324196 0.19351219
000010 e9 81 5a be a2 b5 fa 3d a3 9a 34 ba 4f 17 6e 3e
       -0.2133862 0.12241675 -0.0006889498 0.23251079
000020 79 a2 1e 3e 8a ca 00 3d 4b 5d 8a bd d0 0c 41 be
       0.15491666 0.031443156 -0.067560755 -0.18852544
000030 e5 a3 31 3e 75 9d e4 3d f0 27 63 be 13 fd 00 3e
       0.17347677 0.11162845 -0.22183204 0.1259654
000040 ec b2 29 3c ba dc 8d 3e d8 4f 82 be f5 c3 52 3e
       0.0103576 0.27707464 -0.2545154 0.20582564
000050 40 67 d1 bd d5 dc 35 be c8 53 8c bd 53 90 1a be
       -0.102247715 -0.17760022 -0.068519175 -0.15094118
000060 9f 3f 2d 3e 18 7f 8b be d1 d9 d9 bd 84 82 59 be
       0.16918801 -0.27245402 -0.10637248 -0.21241194
000070 88 a2 25 be 17 2c b2 bb c8 72 2a bd 60 ab 0a bc
       -0.16175282 -0.005437385 -0.04161337 -0.008463711
000080 db 14 83 3c 56 f7 9a bd b6 35 68 be 62 fa 5f 3e
       0.016001156 -0.07566707 -0.22676739 0.21872857
000090 0d 0c 4a 3e 19 09 28 3e 90 1f b4 bd 50 7e 8d 3d
       0.1973116 0.1640972 -0.087950826 0.06908858
0000a0 60 75 27 be d5 00 42 3e db 16 7e be 5d 3f 6f be
       -0.16353369 0.1894563 -0.24813406 -0.23364015
0000b0 c4 20 21 be 57 e4 5c 3e 68 f2 fc 3c 90 a6 d2 bd
       -0.15735155 0.2157148 0.030877307 -0.102856755
0000c0 25 59 9e 3e 93 59 ff 3d 1e a9 6f 3c b3 0e 6c 3e
       0.30927387 0.12468257 0.014627723 0.23052482
0000d0 fd 07 b6 be da 70 5f 3e d0 d4 4f 3d 75 b1 8b 3e
       -0.3555297 0.21820393 0.050740063 0.27283826
0000e0 bc b3 50 be 81 c7 53 be 3c c4 7f 3e 88 8a 6d 3d
       -0.20381063 -0.20681573 0.24977201 0.05799344
0000f0 54 f2 a1 3e 12 1c 10 bd ae 14 9c be 55 20 c3 3d
       0.31630194 -0.03518302 -0.30484527 0.09527651
000100 ee 0a 83 be 81 37 7a 3e 46 8a 9d 3e cd bb 28 be
       -0.25594276 0.24435236 0.30769557 -0.1647789
000110 4e b8 11 3d 64 27 5b be c4 98 d5 be c5 94 d7 3d
       0.035576157 -0.21401745 -0.41718113 0.105264224
000120 35 9a 21 3e 94 43 14 be 9d 40 85 3e 03 fc d2 bc
       0.15781482 -0.14478904 0.2602586 -0.025754934
000130 da 16 86 be 57 6b 97 3c c5 64 e3 3d 4a 6b 43 3e
       -0.2618931 0.0184838 0.11103205 0.19083896
000140 95 7e 6c be 85 94 cf bd a1 e9 00 3d e2 6e 47 3e
       -0.23095162 -0.1013575 0.031472806 0.19475892
000150 98 7a 9b bd 26 09 df 3d e1 bb d5 bd 5b 7f 32 3e
       -0.07591742 0.10890417 -0.10436226 0.17431395
000160 d7 e1 ad 3e ba 66 a3 3d f7 b9 9c be eb f0 8d be
       0.33961365 0.07978578 -0.3061063 -0.27722868
000170 7c b0 6f be 39 e9 80 3e c6 04 13 3d f1 2f 6f 3e
       -0.23407167 0.25177935 0.035893224 0.23358132
000180 6a 55 3d be 56 c6 ce 3d 9a 3a fa bd 9b a5 5e 3e
       -0.18489614 0.10096423 -0.122182086 0.21742861

i_resnet_layers.6.bottleneck_block.2.weight_u f4 [10]
000000 be 1d 59 be 38 92 1c be 40 c9 41 bd 9b 2c 4e 3d
       -0.21202752 -0.15290153 -0.047311068 0.050335508
000010 56 8e 9e bd d1 d1 85 bd dd 64 11 3f c6 ed 11 bf
       -0.07741992 -0.0653416 0.5679453 -0.5700344
000020 e6 69 ae be 6b 53 c8 be
       -0.3406517 -0.39126143

i_resnet_layers.6.bottleneck_block.2.weight_v f4 [10]
000000 66 30 30 3f 72 0e 77 3c e8 bb 22 be 70 27 a2 bd
       0.6882385 0.015079128 -0.15891993 -0.07917678
000010 5e 34 5b be 23 c3 fe bc 3a 13 ea 3e a8 c5 82 be
       -0.21406695 -0.031098908 0.45717794 -0.25541425
000020 f0 c8 11 be dc 71 c8 be
       -0.14236808 -0.39149368

i_resnet_layers.6.bottleneck_block.4.weight_orig f4 [2, 10]
000000 e6 c2 a2 bc 61 f8 8b 3e 68 2f ae 3d 4d 74 ec bd
       -0.019868325 0.27337936 0.08505136 -0.1154562
000010 fd ee 78 be ea 75 29 be 0a 89 90 be 86 36 ae 3d
       -0.24309917 -0.16548887 -0.28229553 0.08506493
000020 a4 f8 ab bd b4 07 28 3d 0f 12 35 3e 45 0c 0d be
       -0.08397034 0.04102297 0.1768267 -0.13774212
000030 11 a7 2d be 78 10 8f be 69 01 7a 3e 9f ba 85 3e
       -0.16958262 -0.27942252 0.244146 0.26118943
000040 5e d7 2d be 68 25 cb 3e ef f0 10 3e 55 5d bd 3e
       -0.16976687 0.39676976 0.14154409 0.3698527

i_resnet_layers.6.bottleneck_block.4.weight_u f4 [2]
000000 6c 70 ea bd 32 51 7e 3f
       -0.11447224 0.99342644

i_resnet_layers.6.bottleneck_block.4.weight_v f4 [10]
000000 3e fc 64 3e 7b b0 58 be 8a 67 65 be 4f 2f aa be
       0.22361848 -0.21161072 -0.22402778 -0.3323922
000010 6a 1a ae 3e 21 47 b3 3e 05 76 2f be e6 62 f7 3e
       0.34004527 0.35015205 -0.17134865 0.4831764
000020 ed 51 41 3e a9 6b e9 3e
       0.18878908 0.4558995

i_resnet_layers.7.bottleneck_block.0.bias f4 [10]
000000 ec 37 9a 3e aa 08 c6 3e 13 62 3d 3e f6 da 7e 3d
       0.3012079 0.38678485 0.18494444 0.062220536
000010 34 7d 87 be 6d 9e 7c be b8 60 2d be 85 65 97 be
       -0.2646271 -0.2466981 -0.16931427 -0.2956964
000020 66 a2 36 be e2 d2 54 be
       -0.17835388 -0.2078357

i_resnet_layers.7.bottleneck_block.0.weight_orig f4 [10, 2]
000000 2b d4 38 bf 90 62 98 3d 7a 5a 6c be 73 ec 29 bf
       -0.7219874 0.07440674 -0.23081389 -0.6637642
000010 b6 be d9 3d ff fc 3a bf 59 f5 e4 3e 44 c8 98 3d
       0.10632078 -0.7304229 0.44718435 0.07460073
000020 65 08 84 3e 4f 4f 7e be 3d 5c 64 be 39 0e 2d 3e
       0.25787655 -0.24834941 -0.22300811 0.16899957
000030 5f 45 39 be 6f f0 c3 be 26 83 f8 bd 01 bf 1f 3f
       -0.18092869 -0.38269374 -0.121343896 0.62400824
000040 05 83 dd be 1f 85 01 3f 58 d1 37 3f d3 d2 67 be
       -0.43264022 0.5059375 0.7180381 -0.22639017

i_resnet_layers.7.bottleneck_block.0.weight_u f4 [10]
000000 05 7a a7 be 8e 70 87 3e 7e 71 de 3e c1 36 0d 3e
       -0.3271028 0.2645306 0.43445963 0.13790418
000010 99 b7 71 3e 14 8c 37 be 7c c2 08 3e 93 38 c4 be
       0.23605193 -0.1792453 0.1335544 -0.38324413
000020 0f 32 e3 be 5d 78 d0 3e
       -0.4437413 0.4071683

i_resnet_layers.7.bottleneck_block.0.weight_v f4 [2]
000000 08 4d 18 3f 96 c4 4d bf
       0.5949254 -0.8037809

i_resnet_layers.7.bottleneck_block.2.weight_orig f4 [10, 10]
000000 57 73 86 3e c9 22 5c be 74 38 28 3e 2c e2 46 bd
       0.26259872 -0.21497644 0.16427785 -0.048555538
000010 36 ab 82 bc d2 0c 92 be 04 93 e8 bd 5f 35 6a be
       -0.01595078 -0.28525406 -0.11356166 -0.22871922
000020 67 66 24 bd 40 8e 62 3e 6f 58 7e 3e 26 ae ba bd
       -0.04013672 0.22124577 0.24838422 -0.091152474
000030 e7 49 1e be 60 42 ba be 82 0a d0 bd 33 d5 8a bc
       -0.15457879 -0.36378765 -0.10158254 -0.016947364
000040 6d a2 c9 3d f4 96 88 bd 03 e7 51 3d 9e 0c f8 bd
       0.098454334 -0.06669417 0.0512457 -0.121117815
000050 39 67 b9 3d 55 d1 ec 3d e2 8a 4e 3e 94 6b 46 be
       0.09052891 0.115633644 0.20170167 -0.19376975
000060 25 72 ae 3e f0 78 ef 3c d0 22 49 3d d6 41 8b be
       0.3407146 0.029232472 0.049105465 -0.27198666
000070 7c c7 70 3c 2e 2e 62 bc 88 31 2b 3e 8c da 95 be
       0.014695998 -0.013804955 0.16718113 -0.292683
000080 53 c7 62 be 9f 05 29 3d 47 8f 97 bd 4d ac 8f 3e
       -0.22146349 0.041265126 -0.07400375 0.28061143
000090 8b d6 28 3e 9c 84 f9 3d f7 9e 1b 3e 42 41 9b 3e
       0.16488092 0.12183496 0.15197359 0.30323225
0000a0 9b 1e 8b 3e 6a c3 21 be c0 c0 cd 3c 2d cf 2d 3e
       0.27171788 -0.15797201 0.025116324 0.16973563
0000b0 c4 b9 22 be a3 97 3d be ba 8c b1 3e 52 4e 7b be
       -0.15891176 -0.18514876 0.34677678 -0.24541596
0000c0 e7 61 64 3e fe d3 60 be 22 26 77 bd e6 b2 28 be
       0.22302972 -0.21955869 -0.0603391 -0.16474494
0000d0 61 6a 80 be 4d 22 43 3e cf 1d 05 3e 80 59 cc 3c
       -0.2508116 0.19056053 0.12999652 0.02494502
0000e0 67 1f ab be b3 c2 63 be c1 76 91 3e 7b df 28 3e
       -0.33422396 -0.2224224 0.28410915 0.16491501
0000f0 7e 75 44 bd 8a 1e 3b be 03 fc 3c 3d e6 d9 08 3c
       -0.04796361 -0.18273368 0.046138775 0.008352732
000100 06 43 93 bd 94 df 9a 3d e7 a8 4a 3e 7e 8d 44 be
       -0.07190518 0.075621754 0.19790994 -0.191946
000110 5c bc fa bd e3 0e 42 be 6c 92 34 bd ca fa 25 be
       -0.12242958 -0.18950991 -0.04408495 -0.1620895
000120 3f bb 8f bd 8a 52 ce bd a5 b3 11 be fe 87 ba 3d
       -0.07018136 -0.10074337 -0.14228685 0.0910797
000130 1a 5f 47 be 1a ba 45 be 29 1c 46 3e 6e 41 78 be
       -0.19469872 -0.19309273 0.1934668 -0.2424371
000140 bd a2 f3 3d 8c a0 6d be 06 ed 8c bc a8 2d fd bd
       0.11896274 -0.23205775 -0.017202865 -0.12362224
000150 c5 fd 40 3e 8b bc 04 3e 77 74 19 3e ae 29 ac 3e
       0.18846805 0.12962548 0.14985834 0.3362555
000160 0b 6d 1e 3e a4 94 30 3d 0e 87 74 3e d6 58 2a 3e
       0.15471284 0.043110505 0.23879644 0.1663545
000170 ba 0f 45 3e 81 c1 c1 bd ee d3 8b 3d 53 c0 74 3e
       0.1924428 -0.09460736 0.06827532 0.23901491
000180 68 8d de 3d cb 06 76 be 8f 84 44 be 2b 85 8b 3e
       0.10866815 -0.24026029 -0.19191192 0.27250037

i_resnet_layers.7.bottleneck_block.2.weight_u f4 [10]
000000 30 2e 4b 3e 67 73 dc 3a e0 4f e9 3e 58 17 ea be
       0.19841838 0.001681906 0.45568752 -0.45720935
000010 26 56 a9 bb d4 c6 d2 be 6b 50 b8 3d a8 8b 53 be
       -0.0051677404 -0.4116732 0.089997135 -0.20658743
000020 44 87 8f be e3 76 fd 3e
       -0.28032887 0.49504766

i_resnet_layers.7.bottleneck_block.2.weight_v f4 [10]
000000 2b ad 20 3e c2 41 e8 3e fc eb 09 3f 56 23 67 be
       0.15691058 0.4536267 0.5387571 -0.22572073
000010 94 01 29 3e 09 c6 08 be 7b 70 20 3e c3 03 c7 be
       0.16504508 -0.13356794 0.15667908 -0.38870057
000020 bc 34 e9 be a5 74 6f bc
       -0.45548046 -0.014615213

i_resnet_layers.7.bottleneck_block.4.weight_orig f4 [2, 10]
000000 80 08 e5 bd d1 8f 09 be d8 8f 53 be 48 5f cf 3e
       -0.11183262 -0.13433768 -0.20660341 0.4050238
000010 3f 26 8e be a1 18 a3 3e a9 6a 8b bd b9 14 f1 3c
       -0.27763554 0.31854728 -0.06807453 0.029428827
000020 2f 80 f4 3d 6f da 97 be d7 bd 92 3b ac 68 05 be
       0.119385116 -0.2965884 0.004478197 -0.1302821
000030 f7 8a b9 3e 07 9d 0e 3e 78 2f b1 bd 1b 77 78 be
       0.36238834 0.13927089 -0.08651632 -0.24264185
000040 a8 a3 ed 3d fc e6 87 be 4e 24 86 be ea 75 42 3e
       0.116034806 -0.26543415 -0.26199573 0.18990293

i_resnet_layers.7.bottleneck_block.4.weight_u f4 [2]
000000 51 7b 4e bf f0 54 17 3f
       -0.80656916 0.5911398

i_resnet_layers.7.bottleneck_block.4.weight_v f4 [10]
000000 01 cc ed 3d 54 8b 20 3d 4d ec f3 3e 8f 72 9c be
       0.11611176 0.039195374 0.4764122 -0.3055615
000010 56 5a 5d 3e ec 3d 00 bf 7a 4b 1e 3e bd 73 67 be
       0.21616492 -0.50094485 0.1545848 -0.22602744
000020 9b de a0 be 10 16 e1 3e
       -0.31419834 0.43962145

i_resnet_layers.8.bottleneck_block.0.bias f4 [10]
000000 c4 95 b1 3e 46 d4 b4 bd d0 31 59 bc bd a3 a2 3c
       0.34684575 -0.088295504 -0.013256505 0.019853467
000010 8c d8 1d bf b3 73 85 3e 55 7f 8f 3c e7 50 df 3d
       -0.6165855 0.26064834 0.017516771 0.10904103
000020 5e a9 63 3e c3 ea 6b 3e
       0.22232577 0.23038773

i_resnet_layers.8.bottleneck_block.0.weight_orig f4 [10, 2]
000000 47 34 e0 bd 19 96 59 3f 8e d3 7e 3e 29 ff 0b 3f
       -0.10947471 0.84994656 0.24885389 0.5468622
000010 31 84 09 bf ef de 80 3e b9 db ec be 35 f2 0b 3f
       -0.53717333 0.25170085 -0.46261385 0.54666454
000020 17 6d 96 3d d3 12 e4 be 27 40 7e 3e c0 37 13 bf
       0.07345026 -0.44545612 0.2482916 -0.5750694
000030 53 80 ee 3e 53 5f b3 be 08 a2 ea 3e 23 6b 4b 3e
       0.4658228 -0.35033664 0.45826745 0.19865088
000040 19 5a af be 32 9d a0 3e d1 29 dd 3d a2 0d 12 3f
       -0.34248427 0.3136993 0.107989915 0.5705205

i_resnet_layers.8.bottleneck_block.0.weight_u f4 [10]
000000 04 20 ff 3e fc c9 7d 3e a5 96 86 3e cc f6 d1 3e
       0.49829113 0.24784082 0.26286808 0.41008604
000010 34 91 87 be b0 ff c0 be 5e 57 9a be f7 dd c4 3b
       -0.2647797 -0.37695074 -0.3014478 0.0060079056
000020 76 87 81 3e d0 0f 96 3e
       0.2529866 0.2930894

i_resnet_layers.8.bottleneck_block.0.weight_v f4 [2]
000000 42 03 c2 be a6 e8 6c 3f
       -0.3789311 0.92542493

i_resnet_layers.8.bottleneck_block.2.weight_orig f4 [10, 10]
000000 b0 f0 a6 3c 62 f6 70 be 9c c1 c8 bd 36 e6 56 3e
       0.02037844 -0.23531488 -0.09802553 0.20986256
000010 b4 46 9e be 48 58 a7 3d 63 1d 3c bd 29 64 15 be
       -0.30913317 0.08171135 -0.045926463 -0.1458899
000020 01 79 65 be 73 8b 6f 3d 1a 00 8e 3e a1 6d 36 be
       -0.2240944 0.0584826 0.27734452 -0.17815258
000030 ac 1d 41 3b 5b cb 3f be a6 e9 9a be 47 ce 95 3e
       0.0029467149 -0.18729918 -0.30256385 0.2925894
000040 b4 43 2f be 61 9a 07 ba 9a 79 8a be ae 07 89 3e
       -0.1711567 -0.00051728456 -0.270459 0.26763672
000050 2a 13 c9 3d 39 34 1c be 32 38 8f be db 7f 8c be
       0.098181084 -0.15254296 -0.2797256 -0.27441296
000060 64 96 2e 3e 65 96 89 be 00 3c d2 bd 34 f6 3e 3e
       0.17049557 -0.26872554 -0.1026535 0.18648607
000070 7a 6b e5 3c 98 7b c1 3e 03 7f 20 be aa 00 37 3e
       0.02800535 0.37789607 -0.15673451 0.17871347
000080 96 45 96 3e b1 52 60 be 3e ef c8 3d 20 4d 95 3e
       0.29349965 -0.21906544 0.09811257 0.29160404
000090 49 9d f3 3d 16 83 5e bb ef 94 d4 3a 5d 4e a0 3d
       0.11895234 -0.0033952645 0.0016218702 0.078274466
0000a0 9a d3 a9 bc 8a a4 05 be 93 6e a8 bd 2e 03 8a 3e
       -0.020730782 -0.13051048 -0.08224215 0.2695555
0000b0 8e 44 0e be 03 7a 69 bd cb e8 05 be 94 a4 d5 3d
       -0.13893339 -0.057001125 -0.13077085 0.104317814
0000c0 91 0a 9a 3e 89 f2 82 3d 18 5f c7 be 1c e9 94 bb
       0.30086187 0.06393916 -0.38939738 -0.0045443904
0000d0 c2 93 18 be c3 43 95 bd 89 0d 9c 3e 22 6e 90 3d
       -0.14900115 -0.07288315 0.30479077 0.07052256
0000e0 ab d7 77 be fe 6a 07 3e e6 e8 0c be e0 12 b0 bc
       -0.24203365 0.13224408 -0.13760719 -0.021493375
0000f0 bc 1c 80 be ec b5 61 3e b5 7f 9d be 87 33 5c 3e
       -0.25021923 0.22042054 -0.30761495 0.21504031
000100 7e 4c 1f 3e 22 02 35 be 9f 04 78 be f2 da be 3d
       0.15556523 -0.17676595 -0.24220513 0.09319104
000110 e3 be 58 be b7 2e a9 3e af 5b d8 3e 1b 0f be 3e
       -0.21166568 0.33043453 0.4225745 0.371209
000120 af ae 8d be 1e 9d 73 3e cc 7d 9a be 70 1d 80 3b
       -0.27672336 0.23790404 -0.301741 0.003909759
000130 ee 98 2a be 0e cd ab 3e 29 c0 7e 3e d1 65 8c 3c
       -0.166599 0.33554882 0.24877991 0.017138394
000140 cd b6 d4 bc cf 2f 42 be e1 c7 ad 3e d9 e3 3d be
       -0.025966072 -0.1896355 0.33941558 -0.18543948
000150 38 bf 48 3e 53 6b 1f 3e 45 48 ea bd df 6c 16 3e
       0.19604194 0.15568285 -0.114395656 0.14689969
000160 7c 41 2e be 13 aa d4 3b 12 6d 1d 3e 0e be 79 3e
       -0.17017168 0.006490001 0.15373638 0.24388906
000170 3d ea 69 3e 44 f2 50 3e 4a ef 8f be 24 80 b9 be
       0.22843261 0.20404917 -0.2811225 -0.36230576
000180 dd 0b 31 be 33 32 91 3d 95 3d 81 bd a5 75 e5 bd
       -0.17289682 0.07089653 -0.06310574 -0.112040795

i_resnet_layers.8.bottleneck_block.2.weight_u f4 [10]
000000 2f aa dd 3d 80 4a 1e 3c 85 be b6 3c ea ae a3 be
       0.108234756 0.009661317 0.022307644 -0.31969386
000010 39 9e 88 3e b2 74 83 be 41 d7 00 3e 82 ca 2f 3f
       0.26683214 -0.2567497 0.12582113 0.6866838
000020 9e 1b b2 be 78 91 bf 3e
       -0.34786695 0.3741567

i_resnet_layers.8.bottleneck_block.2.weight_v f4 [10]
000000 26 46 d9 3e 09 11 91 3e 0d 12 a2 be 7c fa e6 3e
       0.42436332 0.2833331 -0.31654397 0.4511298
000010 19 61 f6 be 0c 66 96 be ef ae 2c be 34 19 37 3e
       -0.48120955 -0.2937473 -0.16863607 0.17880708
000020 6e f0 74 3e 62 9d ac 3c
       0.23919842 0.02107114

i_resnet_layers.8.bottleneck_block.4.weight_orig f4 [2, 10]
000000 63 3d f1 3d 0b 71 20 3e 80 a2 a4 3e 5f 61 53 be
       0.11779287 0.15668122 0.32155228 -0.20642613
000010 3f a6 8e bd 13 a3 88 be e1 69 2e 3e 7c fa b2 3e
       -0.06965303 -0.26686916 0.17032577 0.3495673
000020 bf 0f 90 be f7 e2 52 3d 1d ed 7a bc 2a ce 03 3e
       -0.28137013 0.05148598 -0.015315321 0.12871614
000030 74 49 9e 3d 40 b8 89 3e 23 4b 8a be c5 9d e2 3b
       0.07728854 0.26898384 -0.2701045 0.0069157802
000040 eb 69 10 3e 57 03 d4 be 47 36 6c bd 2f 47 c4 be
       0.14102904 -0.41408798 -0.05766895 -0.3833556

i_resnet_layers.8.bottleneck_block.4.weight_u f4 [2]
000000 9c 6b 2e 3f d7 62 3b bf
       0.6813295 -0.7319769

i_resnet_layers.8.bottleneck_block.4.weight_v f4 [10]
000000 27 e4 ed 3d 0f 3a 82 3c 02 08 53 3e 22 43 db be
       0.11615782 0.015896825 0.20608523 -0.42824656
000010 7c 3f 43 3e 86 cc 72 be a6 9a 83 3c 4c bc 2f 3f
       0.19067186 -0.23710832 0.016064953 0.68646693
000020 d6 f9 41 be d2 13 cd 3e
       -0.18942961 0.40054184

i_resnet_layers.9.bottleneck_block.0.bias f4 [10]
000000 28 fd b3 3e 7e 12 26 3f dd 1f 17 3f 72 c1 b6 3e
       0.3515408 0.64871967 0.59032995 0.35694462
000010 32 7e 03 3f b7 c8 5b 3d 78 8e 12 3f 17 78 b3 be
       0.51364434 0.053658213 0.5724864 -0.3505256
000020 d8 66 87 3e 50 8b 06 3e
       0.2644565 0.13139081

i_resnet_layers.9.bottleneck_block.0.weight_orig f4 [10, 2]
000000 b9 0c c6 3e 46 45 e7 3e 59 24 c5 3e 13 36 03 3f
       0.38681582 0.4517004 0.38504294 0.51254386
000010 c2 ce ca 3e 5e 65 46 3f 1d 83 05 3f a1 08 e8 bd
       0.3961087 0.77498424 0.5215319 -0.11329771
000020 e3 a8 35 bf d5 10 8c 3e 4b 1a 8e 3e c6 27 c0 be
       -0.70960826 0.27356592 0.27754435 -0.37530345
000030 97 e9 c4 be a3 b5 18 3e ba c3 32 3e d4 a5 bd 3e
       -0.38459465 0.14913039 0.17457476 0.3704058
000040 1b f9 f0 3c 2c 1e 59 3f 41 ba 1e 3f 03 0c b6 3e
       0.029415658 0.84811664 0.6200295 0.3555604

i_resnet_layers.9.bottleneck_block.0.weight_u f4 [10]
000000 9b 63 b8 be fc 9b c7 be 00 67 06 bf 26 7a fe bd
       -0.36013493 -0.38986194 -0.52500916 -0.12425642
000010 2d e0 df 3d ae 5c bb 3d 89 50 71 3d 84 b7 7b be
       0.1093143 0.091485366 0.058914695 -0.24581724
000020 b1 57 de be 1c 35 c9 be
       -0.43426278 -0.39298332

i_resnet_layers.9.bottleneck_block.0.weight_v f4 [2]
000000 18 e9 11 bf fd 58 52 bf
       -0.569963 -0.82167035
