experiments/models/spiral/i_resnet_euclidean_product_20_blocks_10_epochs_2024_02_11_13_43_54.pt (torch, 134850 bytes, 200 tensors)

i_resnet_layers.0.bottleneck_block.0.bias f4 [10]
0	0x3de61c8e	0.11235915
1	0x39a5e077	0.00031638492
2	0x3e32f98f	0.17478012
3	0x3c61ce51	0.0137821
4	0xbee1d7f2	-0.44110066
5	0xbf5d7358	-0.86504126
6	0xbee09c61	-0.43869308
7	0x3c4e9b8f	0.01261033
8	0xbe2c3386	-0.1681653
9	0x3ee9105d	0.45520297

i_resnet_layers.0.bottleneck_block.0.weight_orig f4 [10, 2]
0	0x3f01ff0c	0.50779796
1	0x3f136490	0.5757532
2	0xbdb244ba	-0.08704515
3	0xbedb7d4b	-0.42869028
4	0x3eec81b8	0.46192718
5	0xbec9ca3e	-0.3941211
6	0xbf4b5f42	-0.79442227
7	0xbf293b19	-0.661058
8	0x3d886c80	0.0666132
9	0xbd8f01ab	-0.0698274
10	0xbe20fb52	-0.15720871
11	0x3e11f85b	0.14254896
12	0xbeda40b9	-0.42627504
13	0x3ed22841	0.41046336
14	0xbec1d7e7	-0.37860033
15	0xbf22abd4	-0.6354344
16	0x3e2b5dab	0.1673495
17	0xbee14cd6	-0.44003934
18	0xbe9141ed	-0.2837061
19	0xbc4bbf4e	-0.012435747

i_resnet_layers.0.bottleneck_block.0.weight_u f4 [10]
0	0xbefd60cd	-0.49487916
1	0x3e81ac1b	0.2532662
2	0x3c93a012	0.018020663
3	0x3f26dbf5	0.6517938
4	0x3c1891dc	0.009312119
5	0xbc30165b	-0.010747517
6	0xbd2667e3	-0.040626418
7	0x3ef2b13b	0.4740084
8	0x3e222374	0.15833837
9	0x3df3e759	0.119093604

i_resnet_layers.0.bottleneck_block.0.weight_v f4 [2]
0	0xbf1d076f	-0.6133947
1	0xbf4a2ecb	-0.7897765

i_resnet_layers.0.bottleneck_block.2.weight_orig f4 [10, 10]
0	0x3daa5532	0.08317031
1	0xbe46fc10	-0.19432092
2	0xbe82a53f	-0.25516698
3	0x3db327fc	0.08747861
4	0x3dd1fdfd	0.102535225
5	0xbdf5008a	-0.119629934
6	0x3e991d52	0.29905182
7	0x3c24e336	0.010063937
8	0x3d46c838	0.048530787
9	0x3e7bbfa1	0.2458482
10	0x3e594551	0.21217848
11	0xbb9d8f1f	-0.004808321
12	0x3d6c8d79	0.057752106
13	0xbecf82fe	-0.40529627
14	0xbcfefb67	-0.031125737
15	0xbe5b44bf	-0.21412943
16	0x3e0fa9aa	0.14029565
17	0xbe805486	-0.25064486
18	0x3ce1acaa	0.027548153
19	0xbd650576	-0.05591341
20	0x3debe2e0	0.11517882
21	0xbe327315	-0.17426713
22	0xbd10a2e3	-0.03531159
23	0xbecbbcbd	-0.39792433
24	0xbbf5ed7f	-0.0075051184
25	0xbd017faa	-0.03161589
26	0x3df0434e	0.11731587
27	0xbe7d63f6	-0.24745163
28	0xbeb23806	-0.34808367
29	0xbc99a17d	-0.018753761
30	0x3e0f30fc	0.1398353
31	0xbe3d47e2	-0.18484452
32	0xbe3e682d	-0.18594427
33	0x3dd3925c	0.1033065
34	0x3e760c63	0.24028163
35	0xbd80a358	-0.06281155
36	0x3d8cbf71	0.06872452
37	0x3e47e2c4	0.19520098
38	0x3d256bf4	0.040386155
39	0xbea8337a	-0.32851774
40	0xbd74e42c	-0.059787914
41	0x3e5084a8	0.20363104
42	0x3e12acf7	0.14323793
43	0xbe842650	-0.2581048
44	0xbd0c6b21	-0.034281854
45	0xbe45dd89	-0.1932279
46	0x3cf117eb	0.02943035
47	0x3caadd58	0.020857498
48	0x3e9e5304	0.3092271
49	0xbe1f9799	-0.15585174
50	0xbe947355	-0.2899424
51	0x3da2508e	0.07925521
52	0x3e447d49	0.19188417
53	0x3e2349c4	0.15946108
54	0xbca56a44	-0.020192273
55	0xbbed7bc8	-0.007247422
56	0x3e32d6e1	0.17464782
57	0x3d200fa9	0.039077435
58	0xbe04324c	-0.12909812
59	0x3e348ac7	0.17631064
60	0x3e2ff890	0.17184663
61	0xbe4c874d	-0.19973488
62	0xbe00fd8d	-0.12596722
63	0x3d25cdb2	0.04047937
64	0x3e51fdd7	0.20506988
65	0x3d9a959f	0.07548069
66	0xbe53192d	-0.20615073
67	0xbd5af6d5	-0.053458054
68	0x3c8e1796	0.017345231
69	0x3dcf00ef	0.101076
70	0x3e06260d	0.13100453
71	0xbd4bd6c0	-0.04976535
72	0xbe760316	-0.24024615
73	0x3c2396d1	0.009984688
74	0xbd2a2ad1	-0.04154474
75	0x3e4f5562	0.20247415
76	0x3e1e3468	0.15449679
77	0x3e00303a	0.12518397
78	0xbe0fd6ad	-0.14046736
79	0xbe84c630	-0.25932455
80	0xbd3f333d	-0.046679724
81	0x3e51beeb	0.20482986
82	0xbe657154	-0.22406512
83	0xbd5f4a3b	-0.05451415
84	0x3d3da754	0.046302155
85	0xbe954853	-0.29156741
86	0x3d9ddf83	0.07708647
87	0xbceeb259	-0.029137777
88	0x3e045fcc	0.12927169
89	0x3e1103ca	0.14161602
90	0x3e8cf1b4	0.27528155
91	0xbe2296de	-0.15877864
92	0x3d252112	0.04031474
93	0xbd90c2db	-0.07068416
94	0xbdd00c77	-0.101586275
95	0x3e893197	0.26795647
96	0xbe178887	-0.14798175
97	0xbe8b4563	-0.27201375
98	0x3e337c4d	0.17527886
99	0x3e342099	0.1759056

i_resnet_layers.0.bottleneck_block.2.weight_u f4 [10]
0	0xbd56efb1	-0.05247468
1	0xbf189008	-0.59594774
2	0xbf1c0f31	-0.6096068
3	0x3d421241	0.04738069
4	0xbd9f7d65	-0.07787589
5	0x3ea837c9	0.3285506
6	0xbe066cf6	-0.13127503
7	0xbd373c2d	-0.044735122
8	0x3bbbabb4	0.0057272557
9	0xbebc1603	-0.36735544

i_resnet_layers.0.bottleneck_block.2.weight_v f4 [10]
0	0xbef7407d	-0.48291388
1	0x3e790c8e	0.24321195
2	0x3d833910	0.06407368
3	0x3f2ba85e	0.6705378
4	0x3d371a73	0.04470296
5	0x3d53b040	0.051681757
6	0xbd330c92	-0.04371316
7	0x3efaf9b2	0.49018627
8	0x3da51760	0.08061099
9	0x3cc0f404	0.023553856

i_resnet_layers.0.bottleneck_block.4.weight_orig f4 [2, 10]
0	0x3da7a2b4	0.0818533
1	0xbe7d7dd3	-0.2475503
2	0xbc21fb13	-0.009886521
3	0xbdd9da5c	-0.10637352
4	0xbe3f2df3	-0.18669872
5	0xbe081d0a	-0.13292328
6	0xbdfbd74f	-0.12296926
7	0xbe489f27	-0.19591962
8	0x3e78066b	0.24221198
9	0xbe5558dc	-0.20834678
10	0xbe0c9203	-0.13727574
11	0xbec41063	-0.38293752
12	0xbecdc542	-0.40189558
13	0x3e11a108	0.14221585
14	0xbd900cc4	-0.07033685
15	0x3ec0e39d	0.37673655
16	0xbe24c6f9	-0.16091527
17	0xbd3cee5b	-0.04612575
18	0xbd931b22	-0.071829095
19	0xbe905056	-0.2818629

i_resnet_layers.0.bottleneck_block.4.weight_u f4 [2]
0	0xbe93cf56	-0.28869122
1	0xbf75199f	-0.9574222

i_resnet_layers.0.bottleneck_block.4.weight_v f4 [10]
0	0x3e0ab5a9	0.1354586
1	0x3f0c4785	0.5479663
2	0x3ef8389d	0.48480693
3	0xbe07948e	-0.13240263
4	0x3e1b42c9	0.15162195
5	0xbece8bc7	-0.40341017
6	0x3e737f83	0.2377911
7	0x3e014bee	0.12626621
8	0xbaa9a272	-0.0012942089
9	0x3ed3793a	0.41303426

i_resnet_layers.1.bottleneck_block.0.bias f4 [10]
0	0x3f1983e4	0.59966874
1	0x3dc3bd77	0.09557622
2	0x3ee4bd6c	0.44675767
3	0xbf1ac0ca	-0.6045042
4	0x3d73ae69	0.059492502
5	0x3eaf2c2d	0.3421339
6	0xbd067058	-0.032821983
7	0x3f235219	0.63797146
8	0xbee0c0f9	-0.43897226
9	0x3de10a42	0.10988285

i_resnet_layers.1.bottleneck_block.0.weight_orig f4 [10, 2]
0	0x3e57dae4	0.21079594
1	0xbe8c3cfd	-0.2739028
2	0x3f06a537	0.5259585
3	0x3ed2475e	0.41070074
4	0xbea8a99d	-0.32941905
5	0xbdd5904b	-0.10427912
6	0xbeb8e04a	-0.3610862
7	0xbe403a60	-0.18772268
8	0x3ec8a79d	0.3919038
9	0x3e1c5359	0.1526617
10	0xbd9f2de2	-0.07772423
11	0x3ddbc5c1	0.10731078
12	0xbf03f9d8	-0.51553106
13	0xbf00700e	-0.5017098
14	0xbeac8323	-0.336938
15	0x3edb9111	0.42884114
16	0x3ea5a863	0.3235503
17	0x3ebec467	0.37259218
18	0xbe7e3baf	-0.24827455
19	0x3f4ba54e	0.7954911

i_resnet_layers.1.bottleneck_block.0.weight_u f4 [10]
0	0xbda3b751	-0.07993949
1	0x3ef4c4b9	0.47806337
2	0xbe51ca78	-0.20487392
3	0xbe8a3d7a	-0.27000028
4	0x3e85d518	0.2613914
5	0x3d085a30	0.033289135
6	0xbf07a945	-0.5299266
7	0x3df9f0c9	0.12204129
8	0x3ebc92c3	0.3683072
9	0x3ec5e4e7	0.386512

i_resnet_layers.1.bottleneck_block.0.weight_v f4 [2]
0	0x3f110e95	0.56662875
1	0x3f52efe8	0.8239732

i_resnet_layers.1.bottleneck_block.2.weight_orig f4 [10, 10]
0	0xbdaa87f0	-0.08326709
1	0x3d4ea7b1	0.05045289
2	0x3db06f3e	0.08614968
3	0xbdb6119b	-0.08890077
4	0xbe14bee6	-0.14525947
5	0x3dccf556	0.100077316
6	0xbe581f03	-0.2110558
7	0xbdd23571	-0.102640994
8	0xbe09a5cb	-0.13442151
9	0x3ebc1da5	0.36741367
10	0x3c94b3a4	0.018152066
11	0x3e946ecc	0.2899078
12	0xbe85432d	-0.26027814
13	0xbe57426c	-0.21021432
14	0x3d492add	0.049113143
15	0xbdebb29d	-0.11508677
16	0xbede0054	-0.43359625
17	0x3d0ab67a	0.03386543
18	0xbdbd7edb	-0.092527114
19	0xbdd36030	-0.10321081
20	0xbe61e9d0	-0.22061849
21	0x3de71e43	0.11285069
22	0xbd8ccb34	-0.068746954
23	0x3da989c0	0.08278227
24	0x3e8adbac	0.2712072
25	0xbe04ea6f	-0.12980054
26	0xbe220a36	-0.15824208
27	0xbe1ed9ee	-0.15512821
28	0x3ead38b9	0.33832338
29	0xbe505425	-0.20344599
30	0xbe9c921a	-0.30580217
31	0x3e318cd5	0.1733888
32	0xbda233aa	-0.079200104
33	0xbded1291	-0.11575807
34	0xbde5e461	-0.112252004
35	0x3dcbaf23	0.09945514
36	0x3c302edd	0.010753361
37	0x3e9d6328	0.30739713
38	0x3dc54148	0.09631592
39	0x3e861e62	0.26195055
40	0x3e8c9a11	0.27461293
41	0x3e7bc849	0.24588121
42	0xbc9c4673	-0.019076562
43	0xbdf3eab1	-0.11909998
44	0x3e70ba00	0.23508453
45	0x3d35f581	0.044423584
46	0xbb48c8d6	-0.0030637286
47	0x3d8d9a92	0.069142476
48	0x3d9c29d5	0.07625166
49	0x3dda08b1	0.10646189
50	0xbe4b0a5a	-0.19828168
51	0x3d832b0a	0.064046934
52	0xbd72a913	-0.059243273
53	0xbdd4e06f	-0.1039437
54	0xbdb31293	-0.08743777
55	0x3d5deead	0.054182697
56	0x3c891d69	0.016737657
57	0x3e8b352c	0.27189004
58	0x3e440423	0.19142203
59	0x3dde5198	0.108554065
60	0xbe1f96a7	-0.15584813
61	0xbb6b811e	-0.0035935114
62	0x3e29238b	0.16517465
63	0x3db67021	0.08908106
64	0xbd2dbebe	-0.042418234
65	0x3c476752	0.01217063
66	0xbe74218d	-0.23840924
67	0x3e750a8f	0.23929809
68	0xbeb74d42	-0.3580113
69	0xbecc492c	-0.39899576
70	0x3dadb829	0.084823914
71	0xbc89611a	-0.016769934
72	0xbe3c6284	-0.18396956
73	0x3e8f9aa4	0.2804767
74	0x3db34709	0.08753783
75	0x3d08ab1f	0.03336632
76	0xbe2f6b89	-0.17130865
77	0x3dd2c4b8	0.102914274
78	0xbe3eac98	-0.18620527
79	0x3d265d04	0.04061605
80	0x3de0d355	0.109778084
81	0xbe9b2dcc	-0.30308378
82	0xbcccfe80	-0.025023699
83	0x3de60dcc	0.112331
84	0xbe05ebc4	-0.13078219
85	0x3e0014cd	0.12507935
86	0xbde5d25a	-0.11221762
87	0xbdb1c7e2	-0.08680703
88	0xbbe210a7	-0.006898958
89	0x3decb640	0.11558199
90	0xbe5f2979	-0.21793164
91	0x3e00a6ac	0.1256358
92	0x3e43ac89	0.19108786
93	0x3e5bbc3d	0.21458526
94	0xbe8f692c	-0.28009927
95	0xbd79a5f0	-0.060949266
96	0x3dd4c661	0.103894
97	0xbdae3e79	-0.085080095
98	0xbc119d4c	-0.0088876
99	0xbde981dc	-0.11401722

i_resnet_layers.1.bottleneck_block.2.weight_u f4 [10]
0	0xbcce26a1	-0.025164904
1	0xbf322814	-0.69592404
2	0xbeb192a1	-0.3468218
3	0xbe92c49f	-0.28665635
4	0xbea55edf	-0.32298943
5	0xbe53f2c7	-0.20698081
6	0xbd35fcda	-0.04443059
7	0xbd87cff4	-0.06631461
8	0x3e9a63c2	0.30154234
9	0x3e85a5b2	0.26102978

i_resnet_layers.1.bottleneck_block.2.weight_v f4 [10]
0	0x3dd693f2	0.10477437
1	0xbf0dbf18	-0.5536971
2	0x3ebacf2b	0.36486182
3	0x3eb42bd6	0.35189694
4	0xbeab24c0	-0.33426476
5	0x3de017e6	0.10942058
6	0x3eee38bb	0.46527657
7	0xbe804a30	-0.250566
8	0xbe175a2c	-0.14780492
9	0x3cd3d278	0.025857195

i_resnet_layers.1.bottleneck_block.4.weight_orig f4 [2, 10]
0	0xbb440427	-0.0029909702
1	0xbec29260	-0.380023
2	0xbec385cb	-0.38188013
3	0xbd2dc157	-0.04242071
4	0xbeaf9165	-0.34290615
5	0xbb0db0ba	-0.002162023
6	0xbd48f511	-0.04906184
7	0x3dbd64af	0.092477195
8	0x3ebaab91	0.3645902
9	0x3e81e239	0.25367907
10	0x3e8f2d86	0.2796442
11	0xbe915dac	-0.28391778
12	0x3dbe666a	0.09296878
13	0x3ea4c742	0.32183272
14	0x3e4cf4ef	0.2001531
15	0x3e5fef14	0.21868545
16	0xbed6cd86	-0.41953677
17	0xbdf38f05	-0.11892513
18	0x3e2cc390	0.16871476
19	0xbe7cf7d6	-0.24703917

i_resnet_layers.1.bottleneck_block.4.weight_u f4 [2]
0	0xbe188f28	-0.1489836
1	0x3f7d2499	0.9888397

i_resnet_layers.1.bottleneck_block.4.weight_v f4 [10]
0	0x3eb15ac7	0.3463957
1	0xbe8f8b03	-0.28035745
2	0x3e3eee46	0.18645582
3	0x3ecfc463	0.4057952
4	0x3e9f7785	0.31145874
5	0x3e8a9986	0.27070254
6	0xbf029459	-0.5100761
7	0xbe288be9	-0.16459621
8	0x3e1054a4	0.14094788
9	0xbeb4b1d3	-0.3529192

i_resnet_layers.2.bottleneck_block.0.bias f4 [10]
0	0x3f1caa5c	0.6119745
1	0x3e98f36b	0.29873213
2	0xbf0e1ca1	-0.55512434
3	0x3e6410d4	0.22272044
4	0x3ef25c1e	0.47335905
5	0xbf1a5585	-0.6028674
6	0xbe7ae4d4	-0.24501354
7	0x3f058337	0.5215334
8	0x3ea6b9d2	0.32563645
9	0x3ed9f27f	0.42567822

i_resnet_layers.2.bottleneck_block.0.weight_orig f4 [10, 2]
0	0x3e17e659	0.14833964
1	0x3dcbad05	0.0994511
2	0xbf1adf78	-0.60497236
3	0x3f3dcc60	0.74139977
4	0x3efde99a	0.49592286
5	0x3f255c94	0.6459439
6	0x3ee08898	0.43854213
7	0x3ea572e4	0.32314217
8	0xbf02b4c3	-0.5105707
9	0x3e5661d5	0.20935757
10	0xbe1c5d2f	-0.15269922
11	0xbea11912	-0.3146444
12	0x3e40b1c1	0.18817808
13	0xbe3d282a	-0.18472353
14	0x3e39e6f9	0.18154515
15	0xbf3be136	-0.7339052
16	0xbdb2ee7c	-0.087368935
17	0xbf2bb32d	-0.67070276
18	0xbf087edb	-0.53318566
19	0xbe642271	-0.22278763

i_resnet_layers.2.bottleneck_block.0.weight_u f4 [10]
0	0xbd80f514	-0.06296745
1	0xbeff8751	-0.49907926
2	0xbed5fb33	-0.41793212
3	0xbe52fad4	-0.20603496
4	0xbe1606ea	-0.14651075
5	0x3e521a4c	0.20517844
6	0x3e0032b7	0.12519346
7	0x3ef9723f	0.48719975
8	0x3ee1a773	0.44073066
9	0x3e0d1fa1	0.13781597

i_resnet_layers.2.bottleneck_block.0.weight_v f4 [2]
0	0x3ccfb400	0.025354385
1	0xbf7feaef	-0.99967855

i_resnet_layers.2.bottleneck_block.2.weight_orig f4 [10, 10]
0	0xbd242b27	-0.040080216
1	0xbc977256	-0.018487137
2	0xbe6a0aac	-0.22855633
3	0x3e543d48	0.20726502
4	0x3c26917d	0.010166523
5	0x3e354a84	0.17704207
6	0xbe1fe375	-0.15614112
7	0x3e07b3ed	0.1325223
8	0xbdeb9d23	-0.11504581
9	0xbc750cb7	-0.014956645
10	0xbd430986	-0.047616504
11	0xbe5d9317	-0.21638142
12	0xbd2146c7	-0.03937414
13	0x3da0594a	0.078295305
14	0xbcdcddc8	-0.026961222
15	0x3e80fcc3	0.25192842
16	0x3ea12992	0.31477028
17	0xbe92d378	-0.28676963
18	0xbde11cee	-0.10991846
19	0xbd479180	-0.048722744
20	0xbd1491fd	-0.036272038
21	0xbe83a703	-0.25713357
22	0x3d6f4b30	0.058421314
23	0x3d06082b	0.032722633
24	0x3e4dcc38	0.20097435
25	0xbd877a73	-0.06615152
26	0xbe5cf047	-0.21576034
27	0xbdc7f02e	-0.097626075
28	0xbd71077b	-0.058845025
29	0xbea0237c	-0.31277072
30	0xbe522f97	-0.20525967
31	0xbe526770	-0.20547271
32	0x3d84a876	0.06477444
33	0x3e2bcaaf	0.16776536
34	0x3d67d64a	0.056600846
35	0x3d820f1f	0.0635054
36	0xbe52d320	-0.2058835
37	0xbe5b8eeb	-0.21441238
38	0x3eb574dc	0.3544072
39	0x3e48fd5f	0.19627903
40	0xbe441856	-0.19149908
41	0xbebc55a3	-0.36784086
42	0xbecb2acf	-0.39681098
43	0x3c493cdc	0.012282576
44	0xbe1bebab	-0.15226619
45	0x3db8df08	0.09026915
46	0x3c6dec90	0.014521733
47	0x3ee1f961	0.44135574
48	0x3e79687e	0.24356267
49	0x3df1c223	0.11804607
50	0xbe2e1877	-0.1700152
51	0xbe010ae5	-0.12601812
52	0x3cdb2266	0.0267498
53	0xbe48ceb2	-0.19610098
54	0xbe3cdbf9	-0.18443288
55	0xbd0401ce	-0.032228284
56	0x3d0e8162	0.034791358
57	0xbe3d36a9	-0.18477882
58	0xbe82175f	-0.25408456
59	0x3e6032b4	0.21894342
60	0xbda96f61	-0.08273197
61	0x3dc1ca66	0.094624326
62	0xbd882c9e	-0.06649135
63	0x3cb7b830	0.022426695
64	0x3e3c03d4	0.18360835
65	0x3e43f8d2	0.19137886
66	0xbd2c6352	-0.042086907
67	0x3d3ee3de	0.04660403
68	0xbe8efd8f	-0.27927825
69	0xbe9cc7e8	-0.30621266
70	0xbdc3be55	-0.09557787
71	0xbc9d99f8	-0.019238457
72	0x3e18794b	0.1489002
73	0x3d90b56d	0.07065854
74	0xbe6e476a	-0.2326943
75	0xbe2a4c55	-0.16630681
76	0x3d82a6d6	0.06379478
77	0xbd891912	-0.06694235
78	0xbe0b238b	-0.13587777
79	0xbcc26baa	-0.023732979
80	0xbd88610a	-0.06659134
81	0xbc7fbfa3	-0.015609655
82	0xbd130cec	-0.035900995
83	0xbd415e1c	-0.04720889
84	0x3e2871ad	0.16449614
85	0x3e5eeae9	0.21769299
86	0x3e803305	0.25038925
87	0xbd9454f2	-0.072427645
88	0x3e317f35	0.17333682
89	0xbe87329b	-0.26405796
90	0xbd2be644	-0.041967645
91	0x3d3ac19c	0.045594797
92	0xbde07b80	-0.10961056
93	0xbe351a29	-0.1768576
94	0x3d5cc78d	0.053901244
95	0x3e72d4fd	0.23714061
96	0xbe0e7f53	-0.13915758
97	0x3c6bb8e7	0.014387346
98	0x3d43b460	0.04777944
99	0xbe912dcb	-0.2835525

i_resnet_layers.2.bottleneck_block.2.weight_u f4 [10]
0	0x3e496212	0.19666317
1	0xbdcb44f6	-0.09925263
2	0xbdf4cc32	-0.1195301
3	0x3ea1f081	0.31628802
4	0x3f5dd90e	0.86659324
5	0xbd7c8815	-0.061653215
6	0xbe7dfd8a	-0.24803749
7	0xbe0669ef	-0.13126348
8	0xbd5eff90	-0.054442942
9	0xbcd01702	-0.025401596

i_resnet_layers.2.bottleneck_block.2.weight_v f4 [10]
0	0xbe56ebcf	-0.20988391
1	0xbece5000	-0.4029541
2	0xbedc3991	-0.4301267
3	0x3de7283c	0.11286971
4	0xbe2e3fe6	-0.17016563
5	0x3dafbe14	0.085811764
6	0xbdebef01	-0.11520196
7	0x3ee8d908	0.45478082
8	0x3ef3442c	0.4751295
9	0x3eac9d8d	0.33713952

i_resnet_layers.2.bottleneck_block.4.weight_orig f4 [2, 10]
0	0x3ea0d158	0.31409717
1	0xbe0f9da9	-0.14024986
2	0xbe599caa	-0.21251169
3	0xbe1a9aa4	-0.15098053
4	0xbdc1f7cf	-0.09471094
5	0x3d2b3c24	0.0418054
6	0xbd925134	-0.071443945
7	0xbe8ec6dd	-0.27886096
8	0x3e81b2da	0.25331765
9	0xbdd58e45	-0.104275264
10	0xbcb01f67	-0.021499349
11	0x3e8dc48d	0.2768902
12	0x3de83b93	0.11339488
13	0xbe827687	-0.25481054
14	0xbec57a1a	-0.3856972
15	0x3d6db0ea	0.058030047
16	0x3e5eb805	0.21749885
17	0x3e26c5c2	0.16286376
18	0x3e2ef9df	0.17087506
19	0xbda5d267	-0.08096772

i_resnet_layers.2.bottleneck_block.4.weight_u f4 [2]
0	0x3cc1049b	0.023561766
1	0xbf7fedcf	-0.9997224

i_resnet_layers.2.bottleneck_block.4.weight_v f4 [10]
0	0x3d3694db	0.044575553
1	0xbede7672	-0.43449742
2	0xbe3bb8a8	-0.1833216
3	0x3ec709ed	0.3887476
4	0x3f17f87a	0.5936352
5	0xbdb59838	-0.08866924
6	0xbeadb02c	-0.3392347
7	0xbe865c5f	-0.2624235
8	0xbe8327c8	-0.25616288
9	0x3df7fe0b	0.12109002

i_resnet_layers.3.bottleneck_block.0.bias f4 [10]
0	0xbf0c0910	-0.5470133
1	0x3e2aa2c2	0.1666365
2	0xbf11715f	-0.56813616
3	0x3f2d015f	0.6758022
4	0x3c814eaa	0.01578458
5	0xbec22968	-0.37922215
6	0xbec6c14f	-0.38819358
7	0xbe443279	-0.19159879
8	0xbe80f1e0	-0.25184536
9	0xbe85860f	-0.2607884

i_resnet_layers.3.bottleneck_block.0.weight_orig f4 [10, 2]
0	0x3f47e4f9	0.7808376
1	0x3eaed4fb	0.34146866
2	0xbf2e193f	-0.6800727
3	0x3e2d0943	0.16898064
4	0x3e60e996	0.21964106
5	0x3f081cc0	0.5316887
6	0xbebc9bd5	-0.3683764
7	0xbf54a5a7	-0.83065265
8	0x3eade30c	0.33962286
9	0xbf4acc9c	-0.7921846
10	0x3d496945	0.04917266
11	0x3eeae741	0.45879558
12	0xbf0b6bc2	-0.544613
13	0x3e168a01	0.14701082
14	0x3f1ebc38	0.6200595
15	0x3d395338	0.04524538
16	0xbdc99b0b	-0.09844025
17	0x3f3aa203	0.7290346
18	0xbe4c15bc	-0.19930166
19	0x3e49ae93	0.19695501

i_resnet_layers.3.bottleneck_block.0.weight_u f4 [10]
0	0x3eb482df	0.35256097
1	0xbd057330	-0.032580554
2	0x3eb61557	0.35563156
3	0xbf0f6c7e	-0.5602492
4	0xbeccd2aa	-0.40004474
5	0x3e8f29aa	0.27961475
6	0xbc9de195	-0.019272605
7	0x3e16c67f	0.14724158
8	0x3ed1e71e	0.4099664
9	0x3d9ddeb4	0.07708493

i_resnet_layers.3.bottleneck_block.0.weight_v f4 [2]
0	0x3ea096b7	0.31364986
1	0x3f7314f8	0.9495387

i_resnet_layers.3.bottleneck_block.2.weight_orig f4 [10, 10]
0	0x3d82cda7	0.06386881
1	0xbdf5984a	-0.119919375
2	0xbe96b217	-0.29432747
3	0x3e8755b6	0.2643258
4	0x3dbccf41	0.09219218
5	0x3dc90964	0.09816244
6	0x3e4926bf	0.19643687
7	0xbe7c90b4	-0.24664575
8	0xbe78b826	-0.24288997
9	0x3dba4130	0.09094465
10	0xbe89cd76	-0.26914567
11	0x3e7663f4	0.24061567
12	0x3e0c6ecb	0.13714139
13	0x3e68c8d9	0.22732867
14	0x3df4a7cd	0.11946068
15	0xbea7a873	-0.32745704
16	0x3e5f3fce	0.21801683
17	0xbdee7049	-0.116425104
18	0xbe0dbc76	-0.13841423
19	0xbe87a859	-0.26495627
20	0xbe2b36d7	-0.16720138
21	0xbae7f79a	-0.0017697692
22	0x3df9246f	0.12165152
23	0x3e9567e9	0.2918084
24	0xbe19b2b4	-0.15009576
25	0xbe4b7356	-0.19868216
26	0xbe150e2a	-0.14556184
27	0xbc5f0d82	-0.01361406
28	0x3d339e93	0.0438524
29	0x3d049dc9	0.03237704
30	0x3ea0b1f7	0.31385776
31	0x3d78669b	0.060644727
32	0x3e7882cd	0.24268647
33	0xbe156350	-0.14588666
34	0x3e3c23ad	0.18372984
35	0x3e263718	0.16231954
36	0x3e65e624	0.22451073
37	0x3da58b33	0.08083191
38	0x3ea83492	0.32852608
39	0x3e02a66c	0.12758797
40	0x3e2a380d	0.16622944
41	0x3e1e33d6	0.15449461
42	0xbdb3f1c6	-0.08786349
43	0x3e3e4563	0.18581156
44	0xbea8a908	-0.3294146
45	0xbe52a28e	-0.20569822
46	0x3e0cab6b	0.13737266
47	0xbe7e8a32	-0.24857405
48	0x3e027705	0.12740715
49	0x3e4490a1	0.19195797
50	0xbafae834	-0.0019142688
51	0xbe2a2ebb	-0.16619389
52	0xbe8cb042	-0.27478224
53	0xbe7fceb0	-0.24981189
54	0x3d532ba1	0.05155528
55	0xbde8d565	-0.11368827
56	0x3d85636a	0.06513102
57	0xbdd3df79	-0.103453584
58	0xbe267696	-0.16256174
59	0x3e8e8d3a	0.27842122
60	0xbd2ed290	-0.042681277
61	0xbe95d7b8	-0.29266143
62	0xbe1e57b2	-0.1546314
63	0xbe3c1b8b	-0.18369882
64	0xbdb66b47	-0.0890718
65	0x3bbd68bf	0.005780309
66	0xb9b76e54	-0.0003498668
67	0xbe0c3c18	-0.13694799
68	0x3e815e59	0.25267294
69	0xbde80127	-0.11328345
70	0xbea45b53	-0.32100925
71	0x3ea365da	0.31913644
72	0x3e0f9f45	0.140256
73	0xbaf1bc62	-0.0018442983
74	0xbcf94a5d	-0.030430967
75	0x3e6f0a83	0.23343854
76	0xbdb2b234	-0.08725396
77	0xbddd90c0	-0.108186245
78	0xbe3947ac	-0.18093747
79	0x3e1cd806	0.15316781
80	0xbd21cfb3	-0.039504718
81	0xbe359294	-0.17731696
82	0x3e9a5c72	0.30148655
83	0xbcf5bb99	-0.02999668
84	0x3e3e37cd	0.18575974
85	0x3e2012ae	0.15632126
86	0x3d80403c	0.06262252
87	0x3deeab0e	0.1165372
88	0x3dc7c80b	0.09754952
89	0xbdb359a7	-0.08757334
90	0x3dec1cc3	0.11528923
91	0xbd87fbde	-0.06639837
92	0x3e85fbb5	0.261686
93	0x3d7186d7	0.058966484
94	0x3e2ab7a7	0.1667162
95	0xbd44eb38	-0.048075885
96	0xbe352e00	-0.17693329
97	0x3e273693	0.16329412
98	0xbe61ba95	-0.22043832
99	0x3e88f246	0.2674734

i_resnet_layers.3.bottleneck_block.2.weight_u f4 [10]
0	0xbe84c1cd	-0.25929108
1	0xbf04f4a5	-0.519358
2	0xbe9a7942	-0.30170637
3	0x3f078276	0.5293344
4	0xbe9b6728	-0.3035214
5	0x3c57f499	0.013180875
6	0x3e308d44	0.17241389
7	0xbe6c66f8	-0.23086154
8	0x3ea32b30	0.31868887
9	0x3dfa3ae4	0.12218264

i_resnet_layers.3.bottleneck_block.2.weight_v f4 [10]
0	0x3ec8356a	0.39103252
1	0xbea78ffc	-0.3272704
2	0x3e534fb2	0.2063587
3	0xbef8fdc8	-0.4863112
4	0x3e800263	0.2500182
5	0x3ebfbd21	0.3744898
6	0xbcd58caf	-0.02606806
7	0x3eaa5a6d	0.33272114
8	0x3ec08547	0.37601683
9	0x3d963e65	0.073361196

i_resnet_layers.3.bottleneck_block.4.weight_orig f4 [2, 10]
0	0xbe2933c7	-0.16523658
1	0x3d2b2652	0.041784592
2	0x3daaf201	0.0834694
3	0xbe8c2319	-0.27370527
4	0x3e239815	0.15975983
5	0x3e819c3e	0.25314516
6	0xbe282e6b	-0.16423957
7	0x3dd02aac	0.10164389
8	0xbea4c6b1	-0.3218284
9	0x3e2ba042	0.16760352
10	0xbe42bb20	-0.19016695
11	0xbeaf2d9d	-0.34214488
12	0xbe45939b	-0.19294588
13	0xbe330492	-0.17482212
14	0x3e1555e0	0.1458354
15	0x3d892447	0.066963725
16	0x3eb59c34	0.35470736
17	0xbe8cd9fb	-0.27510056
18	0xbe79b170	-0.24384093
19	0x3d2736f9	0.04082391

i_resnet_layers.3.bottleneck_block.4.weight_u f4 [2]
0	0xbede84bd	-0.43460646
1	0xbf668f0f	-0.9006204

i_resnet_layers.3.bottleneck_block.4.weight_v f4 [10]
0	0x3ea76f42	0.3270207
1	0x3ec7d289	0.39027813
2	0x3e3da0e5	0.18518408
3	0x3ebe866b	0.37211928
4	0xbe8a28d7	-0.26984283
5	0xbe6b213b	-0.22961895
6	0xbeaad339	-0.33364275
7	0x3e8c902b	0.2745374
8	0x3ef78a41	0.48347667
9	0xbe17df14	-0.14831191

i_resnet_layers.4.bottleneck_block.0.bias f4 [10]
0	0xbd87c407	-0.06629186
1	0x3ed2b12b	0.41150793
2	0xbe06fbec	-0.13182038
3	0xbc951406	-0.018198024
4	0x3e1f7c38	0.1557473
5	0xbf098fd5	-0.53735095
6	0x3f18eddd	0.5973795
7	0x3e67bcc7	0.22630607
8	0x3db34cbf	0.087548725
9	0xbe431b56	-0.19053397

i_resnet_layers.4.bottleneck_block.0.weight_orig f4 [10, 2]
0	0xbefd3826	-0.494569
1	0x3e1e7dcf	0.1547768
2	0xbec71c1f	-0.38888642
3	0x3eb6c128	0.35694242
4	0x3f1cb100	0.6120758
5	0x3e40f1f9	0.18842305
6	0x3e0f722f	0.14008401
7	0xbf16e6fa	-0.5894619
8	0xbe1f424f	-0.15552638
9	0xbe38a0ca	-0.18030086
10	0xbf0f1549	-0.55891854
11	0xbf15a96b	-0.58461636
12	0xbc9d96d8	-0.019236967
13	0x3e88207e	0.2658729
14	0xbea3dc25	-0.32003894
15	0xbd7048ce	-0.058663182
16	0xbf2562e5	-0.64604026
17	0xbea6753d	-0.3251132
18	0x3ee794be	0.4523067
19	0xbf606cf2	-0.8766624

i_resnet_layers.4.bottleneck_block.0.weight_u f4 [10]
0	0xbda530cd	-0.08065949
1	0xbe71002e	-0.23535225
2	0xbe36282a	-0.17788759
3	0x3ed80852	0.42193848
4	0x3e114020	0.14184618
5	0x3eed6f88	0.46374154
6	0xbe45e34c	-0.19324988
7	0x3d83168d	0.064007856
8	0x3e8f63c0	0.2800579
9	0x3f1c6d6e	0.61104476

i_resnet_layers.4.bottleneck_block.0.weight_v f4 [2]
0	0xbdb6c4fb	-0.0892429
1	0xbf7efa81	-0.9960099

i_resnet_layers.4.bottleneck_block.2.weight_orig f4 [10, 10]
0	0x3e00ddf7	0.12584673
1	0xbe1183c5	-0.14210422
2	0xbe64cae0	-0.22343016
3	0x3d9f8201	0.07788468
4	0xbe7ee52c	-0.2489211
5	0xbe99d24f	-0.30043265
6	0xbd20d35a	-0.03926406
7	0x3e57b096	0.21063456
8	0xbd3783d2	-0.044803448
9	0xbe1f7038	-0.15570152
10	0xbe7bfeb2	-0.24608877
11	0xbdc9bd10	-0.09850514
12	0x3e0bf495	0.1366752
13	0xbd6e9027	-0.058242943
14	0x3dbc58b9	0.0919661
15	0x3db3b8a6	0.08775453
16	0x3da69e11	0.081356175
17	0x3e88f427	0.26748773
18	0xbd9508e2	-0.07277085
19	0x3e51c79f	0.20486306
20	0x3e1ebe72	0.15502337
21	0x3e616f6e	0.22015163
22	0x3ecf1c66	0.40451354
23	0xbe94d0b1	-0.2906547
24	0xbe296baa	-0.16544977
25	0x3e8940d1	0.26807263
26	0x3e726bd9	0.23673953
27	0x3e25bfff	0.16186522
28	0x3bc37b5c	0.0059656333
29	0xbe252816	-0.16128573
30	0xbd8f8a1d	-0.07008765
31	0x3eaca92d	0.3372282
32	0xbe209570	-0.15682006
33	0xbe9ca938	-0.30597854
34	0xbd372bcc	-0.044719502
35	0xbea024a5	-0.31277958
36	0xbdc265de	-0.09492086
37	0xbc2344f8	-0.009965174
38	0x3da6d6b8	0.08146423
39	0xbe9d25ce	-0.30692905
40	0x3e38ce90	0.18047547
41	0x3e995aa1	0.29951957
42	0xbded5ae0	-0.11589599
43	0x3e1e7bca	0.1547691
44	0xbda8a342	-0.08234264
45	0x3e69814d	0.2280323
46	0xbddb9291	-0.10721315
47	0x3e9010e8	0.28137898
48	0x3e87a2bd	0.26491347
49	0x3e0e80b3	0.13916282
50	0xbd9062f7	-0.07050126
51	0xbda9e3bc	-0.0829539
52	0x3c29c067	0.010360814
53	0x3e00427c	0.12525362
54	0xbddbb7c3	-0.10728409
55	0x3e800cf1	0.25009874
56	0xbe07fd69	-0.13280262
57	0x3de55941	0.111986645
58	0x3dcebd75	0.1009473
59	0x3dde3877	0.108506136
60	0x3e80dc5b	0.25168118
61	0xbcc80236	-0.024415117
62	0x3ea29cb4	0.3176018
63	0xbe137384	-0.14399534
64	0xbdc6108e	-0.09671126
65	0xbd8c264a	-0.068432406
66	0xbdb99bec	-0.09062943
67	0xbead7544	-0.3387853
68	0xbe0f3d52	-0.13988236
69	0x3dcfd188	0.10147387
70	0xbe2b3c83	-0.16722302
71	0x3c8523f3	0.016252493
72	0xbcb9a9e9	-0.022664027
73	0xbe01c045	-0.12671001
74	0xbe0c178a	-0.13680854
75	0xbddd033a	-0.10791631
76	0x3d1aafae	0.037765197
77	0x3e45cee9	0.19317211
78	0x3a0710c5	0.000515234
79	0xbe94ab3d	-0.29036894
80	0x3e3f4393	0.18678121
81	0x3c60cf8c	0.013721358
82	0xbec25405	-0.37954727
83	0x3dad2d7e	0.084559426
84	0x3e27ac5a	0.1637434
85	0x3e4349da	0.19071141
86	0x3da126e2	0.078687444
87	0xbe50f518	-0.20405996
88	0x3e655fac	0.22399777
89	0xbd68a1cb	-0.056794923
90	0xbe5d513f	-0.21613024
91	0xbd9f1e73	-0.077694796
92	0x3de856e9	0.11344702
93	0x3daac9e1	0.083392866
94	0xbe6ae37f	-0.22938345
95	0x3d9113a0	0.07083821
96	0xbdd10410	-0.10205853
97	0xbd9c9f94	-0.076476246
98	0x3e0d4786	0.13796815
99	0x3c7c2b64	0.0153912045

i_resnet_layers.4.bottleneck_block.2.weight_u f4 [10]
0	0x3ebbc20f	0.36671492
1	0xbe6707ba	-0.22561541
2	0x3c4ed5a3	0.012624177
3	0x3f31bb60	0.69426537
4	0xbe7d44c4	-0.24733263
5	0xbea3b857	-0.31976578
6	0xbcbe93d9	-0.023263859
7	0x3ec185db	0.37797436
8	0xbdf09a26	-0.117481515
9	0xbddeaf1b	-0.108732425

i_resnet_layers.4.bottleneck_block.2.weight_v f4 [10]
0	0xbd27072c	-0.040778324
1	0x3e4e582d	0.20150824
2	0xbe5160b9	-0.20447053
3	0xbebd2586	-0.3694269
4	0xbe21575e	-0.15755984
5	0xbf2448cf	-0.641736
6	0xbc2d8d56	-0.010592779
7	0x3cb99864	0.022655673
8	0xbdbd8aea	-0.092550114
9	0xbf13dcb2	-0.5775863

i_resnet_layers.4.bottleneck_block.4.weight_orig f4 [2, 10]
0	0x3ea9f3d7	0.33193848
1	0xbe6e44b3	-0.23268394
2	0xbe5175df	-0.2045512
3	0x3e264da7	0.1624056
4	0x3e6592c2	0.22419265
5	0xbe6a5b68	-0.22886431
6	0xbddb744b	-0.107155405
7	0x3eab21d3	0.33424243
8	0x3dd705e3	0.1049917
9	0x3e00a62a	0.12563387
10	0x3e1f86f9	0.15578832
11	0xbd743460	-0.05962026
12	0x3e979e99	0.29613188
13	0x3ea90269	0.3300965
14	0x3e660e64	0.22466427
15	0xbdbd3392	-0.09238352
16	0x3e05e10c	0.1307413
17	0x3dd53240	0.10409975
18	0x3e1e09c1	0.15433408
19	0xbd42bbab	-0.047542255

i_resnet_layers.4.bottleneck_block.4.weight_u f4 [2]
0	0x3f578f26	0.842028
1	0x3f0a1857	0.5394339

i_resnet_layers.4.bottleneck_block.4.weight_v f4 [10]
0	0x3ef27b4b	0.4735969
1	0xbe982463	-0.2971526
2	0xbc88d40b	-0.016702672
3	0x3ed1ff59	0.41015127
4	0x3ecf2059	0.40454367
5	0xbea1c896	-0.31598347
6	0xbcd1f014	-0.025627173
7	0x3ee13b7f	0.43990704
8	0x3e655f3d	0.22399612
9	0x3dd74fad	0.10513244

i_resnet_layers.5.bottleneck_block.0.bias f4 [10]
0	0x3ee135fc	0.439865
1	0xbe4a520c	-0.19757861
2	0xbd8f36f2	-0.06992902
3	0x3eb949d3	0.36189136
4	0xbe907a91	-0.2821851
5	0x3edb94a1	0.42886832
6	0x3c510154	0.012756664
7	0xbe7d9af9	-0.24766149
8	0xbd6aaa20	-0.05729115
9	0x3edff855	0.4374415

i_resnet_layers.5.bottleneck_block.0.weight_orig f4 [10, 2]
0	0xbd9873ac	-0.07443938
1	0xbd16f3d6	-0.036853634
2	0x3ec609cb	0.38679346
3	0xbec87090	-0.39148378
4	0x3edd28d5	0.43195215
5	0xbe89e6f0	-0.26934004
6	0xbda390bf	-0.079865925
7	0x3e0bfa92	0.13669804
8	0x3ea16935	0.3152558
9	0x3d3e382d	0.046440292
10	0xbdfd3c7d	-0.12365053
11	0xbf3ee8ff	-0.74574274
12	0xbea1e9f4	-0.31623805
13	0x3e27d249	0.16388811
14	0x3e77eeff	0.24212264
15	0xbecdbd0d	-0.40183297
16	0x3f3d50e0	0.7395153
17	0x3edca140	0.43091774
18	0xbd3a9e6f	-0.04556125
19	0x3ae92324	0.0017786962

i_resnet_layers.5.bottleneck_block.0.weight_u f4 [10]
0	0x3cf18c3c	0.029485814
1	0x3ec4237c	0.38308322
2	0x3e8c186f	0.2736239
3	0xbe0584a7	-0.13038884
4	0xbcc48cd2	-0.02399293
5	0x3f2d8bda	0.6779152
6	0xbe2dc29c	-0.16968769
7	0x3ec49508	0.38394952
8	0xbeb46418	-0.35232615
9	0xbb871f8e	-0.0041236347

i_resnet_layers.5.bottleneck_block.0.weight_v f4 [2]
0	0x3d84121e	0.06448768
1	0xbf7f7796	-0.9979185

i_resnet_layers.5.bottleneck_block.2.weight_orig f4 [10, 10]
0	0x3d3e3aca	0.046442784
1	0x3e2006c9	0.15627588
2	0xbe816701	-0.25273898
3	0x3c85a943	0.016316062
4	0x3df9588e	0.121750936
5	0xbd335503	-0.043782245
6	0x3e3b1cfd	0.18272777
7	0x3d638170	0.055543363
8	0x3e90fdda	0.28318673
9	0x3e0aed84	0.13567168
10	0x3e62316f	0.2208917
11	0xbd47ffe7	-0.048828032
12	0x3e4bc074	0.19897634
13	0xbe3c3179	-0.18378247
14	0x3e86dce8	0.26340413
15	0xbe93f4bb	-0.28897652
16	0x3dbf9aac	0.09355673
17	0x3dc82d7c	0.097743005
18	0xbe5901ec	-0.2119214
19	0x3ec7c657	0.3901851
20	0xbdc72cec	-0.09725365
21	0x3e899bd0	0.26876688
22	0xbdfa6b18	-0.12227458
23	0x3d3174b1	0.043324176
24	0x3e89ba28	0.26899838
25	0xbdb0be2f	-0.08630025
26	0xbd0e7377	-0.034778085
27	0xbde1a61b	-0.1101801
28	0x3c8bcd49	0.017065661
29	0xbd841889	-0.06449992
30	0xbe4cf3da	-0.20014897
31	0x3e6fbad7	0.23411117
32	0x3e3f1fdb	0.18664496
33	0xbda0ccee	-0.07851587
34	0xbd8d9d4d	-0.06914768
35	0xbe0a321e	-0.1349568
36	0xbcc28e46	-0.023749482
37	0xbd8475cf	-0.06467783
38	0x3dc09eab	0.094052635
39	0xbe44ac88	-0.1920644
40	0x3e86dde9	0.2634118
41	0x3e9958e6	0.29950637
42	0x3e86e20c	0.26344335
43	0xbe926914	-0.28595793
44	0xbe001c8a	-0.12510887
45	0x3e67003a	0.2255868
46	0xbe351764	-0.17684704
47	0x3ddc0564	0.10743216
48	0xbe0e5b01	-0.13901903
49	0xbd379a2c	-0.044824764
50	0xbe549f64	-0.20763928
51	0x3c0e211d	0.008674887
52	0xbe3c3dd6	-0.18382964
53	0xbd748a44	-0.059702173
54	0x3e158727	0.14602338
55	0xbe8efbd2	-0.279265
56	0x3d82cd06	0.06386761
57	0x3d820dd8	0.06350297
58	0xbeb0b851	-0.34515622
59	0xbd72833e	-0.059207194
60	0xbc014970	-0.007891044
61	0x3e877516	0.26456517
62	0x3e5ab74d	0.21358986
63	0xbd35ee7d	-0.044416893
64	0xbdf54577	-0.1197614
65	0xbe789ff3	-0.24279766
66	0xbd87aa22	-0.06624247
67	0xbe1c7a59	-0.15281047
68	0xbe0c9810	-0.13729882
69	0xbe065c05	-0.1312104
70	0x3de9bfcb	0.11413535
71	0xbe467ff3	-0.19384746
72	0x3e826f20	0.25475407
73	0xbde086e4	-0.10963228
74	0x3ea9b89c	0.33148658
75	0x3e01ed5f	0.12688206
76	0x3e332528	0.17494643
77	0xbe10ce67	-0.14141236
78	0x3e13b789	0.14425482
79	0xb7698540	-1.3918907e-05
80	0x3e7a7e92	0.24462345
81	0xbe667e46	-0.22509107
82	0x3cd27c4b	0.025694033
83	0x3e6bbf47	0.23022185
84	0xbe2f207b	-0.17102234
85	0xbecbcab3	-0.39803085
86	0xbdc6d699	-0.097089
87	0xbe965ee3	-0.29369268
88	0xbdbcf796	-0.09226911
89	0xbd574a71	-0.052561227
90	0x3d55acee	0.05216687
91	0x3d570745	0.052497167
92	0xbe181988	-0.1485349
93	0xbdf75b12	-0.12077917
94	0xbe0fe298	-0.14051282
95	0x3d0de99f	0.034646627
96	0x3d9e44f2	0.07727994
97	0x38bddb48	9.0530666e-05
98	0xbe3667ef	-0.17813085
99	0x3c19f457	0.009396634

i_resnet_layers.5.bottleneck_block.2.weight_u f4 [10]
0	0x3dcc1e13	0.09966674
1	0xbed16eca	-0.40904838
2	0xbd0d9320	-0.034564137
3	0x3d938e2c	0.072048515
4	0x3ecef098	0.40417933
5	0xbecf4011	-0.40478566
6	0xbe3f70aa	-0.18695322
7	0x3daa5b4b	0.08318194
8	0xbf2b32db	-0.66874474
9	0xbbf8be4b	-0.007591044

i_resnet_layers.5.bottleneck_block.2.weight_v f4 [10]
0	0xbd95f1c3	-0.07321503
1	0x3e9c53ca	0.30532676
2	0x3d90967a	0.07059951
3	0xbe5f9cda	-0.21837178
4	0xbd8c0060	-0.06836009
5	0x3f4a64e6	0.7906021
6	0xbd050164	-0.03247203
7	0x3e795f69	0.24352802
8	0x3ec366fb	0.38164505
9	0xbde9914b	-0.114046656

i_resnet_layers.5.bottleneck_block.4.weight_orig f4 [2, 10]
0	0xbe1017e9	-0.14071621
1	0x3e7f0b9c	0.24906772
2	0xbe26798e	-0.16257307
3	0xbc205210	-0.00978519
4	0xbe96576b	-0.2936357
5	0x3e6125d5	0.21987088
6	0x3ea9b4d3	0.3314577
7	0xbe57af38	-0.21062934
8	0x3eb9a8c1	0.36261562
9	0x3da6feb4	0.081540495
10	0xbe04d292	-0.12970951
11	0x3ea32d1c	0.31870353
12	0x3e9fd652	0.312182
13	0x3e0b8ccf	0.13627933
14	0x3cbb2d90	0.022848874
15	0x3ea81041	0.328249
16	0xbc1ded2d	-0.009639067
17	0x3dd79cff	0.105279915
18	0x3e762391	0.24037005
19	0xbd4b59b9	-0.049646113

i_resnet_layers.5.bottleneck_block.4.weight_u f4 [2]
0	0xbf514260	-0.81741905
1	0xbf137797	-0.57604355

i_resnet_layers.5.bottleneck_block.4.weight_v f4 [10]
0	0x3e7070d4	0.2348054
1	0xbef52d74	-0.4788624
2	0xbd6f1a3a	-0.05837462
3	0xbdb3f7e9	-0.087875195
4	0x3e8f62c7	0.2800505
5	0xbee99c67	-0.45627138
6	0xbea834db	-0.32852826
7	0x3e0d84a0	0.13820124
8	0xbf0984a3	-0.5371801
9	0xbd411df2	-0.0471477

i_resnet_layers.6.bottleneck_block.0.bias f4 [10]
0	0xbe730700	-0.23733139
1	0xbea18b06	-0.3155138
2	0xbe6a905b	-0.2290663
3	0xbbe10c11	-0.0068678935
4	0xbf1e4ba5	-0.61834174
5	0xbea9530d	-0.33071175
6	0x3e98a74b	0.29815134
7	0x3f130ce3	0.5744154
8	0xbf0a08a0	-0.5391941
9	0xbdb720a6	-0.08941774

i_resnet_layers.6.bottleneck_block.0.weight_orig f4 [10, 2]
0	0xbf33835c	-0.70122313
1	0x3f339437	0.7014803
2	0x3f132980	0.574852
3	0xbe0fa45d	-0.14027543
4	0x3ec4bbd8	0.38424563
5	0x3f32ff6a	0.6992098
6	0x3f16dd93	0.58931845
7	0xbe051c3b	-0.1299905
8	0xbeef0578	-0.4668386
9	0xbe93dfbe	-0.2888164
10	0xbe602557	-0.21889244
11	0xbd9ec810	-0.07753003
12	0xbf151567	-0.5823578
13	0x3ea8c5ec	0.32963502
14	0xbf0c4fdb	-0.5480935
15	0x3f00da1b	0.503328
16	0xbe9a4298	-0.30128932
17	0x3db82aa7	0.0899251
18	0xbf17799f	-0.59169954
19	0xbf003ac1	-0.5008965

i_resnet_layers.6.bottleneck_block.0.weight_u f4 [10]
0	0x3f0a2122	0.53956807
1	0xbeb29513	-0.3487936
2	0xbd7f9731	-0.062400047
3	0xbeb58d1b	-0.35459217
4	0x3e49595f	0.19662999
5	0x3dd64f1f	0.1046431
6	0x3ec98e77	0.39366505
7	0x3ed30454	0.4121424
8	0x3e3ee09d	0.1864037
9	0x3e613faf	0.2199695

i_resnet_layers.6.bottleneck_block.0.weight_v f4 [2]
0	0xbf6ea183	-0.932152
1	0x3eb960e3	0.3620673

i_resnet_layers.6.bottleneck_block.2.weight_orig f4 [10, 10]
0	0xbe85f116	-0.26160496
1	0x3e9bcd41	0.30430034
2	0x3d138849	0.036018644
3	0x3e63963a	0.22225276
4	0xbeaa5d79	-0.3327444
5	0x3c9d6b7a	0.019216288
6	0xbbabe93e	-0.0052463105
7	0x3e4a29a6	0.1974245
8	0x3d2945ea	0.04132644
9	0xbd7cc639	-0.061712477
10	0xbcbdc35c	-0.023164444
11	0xbe68db01	-0.22739793
12	0x3df68f14	0.12039009
13	0x3cd4240c	0.025896095
14	0xbe12e2f8	-0.14344394
15	0x3e7e5a98	0.24839246
16	0x3d854dcc	0.06508979
17	0x3e9c8d90	0.30576754
18	0xbe21adb5	-0.1578892
19	0x3e8eeacb	0.27913508
20	0xbccc914d	-0.024971629
21	0xbe3eed7b	-0.18645279
22	0xbe1605b4	-0.14650613
23	0xbe259dfd	-0.16173549
24	0x3e9eee26	0.31041068
25	0xbe105cfa	-0.14097968
26	0xbdbb7c77	-0.09154599
27	0xbe53cbe5	-0.20683248
28	0xbcd9214b	-0.026505133
29	0x3dac8bec	0.084251255
30	0xbc1a2a39	-0.009409481
31	0xbd3b28c1	-0.045693163
32	0xbd80c5f1	-0.06287754
33	0xbd8d2a67	-0.06892853
34	0xbe252f7c	-0.16131395
35	0x3e50ce6e	0.20391247
36	0x3e51310a	0.20428863
37	0x3e3c2104	0.1837197
38	0xbd8b57d7	-0.068038635
39	0x3e05df02	0.13073352
40	0xbe75c2aa	-0.2400004
41	0x3e4bcb48	0.19901764
42	0xbe857a70	-0.26069975
43	0xbe52296d	-0.20523615
44	0xbe7598d6	-0.23984084
45	0x3da4f6ca	0.08054884
46	0xbd1c8eff	-0.03822231
47	0xbe39c5fd	-0.18141933
48	0x3e422aec	0.18961686
49	0x3d1f2d11	0.038861338
50	0xbd83674a	-0.06416185
51	0x3e718d52	0.23589066
52	0xbe8f55f0	-0.27995253
53	0x3e811421	0.2521067
54	0xbda76eca	-0.08175428
55	0x3dd166e4	0.10224703
56	0xbe805fa2	-0.25072962
57	0xbe7d7804	-0.24752814
58	0x3dbc3b9b	0.09191056
59	0xbd847a3b	-0.06468626
60	0x3e792d54	0.24333698
61	0xbc141890	-0.009039059
62	0xbebd1e38	-0.36937118
63	0x3e0fd5db	0.14046423
64	0xbe345dc1	-0.1761389
65	0x3e752ac7	0.239421
66	0x3e5bb476	0.21455559
67	0xbe65ef60	-0.22454596
68	0x3d42534a	0.047442712
69	0xbe218f24	-0.1577726
70	0xbeb839b1	-0.35981515
71	0x3e64d325	0.2234617
72	0x3e9b233f	0.30300328
73	0xbdc8b4b8	-0.09800094
74	0x3e70c238	0.23511589
75	0x3d3c0f76	0.045913182
76	0xbe9f2123	-0.3107997
77	0xbdc59f01	-0.09649468
78	0x3e12bde8	0.14330256
79	0x3e0a1d83	0.1348782
80	0xbe717954	-0.2358144
81	0xbdcaa87a	-0.098954156
82	0x3d950441	0.07276202
83	0x3e82b5f7	0.25529453
84	0xbe1590de	-0.14606044
85	0xbd1144af	-0.035465892
86	0xbdf16ee7	-0.11788731
87	0x3de465f9	0.11152262
88	0x3e42ae82	0.19011882
89	0x3bd68bec	0.0065474417
90	0xbe9d5046	-0.30725306
91	0xbe8497c4	-0.25897038
92	0xbe0ee3c4	-0.13954073
93	0x3e82e654	0.2556635
94	0xbd97f92a	-0.07420571
95	0x3dfa92de	0.12235044
96	0xbe14afd8	-0.14520204
97	0x3e05daf4	0.13071805
98	0xbe6135bd	-0.21993156
99	0x3e00aa9c	0.12565082

i_resnet_layers.6.bottleneck_block.2.weight_u f4 [10]
0	0xbba9ecbc	-0.0051856916
1	0xbd60b2e3	-0.0548581
2	0x3e2484e9	0.16066326
3	0xbe63eff1	-0.22259499
4	0xbd8b8acd	-0.068135835
5	0xbde45302	-0.11148645
6	0xbf26ca85	-0.6515277
7	0x3f2e34ab	0.68049115
8	0x3e051704	0.12997061
9	0x3c142d68	0.009044029

i_resnet_layers.6.bottleneck_block.2.weight_v f4 [10]
0	0xbee7e26a	-0.45289928
1	0x3dd41051	0.103546746
2	0x3f08c9c1	0.5343285
3	0xbe28104a	-0.16412464
4	0x3ed311c0	0.4122448
5	0xbe7e317e	-0.24823567
6	0xbee16d2b	-0.440286
7	0x3d4612a7	0.048357632
8	0x3dc07ca9	0.09398777
9	0x3e3feab1	0.18741871

i_resnet_layers.6.bottleneck_block.4.weight_orig f4 [2, 10]
0	0x3c69a8f5	0.014261474
1	0x3e6fad32	0.23405913
2	0x3c805890	0.01566723
3	0xbe02002a	-0.12695375
4	0xbe6f825b	-0.2338957
5	0xbe1ab838	-0.15109336
6	0xbe9b9385	-0.30385986
7	0x3e5b3626	0.21407375
8	0xbded5215	-0.115879215
9	0x3d101238	0.035173625
10	0x3e89c42e	0.26907486
11	0xbe70370f	-0.23458503
12	0xbe8452cc	-0.2584442
13	0xbe7bc1ea	-0.24585691
14	0x3e78445c	0.24244827
15	0x3e7e5d67	0.24840318
16	0xbdee7565	-0.11643485
17	0x3ebbbe35	0.36668554
18	0x3e422e6e	0.18963024
19	0x3e8f80ff	0.28028104

i_resnet_layers.6.bottleneck_block.4.weight_u f4 [2]
0	0xbd452b33	-0.0481369
1	0x3f7fb407	0.99884075

i_resnet_layers.6.bottleneck_block.4.weight_v f4 [10]
0	0x3eab872f	0.33501574
1	0xbe9d7a77	-0.30757496
2	0xbea5a89f	-0.3235521
3	0xbe99a087	-0.30005285
4	0x3ea27778	0.31731772
5	0x3ea3c266	0.31984252
6	0xbe020e4b	-0.12700765
7	0x3ee43408	0.44570947
8	0x3e798faf	0.24371217
9	0x3eb24c86	0.34824008

i_resnet_layers.7.bottleneck_block.0.bias f4 [10]
0	0x3ecbf5f1	0.39836076
1	0x3ecbc427	0.3979809
2	0x3dd54ad3	0.10414662
3	0x3e3f9e7e	0.18712804
4	0xbee1306a	-0.4398225
5	0xbe2b04f3	-0.16701107
6	0x3e35cbae	0.17753479
7	0xbebf59dd	-0.37373248
8	0xbd15ed35	-0.03660317
9	0xbea21f98	-0.3166473

i_resnet_layers.7.bottleneck_block.0.weight_orig f4 [10, 2]
0	0xbedfb84e	-0.436953
1	0x3e04e02e	0.12976143
2	0xbeb71a07	-0.35762045
3	0xbf16d502	-0.58918774
4	0x3dbce19a	0.092227176
5	0xbf3f1b45	-0.74650985
6	0x3ed2782f	0.41107318
7	0xbd5456ff	-0.05184078
8	0x3dc28268	0.09497529
9	0xbe6f1423	-0.23347525
10	0xbe78b9bf	-0.24289607
11	0x3e173d09	0.14769377
12	0xbe273eec	-0.16332597
13	0xbeb87c17	-0.36032173
14	0xbdc982fc	-0.098394364
15	0x3eec478a	0.4614833
16	0xbedf5478	-0.43619132
17	0x3ee63676	0.44963425
18	0x3f25877a	0.64659846
19	0xbe934c15	-0.28768983

i_resnet_layers.7.bottleneck_block.0.weight_u f4 [10]
0	0xbe7a57b8	-0.24447525
1	0x3e79b9ec	0.2438733
2	0x3f02b05b	0.5105035
3	0x3e3d7a8d	0.1850378
4	0x3e3cd6c5	0.18441303
5	0xbe3c7710	-0.18404794
6	0x3e2dadba	0.16960803
7	0xbea97eee	-0.33104652
8	0xbee59428	-0.44839597
9	0x3ed86151	0.42261747

i_resnet_layers.7.bottleneck_block.0.weight_v f4 [2]
0	0x3f003469	0.5007997
1	0xbf5d958c	-0.86556315

i_resnet_layers.7.bottleneck_block.2.weight_orig f4 [10, 10]
0	0x3e346270	0.17615676
1	0xbe80e7fc	-0.2517699
2	0x3e4c6069	0.19958653
3	0xbc545684	-0.01296008
4	0xbca1f414	-0.019769706
5	0xbe95be19	-0.29246596
6	0xbdd3690e	-0.10322772
7	0xbe3165c8	-0.17323983
8	0xbd9cdde3	-0.07659509
9	0x3e77f4c6	0.24214467
10	0x3e453aeb	0.19260757
11	0xbdddaa34	-0.10823479
12	0xbda51988	-0.0806151
13	0xbeb16b7f	-0.34652326
14	0xbb5f205b	-0.0034046385
15	0xbb974538	-0.004616406
16	0x3e2c4613	0.16823606
17	0x3d46bfd4	0.048522785
18	0x3ce3814e	0.027771618
19	0xbd0c540f	-0.034259852
20	0x3daa034f	0.08301412
21	0x3d488dbd	0.048963297
22	0x3e0a0c3d	0.13481231
23	0xbe2c8e9f	-0.1685128
24	0x3e93e9c2	0.2888928
25	0x3c99a504	0.018755443
26	0xbcf47685	-0.02984167
27	0xbe82f66c	-0.2557863
28	0x3be001cd	0.006836152
29	0xbc31e807	-0.010858542
30	0x3e2074b7	0.15669523
31	0xbe9a93b6	-0.3019082
32	0xbe9fd884	-0.31219876
33	0x3d24c45c	0.040226325
34	0xbe05c232	-0.13062361
35	0x3e558fe3	0.2085567
36	0x3e1b861e	0.1518788
37	0xbbbe83fb	-0.005814073
38	0x3d6cb9d6	0.057794414
39	0x3e95e079	0.29272822
40	0x3e3b27e9	0.18276943
41	0xbe2e5496	-0.17024454
42	0x3cdf99cd	0.027295018
43	0x3e55ffd1	0.20898367
44	0xbe2547ad	-0.16140623
45	0xbe77d4cb	-0.24202268
46	0x3ea009ec	0.3125757
47	0xbe2b8503	-0.16749959
48	0x3e27e5fe	0.16396329
49	0xbe238b47	-0.15971099
50	0xbdb8f4a1	-0.09031034
51	0xbe8a9ed0	-0.2707429
52	0xbeabd163	-0.33558187
53	0x3dee607a	0.11639495
54	0x3e0e9b2e	0.13926384
55	0x3da2b4f2	0.07944669
56	0xbec7f8fb	-0.39057145
57	0xbe707cfe	-0.2348518
58	0x3e8211b3	0.25404128
59	0x3e0298c2	0.12753585
60	0xbda3ce76	-0.07998364
61	0xbe87486f	-0.2642245
62	0xbd49b1df	-0.049241897
63	0x3dba7b6b	0.09105571
64	0xbdedd8aa	-0.11613591
65	0xbd9ccbde	-0.07656072
66	0x3de1f5ef	0.11033236
67	0xbe471494	-0.19441444
68	0xbe5a5086	-0.2131978
69	0xbde89453	-0.113564156
70	0x3c0acd8b	0.008471857
71	0xbd84cca0	-0.064843416
72	0xbd63f065	-0.05564918
73	0xbe587e5e	-0.21141955
74	0xbe0f19d3	-0.13974695
75	0x3e0c2697	0.13686596
76	0xbe13f754	-0.14449817
77	0xbdd8986f	-0.105759494
78	0x3e7cc68d	0.24685116
79	0xbea4cec4	-0.32189
80	0x3e33762c	0.17525548
81	0xbe2f214c	-0.17102545
82	0x3c011619	0.007878804
83	0xbe2e82b5	-0.17042048
84	0x3e149a15	0.14511903
85	0x3e376559	0.17909755
86	0x3e42af35	0.19012149
87	0x3ebd82e3	0.3701392
88	0x3e83d77a	0.25750333
89	0xbd5a52d9	-0.053301666
90	0x3e4d51bd	0.20050712
91	0x3d96c75c	0.073622435
92	0x3e3866ca	0.18007961
93	0xbd24521b	-0.040117364
94	0x3cd8e10a	0.026474494
95	0x3e87caa9	0.26521805
96	0x3d8af8f0	0.06785762
97	0xbe359d08	-0.17735684
98	0xbe4699f9	-0.19394673
99	0x3e9e9590	0.30973482

i_resnet_layers.7.bottleneck_block.2.weight_u f4 [10]
0	0x3e50bf46	0.20385465
1	0xbd0c700f	-0.034286555
2	0xbd5d0d74	-0.053967908
3	0x3f00539a	0.50127566
4	0x3e07dc76	0.13267693
5	0x3f492bd7	0.7858252
6	0x3e475acc	0.1946823
7	0x3e09b9f1	0.13449837
8	0xbdac4e07	-0.0841332
9	0xbd8f20a8	-0.069886506

i_resnet_layers.7.bottleneck_block.2.weight_v f4 [10]
0	0x3c822364	0.015886016
1	0xbf188b14	-0.59587216
2	0xbf005d91	-0.5014277
3	0x3e4d6635	0.2005852
4	0xbd821bc8	-0.06352955
5	0x3d5ec1fb	0.054384213
6	0xbe91d064	-0.28479302
7	0xbebe2852	-0.37140137
8	0x3e87beb1	0.26512673
9	0x3e73ce73	0.23809223

i_resnet_layers.7.bottleneck_block.4.weight_orig f4 [2, 10]
0	0xbd3980ff	-0.045289036
1	0xbd92697c	-0.07149026
2	0xbd207c90	-0.039181292
3	0x3ecb84e9	0.3974984
4	0xbe13d40d	-0.1443636
5	0x3ecb26a8	0.3967793
6	0x3dd11ced	0.10210595
7	0x3dafdb6d	0.08586774
8	0x3cd32c98	0.0257781
9	0xbe239411	-0.15974452
10	0x3e6bd50f	0.23030494
11	0xbe1c3ff7	-0.15258776
12	0x3e95b652	0.29240662
13	0x3e10ef49	0.1415378
14	0x3d2a2360	0.041537642
15	0xbe26b0c5	-0.1627837
16	0x3e82c901	0.2554398
17	0xbe92ca0f	-0.28669783
18	0xbec4df2b	-0.38451514
19	0x3e20ff49	0.15722384

i_resnet_layers.7.bottleneck_block.4.weight_u f4 [2]
0	0xbeae2215	-0.34010378
1	0x3f70bd43	0.9403879

i_resnet_layers.7.bottleneck_block.4.weight_v f4 [10]
0	0x3e9fde56	0.31224316
1	0xbe2465dc	-0.16054481
2	0x3ec6dc95	0.38840166
3	0xbb41f367	-0.0029594542
4	0x3df2a8ea	0.11848624
5	0xbec6a19d	-0.38795176
6	0x3e8d7de9	0.27635124
7	0xbece17f6	-0.40252656
8	0xbeff565a	-0.4987057
9	0x3e8b7b16	0.27242345

i_resnet_layers.8.bottleneck_block.0.bias f4 [10]
0	0x3e990d5b	0.29893002
1	0xbe4e3570	-0.20137572
2	0xbe253c6e	-0.16136333
3	0x3d81557b	0.06315132
4	0xbf1fba74	-0.6239388
5	0x3e35500a	0.17706314
6	0x3a52cb34	0.0008041144
7	0x3dec87f2	0.11549367
8	0x3e530bcf	0.20609973
9	0x3ed60842	0.41803175

i_resnet_layers.8.bottleneck_block.0.weight_orig f4 [10, 2]
0	0xbe011f3d	-0.12609573
1	0x3f4cc8d4	0.7999394
2	0x3ebf5c36	0.3737504
3	0x3eda4825	0.42633167
4	0xbef6d6c6	-0.48210734
5	0x3e763c4c	0.24046439
6	0xbf0b5862	-0.54431736
7	0x3f04033c	0.51567435
8	0x3e060903	0.13089375
9	0xbe572102	-0.21008685
10	0x3eae99fa	0.3410185
11	0xbefd73bd	-0.49502364
12	0x3f095ae4	0.53654313
13	0xbea3aded	-0.31968632
14	0x3ea8f846	0.33001918
15	0x3dbc13b3	0.09183445
16	0xbed9d583	-0.4254571
17	0x3ea0052c	0.31253946
18	0x3e2bdc51	0.16783263
19	0x3f134b9b	0.5753724

i_resnet_layers.8.bottleneck_block.0.weight_u f4 [10]
0	0x3eee7ac4	0.46578038
1	0x3db70581	0.08936597
2	0x3e99abdd	0.30013934
3	0x3eef3764	0.46721947
4	0xbe21741e	-0.15766951
5	0xbec42bc3	-0.38314638
6	0xbeb90fd6	-0.36144894
7	0xbd90bca7	-0.070672326
8	0x3ea29e9a	0.31761628
9	0x3e77ae4c	0.24187583

i_resnet_layers.8.bottleneck_block.0.weight_v f4 [2]
0	0xbf10bf87	-0.5654225
1	0x3f532630	0.82480145

i_resnet_layers.8.bottleneck_block.2.weight_orig f4 [10, 10]
0	0x3bdad8f7	0.0066786963
1	0xbe6ffa1e	-0.23435256
2	0xbcf3bb84	-0.0297525
3	0x3e6014b8	0.21882904
4	0xbe560397	-0.20899807
5	0x3db81fe3	0.08990457
6	0xbd7e82ac	-0.062136337
7	0xbe265461	-0.16243125
8	0xbe756a21	-0.23966266
9	0xbce58be8	-0.028020814
10	0x3e93e98a	0.28889114
11	0xbe02d2dd	-0.1277575
12	0xbd46e028	-0.048553616
13	0xbe530f9a	-0.2061142
14	0xbe943086	-0.2894327
15	0x3eb36c7e	0.3504371
16	0xbdfe31e0	-0.12411857
17	0xbb106401	-0.0022032263
18	0xbe9b517d	-0.30335608
19	0x3e93a0d4	0.2883364
20	0x3dfe7955	0.12425486
21	0xbe2d807a	-0.16943541
22	0xbe921fcd	-0.28539887
23	0xbe632980	-0.221838
24	0x3df9b39d	0.12192462
25	0xbe809bf1	-0.25118974
26	0xbdf98263	-0.121830724
27	0x3e2fca88	0.17167103
28	0x3db3f5f5	0.08787147
29	0x3ec464a3	0.3835803
30	0xbda7e6f9	-0.081983514
31	0x3e73c93d	0.23807235
32	0x3e1de56f	0.15419553
33	0xbe957661	-0.29191878
34	0x3c3f026f	0.011658295
35	0x3e9b6ca4	0.30356324
36	0x3e606211	0.2191241
37	0x3d8056e9	0.06266577
38	0xbd85573f	-0.065107815
39	0x3e2deb7f	0.16984366
40	0xbd321bc7	-0.04348352
41	0xbe455b9d	-0.19273229
42	0x3b546059	0.003240606
43	0x3e93dd4b	0.2887977
44	0xbe103b9e	-0.14085242
45	0xbdb1d5fc	-0.086833924
46	0xbe477aa9	-0.19480385
47	0x3d98c82a	0.07460053
48	0x3eaed063	0.3414336
49	0x3bb50397	0.0055241096
50	0xbecde601	-0.40214542
51	0xbc575f91	-0.013145343
52	0xbe415cd7	-0.18883072
53	0xbd252d14	-0.040326193
54	0x3e0bc61d	0.13649793
55	0x3d327a72	0.043573804
56	0xbe88b37f	-0.26699445
57	0x3e21fb23	0.15818457
58	0xbd9ec159	-0.07751722
59	0x3dacee41	0.08443881
60	0xbe609a5b	-0.21933882
61	0x3e878f15	0.2647635
62	0xbe8faa7d	-0.2805976
63	0x3e3ec460	0.18629599
64	0x3e3ae309	0.1825067
65	0xbe1208dc	-0.14261192
66	0xbe62c648	-0.22145951
67	0x3da2f998	0.079577625
68	0xbe83705c	-0.2567166
69	0x3eba4938	0.36383986
70	0x3eb1d9e1	0.3473654
71	0x3ea5d1e0	0.32386684
72	0xbe20629b	-0.15662615
73	0x3e9097f4	0.2824093
74	0xbe5e8556	-0.21730551
75	0x3be97400	0.007124424
76	0xbe80007d	-0.25000373
77	0x3e93c82f	0.28863665
78	0x3e94afcb	0.2904037
79	0xbdb12791	-0.08650125
80	0xbd972dcc	-0.07381782
81	0xbe585c0b	-0.21128862
82	0x3ea6127e	0.32435983
83	0xbdfb3afb	-0.12267109
84	0x3d8df1ef	0.06930911
85	0x3dd190fc	0.10232732
86	0xbe115803	-0.1419373
87	0x3e275a2c	0.16342992
88	0xbdeac898	-0.114640415
89	0x3d1c6f25	0.038191933
90	0x3df49749	0.11942918
91	0x3e3d92e0	0.1851306
92	0x3ec2ca5e	0.3804502
93	0x3e859bb2	0.2609535
94	0xbe83aa67	-0.25715944
95	0xbec0e7d3	-0.37676868
96	0xbea0bdf4	-0.31394923
97	0xbba70d0e	-0.005097992
98	0x3d1209e0	0.03565395
99	0xbe3e6839	-0.18594445

i_resnet_layers.8.bottleneck_block.2.weight_u f4 [10]
0	0x3cb6b42e	0.022302713
1	0xbe94b630	-0.29045248
2	0xbe14b03e	-0.14520356
3	0xbeb31b3b	-0.34981713
4	0x3eb1e27f	0.34743115
5	0xbe1ef736	-0.15523991
6	0xbdc3c743	-0.095594905
7	0x3f01c57a	0.5069195
8	0xbdfd6af6	-0.12373917
9	0x3f167744	0.58775735

i_resnet_layers.8.bottleneck_block.2.weight_v f4 [10]
0	0x3e698b1c	0.22806972
1	0x3e29c913	0.1658061
2	0x3e1729e1	0.1476207
3	0x3f0baad3	0.5455753
4	0xbe8bcdd9	-0.27305487
5	0xbec54041	-0.38525584
6	0xbe969743	-0.2941228
7	0x3d7ac3f9	0.06122205
8	0x3ec89640	0.39177132
9	0xbebba68f	-0.36650512

i_resnet_layers.8.bottleneck_block.4.weight_orig f4 [2, 10]
0	0x3dfc4be7	0.12319165
1	0x3e72490e	0.2366068
2	0x3ea6613d	0.32496062
3	0xbe00ffd3	-0.12597589
4	0xbe1db319	-0.15400352
5	0xbe8c1999	-0.2736328
6	0x3e3b5deb	0.18297546
7	0x3e4f8cc6	0.20268545
8	0xbe724bca	-0.23661724
9	0x3b6a8545	0.0035785001
10	0xbdac6449	-0.084175654
11	0x3e3bd8da	0.18344441
12	0x3dc88450	0.097908616
13	0x3eb673dc	0.3563527
14	0xbea29488	-0.31753945
15	0x3daebc6e	0.08532034
16	0x3e09663a	0.13417903
17	0xbeb31ecf	-0.34984443
18	0x3cff9f7d	0.03120398
19	0xbeeba98b	-0.4602779

i_resnet_layers.8.bottleneck_block.4.weight_u f4 [2]
0	0x3d3c92f4	0.046038583
1	0xbf7fba83	-0.9989397

i_resnet_layers.8.bottleneck_block.4.weight_v f4 [10]
0	0x3de590cc	0.112092584
1	0xbe5c7b44	-0.21531397
2	0xbdd39e48	-0.10332924
3	0xbee7ac3b	-0.4524859
4	0x3ec6a5fa	0.38798505
5	0xbdfb10c0	-0.12259054
6	0xbe20aaf6	-0.15690216
7	0x3ee5e3e3	0.44900426
8	0xbd586717	-0.05283269
9	0x3f134d19	0.57539517

i_resnet_layers.9.bottleneck_block.0.bias f4 [10]
0	0x3dc9a281	0.09845448
1	0x3f24cdfe	0.6437682
2	0x3f36e143	0.7143747
3	0x3edc942d	0.430818
4	0x3f18adae	0.59640014
5	0x3c2ed099	0.010669851
6	0x3f0ab2df	0.54179186
7	0xbeddf447	-0.4335043
8	0x3e9ac82e	0.3023085
9	0x3f10b205	0.56521636

i_resnet_layers.9.bottleneck_block.0.weight_orig f4 [10, 2]
0	0x3eca571e	0.3951959
1	0x3ebb1bf4	0.36544764
2	0x3ef2a8ff	0.4739456
3	0x3f05b97f	0.5223617
4	0x3ed5b51b	0.41739735
5	0x3f51e84e	0.81995094
6	0x3f1e46ea	0.61826956
7	0xbe5a53d7	-0.21321045
8	0xbf358c70	-0.70917416
9	0x3e5d81a2	0.21631482
10	0x3e8c11f4	0.27357447
11	0xbee55f7c	-0.4479941
12	0xbed6d764	-0.41961205
13	0x3e2160c2	0.15759566
14	0x3e192eb3	0.1495922
15	0x3e95b25d	0.29237643
16	0xbd916140	-0.07098627
17	0x3f23f541	0.640461
18	0x3f0ea724	0.55723786
19	0x3ee34fab	0.4439672

i_resnet_layers.9.bottleneck_block.0.weight_u f4 [10]
0	0xbeabb02c	-0.33532846
1	0xbee144c7	-0.43997785
2	0xbf0d1849	-0.5511518
3	0xbe2c4d1f	-0.16826294
4	0x3e52a618	0.20571172
5	0x3db0b4c2	0.08628227
6	0x3ddddb0c	0.108327955
7	0xbe49b95c	-0.19699615
8	0xbe8558c8	-0.26044297
9	0xbee15f4f	-0.44018027

i_resnet_layers.9.bottleneck_block.0.weight_v f4 [2]
0	0xbf2fb06a	-0.6862856
1	0xbf3a3271	-0.7273322

i_resnet_layers.9.bottleneck_block.2.weight_orig f4 [10, 10]
0	0xbe36195c	-0.17783111
1	0x3e881714	0.26580107
2	0x3ca41c51	0.020033034
3	0xbc33e896	-0.010980746
4	0x3b4cc198	0.003124332
5	0xbdc691a4	-0.096957475
6	0xbe8989eb	-0.26863036
7	0xbd4f26fa	-0.05057428
8	0xbda57657	-0.08079212
9	0xbe6734c5	-0.22578724
10	0xbe1a07b2	-0.15041998
11	0x3e5b1e9c	0.21398395
12	0xbd3e5870	-0.04647106
13	0x3e5d0a55	0.21585973
14	0xbe8d7e7e	-0.27635568
15	0xbe3d7593	-0.18501882
16	0x3dc32f16	0.09530465
17	0xbe7af006	-0.24505624
18	0xbe48bce5	-0.19603308
19	0x3e4920a7	0.19641362
20	0x3e5552e5	0.20832403
21	0x3e83575e	0.25652593
22	0x3e5832c5	0.21113117
23	0x3e52bb2d	0.20579214
24	0x3e93436b	0.28762373
25	0x3e5be8a0	0.21475458
26	0x3dbb13f6	0.091346666
27	0xbdf110f4	-0.11770812
28	0x3ea42a45	0.320635
29	0xbe084fd2	-0.13311699
30	0xbe48b947	-0.19601928
31	0x3e831e5f	0.2560911
32	0x3e8318f6	0.2560498
33	0x3ce0c6b9	0.027438508
34	0x3b5aa703	0.0033363707
35	0x3e352be1	0.1769252
36	0xbe002da1	-0.12517406
37	0xbe149d99	-0.14513244
38	0x3c8dfeb7	0.017333372
39	0x3e4d5d68	0.20055163
40	0xbde97d0f	-0.11400806
41	0x3ac64e54	0.0015129545
42	0xbeacdbde	-0.33761495
43	0x3ea93736	0.33049935
44	0xbda62fb6	-0.08114569
45	0x3e4ac490	0.19801545
46	0xbe2aa97f	-0.1666622
47	0xbda44ef0	-0.08022869
48	0x3d07cf22	0.03315652
49	0xbe28cfd8	-0.16485536
50	0xbda12482	-0.078682914
51	0x3d9397cf	0.072066896
52	0xbdab489e	-0.0836346
53	0xbdaf672e	-0.08564602
54	0xbe6df1b3	-0.23236732
55	0x3e1d05a4	0.15334183
56	0x3d48b03a	0.048996188
57	0xbd1fdab5	-0.039026935
58	0x3c90ccdc	0.01767581
59	0x3e17bbe6	0.14817771
60	0xbe932041	-0.28735545
61	0xbdc815be	-0.09769772
62	0xbd4ffb3e	-0.050776713
63	0xbe549949	-0.20761599
64	0x3e3b15da	0.18270054
65	0x3d7e5890	0.06209618
66	0x3d4a7ab7	0.049433436
67	0xbe7a86ec	-0.24465531
68	0x3de501e3	0.111820005
69	0xbdde17ba	-0.10844369
70	0x3dbf974e	0.09355031
71	0xbc105067	-0.008808232
72	0x3e435068	0.19073641
73	0x3e13885e	0.14407489
74	0x3e42ba32	0.1901634
75	0xbc9c96a2	-0.019114796
76	0xbce6b1f3	-0.028161025
77	0xbd9f3f30	-0.07775724
78	0xbe99195d	-0.29902163
79	0x3d0e7c08	0.034786254
80	0x3d960b14	0.07326332
81	0xbe72d215	-0.23712952
82	0xbe98d424	-0.2984935
83	0x3d94e7b4	0.07270756
84	0xbd179da5	-0.037015576
85	0x3e140ba6	0.14457569
86	0xbcadd2c3	-0.021218663
87	0xbdf58a24	-0.11989239
88	0x3dc1e031	0.09466589
89	0xbeb8208b	-0.35962328
90	0x3e6d5f53	0.23180895
91	0xbc5803dc	-0.013184514
92	0x3e788e40	0.24273014
93	0x3e870bd4	0.26376212
94	0xbea16403	-0.31521615
95	0x3e52e7c5	0.20596226
96	0xbe254919	-0.16141166
97	0x3e677d05	0.22606285
98	0x3e41d216	0.18927798
99	0x3d94be60	0.07262874

i_resnet_layers.9.bottleneck_block.2.weight_u f4 [10]
0	0x3c377a8d	0.011198652
1	0xbe7d322c	-0.2472617
2	0xbe47c5f0	-0.19509101
3	0xbed05874	-0.40692484
4	0x3e9597ae	0.29217285
5	0xbd86eb41	-0.0658784
6	0x3eaf9d33	0.3429962
7	0xbe430c47	-0.19047652
8	0x3f0f7aa8	0.56046534
9	0xbed79bc2	-0.4211102

i_resnet_layers.9.bottleneck_block.2.weight_v f4 [10]
0	0xbe1997df	-0.1499934
1	0xbedebc3c	-0.43502986
2	0xbf26a7de	-0.65099895
3	0xbe5058a5	-0.20346315
4	0x3e2b321e	0.16718337
5	0xbb3e57d9	-0.002904406
6	0x3d20b053	0.039230656
7	0xbe0634b2	-0.13106039
8	0x3d8681da	0.06567736
9	0xbf05878a	-0.5215994

i_resnet_layers.9.bottleneck_block.4.weight_orig f4 [2, 10]
0	0xbb6e5825	-0.0036368456
1	0x3e8fab9b	0.28060612
2	0x3ec6bb73	0.38814887
3	0x3e3a59d5	0.1819833
4	0xbe55f20f	-0.2089312
5	0x3e078ed9	0.13238086
6	0x3dc08698	0.09400672
7	0xbe4c772f	-0.1996734
8	0xbe92944b	-0.28628764
9	0xbe3530ab	-0.17694347
10	0xbda75f61	-0.08172489
11	0x3e0444ef	0.12916921
12	0xbcf74c1f	-0.030187665
13	0xbe5423bb	-0.20716755
14	0x3e9ef1b6	0.31043786
15	0x3d979e7e	0.07403277
16	0x3e676c75	0.22599967
17	0x3e72c798	0.23708951
18	0xbe05d272	-0.1306856
19	0xbe995b9e	-0.2995271

i_resnet_layers.9.bottleneck_block.4.weight_u f4 [2]
0	0x3f7fd4cb	0.9993407
1	0xbd14b460	-0.03630483

i_resnet_layers.9.bottleneck_block.4.weight_v f4 [10]
0	0xba4f02a9	-0.000789682
1	0x3eca7df8	0.39549232
2	0x3f0edfa2	0.55809987
3	0x3e8b0315	0.2715079
4	0xbea18628	-0.31547666
5	0x3e3e6310	0.18592477
6	0x3dfc7683	0.12327292
7	0xbe99331a	-0.299218
8	0xbece8cea	-0.40341884
9	0xbe741a19	-0.2383808

i_resnet_layers.10.bottleneck_block.0.bias f4 [10]
0	0x3f13d2e1	0.5774365
1	0x3e38d6fb	0.18050759
2	0xbe6627fb	-0.22476189
3	0xbf22d0b9	-0.63599735
4	0xbbafa9ce	-0.0053608185
5	0x3f142cc6	0.5788082
6	0x3f3b14d6	0.7307867
7	0x3f26ad52	0.65108216
8	0xbf005469	-0.501288
9	0xbe18ebee	-0.1493375

i_resnet_layers.10.bottleneck_block.0.weight_orig f4 [10, 2]
0	0x3f235175	0.6379617
1	0x3d25fdec	0.040525362
2	0xbdecc31c	-0.11560652
3	0xbebdfd24	-0.37107193
4	0xbe3cfca2	-0.18455747
5	0xbf291bc0	-0.6605797
6	0x3d272397	0.040805425
7	0xbeeea9c2	-0.4661389
8	0x3dc50111	0.09619344
9	0x3dfb8898	0.122819126
10	0x3f1a4e39	0.6027561
11	0xbee7deed	-0.45287266
12	0xbf0a4d60	-0.54024315
13	0xbf14ec8d	-0.5817345
14	0xbe896224	-0.26832688
15	0x3e87a8db	0.26496014
16	0x3eba390b	0.36371645
17	0xbef6c172	-0.48194462
18	0x3f16347c	0.58673835
19	0x3d05d732	0.03267593

i_resnet_layers.10.bottleneck_block.0.weight_u f4 [10]
0	0x3ef361e4	0.47535622
1	0xbcd1668a	-0.02556159
2	0xbcf17a70	-0.029477328
3	0x3ddde1a1	0.10834051
4	0x3d568c13	0.05237968
5	0x3f07f382	0.5310594
6	0xbe9f75ec	-0.31144655
7	0xbe7cd6cb	-0.24691312
8	0x3eb5ce54	0.35508978
9	0x3ee05222	0.43812662

i_resnet_layers.10.bottleneck_block.0.weight_v f4 [2]
0	0x3f7a0130	0.9765806
1	0xbe5c50c1	-0.2151518
