experiments/models/spiral/i_resnet_euclidean_product_20_blocks_10_epochs_2024_02_11_13_24_55.pt (torch, 134850 bytes, 200 tensors)

i_resnet_layers.0.bottleneck_block.0.bias f4 [10]
-0.22674264 0.05528465 0.109864786 0.08532449 -0.43426493 -0.4908307 -0.7798183 0.027736723
-0.31645733 0.61443955
00000000: 392f 68be 2872 623d ca00 e13d 9bbe ae3d
00000010: f957 debe 294e fbbe 2ca2 47bf 2038 e33c
00000020: b206 a2be e94b 1d3f

i_resnet_layers.0.bottleneck_block.0.weight_orig f4 [10, 2]
0.4270495 0.37386096 0.3350877 -0.66309196 0.57101434 -0.55890626 -0.6002683 -0.3346428
0.06586344 -0.06891153 -0.008874484 0.34440762 -0.23876698 -0.103566915 0.17123201 -0.47249737
0.25408858 -0.36242342 -0.49356952 -0.35707468
00000000: 3ba6 da3e b46a bf3e 9d90 ab3e 65c0 29bf
00000010: ff2d 123f 7b14 0fbf 2fab 19bf 4d56 abbe
00000020: 69e3 863d 7d21 8dbd 4966 11bc 3256 b03e
00000030: 557f 74be e41a d4bd 7257 2f3e 2deb f1be
00000040: e617 823e 908f b9be 25b5 fcbe 7ed2 b6be

i_resnet_layers.0.bottleneck_block.0.weight_u f4 [10]
-0.10928706 0.56972665 0.5797159 0.022659192 0.06965045 -0.23904994 -0.0112642525 0.38271815
0.33569264 0.07482076
00000000: e5d1 dfbd 9bd9 113f 4368 143f c59f b93c
00000010: e5a4 8e3d 82c9 74be b38d 38bc a2f3 c33e
00000020: e8df ab3e a03b 993d

i_resnet_layers.0.bottleneck_block.0.weight_v f4 [2]
0.44889164 -0.89358616
00000000: 20d5 e53e 10c2 64bf

i_resnet_layers.0.bottleneck_block.2.weight_orig f4 [10, 10]
-0.13983764 -0.1205016 -0.16175646 0.2370238 0.14232647 -0.25486112 0.20240922 0.14361739
0.123447746 0.24599819 0.23886767 -0.016346943 -0.062359747 -0.1338031 0.118097804 -0.109891735
0.23322757 -0.1701381 0.122727714 -0.28572315 0.08288748 -0.2223346 -0.2521971 -0.093676895
-0.072824605 -0.17968509 0.17660308 -0.18969949 -0.27312484 -0.0029258337 0.06954937 -0.051896792
-0.14279425 0.041612677 0.24941404 0.026928825 0.20592098 0.2155046 0.09611882 -0.21136348
0.026625572 -0.025734529 -0.011746972 -0.1722773 -0.092932664 -0.060809277 0.17718221 -0.13166505
0.10167633 -0.21966282 -0.1330322 0.036298174 0.15122586 0.12875515 -0.1339204 0.10482016
0.145671 -0.032682423 -0.3180641 0.2237144 0.05820346 -0.405152 -0.39296424 0.11816193
0.08582715 0.0826891 -0.21862333 -0.16948201 -0.16167848 0.030366361 -0.049105316 -0.031019652
-0.2181942 0.077676624 -0.17899078 0.023902094 0.028645404 0.09357419 -0.22009687 -0.22520018
-0.13939016 0.21673752 -0.2995378 0.06975901 0.2011633 -0.28568774 0.026594212 0.057003837
0.13958624 0.12361378 0.12083506 -0.17533585 -0.06980971 0.07107805 -0.10269692 0.23125865
-0.09716205 -0.28184205 0.18844824 0.13160767
00000000: 9931 0fbe 8bc9 f6bd 7ca3 25be 5eb6 723e
00000010: 08be 113e 287d 82be 5d44 4f3e 7010 133e
00000020: 2cd2 fc3d f3e6 7b3e ba99 743e 06ea 85bc
00000030: ef6c 7fbd ae03 09be 43dd f13d eb0e e1bd
00000040: 35d3 6e3e af38 2ebe ab58 fb3d 4e4a 92be
00000050: e9c0 a93d aeab 63be fa1f 81be acd9 bfbd
00000060: 1125 95bd 5eff 37be 70d7 343e 9540 42be
00000070: 05d7 8bbe 58bf 3fbb e66f 8e3d bb91 54bd
00000080: a838 12be 0e72 2a3d 6566 7f3e d799 dc3c
00000090: f3dc 523e 3dad 5c3e f2d9 c43d ab6f 58be
000000a0: df1d da3c 38d1 d2bc 5f76 40bc 7669 30be
000000b0: 7b53 bebd 2613 79bd 416f 353e 34d3 06be
000000c0: ae3b d03d 4aef 60be 9839 08be 65ad 143d
000000d0: f4da 1a3e 64d8 033e 6e22 09be f4ab d63d
000000e0: c72a 153e 01de 05bd 4cd9 a2be 6315 653e
000000f0: c066 6e3d 1570 cfbe 9c32 c9be e2fe f13d
00000100: 25c6 af3d e758 a93d cbde 5fbe b18c 2dbe
00000110: 0b8f 25be e0c2 f83c a822 49bd ed1c febc
00000120: 4d6e 5fbe ec14 9f3d 5c49 37be 53ce c33c
00000130: c4a9 ea3c d3a3 bf3d 1361 61be e09a 66be
00000140: 4bbc 0ebe 71f0 5d3e 055d 99be d0dd 8e3d
00000150: c1fd 4d3e aa45 92be 1bdc d93c db7c 693d
00000160: b2ef 0e3e 3929 fd3d 5f78 f73d 3e8b 33be
00000170: 65f8 8ebd 5e91 913d c352 d2bd 11cf 6c3e
00000180: e6fc c6bd 9a4d 90be 93f8 403e 29c4 063e

i_resnet_layers.0.bottleneck_block.2.weight_u f4 [10]
0.0665196 0.18549389 0.52461153 0.07685769 0.076832436 -0.10552327 0.7350082 0.23305708
-0.024423104 0.26049057
00000000: 6e3b 883d 1cf2 3d3e f14c 063f 9167 9d3d
00000010: 535a 9d3d 961c d8bd 7f29 3c3f 84a6 6e3e
00000020: f612 c8bc 055f 853e

i_resnet_layers.0.bottleneck_block.2.weight_v f4 [10]
0.20055236 -0.5959739 -0.6442709 0.04855765 0.010838422 -0.014328825 -0.01991176 -0.34924617
-0.22739752 -0.112913504
00000000: 995d 4d3e bf91 18bf f0ee 24bf 63e4 463d
00000010: a393 313c 73c3 6abc fd1d a3bc 65d0 b2be
00000020: e5da 68be 323f e7bd

i_resnet_layers.0.bottleneck_block.4.weight_orig f4 [2, 10]
0.017428286 -0.12867016 -0.019889051 -0.09545837 -0.14657149 -0.2580259 -0.25334737 -0.26725778
0.21916112 -0.22685307 -0.22420031 -0.1878714 -0.34121615 0.06374871 -0.0029065385 0.29905462
-0.47538447 -0.13111576 -0.14838937 -0.19261034
00000000: c4c5 8e3c 1cc2 03be 5dee a2bc ae7f c3bd
00000010: d616 16be f91b 84be bfb6 81be 03d6 88be
00000020: c66b 603e 2c4c 68be c494 65be 5c61 40be
00000030: e2b3 aebe af8e 823d a07b 3ebb b01d 993e
00000040: 9865 f3be 3643 06be 62f3 17be a53b 45be

i_resnet_layers.0.bottleneck_block.4.weight_u f4 [2]
-0.3556896 -0.93460417
00000000: f21c b6be 3842 6fbf

i_resnet_layers.0.bottleneck_block.4.weight_v f4 [10]
0.25420764 0.2766798 0.40740198 -0.03208706 0.068517536 -0.23453675 0.66790104 0.27207384
0.075956784 0.32593438
00000000: 8127 823e faa8 8d3e fe96 d03e b96d 03bd
00000010: ec52 8c3d 672a 70be 90fb 2a3f 434d 8b3e
00000020: 3b8f 9b3d dfe0 a63e

i_resnet_layers.1.bottleneck_block.0.bias f4 [10]
0.6264693 0.013694527 0.5119765 -0.6592032 -0.04678681 0.38463488 0.044398766 0.2739269
-0.21851498 -0.21544366
00000000: 4b60 203f 025f 603c e410 033f 8ac1 28bf
00000010: 87a3 3fbd ddee c43e 7bdb 353d 2640 8c3e
00000020: 64c2 5fbe 439d 5cbe

i_resnet_layers.1.bottleneck_block.0.weight_orig f4 [10, 2]
0.32109734 -0.21676637 0.36833954 0.6218706 -0.16988112 -0.05502794 -0.24336864 -0.13874616
0.25948364 0.38823774 0.13197593 0.06072378 -0.22011349 -0.6184009 -0.6062351 0.5890218
0.22187029 0.46125612 -0.32265213 0.46958515
00000000: df66 a43e 01f8 5dbe 0097 bc3e e932 1f3f
00000010: 51f5 2dbe fa64 61bd a135 79be 7913 0ebe
00000020: 0adb 843e 19c7 c63e b324 073e 80b9 783d
00000030: 6e65 61be 854f 1ebf 3932 1bbf 22ca 163f
00000040: f731 633e c329 ec3e a932 a5be 776d f03e

i_resnet_layers.1.bottleneck_block.0.weight_u f4 [10]
-0.14985324 0.48047364 -0.04803233 -0.11365659 0.30105814 0.05092069 -0.4720308 0.41768256
0.35448954 0.33955956
00000000: 2173 19be a400 f63e 8cbd 44bd c9c4 e8bd
00000010: 4b24 9a3e 3792 503d 05ae f1be 7dda d53e
00000020: a77f b53e c0da ad3e

i_resnet_layers.1.bottleneck_block.0.weight_v f4 [2]
0.05239198 0.9986266
00000000: f998 563d fea5 7f3f

i_resnet_layers.1.bottleneck_block.2.weight_orig f4 [10, 10]
-0.09113494 0.23409547 0.10830122 -0.06412156 -0.024166394 0.10652424 -0.36789745 -0.1999578
-0.11594081 0.22130752 -0.109750584 0.16251087 -0.13838561 -0.06583846 -0.08103573 -0.14641878
-0.3216459 0.117754675 -0.02778257 0.031839043 -0.19820511 0.025625592 0.12470162 0.17420538
0.22060987 -0.20816909 -0.16868925 -0.25416237 0.23452495 -0.325209 -0.3138243 0.23279269
-0.08763586 0.023797678 -0.1114193 0.0054414286 0.009263651 0.1945318 0.049698334 0.090162575
0.16688056 0.28853956 0.03161234 -0.010659454 0.18872173 -0.013813565 -0.060306128 0.06841246
0.051077504 0.09323124 -0.1236784 0.22028713 -0.036711954 -0.108192906 0.0017660495 0.04775906
-0.059337117 0.18146478 0.17380714 -0.10033732 -0.22550604 -0.12225955 0.033194847 0.12312519
-0.08969421 -0.04515508 -0.17055163 0.30632326 -0.29329967 -0.23354645 0.09859999 0.009947966
-0.21537234 0.18488358 0.095379755 0.12688118 -0.110088944 0.22871652 -0.1704247 0.124004826
0.24119899 -0.24397367 -0.11071136 0.022665668 -0.049377453 0.09861042 -0.1214469 -0.25996265
-0.09599012 -0.12537286 -0.08452679 -0.10820422 0.17339344 0.077823766 -0.36443233 0.025121516
0.14506976 -0.08365064 -0.09555125 -0.06849198
00000000: f5a4 babd b9b6 6f3e 08cd dd3d 2a52 83bd
00000010: 9af8 c5bc 6129 da3d 0e5d bcbe bdc1 4cbe
00000020: 6072 edbd 709e 623e eac4 e0bd 4069 263e
00000030: f5b4 0dbe 51d6 86bd 10f6 a5bd ceee 15be
00000040: c5ae a4be 5d29 f13d 4698 e3bc a869 023d
00000050: 48f6 4abe c3ec d13c 9063 ff3d e562 323e
00000060: 8ee7 613e 472a 55be e0bc 2cbe 9221 82be
00000070: 4f27 703e cb81 a6be 94ad a0be 3561 6e3e
00000080: 6e7a b3bd 59f3 c23c cd2f e4bd 034e b23b
00000090: 92c6 173c 5833 473e 7b90 4b3d 28a7 b83d
000000a0: bde2 2a3e 75bb 933e f17b 013d fea4 2ebc
000000b0: 4540 413e 4a52 62bc 8f03 77bd d51b 8c3d
000000c0: a536 513d 05f0 be3d 1a4b fdbd f392 613e
000000d0: 465f 16bd 3e94 ddbd ca7a e73a 019f 433d
000000e0: 7a0b 73bd e7d1 393e 80fa 313e a77d cdbd
000000f0: 0eeb 66be 3763 fabd 52f7 073d 0f29 fc3d
00000100: 99b1 b7bd 88f4 38bd 16a5 2ebe 67d6 9c3e
00000110: 602b 96be cd26 6fbe cbee c93d cbfc 223c
00000120: 918a 5cbe 1f52 3d3e 7656 c33d 24ed 013e
00000130: 5076 e1bd aa34 6a3e d083 2ebe 3ef6 fd3d
00000140: defc 763e 3cd4 79be a3bc e2bd 5aad b93c
00000150: 0340 4abd 43f4 c93d 27b9 f8bd d319 85be
00000160: 7896 c4bd be61 00be 621c adbd 2d9a ddbd
00000170: 0d8e 313e 1162 9f3d e096 babe a3cb cd3c
00000180: 2b8d 143e 0751 abbd 60b0 c3bd 8645 8cbd

i_resnet_layers.1.bottleneck_block.2.weight_u f4 [10]
0.30060086 0.43224838 -0.0572607 0.46718138 0.2397295 0.34991318 0.20078917 0.20560966
-0.4257285 -0.2398278
00000000: 5be8 993e a94f dd3e 328a 6abd 6632 ef3e
00000010: a67b 753e d227 b33e ad9b 4d3e 578b 523e
00000020: 16f9 d9be 6b95 75be

i_resnet_layers.1.bottleneck_block.2.weight_v f4 [10]
-0.3903728 0.6113362 -0.1373986 -0.06496998 0.059436698 -0.04138927 -0.3786729 0.50590295
0.0067590023 0.21483786
00000000: f2de c7be 8780 1c3f 38b2 0cbe fb0e 85bd
00000010: e573 733d cc87 29bd 6ae1 c1be db82 013f
00000020: 9f7a dd3b 75fe 5b3e

i_resnet_layers.1.bottleneck_block.4.weight_orig f4 [2, 10]
-0.094516896 -0.32032877 -0.21772112 -0.16173112 -0.26761723 -0.09171918 -0.07538245 0.013355039
0.4138685 0.2257015 0.34111652 -0.06459813 0.23725891 0.1965271 0.23680472 0.1390468
-0.2707255 -0.12416413 0.07534171 -0.2347123
00000000: 1392 c1bd 2202 a4be 49f2 5ebe d89c 25be
00000010: 2005 89be 44d7 bbbd 1d62 9abd 18cf 5a3c
00000020: 92e6 d33e 4b1e 673e d3a6 ae3e 064c 84bd
00000030: 00f4 723e 663e 493e f07c 723e 4962 0e3e
00000040: 889c 8abe c349 febd c14c 9a3d 6c58 70be

i_resnet_layers.1.bottleneck_block.4.weight_u f4 [2]
-0.7576108 0.6527067
00000000: c8f2 41bf c917 273f

i_resnet_layers.1.bottleneck_block.4.weight_v f4 [10]
0.36695254 0.24979554 0.3990301 0.31251052 0.4458636 0.19967546 -0.14980447 -0.113998756
-0.3293399 -0.40434355
00000000: 34e1 bb3e 67ca 7f3e ac4d cc3e 6101 a03e
00000010: 3c48 e43e b977 4c3e 5866 19be 2e78 e9bd
00000020: 3d9f a8be 1e06 cfbe

i_resnet_layers.2.bottleneck_block.0.bias f4 [10]
0.5725977 0.19865416 -0.54222286 0.4399541 0.647628 -0.54281354 -0.03760905 0.43667218
0.13464886 0.31702268
00000000: c395 123f ff6b 4b3e 1ecf 0abf aa41 e13e
00000010: f3ca 253f d4f5 0abf f20b 1abd 7f93 df3e
00000020: 64e1 093e cc50 a23e

i_resnet_layers.2.bottleneck_block.0.weight_orig f4 [10, 2]
0.28076637 0.06851625 -0.9211791 0.604132 0.3670705 0.5726917 0.33105642 0.42367002
-0.3520687 0.15455143 -0.16038069 -0.2490211 0.26811358 -0.26137647 0.12474704 -0.5625059
-0.26225036 -0.67597735 -0.58348656 -0.13193886
00000000: 9cc0 8f3e 3f52 8c3d 65d2 6bbf 65a8 1a3f
00000010: aaf0 bb3e ec9b 123f 3a80 a93e 47eb d83e
00000020: 5942 b4be bb42 1e3e d63a 24be 63ff 7ebe
00000030: 2f46 893e 23d3 85be 607b ff3d 6300 10bf
00000040: ae45 86be da0c 2dbf 605f 15bf fb1a 07be

i_resnet_layers.2.bottleneck_block.0.weight_u f4 [10]
0.106907025 -0.77947515 -0.10961972 -0.05102648 -0.25841603 0.04741481 0.27119234 0.35378382
0.215909 -0.22807287
00000000: 12f2 da3d af8b 47bf 4e80 e0bd 2401 51bd
00000010: 1b4f 84be 0836 423d b9d9 8a3e 2723 b53e
00000020: 4017 5d3e ef8b 69be

i_resnet_layers.2.bottleneck_block.0.weight_v f4 [2]
0.7008169 -0.7133412
00000000: bd68 333f 879d 36bf

i_resnet_layers.2.bottleneck_block.2.weight_orig f4 [10, 10]
0.035221756 -0.041612517 -0.23833485 0.19699895 -0.11264652 0.14958279 -0.13120839 0.21425518
0.013115451 -0.11677924 0.01045742 -0.45947692 -0.16741903 0.06084648 0.034657884 0.11731186
0.26630062 -0.18273659 -0.04564173 0.0801206 -0.13212274 -0.40992543 -0.04175942 0.0021263496
0.20469742 0.0031294494 -0.22578852 -0.06479212 -0.10896294 -0.17625748 -0.22656058 -0.054027636
0.11376723 0.2747867 0.17854834 0.052393142 -0.3318886 -0.32474554 0.25353113 0.23733394
-0.26138222 -0.038486347 -0.27160224 0.07594139 -0.116151296 0.14872508 -0.13592863 0.28840676
0.15776509 0.12994981 -0.1277453 -0.24781106 -0.08409682 -0.3143442 -0.1784453 -0.06441346
0.009427233 -0.019839203 -0.06806488 0.26861623 -0.11615557 0.043634206 -0.15153868 -0.013271288
0.27289015 0.15256521 -0.04721103 0.026676487 -0.3233617 -0.23415212 -0.20617479 -0.09945387
0.0007107597 0.03503001 -0.15960823 -0.11119306 0.048805963 -0.04445649 -0.18107986 0.18009818
0.0488957 -0.21260995 -0.07587183 -0.065335736 0.067483895 0.11306871 0.30187342 0.0347861
0.28420305 -0.2997089 -0.09935523 0.14794086 -0.0798717 -0.12082623 0.15606962 0.21990862
-0.1828064 -0.09293044 -0.075040616 -0.14888424
00000000: b044 103d e371 2abd 0d0e 74be 18ba 493e
00000010: 38b3 e6bd 3b2c 193e 7e5b 06be b665 5b3e
00000020: 30e2 563c f429 efbd 9955 2b3c 8f40 ebbe
00000030: e56f 2bbe 293a 793d 6df5 0d3d 3341 f03d
00000040: 8e58 883e 4d1f 3bbe d3f2 3abd 4516 a43d
00000050: 2f4b 07be bfe1 d1be ed0b 2bbd 3a5a 0b3b
00000060: 339c 513e 7317 4d3b 1b35 67be bbb1 84bd
00000070: f627 dfbd d77c 34be 7fff 67be 154c 5dbd
00000080: cbfe e83d d8b0 8c3e 60d5 363e 319a 563d
00000090: 4ded a9be 0c45 a6be d5ce 813e ab07 733e
000000a0: e4d3 85be dca3 1dbd 730f 8bbe 2987 9b3d
000000b0: bbe0 edbd 634b 183e e030 0bbe 0daa 933e
000000c0: 2c8d 213e 9011 053e aacf 02be 2fc2 7dbe
000000d0: f43a acbd b9f1 a0be 5dba 36be 34eb 83bd
000000e0: ae74 1a3c d385 a2bc 9a65 8bbd 1188 893e
000000f0: f9e2 edbd c8b9 323d f52c 1bbe d16f 59bc
00000100: 42b8 8b3e 0e3a 1c3e 5a60 41bd a688 da3c
00000110: aa8f a5be 93c5 6fbe 7c1f 53be 78ae cbbd
00000120: 4752 3a3a a17b 0f3d 5770 23be 30b9 e3bd
00000130: c3e8 473d 0218 36bd 006d 39be a86b 383e
00000140: dc46 483d 6cb6 59be b162 9bbd bece 85bd
00000150: ff34 8a3d 9190 e73d 278f 9a3e df7b 0e3d
00000160: 1083 913e 7273 99be c17a cbbd cf7d 173e
00000170: c693 a3bd be73 f7bd b7d0 1f3e ba2f 613e
00000180: 9a31 3bbe 5152 bebd e5ae 99bd 1c75 18be

i_resnet_layers.2.bottleneck_block.2.weight_u f4 [10]
-0.013097139 0.25826046 0.39852285 0.751233 0.23728828 0.23029654 -0.036892217 0.21947871
-0.22156735 0.044634473
00000000: 6295 56bc b73a 843e 300b cc3e ce50 403f
00000010: b3fb 723e dbd2 6b3e 4b1c 17bd 07bf 603e
00000020: 8de2 62be a3d2 363d

i_resnet_layers.2.bottleneck_block.2.weight_v f4 [10]
-0.46276426 -0.44808415 -0.04457932 0.2309791 0.1309045 0.05491059 -0.4554471 -0.34984958
0.079189315 0.41651204
00000000: 70ef ecbe 496b e5be ce98 36bd c985 6c3e
00000010: d40b 063e ede9 603d 5d30 e9be 7c1f b3be
00000020: 022e a23d 1141 d53e

i_resnet_layers.2.bottleneck_block.4.weight_orig f4 [2, 10]
0.30617675 -0.15760341 -0.26861233 -0.2451273 0.015284254 0.04758397 -0.24687959 -0.2913264
0.36270723 -0.19615933 0.034090318 0.46350798 0.30218658 -0.24488331 -0.20617963 0.15618402
0.20019153 0.1749954 0.2999782 -0.061073247
00000000: 33c3 9c3e ca62 21be 8e87 89be a702 7bbe
00000010: cf6a 7a3c 69e7 423d 01ce 7cbe bc28 95be
00000020: c3b4 b93e fedd 48be 4aa2 0b3d eb50 ed3e
00000030: 33b8 9a3e b1c2 7abe c120 53be b4ee 1f3e
00000040: 02ff 4c3e fe31 333e be96 993e f127 7abd

i_resnet_layers.2.bottleneck_block.4.weight_u f4 [2]
-0.613702 0.7895377
00000000: 931b 1dbf 251f 4a3f

i_resnet_layers.2.bottleneck_block.4.weight_v f4 [10]
-0.20028141 0.5764349 0.502445 -0.053692084 -0.21450607 0.11700667 0.3855126 0.39446422
0.017920395 0.08960897
00000000: 9216 4dbe 3d91 133f 3ca0 003f 3bec 5bbd
00000010: 7ba7 5bbe 31a1 ef3d e861 c53e 37f7 c93e
00000020: cbcd 923c e884 b73d

i_resnet_layers.3.bottleneck_block.0.bias f4 [10]
-0.3465943 0.3043316 -0.47070462 0.28794372 0.06402142 -0.16530716 -0.34070998 -0.117337815
-0.20815058 -0.2730321
00000000: cf74 b1be 5ad1 9b3e 3200 f1be 5c6d 933e
00000010: aa1d 833d 4846 29be 8a71 aebe cf4e f0bd
00000020: 6d25 55be ddca 8bbe

i_resnet_layers.3.bottleneck_block.0.weight_orig f4 [10, 2]
0.69039994 0.0973321 -0.648431 0.3524828 0.2682849 0.61333835 -0.4993749 -0.7344932
0.5874328 -0.5731894 0.23287246 0.48347056 -0.25905406 0.03406254 0.69056064 -0.3542996
0.021119205 0.55832773 -0.008508124 0.090426736
00000000: 0dbe 303f 0d56 c73d 93ff 25bf a078 b43e
00000010: a35c 893e be03 1d3f 11ae ffbe bf07 3cbf
00000020: ff61 163f 8abc 12bf 1e76 6e3e 7489 f73e
00000030: bca2 84be 2985 0b3d 95c8 303f c266 b5be
00000040: 2f02 ad3c 91ee 0e3f a965 0bbc a731 b93d

i_resnet_layers.3.bottleneck_block.0.weight_u f4 [10]
-0.36548778 0.49499354 0.054627057 0.037556864 -0.5351837 0.030750966 0.16149236 -0.51991385
0.17874561 0.03602629
00000000: 3721 bbbe cb6f fd3e 9fc0 5f3d 3ad5 193d
00000010: cd01 09bf 73e9 fb3c 415e 253e 1319 05bf
00000020: 1709 373e 4e90 133d

i_resnet_layers.3.bottleneck_block.0.weight_v f4 [2]
-0.86063075 0.5092294
00000000: 4c52 5cbf dc5c 023f

i_resnet_layers.3.bottleneck_block.2.weight_orig f4 [10, 10]
0.20201345 -0.05349336 -0.19405647 0.1037324 -0.066809155 0.24897783 0.19651066 -0.3075398
-0.0908946 0.17856823 -0.22191277 0.3594373 0.1743037 0.08530096 -0.16849561 -0.21293412
0.26328462 -0.4348039 0.014116267 -0.20718431 -0.14964531 0.08088179 0.14762421 0.17243965
-0.39141798 -0.16696051 -0.16854964 -0.33517483 0.13518159 0.02241632 0.2338165 0.092465
0.27994323 -0.11987641 0.09704004 0.041055784 0.231639 0.018583115 0.2263297 0.05588656
0.28384587 0.0780965 -0.1641225 0.16434333 -0.19756097 -0.15032735 0.05150552 -0.16255257
0.13338651 0.17343524 -0.10038679 -0.09377651 -0.30394232 -0.096804075 0.08690284 -0.24188945
0.06991897 -0.17486098 -0.25236833 0.24915677 -0.17173083 -0.38277707 -0.24047402 -0.100414306
0.07989053 -0.038570944 0.07231202 -0.14165585 0.16542181 -0.11208171 -0.35926962 0.35827792
0.10456632 -0.05558562 -0.2555183 0.26726806 -0.15594889 -0.2557217 -0.13120031 0.12647876
-0.04988024 -0.1259615 0.36857203 -0.03720453 0.09275122 0.12521973 0.11572091 0.02106384
0.08677573 -0.08841609 0.016053148 0.05512565 0.27947205 0.1531051 0.14594042 -0.068337396
-0.184678 0.09087286 -0.22919706 0.27215415
00000000: 9ddc 4e3e da1b 5bbd bdb6 46be a771 d43d
00000010: 3dd3 88bd 0bf4 7e3e 173a 493e db75 9dbe
00000020: f326 babd 97da 363e 1a3d 63be 2a08 b83e
00000030: ab7c 323e 45b2 ae3d 1d8a 2cbe 670b 5abe
00000040: 3ecd 863e 9e9e debe ea47 673c 2028 54be
00000050: 9f3c 19be 5aa5 a53d cd2a 173e 0594 303e
00000060: f067 c8be b2f7 2abe 4798 2cbe 099c abbe
00000070: 0b6d 0a3e 6ea2 b73c 986d 6f3e 4a5e bd3d
00000080: b854 8f3e c381 f5bd eebc c63d 1c2a 283d
00000090: c632 6d3e 9e3b 983c f9c2 673e 4ee9 643d
000000a0: 3f54 913e 0ff1 9f3d bb0f 28be 9e49 283e
000000b0: 6c4d 4abe 6aef 19be 74f7 523d 2e74 26be
000000c0: 7996 083e 0299 313e 9797 cdbd e60d c0bd
000000d0: 549e 9bbe 3741 c6bd 1efa b13d deb1 77be
000000e0: ad31 8f3d c20e 33be 6c36 81be f422 7f3e
000000f0: 35da 2fbe 5bfb c3be d23e 76be 04a6 cdbd
00000100: a59d a33d 91fc 1dbd 5318 943d 3b0e 11be
00000110: 5664 293e 188b e5bd 30f2 b7be 3470 b73e
00000120: de26 d63d bfad 63bd 4bd3 82be 5cd7 883e
00000130: 11b1 1fbe f4ed 82be 6059 06be a683 013e
00000140: 394f 4cbd 0dfc 00be 79b5 bc3e c763 18bd
00000150: 5af4 bd3d 9a39 003e 16ff ec3d 138e ac3c
00000160: 79b7 b13d 7f13 b5bd e481 833c 6fcb 613d
00000170: f616 8f3e 95c7 1c3e 6871 153e 7af4 8bbd
00000180: 3b1c 3dbe 8d1b ba3d a2b2 6abe ca57 8b3e

i_resnet_layers.3.bottleneck_block.2.weight_u f4 [10]
-0.07267704 -0.61897695 -0.5188584 0.05983985 -0.12972966 0.008485251 0.15152785 -0.54472744
0.046380375 0.0070014726
00000000: b3d7 94bd 4675 1ebf e7d3 04bf a11a 753d
00000010: dad7 04be b905 0b3c 1e2a 1b3e 4273 0bbf
00000020: 59f9 3d3d 9c6c e53b

i_resnet_layers.3.bottleneck_block.2.weight_v f4 [10]
0.33040312 -0.5028087 -0.200326 -0.1583418 0.4798297 0.07142256 0.017148567 0.5803212
0.02021809 -0.0012076853
00000000: 992a a93e 12b8 00bf 4222 4dbe 5a24 22be
00000010: 3dac f53e fe45 923d 277b 8c3c ee8f 143f
00000020: 68a0 a53c 324b 9eba

i_resnet_layers.3.bottleneck_block.4.weight_orig f4 [2, 10]
-0.114879675 0.17009932 0.24187665 -0.20608842 0.2300279 0.2154474 -0.13160142 0.13250421
-0.29349932 0.20463254 -0.15067221 -0.4065589 -0.3204589 -0.16067031 0.014862478 0.051865526
0.34104156 -0.37423885 -0.16772869 0.10667187
00000000: 0946 ebbd 842e 2e3e 83ae 773e d808 53be
00000010: 6f8c 6b3e 3e9e 5c3e 86c2 06be 2faf 073e
00000020: 8b45 96be 318b 513e d149 1abe 7d28 d0be
00000030: 3013 a4be c286 24be c081 733c f270 543d
00000040: 009d ae3e 3c9c bfbe 12c1 2bbe c876 da3d

i_resnet_layers.3.bottleneck_block.4.weight_u f4 [2]
0.38256323 -0.9239293
00000000: 54df c33e a186 6cbf

i_resnet_layers.3.bottleneck_block.4.weight_v f4 [10]
0.117618255 0.5429996 0.47878924 0.08557088 0.091624856 0.04263063 -0.45021963 0.4883287
0.052485127 -0.025019668
00000000: d7e1 f03d 0602 0b3f dd23 f53e c93f af3d
00000010: d0a5 bb3d 759d 2e3d 3083 e6be 3806 fa3e
00000020: a5fa 563d 0cf6 ccbc

i_resnet_layers.4.bottleneck_block.0.bias f4 [10]
0.05025844 0.44901875 -0.24903585 0.101607785 0.14901662 -0.65929824 0.6070398 0.27957243
0.26736337 -0.0060283854
00000000: cbdb 4d3d c9e5 e53e 4103 7fbe be17 d03d
00000010: d097 183e c5c7 28bf f666 1b3f 1e24 8f3e
00000020: dae3 883e c389 c5bb

i_resnet_layers.4.bottleneck_block.0.weight_orig f4 [10, 2]
-0.4163292 0.3067195 -0.26793978 0.40871623 0.64757293 0.22369164 -0.022851301 -0.89322186
-0.12425693 -0.12372888 -0.4405144 -0.28641045 0.12368516 0.42343113 -0.22507039 -0.08411294
-0.7755594 -0.07789284 0.35805854 -0.55125326
00000000: 1a29 d5be 570a 9d3e 672f 89be 4143 d13e
00000010: 57c7 253f 6c0f 653e a732 bbbc 30aa 64bf
00000020: 6b7a febd 9165 fdbd 1a8b e1be 64a4 92be
00000030: a54e fd3d f7cb d83e da78 66be 6843 acbd
00000040: 108b 46bf 4886 9fbd 7353 b73e ef1e 0dbf

i_resnet_layers.4.bottleneck_block.0.weight_u f4 [10]
0.1883097 0.28161323 0.23880251 -0.6800859 -0.106899686 -0.2643797 0.33461982 -0.087996565
-0.14198294 -0.3801223
00000000: 42d4 403e 9c2f 903e a588 743e 1c1a 2ebf
00000010: 39ee dabd c75c 87be 4a53 ab3e 8b37 b4bd
00000020: fa63 11be 649f c2be

i_resnet_layers.4.bottleneck_block.0.weight_v f4 [2]
0.13913506 0.99027336
00000000: 6c79 0e3e 8e82 7d3f

i_resnet_layers.4.bottleneck_block.2.weight_orig f4 [10, 10]
0.1238386 -0.12965621 -0.20943956 0.16605386 -0.30693752 -0.2175532 -0.08544349 0.27249417
-0.04084221 -0.06042232 -0.4038203 -0.23571129 0.26086378 -0.10582053 0.09775215 0.03777394
0.12581836 0.114889435 -0.20841387 0.24413796 0.15861578 0.2464418 0.3216059 -0.49025092
-0.18334892 0.18188743 0.26191545 0.18576537 -0.07109345 -0.19121322 -0.20101778 0.22691905
-0.17310746 -0.21268499 -0.14157262 -0.19829305 -0.21780738 -0.011503563 -0.022909895 -0.06751575
0.14000088 0.31662917 -0.03129369 0.18113607 -0.05646348 0.30366457 -0.03573724 0.32722473
0.21343966 0.19776072 -0.0054413546 -0.004199704 0.06413701 0.041605342 0.013864037 0.24495545
0.04487311 0.086086236 0.11501006 0.06618376 0.25942037 0.10858065 0.06338649 -0.27219027
-0.06327961 -0.1933859 -0.08354595 -0.14840701 -0.17327726 -0.03817311 -0.21047042 -0.039726704
-0.02518717 0.023282398 -0.18789828 0.010164224 -0.06926422 0.22855338 0.019671071 -0.16441181
0.17796189 0.029754607 -0.20391801 0.058512744 0.13682583 0.22391482 0.18813701 -0.21167824
0.06220559 0.0034274133 -0.14517324 -0.043121636 0.2050027 0.14535719 -0.23395328 0.0924837
-0.05041023 -0.070548706 0.16914472 0.04763288
00000000: 189f fd3d 99c4 04be 5377 56be 060a 2a3e
00000010: ea26 9dbe 44c6 5ebe fffc aebd 5b84 8b3e
00000020: 294a 27bd 657d 77bd 89c1 cebe 4d5e 71be
00000030: f08f 853e 6fb8 d8bd 4732 c83d d9b8 1a3d
00000040: 87d6 003e 274b eb3d 726a 55be 4dff 793e
00000050: 2d6c 223e 3d5b 7c3e 87a9 a43e 2b02 fbbe
00000060: d2bf 3bbe b340 3a3e c819 863e 4739 3e3e
00000070: 7199 91bd 66cd 43be 9bd7 4dbe 785d 683e
00000080: 1543 31be 18ca 59be 6af8 10be 550d 4bbe
00000090: e608 5fbe 7179 3cbc 88ad bbbc b345 8abd
000000a0: 645c 0f3e 381d a23e d02d 00bd bc7b 393e
000000b0: 4046 67bd ec79 9b3e 3661 12bd 008a a73e
000000c0: ed8f 5a3e c981 4a3e 644d b2bb ac9d 89bb
000000d0: 445a 833d 5d6a 2a3d fc25 633c 9ad5 7a3e
000000e0: decc 373d fb4d b03d 658a eb3d 5a8b 873d
000000f0: bfd2 843e 885f de3d c7d0 813d 865c 8bbe
00000100: bd98 81bd f406 46be 241a abbd 02f8 17be
00000110: 986f 31be 685b 1cbd 8f85 57be 78b8 22bd
00000120: 5355 cebc baba be3c 6868 40be d887 263c
00000130: 66da 8dbd e609 6a3e 3a25 a13c 925b 28be
00000140: a43b 363e efbf f33c e2cf 50be 0fab 6f3d
00000150: 121c 0c3e ed49 653e fda6 403e 2ec2 58be
00000160: 4acb 7e3d 749e 603b 4ba8 14be 50a0 30bd
00000170: 3aec 513e 84d8 143e 7391 6fbe 1868 bd3d
00000180: f57a 4ebd d77b 90bd 4634 2d3e b21a 433d

i_resnet_layers.4.bottleneck_block.2.weight_u f4 [10]
-0.22356659 0.04831478 0.8826849 0.101770245 -0.065516114 -0.011321726 0.3697344 -0.040703356
-0.06425007 -0.10623069
00000000: a4ee 64be b8e5 453d a3f7 613f eb6c d03d
00000010: 502d 86bd c37e 39bc d44d bd3e 90b8 26bd
00000020: 8a95 83bd 7a8f d9bd

i_resnet_layers.4.bottleneck_block.2.weight_v f4 [10]
0.19959222 0.32782644 0.3989679 -0.73177135 -0.11555586 0.08331622 0.23436566 0.04859098
-0.19579074 -0.20520978
00000000: e761 4c3e ded8 a73e 8545 cc3e 5e55 3bbf
00000010: 8da8 ecbd b2a1 aa3d 8dfd 6f3e 5607 473d
00000020: 5e7d 48be 8322 52be

i_resnet_layers.4.bottleneck_block.4.weight_orig f4 [2, 10]
0.38202378 -0.30054817 -0.34839466 -0.043214295 0.2570008 -0.13476793 -0.22596475 0.2510855
0.12675092 0.18827061 0.09786678 0.06640944 0.27712193 0.18787174 0.2564345 -0.03971243
0.11885711 0.08435212 0.11044618 -0.046933245
00000000: 9f98 c33e 73e1 99be c960 b2be 7901 31bd
00000010: 9c95 833e 9b00 0abe 4e63 67be 478e 803e
00000020: feca 013e 03ca 403e 616e c83d ac01 883d
00000030: ede2 8d3e 7361 403e 624b 833e 80a9 22bd
00000040: 5b6b f33d cec0 ac3d 9b31 e23d 133d 40bd

i_resnet_layers.4.bottleneck_block.4.weight_u f4 [2]
0.99906117 -0.04332192
00000000: 79c2 7f3f 5372 31bd

i_resnet_layers.4.bottleneck_block.4.weight_v f4 [10]
0.48321876 -0.38812006 -0.4608167 -0.06560941 0.3147263 -0.16980933 -0.29562396 0.3167556
0.15611856 0.24334618
00000000: 7368 f73e acb7 c6be 2bf0 ebbe 3a5e 86bd
00000010: ce23 a13e 7fe2 2dbe 065c 97be ca2d a23e
00000020: 8bdd 1f3e be2f 793e

i_resnet_layers.5.bottleneck_block.0.bias f4 [10]
0.26213494 -0.04886637 -0.027762312 0.30235323 -0.14588548 0.09160087 -0.051272396 -0.14144923
0.06207836 0.3595843
00000000: 8d36 863e 1a28 48bd ca6d e3bc 0bce 9a3e
00000010: 0163 15be 3d99 bb3d 0103 52bd 11d8 10be
00000020: e145 7e3d 6f1b b83e

i_resnet_layers.5.bottleneck_block.0.weight_orig f4 [10, 2]
-0.30536893 -0.18206783 0.46793047 -0.17804866 0.2510562 -0.6131549 -0.0329446 0.08646521
0.50525814 0.011829719 -0.1192156 -0.5956042 -0.42664978 0.18972145 0.27091753 -0.4607628
0.62572944 0.502203 -0.08802068 0.02846399
00000000: 5159 9cbe fd6f 3abe 9594 ef3e 6352 36be
00000010: 708a 803e b8f7 1cbf ebf0 06bd ac14 b13d
00000020: 9958 013f 70d1 413c 4f27 f4bd 8479 18bf
00000030: d771 dabe 5746 423e b4b5 8a3e 1ae9 ebbe
00000040: ce2f 203f 6090 003f 3044 b4bd 502d e93c

i_resnet_layers.5.bottleneck_block.0.weight_u f4 [10]
-0.09586228 -0.24353488 -0.5720957 0.08016644 -0.08851794 -0.48488647 0.24545623 -0.44604287
0.30645186 0.041410644
00000000: 7153 c4bd 3561 79be dd74 12bf 4d2e a43d
00000010: e548 b5bd 0a43 f8be e158 7b3e bb5f e4be
00000020: 42e7 9c3e 359e 293d

i_resnet_layers.5.bottleneck_block.0.weight_v f4 [2]
-0.22306278 0.97480404
00000000: 926a 64be c28c 793f

i_resnet_layers.5.bottleneck_block.2.weight_orig f4 [10, 10]
-0.041808795 0.24372907 -0.23677343 -0.13732803 0.15297963 -0.19881587 0.20913035 0.04892275
0.29917717 0.10751695 0.29546857 -0.08503859 0.20766076 -0.1983917 0.20201997 -0.16060977
0.103585504 0.14641114 -0.33339122 0.33883247 -0.047012556 0.111032695 -0.30012718 0.17144859
0.19415216 -0.2995217 0.030226339 -0.2914181 -0.014797047 -0.042102102 -0.12417448 0.32773215
0.21611783 -0.13632774 -0.1253255 0.010483261 -0.096572764 0.030124502 0.031104079 -0.14482667
0.17973347 0.21721539 0.082384795 -0.19308133 -0.096250154 0.033603072 -0.06053912 -0.078842305
-0.046211585 -0.05859347 -0.08138314 -0.04288179 -0.21259743 -0.0086251255 0.17633033 -0.27243778
0.055083912 0.108592175 -0.4357425 -0.19815521 0.058467735 0.3034142 0.31196305 -0.019618662
-0.124711335 -0.048192047 -0.09322436 -0.031800076 -0.16710043 -0.117052734 0.09099798 -0.16898417
0.2101399 -0.22219494 0.2397248 0.10823043 0.26394537 -0.18355381 0.11058786 0.017131273
0.29725426 -0.20732926 0.09787053 0.25152197 -0.17235774 -0.19524732 -0.11904758 -0.14610513
-0.15593399 -0.121958815 0.095513046 -0.037612926 -0.16954243 -0.080657065 -0.26643264 0.08604963
0.1575324 -0.07968592 -0.13068177 0.15455173
00000000: b33f 2bbd 1d94 793e bc74 72be b89f 0cbe
00000010: b1a6 1c3e 6396 4bbe 4426 563e 3963 483d
00000020: c02d 993e d931 dc3d a847 973e b628 aebd
00000030: 06a5 543e 3227 4bbe 53de 4e3e e376 24be
00000040: a324 d43d cdec 153e 41b2 aabe 737b ad3e
00000050: 3d90 40bd 1c65 e33d 45aa 99be 3890 2f3e
00000060: d3cf 463e e95a 99be 3a9d f73c c134 95be
00000070: 506f 72bc 4173 2cbd 314f febd 82cc a73e
00000080: fe4d 5d3e 8099 0bbe 5455 00be fcc1 2b3c
00000090: f1c7 c5bd a9c7 f63c fbcd fe3c 714d 14be
000000a0: 0d0c 383e b66d 5e3e 5cb9 a83d 1db7 45be
000000b0: cd1e c5bd 60a3 093d def7 77bd 1378 a1bd
000000c0: 5c48 3dbd b5ff 6fbd 34ac a6bd d1a4 2fbd
000000d0: 24b3 59be 6650 0dbc f08f 343e f77c 8bbe
000000e0: ab9f 613d 9365 de3d a419 dfbe 33e9 4abe
000000f0: dd7b 6f3d 1b59 9b3e 9fb9 9f3e 51b7 a0bc
00000100: a868 ffbd 0665 45bd 6aec bebd cc40 02bd
00000110: 601c 2bbe 58b9 efbd 265d ba3d 300a 2dbe
00000120: ea2e 573e 1287 63be 6b7a 753e eaa7 dd3d
00000130: d923 873e 88f5 3bbe e37b e23d e256 8c3c
00000140: b631 983e 1f4e 54be 5870 c83d 7dc7 803e
00000150: 8c7e 30be eaee 47be 38cf f3bd 959c 15be
00000160: 29ad 1fbe 8bc5 f9bd 589c c33d 0310 1abd
00000170: 889c 2dbe 882f a5bd dc69 88be ca3a b03d
00000180: 2c50 213e 5f32 a3bd 71d1 05be cf42 1e3e

i_resnet_layers.5.bottleneck_block.2.weight_u f4 [10]
0.45676613 -0.25969467 0.52951837 -0.2739806 -0.2646606 0.26036817 -0.42961767 -0.06318338
-0.2027 -0.031316902
00000000: 40dd e93e b3f6 84be 848e 073f 2f47 8cbe
00000010: 9881 87be fa4e 853e d9f6 dbbe 4a66 81bd
00000020: 9790 4fbe 2746 00bd

i_resnet_layers.5.bottleneck_block.2.weight_v f4 [10]
-0.2984008 -0.050933514 -0.7394652 0.16726431 0.36762786 -0.28617853 0.219796 -0.08553161
0.24639823 0.013795372
00000000: fdc7 98be a99f 50bd 974d 3dbf 5647 2b3e
00000010: b839 bc3e fe85 92be 3412 613e 322b afbd
00000020: d14f 7c3e fc05 623c

i_resnet_layers.5.bottleneck_block.4.weight_orig f4 [2, 10]
-0.21445951 0.14758009 -0.37242424 0.058192316 -0.17298822 -0.13437343 0.3095424 0.03478234
0.22207208 0.13618721 -0.1890959 0.3271076 0.31887564 0.18667279 0.036983397 0.35659373
-0.029838445 0.022612816 0.22315453 -0.06395036
00000000: 469b 5bbe 3c1f 173e 64ae bebe 115b 6e3d
00000010: d323 31be 3099 09be 577c 9e3e ed77 0e3d
00000020: dd66 633e a974 0b3e 5ba2 41be a67a a73e
00000030: ab43 a33e 2727 3f3e e77b 173d 7493 b63e
00000040: c16f f4bc 833e b93c 9f82 643e 68f8 82bd

i_resnet_layers.5.bottleneck_block.4.weight_u f4 [2]
-0.5294964 0.8483122
00000000: 138d 07bf fd2a 593f

i_resnet_layers.5.bottleneck_block.4.weight_v f4 [10]
-0.06667199 0.28484002 0.66928136 0.18268938 0.17587493 0.53437966 -0.27080566 0.0014287214
0.102340534 -0.18111652
00000000: 538b 88bd 8dd6 913e 0656 2b3f ed12 3b3e
00000010: 8f18 343e 1bcd 083f 0aa7 8abe ef43 bb3a
00000020: ea97 d13d 9c76 39be

i_resnet_layers.6.bottleneck_block.0.bias f4 [10]
-0.2676597 -0.22285648 -0.24787734 -0.103254616 -0.253966 -0.41104487 0.35107836 0.43616378
-0.48839405 -0.06610558
00000000: b10a 89be 7d34 64be 8fd3 7dbe 2877 d3bd
00000010: d507 82be 7974 d2be 8bc0 b33e dc50 df3e
00000020: c90e fabe 5d62 87bd

i_resnet_layers.6.bottleneck_block.0.weight_orig f4 [10, 2]
-0.45883492 0.7165035 0.60083914 -0.15945485 0.38722146 0.49705112 0.6723361 -0.07899842
-0.6235703 -0.47889456 -0.25796077 0.061433595 -0.36190683 0.42014322 -0.49078378 0.41419303
-0.43423235 0.15972641 -0.540907 -0.66942304
00000000: 69ec eabe c66c 373f 98d0 193f 2248 23be
00000010: e441 c63e 7c7d fe3e 381e 2c3f ecc9 a1bd
00000020: 4ea2 1fbf ab31 f5be 6f13 84be cba1 7b3d
00000030: da4b b9be 031d d73e 0348 fbbe 1c11 d43e
00000040: b453 debe 528f 233e e278 0abf 4f5f 2bbf

i_resnet_layers.6.bottleneck_block.0.weight_u f4 [10]
0.33509073 -0.38920698 -0.2123513 -0.42919207 0.3627329 0.16651101 0.2550979 0.33593735
0.28398335 0.298424
00000000: 0391 ab3e 2346 c7be 9f72 59be 10bf dbbe
00000010: 20b8 b93e dd81 2a3e 319c 823e fbff ab3e
00000020: 4466 913e 08cb 983e

i_resnet_layers.6.bottleneck_block.0.weight_v f4 [2]
-0.9949173 0.10069567
00000000: e6b2 7ebf 8839 ce3d

i_resnet_layers.6.bottleneck_block.2.weight_orig f4 [10, 10]
-0.17815484 0.28224263 0.028803833 0.23826763 -0.17313293 0.12036834 0.0062996154 0.2500809
0.17204079 0.055748034 -0.08007572 -0.21966384 0.07977859 0.029247105 -0.1658245 0.25376207
0.015188143 0.26673526 -0.207774 0.2741193 -0.15022379 -0.18699755 -0.14188717 -0.18698528
0.18401222 -0.24010254 -0.116353795 -0.2263298 -0.15286982 0.035080355 -0.098009594 0.010620065
0.08776893 -0.039632596 -0.35237962 0.14559683 0.16076809 0.15287921 -0.14390376 -0.06765374
-0.14760256 0.17666215 -0.16426319 -0.20837648 -0.16732007 0.16804926 0.018542593 -0.09314606
0.30579093 0.08920317 0.011785318 0.20779629 -0.2807203 0.23454908 0.030227324 0.21731454
-0.21342675 -0.1976426 0.21096203 0.083245784 0.33004102 -0.057767183 -0.17847297 0.115917325
-0.31376678 0.21303782 0.2992978 -0.13988742 0.050734043 -0.31059816 -0.29943362 0.10407999
0.111496404 -0.16813782 0.3118211 0.057639815 -0.17970237 0.04149205 0.18098065 0.28104803
-0.27260605 -0.06186702 0.17426515 0.28690147 -0.18159527 0.02315657 -0.15656759 0.15678787
0.2994662 -0.0060498626 -0.19629017 -0.325225 -0.30136806 0.20085838 0.08344727 0.24301463
-0.08503496 0.17392382 -0.08641347 0.30686626
00000000: 396e 36be 1b82 903e 04f6 eb3c 6efc 733e
00000010: c249 31be ad83 f63d 016d ce3b 9b0a 803e
00000020: 762b 303e 0d58 643d bdfe a3bd 8fef 60be
00000030: f562 a33d a097 ef3c e6cd 29be 1aed 813e
00000040: b0d7 783c 8691 883e b5c2 54be 5d59 8c3e
00000050: 44d4 19be 497c 3fbe df4a 11be 1279 3fbe
00000060: b36d 3c3e 71dd 75be e64a eebd 00c3 67be
00000070: e889 1cbe 6bb0 0f3d 41b9 c8bd c8ff 2d3c
00000080: 32c0 b33d ca55 22bd 1a6b b4be 5617 153e
00000090: 64a0 243e 5e8c 1c3e 825b 13be 0b8e 8abd
000000a0: 2025 17be ece6 343e 9c34 28be a560 55be
000000b0: f455 2bbe 1b15 2c3e a3e6 973c 5dc3 bebd
000000c0: a190 9c3e 27b0 b63d 3517 413c 8dc8 543e
000000d0: 92ba 8fbe a22d 703e 4b9f f73c b487 5e3e
000000e0: 8b8c 5abe d262 4abe 6e06 583e c47c aa3d
000000f0: 23fb a83e 489d 6cbd 9ec1 36be 1066 ed3d
00000100: 0aa6 a0be 9626 5a3e 903d 993e a63e 0fbe
00000110: 80ce 4f3d b906 9fbe 5d4f 99be e427 d53d
00000120: 3a58 e43d 522c 2cbe 04a7 9f3e ba17 6c3d
00000130: e603 38be 91f3 293d fe52 393e 87e5 8f3e
00000140: 0593 8bbe 4668 7dbd 9072 323e c0e4 923e
00000150: 1cf4 39be d9b2 bd3c 4153 20be 008d 203e
00000160: a253 993e ed3d c6bb 4a00 49be e483 a6be
00000170: ea4c 9abe d2ad 4d3e 67e6 aa3d d4d8 783e
00000180: cf26 aebd 1619 323e 8cf9 b0bd 931d 9d3e

i_resnet_layers.6.bottleneck_block.2.weight_u f4 [10]
-0.13786888 -0.171686 -0.14310418 0.16378176 -0.081177846 -0.12655476 0.614117 -0.5511888
-0.2337984 -0.38209462
00000000: 802d 0dbe 74ce 2fbe e789 12be 68b6 273e
00000010: 9240 a6bd 9297 01be c636 1d3f b61a 0dbf
00000020: d968 6fbe e8a1 c3be

i_resnet_layers.6.bottleneck_block.2.weight_v f4 [10]
0.5612354 0.032546565 -0.031041695 -0.0103877485 -0.37617037 -0.04239831 0.41738784 -0.20237543
-0.1470664 -0.5502593
00000000: 20ad 0f3f 8c4f 053d 274b febc 6031 2abc
00000010: 6799 c0be daa9 2dbd dcb3 d53e 813b 4fbe
00000020: 9398 16be cbdd 0cbf

i_resnet_layers.6.bottleneck_block.4.weight_orig f4 [2, 10]
-0.14591649 0.2739214 0.16478851 -0.1131526 -0.14016181 -0.09734595 -0.33749616 0.19997202
-0.22332834 0.11066847 0.1622512 -0.16465794 -0.24896058 -0.37073603 0.2242996 0.25900486
-0.10343451 0.36491615 0.06290896 0.36227155
00000000: 226b 15be 6d3f 8c3e 52be 283e 8dbc e7bd
00000010: 9486 0fbe 505d c7bd 4ccc acbe 77c5 4c3e
00000020: 2fb0 64be 27a6 e23d 2e25 263e 179c 28be
00000030: 86ef 7ebe 1dd1 bdbe cbae 653e 499c 843e
00000040: 79d5 d3bd 4ad6 ba3e 6ad6 803d a87b b93e

i_resnet_layers.6.bottleneck_block.4.weight_u f4 [2]
0.03503794 0.999386
00000000: f183 0f3d c3d7 7f3f

i_resnet_layers.6.bottleneck_block.4.weight_v f4 [10]
0.1951506 -0.19253711 -0.3017717 -0.4645095 0.2719093 0.3170695 -0.14283782 0.46102732
0.06852936 0.4537593
00000000: 8fd5 473e 7328 45be d281 9abe 30d4 edbe
00000010: b237 8b3e ef56 a23e 1444 12be c60b ec3e
00000020: 1f59 8c3d 2453 e83e

i_resnet_layers.7.bottleneck_block.0.bias f4 [10]
0.34505498 0.29053628 0.037055448 0.2133979 -0.31891584 -0.25308013 -0.094662204 -0.2533548
-0.1519839 -0.34124994
00000000: 0cab b03e 2cc1 943e 74c7 173d fb84 5a3e
00000010: f048 a3be b893 81be 42de c1bd b8b7 81be
00000020: aba1 1bbe 50b8 aebe

i_resnet_layers.7.bottleneck_block.0.weight_orig f4 [10, 2]
-0.60187244 0.30061612 -0.38353872 -0.4520927 0.15976195 -0.50678164 0.4496137 -0.1622043
0.1818095 -0.50793666 -0.29444247 0.07441582 -0.21338883 -0.24227804 0.13580716 0.6013073
-0.46234208 0.42264077 0.52428967 -0.51678926
00000000: 5014 1abf 5bea 993e 305f c4be b278 e7be
00000010: a398 233e 71bc 01bf c433 e63e e218 26be
00000020: 452c 3a3e 2308 02bf 2ac1 96be 5267 983d
00000030: 9a82 5abe bc17 78be 0811 0b3e 46ef 193f
00000040: 1ab8 ecbe 5f64 d83e d937 063f 4d4c 04bf

i_resnet_layers.7.bottleneck_block.0.weight_u f4 [10]
-0.41141447 0.08037396 0.33646163 0.27408302 0.34612584 -0.16260716 0.039824285 -0.2633359
-0.41804945 0.49397248
00000000: eba4 d2be 1a9b a43d b344 ac3e 9c54 8c3e
00000010: 6837 b13e 7e82 26be ca1e 233d f7d3 86be
00000020: 940a d6be f6e9 fc3e

i_resnet_layers.7.bottleneck_block.0.weight_v f4 [2]
0.6173921 -0.7866555
00000000: 690d 1e3f 4162 49bf

i_resnet_layers.7.bottleneck_block.2.weight_orig f4 [10, 10]
0.22829254 -0.33962834 0.09264597 -0.05057294 -0.044490688 -0.25862104 -0.27108377 -0.117056
-0.04765469 0.2442322 0.19066045 -0.26115027 -0.23580347 -0.3037016 -0.10419953 -0.006106295
0.030187968 0.088921934 0.081064165 -0.04860116 0.10386575 0.18931524 0.15122893 -0.2640035
0.3339156 0.13047816 0.11669649 -0.20569006 0.062051922 -0.028406125 0.17272833 -0.09133909
-0.14795902 0.032877713 -0.04147336 0.26773027 0.37582582 -0.03206553 0.13467993 0.28860158
0.22803627 -0.32615346 -0.16991302 0.20024145 -0.2767374 -0.16194922 0.19303346 -0.09375292
0.29628232 -0.1939385 -0.07350367 -0.10028742 -0.12160101 0.21589595 0.21672972 -0.02938063
-0.25460646 -0.35648182 0.23972136 0.18483263 -0.053171877 -0.23599216 -0.11645261 0.02894371
-0.18134917 0.106333494 0.115258604 -0.048926685 0.011471032 -0.22364227 -0.05222837 -0.17755593
-0.06618895 -0.0709429 -0.16816567 0.031536475 -0.16918592 -0.21230975 0.21036614 -0.25813517
0.11544547 -0.31228614 0.03678971 -0.09499855 0.18400848 0.06324935 0.11982253 0.26636967
0.13115709 0.023505783 0.25245932 0.11884454 0.107288405 -0.14833824 0.0520092 0.32206836
0.08825472 -0.07319831 -0.15870698 0.27476972
00000000: 85c5 693e c4e3 adbe 2cbd bd3d 9225 4fbd
00000010: de3b 36bd fa69 84be 7ecb 8abe 0ebb efbd
00000020: 9031 43bd 0118 7a3e 7e3c 433e 7db5 85be
00000030: 7776 71be c77e 9bbe 9066 d5bd 5117 c8bb
00000040: c24c f73c b41c b63d f804 a63d 0312 47bd
00000050: 91b7 d43d dbdb 413e c2db 1a3e 772b 87be
00000060: fcf6 aa3e 119c 053e 92fe ee3d 6aa0 52be
00000070: 282a 7e3d f6b3 e8bc b2df 303e fd0f bbbd
00000080: 9282 17be c8aa 063d f8df 29bd f113 893e
00000090: 3e6c c03e 2557 03bd 89e9 093e 96c3 933e
000000a0: 5782 693e 96fd a6be aefd 2dbe 180c 4d3e
000000b0: 86b0 8dbe 04d6 25be 90aa 453e 8801 c0bd
000000c0: 51b2 973e d097 46be 1889 96bd 7e63 cdbd
000000d0: f309 f9bd d413 5d3e 65ee 5d3e a6af f0bc
000000e0: c75b 82be c984 b6be 8479 753e c444 3d3e
000000f0: c1ca 59bd eea7 71be b57e eebd 5c1b ed3c
00000100: 99b3 39be 60c5 d93d b40c ec3d 5967 48bd
00000110: fff0 3b3c 7b02 65be 6aed 55bd 39d1 35be
00000120: 128e 87bd 834a 91bd 9f33 2cbe 642c 013d
00000130: 133f 2dbe ba67 59be 396a 573e 4b2a 84be
00000140: ad6e ec3d f8e3 9fbe cfb0 163d 9a8e c2bd
00000150: b86c 3c3e e088 813d 8465 f53d 9b61 883e
00000160: 0b4e 063e 338f c03c 5942 813e c464 f33d
00000170: 06ba db3d fbe5 17be 9907 553d 25e6 a43e
00000180: e4be b43d ffe8 95bd 1584 22be 9eae 8c3e

i_resnet_layers.7.bottleneck_block.2.weight_u f4 [10]
-0.20936337 -0.29275632 0.32973117 -0.035694 -0.6375321 -0.10356706 -0.3049928 -0.34453112
-0.11293709 0.34469336
00000000: 5a63 56be 28e4 95be 86d2 a83e df33 12bd
00000010: 4e35 23bf f71a d4bd 0428 9cbe 6266 b0be
00000020: 904b e7bd a67b b03e

i_resnet_layers.7.bottleneck_block.2.weight_v f4 [10]
-0.10470844 0.6385196 0.31559172 -0.16294774 0.41426668 0.25542855 0.01595178 0.061160456
-0.35598668 0.29596683
00000000: 6171 d6bd 0576 233f 3d95 a13e c6db 26be
00000010: c31a d43e 88c7 823e 4fad 823c 6383 7a3d
00000020: e343 b6be f788 973e

i_resnet_layers.7.bottleneck_block.4.weight_orig f4 [2, 10]
-0.06149542 -0.15580209 0.03589188 0.22161423 -0.2957897 0.27964848 -0.10451523 -0.019632583
0.03404481 -0.034039076 -0.08498807 -0.07092604 0.44990996 0.24325995 -0.037379343 -0.18455091
0.14964028 -0.17583452 -0.21250458 0.15452956
00000000: 9fe2 7bbd 958a 1fbe 5d03 133d d7ee 623e
00000010: bf71 97be 162e 8f3e 150c d6bd 83d4 a0bc
00000020: 9272 0b3d 8f6c 0bbd 3a0e aebd ac41 91bd
00000030: 995a e63e 2319 793e 151b 19bd eafa 3cbe
00000040: 4d3b 193e f70d 34be cd9a 59be ff3c 1e3e

i_resnet_layers.7.bottleneck_block.4.weight_u f4 [2]
0.12047156 0.99271685
00000000: cbb9 f63d b122 7e3f

i_resnet_layers.7.bottleneck_block.4.weight_v f4 [10]
-0.13906415 -0.135422 0.6841448 0.40722156 -0.11045779 -0.22696874 0.20646903 -0.26868394
-0.31402594 0.226473
00000000: d566 0ebe 11ac 0abe 1d24 2f3f 587f d03e
00000010: b237 e2bd 7e6a 68be 9e6c 533e f190 89be
00000020: 02c8 a0be 8ae8 673e

i_resnet_layers.8.bottleneck_block.0.bias f4 [10]
0.24403328 0.008171208 -0.085633725 0.039082795 -0.68283194 0.19180591 -0.044868167 0.15296704
0.2291842 0.156893
00000000: dce3 793e 88e0 053c bc60 afbd 4815 203d
00000010: 13ce 2ebf c568 443e afc7 37bd 64a3 1c3e
00000020: 43af 6a3e 8fa8 203e

i_resnet_layers.8.bottleneck_block.0.weight_orig f4 [10, 2]
-0.07221141 0.5545058 0.22958468 0.6234445 -0.44511506 0.40390933 -0.5271475 0.36385068
0.071507506 -0.23092027 0.3554542 -0.3872293 0.53634197 -0.21311942 0.45721275 0.09684265
-0.38625893 0.2719678 0.08644689 0.7147939
00000000: 93e3 93bd 18f4 0d3f 3f18 6b3e 0f9a 1f3f
00000010: 1fe6 e3be 34cd ce3e 23f3 06bf a34a ba3e
00000020: 8772 923d 5d76 6cbe 18fe b53e eb42 c6be
00000030: b54d 093f fa3b 5abe ca17 ea3e 7055 c63d
00000040: bbc3 c5be 5d3f 8b3e 110b b13d bcfc 363f

i_resnet_layers.8.bottleneck_block.0.weight_u f4 [10]
0.34452006 0.27500653 0.39288223 0.3995135 -0.15852076 -0.35095948 -0.31631193 -0.109630756
0.2957513 0.37929866
00000000: ef64 b03e a8cd 8c3e dc27 c93e 098d cc3e
00000010: 4453 22be f6b0 b3be a3f3 a1be 1786 e0bd
00000020: b76c 973e 6f33 c23e

i_resnet_layers.8.bottleneck_block.0.weight_v f4 [2]
-0.53245085 0.8464609
00000000: b34e 08bf a9b1 583f

i_resnet_layers.8.bottleneck_block.2.weight_orig f4 [10, 10]
-0.20983592 -0.4269506 -0.1456389 0.15629724 -0.1842566 0.17764203 -0.028179923 -0.1668133
-0.27157295 -0.25601843 0.19980021 -0.27770236 0.006486146 -0.16994463 -0.22934207 0.31530774
-0.16288668 -0.03316134 -0.27956268 0.17014143 -0.046148032 -0.3430376 -0.27886865 -0.25348455
0.27351037 -0.22718458 -0.11000542 0.123365186 0.032402724 0.17001416 0.049362242 0.28709477
0.30937952 -0.20756081 0.024455527 0.2376145 0.12928042 0.027305355 0.012166921 0.3000119
-0.0117037445 -0.06297458 -0.11247017 0.23659547 -0.20401266 -0.033915676 -0.11503006 0.1368798
0.2944836 0.05083519 -0.2208026 0.18481956 -0.19118729 -0.12227692 0.21151353 0.05457204
-0.20961873 0.22211325 -0.15709127 0.289965 -0.3071852 0.11755621 -0.30373314 0.24166077
0.18677385 -0.16522437 -0.24403532 0.048156194 -0.20996729 0.23151682 0.22872615 0.3195557
-0.2998294 0.21285167 -0.28252345 0.07404356 -0.16699842 0.3264588 0.23362431 -0.19097213
0.102386676 -0.027331209 0.33634663 -0.19781984 0.13508938 0.12216199 -0.102759525 0.2018478
-0.15972829 0.24921606 0.049035467 0.20131548 0.21344858 0.16296266 -0.27991632 -0.3046304
-0.19882114 0.03190782 -0.06048194 -0.24806297
00000000: 3adf 56be 4599 dabe 5d22 15be 620c 203e
00000010: c3ad 3cbe cbe7 353e 95d9 e6bc 1bd1 2abe
00000020: 9c0b 8bbe d914 83be 6d98 4c3e 012f 8ebe
00000030: bc89 d43b f705 2ebe a6d8 6abe 0470 a13e
00000040: c4cb 26be 2fd4 07bd d722 8fbe 8e39 2e3e
00000050: b805 3dbd a0a2 afbe dfc7 8ebe bac8 81be
00000060: 8d09 8c3e 13a3 68be 864a e1bd e3a6 fc3d
00000070: b8b8 043d 3118 2e3e 1030 4a3d 16fe 923e
00000080: fe66 9e3e d28a 54be f556 c83c 3751 733e
00000090: 1662 043e 7baf df3c c457 473c 299b 993e
000000a0: 10c1 3fbc d1f8 80bd c356 e6bd 1546 723e
000000b0: b2e8 50be 2aeb 0abd e194 ebbd 382a 0c3e
000000c0: 8ec6 963e 8f38 503d 141a 62be 5741 3d3e
000000d0: 9ac6 43be 526c fabd 0197 583e ee86 5f3d
000000e0: 4ba6 56be a871 633e 89dc 20be 4b76 943e
000000f0: 6147 9dbe 4fc1 f03d e982 9bbe ec75 773e
00000100: a541 3f3e 9430 29be 65e4 79be 6e3f 453d
00000110: aa01 57be bf12 6d3e 3037 6a3e ce9c a33e
00000120: 3d83 99be caf5 593e eaa6 90be 26a4 973d
00000130: a201 2bbe 9c25 a73e 363b 6f3e 338e 43be
00000140: 1bb0 d13d b3e5 dfbc a035 ac3e 4991 4abe
00000150: df54 0a3e 1130 fa3d 9673 d2bd 31b1 4e3e
00000160: d08f 23be 7f32 7f3e 6ad9 483d a525 4e3e
00000170: 4492 5a3e afdf 263e 3151 8fbe 84f8 9bbe
00000180: c597 4bbe c6b1 023d e9bb 77bd 3804 7ebe

i_resnet_layers.8.bottleneck_block.2.weight_u f4 [10]
0.09852705 -0.23492733 -0.29328838 -0.3040922 0.28178826 -0.3013336 -0.0673415 0.5273708
-0.3970111 0.3822726
00000000: 8dc8 c93d ca90 70be e529 96be f9b1 9bbe
00000010: 8d46 903e 6648 9abe 57ea 89bd c601 073f
00000020: 0a45 cbbe 3cb9 c33e

i_resnet_layers.8.bottleneck_block.2.weight_v f4 [10]
0.10695249 0.19892354 -0.18072556 0.502295 -0.46669146 -0.19130304 -0.045028422 0.018113075
0.31442568 -0.55534834
00000000: e809 db3d 9db2 4b3e 1f10 39be 6896 003f
00000010: 2ff2 eebe f2e4 43be b96f 38bd df61 943c
00000020: 67fc a03e 4f2b 0ebf

i_resnet_layers.8.bottleneck_block.4.weight_orig f4 [2, 10]
0.3206836 0.021560406 0.22710478 -0.32718456 -0.07854727 -0.2527029 0.053708352 0.087697916
-0.28896767 0.036877654 -0.046975948 0.15554537 0.13230224 0.19457796 -0.25226068 -0.042379033
0.14690208 -0.33432302 -0.18880866 -0.32444942
00000000: a430 a43e 739f b03c 288e 683e bc84 a7be
00000010: 64dd a0bd 4662 81be 4afd 5b3d f79a b33d
00000020: 92f3 93be 060d 173d da69 40bd 4947 1f3e
00000030: 3d7a 073e 723f 473e 5028 81be a395 2dbd
00000040: 806d 163e 632c abbe 0f57 41be 3c1e a6be

i_resnet_layers.8.bottleneck_block.4.weight_u f4 [2]
0.85380226 0.52059746
00000000: c992 5a3f e045 053f

i_resnet_layers.8.bottleneck_block.4.weight_v f4 [10]
0.37954748 0.15124317 0.40009513 -0.27109787 -0.3020325 -0.36213067 0.18644445 -0.15103674
-0.5251723 -0.20918211
00000000: 0c54 c23e 7ddf 1a3e 45d9 cc3e 57cd 8abe
00000010: 01a4 9abe 3169 b9be 4beb 3e3e 60a9 1abe
00000020: b171 06bf d633 56be

i_resnet_layers.9.bottleneck_block.0.bias f4 [10]
0.36738467 0.56089324 0.58228415 0.4229652 0.55790335 0.0066527235 0.625799 -0.29756993
0.15136126 0.17638597
00000000: d819 bc3e b396 0f3f 9310 153f e58e d83e
00000010: c1d2 0e3f 17ff d93b 5d34 203f 165b 98be
00000020: 72fe 1a3e 869e 343e

i_resnet_layers.9.bottleneck_block.0.weight_orig f4 [10, 2]
0.39086735 0.5416283 0.36675718 0.34172332 0.42268053 0.7761532 0.4243596 -0.26892334
-0.59485054 0.37382084 0.23468441 -0.4468819 -0.37341076 0.09935127 0.19116203 0.3993231
0.030309293 0.7120902 0.5445406 0.31710878
00000000: c41f c83e 27a8 0a3f 99c7 bb3e 5cf6 ae3e
00000010: 9569 d83e fab1 463f a945 d93e 52b0 89be
00000020: 2048 18bf 7265 bf3e 1c51 703e b4cd e4be
00000030: b22f bfbe ae78 cb3d fbbf 433e 1474 cc3e
00000040: 324b f83c 8b4b 363f 0367 0b3f 155c a23e

i_resnet_layers.9.bottleneck_block.0.weight_u f4 [10]
-0.42298976 -0.30162454 -0.5663602 0.031091752 -0.041798472 0.18787682 0.05115656 -0.28379428
-0.41619232 -0.33904988
00000000: 1d92 d8be 886e 9abe fbfc 10bf 21b4 fe3c
00000010: e034 2bbd c862 403e 8b89 513d 7c4d 91be
00000020: 2917 d5be f297 adbe

i_resnet_layers.9.bottleneck_block.0.weight_v f4 [2]
-0.45134532 -0.89234936
00000000: bc16 e7be 0271 64bf

i_resnet_layers.9.bottleneck_block.2.weight_orig f4 [10, 10]
-0.032930173 0.3670063 0.18352789 0.021871187 -0.0046223872 -0.06663345 -0.2807644 -0.033954285
-0.03833072 -0.15596299 -0.2370975 0.07755888 -0.18281208 0.29090092 -0.28376806 -0.10038325
0.12892891 -0.28535062 -0.42058223 0.08090763 0.08772001 0.11686491 0.03822849 0.26298577
0.22428377 0.31801215 0.022660863 -0.20576139 0.15290609 -0.24516432 -0.19690683 0.21456857
0.23950316 0.10093052 -0.1544824 0.19669156 -0.24858303 -0.055462573 -0.08268676 0.220718
-0.15773791 -0.0025184741 -0.3569916 0.22698697 -0.03463689 0.14692415 -0.16112399 -0.042828128
0.117095925 -0.17990415 -0.103499 0.003526566 -0.1458186 0.035432175 -0.24794182 0.21785207
0.09318815 -0.07427019 -0.15807456 0.07840874 -0.2884063 -0.19824342 -0.15967697 -0.14224502
0.2052496 0.123794235 0.06342512 -0.32054114 0.12576239 -0.2388824 0.109528676 0.069363676
0.25361276 0.09242102 0.2396282 -0.15798545 0.06574938 -0.07686835 -0.16489552 0.12791263
0.28629762 -0.0005896041 -0.03688509 0.06303422 0.06547393 0.11615472 0.07267527 -0.092375785
0.34778416 -0.19220312 0.2597774 0.06721065 0.33120432 0.20255041 -0.22894306 0.17591207
-0.053931043 0.16323285 0.20743439 0.14938332
00000000: cae1 06bd 40e8 bb3e bcee 3b3e 342b b33c
00000010: 6577 97bb 1e77 88bd 5ac0 8fbe a613 0bbd
00000020: ac00 1dbd c3b4 1fbe b0c9 72be 31d7 9e3d
00000030: 1733 3bbe f7f0 943e 0c4a 91be bc95 cdbd
00000040: f105 043e 7a19 92be 8e56 d7be e6b2 a53d
00000050: 8ca6 b33d df56 ef3d 7a95 1c3d 12a6 863e
00000060: a5aa 653e 7dd2 a23e 46a3 b93c 1db3 52be
00000070: 6a93 1c3e 5b0c 7bbe f2a1 49be ddb7 5b3e
00000080: 5140 753e a9b4 ce3d a230 1ebe 8369 493e
00000090: 8d8c 7ebe b92c 63bd ad57 a9bd e603 623e
000000a0: 0c86 21be fc0c 25bb 9ac7 b6be 466f 683e
000000b0: 69df 0dbd 4973 163e b0fd 24be 8c6c 2fbd
000000c0: fdcf ef3d cb38 38be 49f7 d3bd f61d 673b
000000d0: 7951 15be 5421 113d 76e4 7dbe 9d14 5f3e
000000e0: 6ed9 be3d f81a 98bd 4cde 21be c394 a03d
000000f0: fea9 93be 5300 4bbe 5c82 23be aea8 11be
00000100: f32c 523e d587 fd3d 08e5 813d f81d a4be
00000110: dbc7 003e 969d 74be 9250 e03d 8b0e 8e3d
00000120: 88d9 813e 3b47 bd3d 1861 753e f0c6 21be
00000130: 9ca7 863d 276d 9dbd 5fda 28be 87fb 023e
00000140: 9a95 923e a98f 1aba d214 17bd 1618 813d
00000150: 3217 863d 87e2 ed3d c6d6 943d 842f bdbd
00000160: c410 b23e e5d0 44be 8b01 853e bda5 893d
00000170: 9d93 a93e 6069 4f3e 0d70 6abe 4b22 343e
00000180: cce6 5cbd 8326 273e ae69 543e f1f7 183e

i_resnet_layers.9.bottleneck_block.2.weight_u f4 [10]
0.1290284 -0.6232638 0.1235509 0.009323328 -0.25093395 -0.2897766 -0.31316712 0.13947204
0.28173035 0.48549536
00000000: 0520 043e 378e 1fbf 4108 fd3d dfc0 183c
00000010: 6a7a 80be 995d 94be 7157 a0be c2d1 0e3e
00000020: f63e 903e d992 f83e

i_resnet_layers.9.bottleneck_block.2.weight_v f4 [10]
0.56520057 0.12618545 0.5415103 -0.040803462 0.16867864 0.055669256 -0.12581906 0.3410005
0.45246848 0.036555775
00000000: fcb0 103f c236 013e 6ba0 0a3f 8821 27bd
00000010: 18ba 2c3e 7205 643d b6d6 00be 9e97 ae3e
00000020: f3a9 e73e 82bb 153d

i_resnet_layers.9.bottleneck_block.4.weight_orig f4 [2, 10]
0.060914896 0.4084719 0.24649309 0.14331684 -0.015515954 0.23954323 0.13348861 -0.38442233
-0.17000438 -0.19692013 -0.2031726 0.124356896 -0.010213291 -0.22086178 0.35387117 0.09560546
0.30214214 0.12577653 -0.15914579 -0.35501498
00000000: e681 793d 3b23 d13e af68 7c3e a6c1 123e
00000010: a136 7ebc d24a 753e 3db1 083e 01d3 c4be
00000020: a115 2ebe 6ea5 49be 7a0c 50be d4ae fe3d
00000030: a655 27bc 9729 62be 9a2e b53e cccc c33d
00000040: 60b2 9a3e 90cb 003e 1df7 22be 86c4 b5be

i_resnet_layers.9.bottleneck_block.4.weight_u f4 [2]
0.77387786 0.6333349
00000000: dc1c 463f 3c22 223f

i_resnet_layers.9.bottleneck_block.4.weight_v f4 [10]
-0.1025962 0.49602175 0.23141992 -0.036481258 0.26650426 0.308918 0.37033108 -0.2737849
-0.2919273 -0.47409979
00000000: f51d d2bd 90f6 fd3e 58f9 6c3e 5f6d 15bd
00000010: 3f73 883e 802a 9e3e 099c bd3e 892d 8cbe
00000020: 7f77 95be 35bd f2be

i_resnet_layers.10.bottleneck_block.0.bias f4 [10]
0.5430152 0.084835134 -0.23095536 -0.4189296 0.05499049 0.6295575 0.5317792 0.6628261
-0.51768845 -0.14514148
00000000: 0b03 0b3f 0bbe ad3d 907f 6cbe f17d d6be
00000010: b53d 613d ae2a 213f af22 083f f9ae 293f
00000020: 3b87 04bf f89f 14be

i_resnet_layers.10.bottleneck_block.0.weight_orig f4 [10, 2]
0.5971817 0.022252418 -0.17866156 -0.38637784 -0.21651928 -0.66519123 -0.09430958 -0.5491474
0.0046532038 -0.10642033 0.54461104 -0.48375946 -0.6157047 -0.48217973 -0.23558857 0.24591783
0.29035252 -0.5723332 0.5116742 -0.057766445
00000000: e6e0 183f b44a b63c 0ef3 36be 51d3 c5be
00000010: 3bb7 5dbe f949 2abf 6225 c1bd ed94 0cbf
00000020: e779 983b e7f2 d9bd a16b 0b3f 52af f7be
00000030: d39e 1dbf 43e0 f6be 213e 71be e2d1 7b3e
00000040: 16a9 943e 6e84 12bf 15fd 023f 829c 6cbd

i_resnet_layers.10.bottleneck_block.0.weight_u f4 [10]
0.11500581 -0.31228292 -0.5225786 -0.41777965 -0.07709242 -0.26413745 -0.45462292 0.14101407
-0.37089416 0.042231508
00000000: 2b88 eb3d 8ce3 9fbe b6c7 05bf 37e7 d5be
00000010: a1e2 9dbd 063d 87be 56c4 e8be fe65 103e
00000020: d7e5 bdbe f2fa 2c3d

i_resnet_layers.10.bottleneck_block.0.weight_v f4 [2]
0.22021256 0.97545195
00000000: 677f 613e 38b7 793f
